lightning_logs/version_12/checkpoints/epoch=49-step=49.ckpt (torch, 19857 bytes, 18 tensors)

exp_avg f4 [64, 8]
00000000: dcd1 7c3a a783 16bb 25dc 36bb 6c3f 173b
00000010: a02a b638 9cf2 b83b 2c00 65bb db84 1dbc
00000020: 5c70 18bb 35bf 52bc f82c f5bb 1a73 203c
00000030: cef9 5f3b 5dff 79bc ffc0 b53b 861a 72bc
00000040: e8fa 233b 1e34 593c 54e4 3c3c 5244 26bc
00000050: eab9 6cbb c8ce 0b3c 04e0 693b 0615 b93c
00000060: b3cf 61bb 76dd 1dbc d87c eebb 388f e03b
00000070: e564 2d3b a3cd 88bc fc24 e73a 50eb 2b3a
00000080: 8a27 cbba 7a0e cbbb f129 c7bb 40eb a23b
00000090: 64a0 053b 578b 0d3b 1a07 2ebb 5287 75bb
000000a0: 8e80 8a3b 0a4b 5a3c f0c8 553c 489d 20bc
000000b0: 17fc 96bb df80 ff3b f2eb 883b b2b0 623c
000000c0: 347b 6a3a c65f 3dbb 6e33 393a 210b 233b
000000d0: c469 a4ba 6c21 38bc 0ea5 7f3b dd83 0a3c
000000e0: 66c4 a13a 8ac3 de3b 0447 923b ca9a a3bb
000000f0: c0c3 49ba 2b81 753c 60ef eab8 c0ea 343a
00000100: b6b7 dcba 005c f5bb d83c 3cbb 6807 ad3b
00000110: 5cb7 773a 70c4 acbc d687 b13b b4d5 263b
00000120: 6ccf 08b9 e698 2e3a 8321 703a c80e 06ba
00000130: 28fb 5339 4c14 023b 6604 de3a e823 153a
00000140: c08d 41b8 2669 113b 3c6f 823a dea2 f6ba
00000150: 6072 00b9 725a 383b f100 9eba bf85 bb3a
00000160: fb52 53bb b26a 2ebc 2828 99bb 68be f03b
00000170: fc70 473b e4a7 96bc c3da f53b 7a04 eabb
00000180: f8ba 40b9 ce56 02bb 3980 67ba ae48 d63a
00000190: a604 093a a8ab 4239 27e4 c53a e094 58bb
000001a0: a00b 823a 6ab2 0ebc 7f97 b3bb 4313 f63b
000001b0: f0a1 1f3a 7055 a4ba 2a63 1abb 46c0 5cbc
000001c0: 5d08 4cbb 9276 d6bb 187a 03bc 2bcc 9a3b
000001d0: 96c3 323b 5690 17bb b091 b9bb 069b e4ba
000001e0: 4c52 8eb9 46b6 8a3a 3419 d239 f04a 5cba
000001f0: d88b b9b8 3e1f df3a d76c 18ba 015d 733b
00000200: b0a9 bcb9 346f c93b 0bc0 4a3b 53d2 9abb
00000210: f940 8dba b65c 833b 8c42 3aba 4aa6 363c
00000220: e206 da3a da40 133b b82a 963b a77a 0ebb
00000230: 4406 f5ba 3a18 88bc 1201 883b f9bb 2c3c
00000240: 80f3 2638 fa66 e6ba 5bab 8cba ae56 b13a
00000250: e6a0 c439 fba8 c8ba 0481 9139 8f8f 9fbb
00000260: dc6f d53a 5562 3d3c c3fb 243c cceb 12bc
00000270: 233b 3bbb 7cc3 c03b be2b 693b 01e4 3a3c
00000280: f8a5 3b39 2cbf 453a 68d4 d039 8943 3bba
00000290: 00af 0bb9 98e7 40b9 ddef 20ba ac7c a3ba
000002a0: 78ec 5239 7a9a 60ba dd09 77ba c66b 493a
000002b0: c0f4 dab7 e863 fb39 ab50 c8ba 8ccf 48b9
000002c0: 00a3 57b9 dc94 fc3a 1cae bb3a b63e ddba
000002d0: a4ed aeb9 b0ab 9039 585d fdb9 5dd2 a03b
000002e0: f2c6 09bb 04d2 e6ba 9ad4 67bb 6ce3 cb3a
000002f0: b3be 063b 3aa8 6c3c 7345 5cbb 1826 e3bb
00000300: 0024 d736 3465 65bb aef5 abba 7515 303b
00000310: ce6e 303a eb7d 50bb 5d8f 083b e76c d9bb
00000320: 80fa d037 f422 493b 4e00 a03a 2717 13bb
00000330: f480 beb9 12a3 ad3b f44b 9aba 5c44 7b3b
00000340: 07f5 413b 2f3a 043c 8af7 0f3c 6637 c5bb
00000350: 3c73 70bb d659 52bb 5f39 993b 0ba6 923c
00000360: d59b ecb9 eb7b 7eba 648f 083a a089 243a
00000370: 008c a4b4 a940 01bc 3a03 8e3b dcbb f73b
00000380: 2f7c 51bb 6de1 29bc d44d 31bc 94cb f83b
00000390: 6593 833b 3adb 79bb ea6d 9ebb 2d8d 33bc
000003a0: 603f af39 6ac8 c93b 20d4 8c3b fe3f 9dbb
000003b0: dc39 32ba 6651 083c 70a5 233a 89c8 aa3b
000003c0: ac74 1f3a f6b6 893b 682a 0f3b 7c1c 5bbb
000003d0: 5a7a 89ba 8fff 263b 28fe 18bb 8355 bd3b
000003e0: 85c6 4fbb 3eb9 11bc a03e 08bc a845 da3b
000003f0: 4637 7f3b 3297 1ebb 0442 d2ba a961 8fbc
0.00096443086 -0.0022966655 -0.0027902212 0.0023078574 8.686376e-05 0.0056441557 -0.003494273 -0.009614195
-0.002326033 -0.01286297 -0.0074821673 0.009793067 0.0034175995 -0.015258637 0.0055466886 -0.0147768315
0.0025021378 0.013257055 0.011529047 -0.010148125 -0.0036121556 0.008533187 0.0035686502 0.022593033
-0.0034456074 -0.00963532 -0.007278066 0.0068530105 0.0026457843 -0.016699618 0.0017634924 0.00065581966
-0.0015499454 -0.006196794 -0.006077998 0.0049718916 0.002038979 0.0021597946 -0.0026554526 -0.003746469
0.0042267507 0.013323555 0.0130483955 -0.009803124 -0.004607688 0.007797345 0.0041785175 0.013836073
0.00089447503 -0.0028896197 0.00070648536 0.002487846 -0.0012543728 -0.011238437 0.0039008292 0.00845429
0.0012341856 0.0067982124 0.004464032 -0.0049928175 -0.00076967105 0.014984409 -0.000112025766 0.00069014356
-0.0016839418 -0.007487774 -0.002872279 0.005280424 0.0009449625 -0.021089762 0.0054178042 0.0025456967
-0.00013047241 0.0006660357 0.0009160267 -0.0005113897 0.00020216091 0.0019848524 0.0016938567 0.00056892494
-4.61468e-05 0.0022187917 0.0009951363 -0.0018816849 -0.00012249639 0.0028130081 -0.0012054724 0.0014306827
-0.0032245505 -0.010645555 -0.0046739765 0.007346917 0.0030432334 -0.018390603 0.007502885 -0.007141647
-0.00018380198 -0.0019888165 -0.00088310573 0.0016348565 0.0005226828 0.00018565229 0.0015097902 -0.003304772
0.0009921677 -0.008709529 -0.005480706 0.0075096204 0.0006089499 -0.0012537669 -0.0023557642 -0.013473576
-0.0031132915 -0.0065448964 -0.008024715 0.0047240457 0.0027277223 -0.0023126802 -0.0056631193 -0.001744122
-0.00027145667 0.0010582886 0.000400731 -0.00084035005 -8.847535e-05 0.0017022861 -0.0005814558 0.0037134292
-0.0003598458 0.0061472896 0.003093722 -0.0047247796 -0.001077681 0.0040088547 -0.0007105253 0.011148045
0.0016634131 0.0022469074 0.004582729 -0.0021740587 -0.0018693884 -0.016613115 0.004150518 0.010542863
3.980426e-05 -0.0017578297 -0.001073222 0.0013529861 0.00037503912 -0.0015309149 0.0002775268 -0.0048694084
0.0016283947 0.011559089 0.01006979 -0.008967351 -0.0028569184 0.0058826786 0.003557905 0.011406899
0.00017895538 0.00075434404 0.00039831107 -0.00071435474 -0.00013321266 -0.00018396822 -0.0006139258 -0.0012473068
0.00020115252 -0.00085679407 -0.0009423772 0.0007683601 -2.6101596e-05 0.00047948887 -0.001528283 -0.00019150804
-0.0002056472 0.0019270438 0.0014318856 -0.0016879651 -0.00033364922 0.00027593737 -0.00048325467 0.0049078898
-0.0021023122 -0.0017610197 -0.0035374523 0.0015555448 0.0020560443 0.014444405 -0.003361073 -0.0069320314
6.4116903e-06 -0.0035002949 -0.0013119483 0.0026868258 0.00067303784 -0.0031813334 0.0020837404 -0.0066352966
2.491218e-05 0.0030691 0.0012207122 -0.002244422 -0.00036335702 0.0052989805 -0.0011771903 0.0038340306
0.002959551 0.008070513 0.008787045 -0.006018567 -0.0036689779 -0.0032097003 0.0046760286 0.017901441
-0.00045129532 -0.0009707796 0.0005209355 0.0006276611 -3.0649244e-07 -0.007888951 0.0043338807 0.0075602364
-0.0031964888 -0.010368687 -0.010821778 0.007592628 0.0040153735 -0.0038125054 -0.00483488 -0.010958952
0.0003342582 0.0061579244 0.004297748 -0.004798888 -0.0006798783 0.008320188 0.00062426087 0.005211894
0.0006082754 0.004202719 0.0021845344 -0.0033433726 -0.0010488734 0.0025481915 -0.0023344848 0.005778016
-0.003170402 -0.008894263 -0.008315712 0.0066611357 0.0038942858 -0.0024199006 -0.0016041403 -0.017502623

exp_avg_sq f4 [64, 8]
00000000: 5f53 4f37 8717 8f37 faeb bc37 08af c436
00000010: 0f78 0737 792d 5e37 b425 1b36 5731 7737
00000020: 585f c938 6d1b fc38 ad87 0539 c2f8 1e38
00000030: 9d66 8338 8d11 f038 6149 c636 f8d8 6439
00000040: 12dc f038 930d 1a39 898e 5239 5315 4038
00000050: ce47 9938 f37b 1639 48a6 1238 2cf1 5939
00000060: 52df 7f38 2e58 5e38 52d3 f138 55db 8437
00000070: 7bd4 0838 a79d 3238 6ac4 5b38 a501 bf37
00000080: fa3d ed37 1462 0b38 077e 7d38 5edc 4337
00000090: 189b 9537 fc03 2037 4d8f 8837 b98b 6f36
000000a0: 3085 e038 71d4 f538 def8 6039 8745 1b38
000000b0: b567 8538 4b90 b338 ab63 8f38 6d12 9638
000000c0: e5a2 5437 0a5a d136 8ece 1637 b275 0836
000000d0: d102 e436 daf1 5736 f2bf 1436 faf6 b236
000000e0: a5a2 dc37 d7f6 2f38 8b74 4a38 9757 6037
000000f0: 07a8 9337 d7f4 4038 2c21 0937 15c7 bf38
00000100: 8c4e b737 c889 0738 250b e037 a230 3137
00000110: a91c 8337 043a 1138 5198 7636 3b5d b938
00000120: 2c32 df34 c68d 9135 1b0c 0936 6687 c734
00000130: 0527 9f34 4fdc bb35 3536 8236 1c4a d535
00000140: 69d5 0837 217a e536 be68 3037 71e8 0c36
00000150: b2d1 9b36 4e29 9b36 9ba9 8035 c2b8 8936
00000160: 94ce cf37 00fa 2d38 19b1 e537 6fcc 6a37
00000170: c670 a137 478e 2b38 9627 8737 1be9 0439
00000180: bf81 2b36 4eb0 7a36 6449 0636 5674 ae35
00000190: 4ce0 0736 bc35 3836 2576 7c36 932f 3337
000001a0: c400 a738 2d36 e438 a2ed 2339 fff1 1538
000001b0: e073 5e38 64d7 9f38 77ac c537 d480 cd38
000001c0: b4eb d837 c32d f537 e8e9 8638 916b 2637
000001d0: 8136 7e37 499f 3437 d43a 1938 58f3 8036
000001e0: 478c 3c35 170e 1a36 967c 9a35 2ec2 5a35
000001f0: 6969 3735 c87d 7536 6b19 1536 81f9 8437
00000200: 5e31 0c37 f2ee b637 4088 cb37 a29e 0a37
00000210: ba69 f936 bb53 6737 50db e735 8a38 0038
00000220: 2ff0 5537 c1f0 0f37 677a fc36 c8ee 3d36
00000230: bf02 ff36 b728 1f37 ce49 1637 a71a 0a37
00000240: b713 7535 1af4 5236 81da e435 cb2e 9335
00000250: 29a9 7b35 ac92 aa36 cda6 d835 bf22 a237
00000260: 71b8 8638 5b78 e338 c688 1f39 6e44 2038
00000270: 7a53 4338 8ed7 8438 cd80 d037 263c b638
00000280: 6bf9 5236 6e34 a335 70c5 5136 c398 a534
00000290: bbd3 b935 701d cf34 83b2 8035 ba96 4935
000002a0: 8038 e535 9e87 5036 3b45 e736 5de7 9835
000002b0: 60a1 a735 95f2 b635 c296 ab36 f928 1735
000002c0: d1f3 b036 a07c eb36 6949 f236 2226 1f36
000002d0: 163e 6e36 41d1 b336 ff16 e034 43c0 3237
000002e0: 8329 4437 0d00 9936 4c9d 7b37 3c77 9c35
000002f0: 80ea a736 6f06 da36 51c7 3037 b329 e736
00000300: 3652 ad36 bbee 1a37 ffb7 1b37 e428 5b36
00000310: 0ac8 8036 c2b1 f136 5574 a135 41c4 9537
00000320: 4fee 3236 a09a c736 58ad c236 146d 1236
00000330: 5f40 1c36 0a8a 9e36 1b9b b734 22ea 4737
00000340: 31c7 e937 59d2 4a38 9585 2c38 10f7 8237
00000350: 4a68 a937 82fe 8638 f669 7236 87bf 1f39
00000360: 62fc 1a35 1a38 0634 5d7d 8c34 5892 1033
00000370: 0b5d 8334 18c0 ec35 19e6 0b35 8889 0f36
00000380: 2d51 0038 7ca7 7238 27f5 a238 5362 b337
00000390: 8167 c637 8984 eb37 7ac5 4637 a4df 1c38
000003a0: b778 ec37 417f 3838 d418 5f38 8ec0 6a37
000003b0: 3c48 a037 7b61 4438 7a42 db36 68b2 bd38
000003c0: 888c 6437 10ee 8e37 f553 8437 b65d bd36
000003d0: 296d 1c37 c2ae 4937 ce06 ab35 ffb1 dd37
000003e0: 54be 0a38 0859 6938 ce3f 1a38 0fd2 9937
000003f0: e47d d437 7e47 9838 7b70 4f37 b422 5c39
1.2357573e-05 1.7057884e-05 2.2521232e-05 5.8616315e-06 8.07458e-06 1.3242819e-05 2.3118746e-06 1.4733835e-05
9.602186e-05 0.00012021405 0.00012734412 3.790181e-05 6.26568e-05 0.00011447361 5.9094023e-06 0.00021824602
0.00011485083 0.00014691641 0.00020080259 4.5796227e-05 7.308983e-05 0.0001435129 3.4963974e-05 0.00020784576
6.100472e-05 5.301105e-05 0.00011531137 1.583776e-05 3.2622815e-05 4.2585332e-05 5.2396594e-05 2.276974e-05
2.8281462e-05 3.3231525e-05 6.0437273e-05 1.1674214e-05 1.7834405e-05 9.537671e-06 1.6279193e-05 3.5695105e-06
0.000107059604 0.00011722081 0.00021455015 3.7019632e-05 6.361251e-05 8.562262e-05 6.837336e-05 7.1559894e-05
1.26741115e-05 6.2391673e-06 8.988789e-06 2.0334087e-06 6.7952574e-06 3.2178273e-06 2.2165445e-06 5.3335652e-06
2.6301781e-05 4.195314e-05 4.8269092e-05 1.3371834e-05 1.760201e-05 4.6004392e-05 8.17356e-06 9.144672e-05
2.1851876e-05 3.2314827e-05 2.670807e-05 1.0561345e-05 1.5629763e-05 3.4624725e-05 3.6745516e-06 8.838853e-05
4.1573492e-07 1.0844603e-06 2.0421637e-06 3.7165154e-07 2.9644448e-07 1.3996704e-06 3.8806124e-06 1.5891305e-06
8.15592e-06 6.8389495e-06 1.0514805e-05 2.0996924e-06 4.6437717e-06 4.6241685e-06 9.586105e-07 4.104427e-06
2.4772518e-05 4.1479245e-05 2.7381395e-05 1.3995085e-05 1.924521e-05 4.0902083e-05 1.6111688e-05 0.0001267534
2.5556508e-06 3.7355526e-06 2.0010275e-06 1.2997868e-06 2.0247126e-06 2.7449414e-06 3.7619695e-06 1.0680308e-05
7.963323e-05 0.00010881978 0.00015633416 3.5749745e-05 5.303684e-05 7.6218304e-05 2.356454e-05 9.799158e-05
2.5858964e-05 2.9227585e-05 6.433186e-05 9.919416e-06 1.515227e-05 1.07659225e-05 3.653283e-05 3.843026e-06
7.023959e-07 2.295599e-06 1.1510153e-06 8.1493897e-07 6.8326204e-07 3.658106e-06 2.2217525e-06 1.585181e-05
8.3561445e-06 2.1807358e-05 2.4262932e-05 8.262376e-06 7.4330865e-06 1.3788168e-05 1.727467e-06 3.0570234e-05
1.2751711e-05 8.579519e-06 7.5244347e-06 2.8302184e-06 7.599912e-06 9.486618e-06 8.957881e-06 8.2316465e-06
9.12983e-07 3.1434524e-06 1.7050917e-06 1.0965972e-06 9.3750947e-07 5.0834697e-06 1.61418e-06 1.9328085e-05
6.423973e-05 0.000108466214 0.00015214374 3.8210703e-05 4.6569367e-05 6.334401e-05 2.485551e-05 8.68964e-05
3.143762e-06 1.2159705e-06 3.125835e-06 3.0844794e-07 1.3845196e-06 3.8578173e-07 9.588697e-07 7.509767e-07
1.7078273e-06 3.1073355e-06 6.892396e-06 1.1392218e-06 1.2489436e-06 1.3630657e-06 5.1137476e-06 5.6311507e-07
5.2735927e-06 7.018054e-06 7.220708e-06 2.3715043e-06 3.5500902e-06 5.358976e-06 4.1739983e-07 1.0654391e-05
1.1692176e-05 4.5597612e-06 1.4997389e-05 1.1657608e-06 5.0042872e-06 6.4976552e-06 1.0536824e-05 6.889191e-06
5.1653724e-06 9.234699e-06 9.28156e-06 3.2657344e-06 3.837985e-06 7.2030534e-06 1.2029292e-06 1.7853572e-05
2.666278e-06 5.948663e-06 5.8018304e-06 2.1819187e-06 2.328328e-06 4.724837e-06 3.419926e-07 1.1915838e-05
2.786852e-05 4.8356454e-05 4.1132404e-05 1.5612255e-05 2.0194933e-05 6.437024e-05 3.6122487e-06 0.00015234771
5.7736736e-07 1.2500132e-07 2.6168246e-07 3.366071e-08 2.446835e-07 1.7639277e-06 5.211637e-07 2.1388714e-06
3.059318e-05 5.7853278e-05 7.770425e-05 2.1384249e-05 2.3651637e-05 2.80759e-05 1.1847698e-05 3.740158e-05
2.8189605e-05 4.3987533e-05 5.3190466e-05 1.39923195e-05 1.9107123e-05 4.6820827e-05 6.5344475e-06 9.045453e-05
1.3622579e-05 1.7038576e-05 1.5774722e-05 5.6435483e-06 9.32374e-06 1.2021223e-05 1.2742473e-06 2.6428139e-05
3.307902e-05 5.5634446e-05 3.6775884e-05 1.8336837e-05 2.5330992e-05 7.261241e-05 1.236435e-05 0.00020993763

exp_avg f4 [64]
00000000: e4d6 f1ba d3aa 98bc 92e7 aa3c eee8 60bc
00000010: 68f3 efbb 79b6 6b3c ac10 2bbb c494 443c
00000020: 0111 91bc 6e50 24ba 5a68 8e3b 568a babc
00000030: 401c 7fbb 0369 08bc 7415 c5bb 38e5 1c3a
00000040: 8856 1f3b a892 673c c010 a1ba 0a4f 053c
00000050: 5e17 0d3b bfca bf3a 00e6 503b 3e25 60bc
00000060: 03d7 83bb 4927 273b bdc3 5b3c 70d0 bdbb
00000070: 8737 f1bb 061e c23b fc3e f53b fbfd 98bc
00000080: 5d5f a1bb c812 ac3c c4f3 e73b b003 2f3c
00000090: 229a 003a 8d61 573c ef6a cfbb cd22 7e3c
000000a0: 7a1a 143c 9e00 b5ba 1e64 b83b 6053 613b
000000b0: 826c 9cbb 9659 cd3b d761 453b 863d 353c
000000c0: e0c3 7f3a de9e b2bb a0d4 48bc a4d2 053b
000000d0: e883 813b 3f1e 49bc c248 8dbb 338b c9bb
000000e0: fbbf 4b3b e4ed 73bb ed2a b13b 003e bc37
000000f0: 7207 e83b 7022 503b bc17 4b3c 4150 073c
-0.0018450883 -0.018636143 0.020862374 -0.01372741 -0.0073227175 0.014386767 -0.0026102467 0.011998359
-0.017708303 -0.00062680885 0.004345936 -0.022771042 -0.003892675 -0.008325818 -0.0060145203 0.0005985084
0.0024313051 0.014134087 -0.0012288317 0.00813652 0.002152882 0.0014632567 0.0031875372 -0.013680754
-0.004023434 0.0025505594 0.013413367 -0.00579267 -0.0073613557 0.005923989 0.007484315 -0.018675795
-0.0049246983 0.02100505 0.0070786197 0.0106820315 0.000490578 0.0131458165 -0.006329886 0.015511227
0.009039516 -0.0013809388 0.0056271693 0.003438197 -0.0047736773 0.006266783 0.0030118132 0.011062032
0.00097566657 -0.0054510674 -0.012257725 0.002041974 0.003952492 -0.012275278 -0.004311652 -0.006150627
0.003108977 -0.0037220651 0.0054067285 2.2440217e-05 0.0070809657 0.0031758808 0.012395795 0.00825888

exp_avg_sq f4 [64]
00000000: 4493 e638 68c9 aa3a e883 873a d8d2 fc39
00000010: bd22 5139 d999 523a 6e6b a039 e862 8c39
00000020: 9c74 d739 63f5 b735 4af8 e138 2fa9 0c3a
00000030: 8cd4 9a38 1948 073a a5b9 df38 a7a4 7b37
00000040: a350 1238 f2ec d439 37fa 6637 227e ca39
00000050: 19b9 6a38 aaf7 c235 b9c0 b438 fa14 1c39
00000060: 99b2 8d38 0822 c137 a226 f439 0e19 bb37
00000070: 6cbf 3b39 d2f4 8a39 ffb7 7a39 9537 483a
00000080: ed43 3939 4234 aa39 ab29 533a 10da 423a
00000090: 125c 8635 7143 b639 fcb8 d738 18f4 413a
000000a0: b50c 9639 39aa 2e36 bb49 a539 f824 8339
000000b0: 9a95 a238 7847 f338 e67d ba38 4142 0b3a
000000c0: 6813 7738 20de 0b39 3dfb cd39 c2be c238
000000d0: 0f29 ce38 33e9 bd39 0e2e 2a39 922d 7239
000000e0: 132f 6938 6970 7039 7d40 ed38 45f6 b337
000000f0: c8f4 f538 4773 4c39 469b 003a 988d 0739
0.00010994685 0.0013029994 0.0010338994 0.00048222276 0.00019944734 0.00080337893 0.0003059762 0.00026776572
0.00041094876 1.3705979e-06 0.000107750835 0.00053657865 7.382882e-05 0.00051605847 0.000106680476 1.4999102e-05
3.488421e-05 0.0004061233 1.3767326e-05 0.0003862242 5.5962333e-05 1.4526206e-06 8.618966e-05 0.00014885134
6.75667e-05 2.302324e-05 0.0004656809 2.2303804e-05 0.0001790502 0.00026503816 0.00023910402 0.0007637677
0.00017668279 0.00032463862 0.000805522 0.00074330065 1.0010574e-06 0.00034763993 0.00010286455 0.00073987385
0.00028619697 2.6027103e-06 0.00031526186 0.0002501381 7.7526274e-05 0.00011600455 8.8926216e-05 0.0005312302
5.8907463e-05 0.00013338821 0.00039287834 9.286172e-05 9.830493e-05 0.00036222636 0.0001622962 0.00023095895
5.559537e-05 0.0002293006 0.000113130525 2.1453141e-05 0.000117281044 0.000194979 0.000490595 0.00012927351

exp_avg f4 [8, 64]
00000000: 8414 c3bb bbb2 8a3b 2a7d 68bb ec21 3a3c
00000010: e6e2 8e3a 518f 78bb 60eb 293c 8616 eabb
00000020: c5f7 4c3c d06e fd3b d87f aabb ad07 593c
00000030: 6697 c33b b71e 7f3b f7d8 cb3a 38db 61bb
00000040: 9c5f c63a 54fa 4dbc 310b 963a 4026 f6ba
00000050: e7d8 a7bb f4da d5ba 5800 643b f56b 8f3c
00000060: 18bb 3fbb 03a9 8c3b e247 b5bb 85d9 aa3c
00000070: 0092 f139 7239 17bb 764f b2bb 6091 0d3c
00000080: 39b5 2b3c 15a3 6bbc ee16 1cbc b203 2cbb
00000090: 5fa5 e5bb c3bc 99bc 94fa 3c3b 56dd 91bb
000000a0: 8e46 b6bb a010 a9ba 1333 10bc 074f a73b
000000b0: fca3 323a 8bad 91bb 0e6d f63a 38e4 1bbb
000000c0: 7c92 b93b 64a3 11bb 88a1 3f3c c655 973b
000000d0: 7456 0cbc 52e3 403c a009 2ebb b4ce 173c
000000e0: 309b 31bb 9975 353c 464e 58bc c0c5 bfb9
000000f0: 186a de3a 9490 9a3b 09c6 6cbb 6a1e b2bb
00000100: ef3f 283c 808f f9b8 4a2b 8c3b a5b8 92bc
00000110: 785b 3c3a 18d2 083c 9449 65bc 9272 723c
00000120: 235a 9bbc d298 15bc a4d6 c33a fb03 87bc
00000130: 837e 58bb 80b8 f038 ec84 a8ba ea39 9aba
00000140: 6650 aebb acfd 693c c853 983a 7841 0dba
00000150: 9628 2a3b 3cb4 84bb 4842 d2bb a2b5 d9bc
00000160: a6c7 823b e4d3 85bb e560 1b3c bf59 09bd
00000170: 6877 243b 3c58 d93b 331b 6f3a 8650 15bc
00000180: 5a7d 45bc 5d8f a83c 22e1 083c d0cf 413a
00000190: b2b7 003c 2cbb ee3c d942 2abb 78d4 733b
000001a0: c014 ec3b a044 f93a 456c 143c afc2 f6bb
000001b0: 704d 8b39 33ff eb3b fa10 ba3b 8c02 1dbb
000001c0: 928a 30bc 0e05 413b 144f 5bbc b3ae 1bbc
000001d0: dcc0 123c 9412 6abc 9a8b ab3b 4914 edbb
000001e0: 4c16 dd3a e475 60bc 24b1 923c c45e afba
000001f0: f4fb 3ebb 094b 16bc 3839 1f3a 8a74 863b
00000200: 78a3 0c3c 1494 3d3a de4f 6b3b 8604 46bc
00000210: 2427 d23a 1afd ce3b b4c3 28bc 95c4 ef3b
00000220: 1fe4 1dbc f458 c4bb c5cb 0e3b 9342 e9bb
00000230: 00ab ebb8 8cbf 9d3a e363 caba aea0 4dba
00000240: 1271 94bb aec0 523c 3178 043b d834 92ba
00000250: 5c99 343b 80db 05ba 423a 95bb 905d cbbc
00000260: 30f4 783b 7a8f 10bb a22e c63b f2fe b2bc
00000270: f6f5 303b 54f4 273b a0eb eb38 b8b5 afbb
00000280: 40f9 22bc 7a35 ae3c d0ba f23b 6c13 3a3a
00000290: 4fae b93b bcb8 ad3c 30db 35ba e86c 213a
000002a0: bcf1 ce3b 1875 9839 16a6 d73b ef04 b4bb
000002b0: f04b 713a 5ce6 323b ca9c 3a3b e080 7fbb
000002c0: 9cd8 eebb eccd 9f3a 3e4a 5abc 1683 dbbb
000002d0: a8a7 123c 2fc1 62bc d260 5c3b 6b75 abbb
000002e0: 50ef f03a 5622 28bc 7a4b 503c e00c 8739
000002f0: bf40 89bb 6af5 c0bb ac19 fb3a 8027 153b
00000300: ec09 62bc 823f 363b eff2 babb fda9 b63c
00000310: 30f3 3dba 7e2c 13bc b65a a93c 9696 85bc
00000320: f48f c13c 109a 583c e2ca b8bb 538e b13c
00000330: 4b6b ce3b 382c e33a 4462 fa3a 5c16 daba
00000340: c4f3 c83b b88d c0bc 2d39 59ba 406c 32b9
00000350: 6984 cebb 90de 253a 2324 013c 71ab 203d
00000360: f650 bebb 8bff cf3b 0e87 3cbc 47bf 353d
00000370: 3886 2ebb d2a4 b8bb 2375 9abb ce8b 5a3c
00000380: 06f5 973c eddc 01bd 98c4 76bc 3206 03bb
00000390: 2597 46bc 7c33 23bd ef72 4b3b eb94 abbb
000003a0: 347f 25bc 2843 f3ba aeae 71bc c38b 263c
000003b0: 60e5 f6b9 1bff 08bc ee73 19bb 0830 073b
000003c0: d6ec 553c dbaf 83bb 7905 b23c dc1e 393c
000003d0: 639e 73bc 42ac c03c d098 cfbb 008d 5b3c
000003e0: 7929 6ebb 880d aa3c 8e02 d4bc 5095 58b9
000003f0: a25d a33b 74fb 303c d2a5 3fbb f6bf dcbb
-0.0059533734 0.004232732 -0.0035474994 0.011360627 0.0010901361 -0.003792722 0.010371059 -0.0071437983
0.012510245 0.007734157 -0.0052032284 0.013246459 0.005968976 0.003892822 0.0015552331 -0.003446294
0.0015134695 -0.01257189 0.0011447427 -0.001877971 -0.0051222923 -0.0016315863 0.0034790244 0.017507533
-0.0029255804 0.0042926087 -0.0055322507 0.020855675 0.0004607588 -0.0023075012 -0.0054416014 0.008640617
0.010480219 -0.0143821435 -0.009526951 -0.002624732 -0.007008239 -0.018766766 0.002883588 -0.004451434
-0.00556261 -0.0012898631 -0.00880124 0.0051058563 0.00068145967 -0.0044457368 0.0018800811 -0.0023787152
0.0056632143 -0.0022222633 0.011696227 0.0046183793 -0.008565534 0.011772947 -0.002655603 0.00926559
-0.0027100556 0.011075401 -0.013202256 -0.00036577694 0.0016968874 0.004716942 -0.003612878 -0.0054357545
0.010269149 -0.00011899974 0.0042776214 -0.017910311 0.0007185261 0.0083508715 -0.013994593 0.0147978235
-0.018963879 -0.0091306735 0.0014941287 -0.01648139 -0.0033034391 0.000114784576 -0.0012856997 -0.0011766527
-0.005319643 0.0142816715 0.0011621648 -0.0005388479 0.0025964133 -0.004049806 -0.0064165927 -0.026575867
0.003991085 -0.004084097 0.009483551 -0.033532854 0.0025095586 0.006632833 0.00091211795 -0.009113437
-0.012053812 0.020576173 0.008354457 0.0007393332 0.007856296 0.029141985 -0.0025979786 0.0037205499
0.007204622 0.0019017644 0.009059017 -0.0075305323 0.0002656984 0.007202053 0.0056782933 -0.0023957817
-0.010775225 0.0029452476 -0.013385553 -0.009502101 0.008957114 -0.014286656 0.0052351477 -0.007235084
0.0016867607 -0.013699982 0.017906733 -0.0013379683 -0.0029141875 -0.009173163 0.0006073895 0.004103248
0.008583896 0.0007231843 0.003590576 -0.012086039 0.0016033393 0.006316793 -0.0103005655 0.0073171356
-0.009636908 -0.0059920494 0.0021788937 -0.007118532 -0.000112375244 0.0012035235 -0.0015441146 -0.00078440725
-0.0045300806 0.012863321 0.0020213241 -0.0011154665 0.002755723 -0.00051062554 -0.004554064 -0.024824888
0.0037987344 -0.0022058175 0.0060480395 -0.021850083 0.0027002073 0.0025627809 0.00011249562 -0.0053622387
-0.009947121 0.021265734 0.0074075237 0.0007098231 0.005666531 0.021206252 -0.00069372635 0.0006157891
0.006315438 0.0002907894 0.0065810783 -0.005493752 0.0009204736 0.002729795 0.0028474801 -0.0038986728
-0.0072890054 0.0012192107 -0.013323365 -0.0066989763 0.008951105 -0.013840004 0.0033627045 -0.005232503
0.0018381868 -0.010262093 0.0127133075 0.000257588 -0.0041886265 -0.0058886306 0.0019157431 0.002275914
-0.013796311 0.002780885 -0.0057052295 0.022297854 -0.00072460156 -0.008982776 0.020673137 -0.016307157
0.023628213 0.013220325 -0.00563942 0.02167431 0.0062994114 0.0017331904 0.0019102772 -0.0016638744
0.0061325748 -0.023505077 -0.0008286413 -0.00017015729 -0.0063024056 0.0006327415 0.007882151 0.039226
-0.005807991 0.006347602 -0.011506809 0.04437187 -0.0026630294 -0.0056348825 -0.004713671 0.013338996
0.018549453 -0.031704832 -0.01506152 -0.0019992706 -0.012120997 -0.03984402 0.0031043848 -0.0052362583
-0.010101128 -0.0018559443 -0.01475112 0.010165158 -0.00047091674 -0.008361603 -0.0023415047 0.0020627994
0.013056954 -0.0040187663 0.021731125 0.011298861 -0.014869305 0.023519639 -0.0063353553 0.013400316
-0.0036340638 0.020758405 -0.025880124 -0.00020654988 0.004985527 0.010802139 -0.0029243124 -0.0067367507

exp_avg_sq f4 [8, 64]
00000000: b41e 8539 38c1 7f37 6529 be37 a723 4738
00000010: d68b cb37 42d0 4837 bf6d c239 97ec f438
00000020: d8cc 4939 1f97 5639 6982 d137 da75 5839
00000030: cbb0 a638 8a27 9337 ad1c bf37 920f 2638
00000040: 70d5 ae38 977a ae39 70cf bb37 c467 f237
00000050: dc27 c037 3526 0137 9503 1639 e0ca 6439
00000060: cc4e c337 5e5f 5d37 72fc 5839 2220 b639
00000070: 2f41 ef38 67b3 a738 d08a 3538 a78e 5b39
00000080: 2fd4 b638 6600 9b38 ba89 0739 42fd d535
00000090: 2108 3739 2be0 5c39 083d 3d37 062b d336
000000a0: 9099 ea36 572e 7138 8ede 9b39 92aa 3d39
000000b0: 26f9 fe37 b416 4d39 b180 d436 f92e 8338
000000c0: 36fa b139 f550 6538 e0a8 8c38 bad8 a539
000000d0: 3ef7 7338 7bfc a339 f3d0 1839 349e 4439
000000e0: fd45 3038 8cd8 c539 c8da 7e39 5b02 d536
000000f0: bcbb 8838 6077 7f39 bc47 4f37 3385 a036
00000100: e7c6 f739 2b6d ea36 b486 e737 0d11 4739
00000110: 4c2c 8a38 8277 8a38 f787 1e3a b99d 5c39
00000120: 4659 9639 8068 a839 4dc6 8736 9f3d 8339
00000130: a3b2 1338 d7cb f038 4494 f137 b4c8 2137
00000140: d4ba 8f39 dc97 ee39 e2fb 6f36 0209 b038
00000150: 01a1 2c37 2870 f537 0813 8139 4998 ee39
00000160: 3d4f 8838 4fcf 5237 9e05 c239 6fa2 143a
00000170: 65a7 8039 7f76 2c39 0df8 ce36 2646 7639
00000180: 71e8 3739 4809 4b39 76dc 0539 92a7 4237
00000190: b6a9 8439 6b7c e539 c1ce ab37 8ad9 1436
000001a0: b2c6 8c37 bf56 8f38 a86c f039 d028 ad39
000001b0: 6938 8338 720a a339 a664 6338 2c0e 5c39
000001c0: 4c87 2c3a 4a3f a238 09de 1239 3fc4 1f3a
000001d0: 645c ef38 c30a f639 d5fa 8f39 9761 1b39
000001e0: 3a11 4038 1f8a 173a 8305 cd39 2d19 0437
000001f0: 904a f138 f8aa 003a 6007 3638 adb7 0437
00000200: 894c 8439 263b ba37 cc25 ea36 04f1 2b39
00000210: 74fa 0938 ecc4 7f38 f34f b539 5474 c538
00000220: a741 de38 3b33 1839 5198 0736 3bb9 9138
00000230: 5fc3 9036 5d02 a438 2794 bb36 fa41 2f35
00000240: b7d7 4b39 f6ac 6d39 9630 4536 b441 4e38
00000250: 0232 dc36 54fc 9837 c308 1639 e2eb a239
00000260: d61f 7938 1563 3e37 9f7f 1739 24ae 9039
00000270: 4164 0e39 a34c 9538 bd06 5b36 2479 8c38
00000280: 135c 1a39 f460 3839 8f2e 9838 1459 2037
00000290: 4882 1739 e906 a639 802a 1337 67ed 6a35
000002a0: c574 f237 2fcb 9537 6fa3 7539 4636 3139
000002b0: 1883 e337 150c da38 dc51 3d38 04db 0a39
000002c0: 9e17 c339 9735 1838 d84a 1139 3c4b ae39
000002d0: 20e2 cb38 0f50 8b39 26c6 1c39 ec52 5f38
000002e0: 3b9a 5f37 38f5 a339 cef9 7c39 268e 3736
000002f0: 5b57 8138 58e3 8f39 e1ab 8937 efbe 2236
00000300: 65b9 753a 5478 1337 c77c 4238 51de b939
00000310: bc02 f238 a179 e338 cb5d aa3a 655c ca39
00000320: 3b8a 0c3a 753e 273a 07ad 9c37 d9c8 f539
00000330: 50d1 bb38 b24a 4339 b105 4938 3e3e fc37
00000340: 7212 093a c0a6 813a 7fd5 1a37 8461 2039
00000350: e68b 1f38 6d14 3738 3247 063a 3ce5 7a3a
00000360: 1bde 1439 07aa 2138 028d 2c3a bbad 953a
00000370: d81e f939 280b 9439 de07 ba37 2bc8 ed39
00000380: da64 d539 7eff dd39 aa7c ab39 40dd 8337
00000390: 1899 133a e1c0 783a 705d 2238 ecf0 9336
000003a0: 3cf5 2438 e176 0339 4cb7 7d3a b6a6 2a3a
000003b0: dcd5 ed38 3d4f 113a 217e 9a38 f461 c739
000003c0: 6be1 ab3a 7119 2b39 b024 b239 e11a 9d3a
000003d0: b6bd 8b39 bd40 873a 38c0 0f3a f948 be39
000003e0: f0d6 bf38 75a8 a23a 15c0 633a 4a70 6437
000003f0: 8edd 7539 9050 7c3a da06 8438 ca22 5837
0.00025390612 1.5244172e-05 2.266904e-05 4.74785e-05 2.4264602e-05 1.1969418e-05 0.0003708433 0.00011678895
0.00019245164 0.00020464927 2.4975468e-05 0.00020643268 7.948427e-05 1.7542177e-05 2.2782328e-05 3.9591985e-05
8.3367224e-05 0.00033279203 2.2388733e-05 2.8896968e-05 2.2906745e-05 7.697895e-06 0.00014306449 0.00021819351
2.3282504e-05 1.3194831e-05 0.00020693408 0.00034737686 0.000114085495 7.996597e-05 4.3283042e-05 0.0002093861
8.7179586e-05 7.39105e-05 0.0001292591 1.5943444e-06 0.00017455268 0.00021064344 1.1279488e-05 6.2932986e-06
6.9916205e-06 5.7502035e-05 0.0002972972 0.00018087987 3.0395178e-05 0.00019558781 6.333074e-06 6.255316e-05
0.00033946492 5.467325e-05 6.7071756e-05 0.00031632726 5.8165977e-05 0.00031277895 0.00014573689 0.00018750952
4.202685e-05 0.00037736108 0.0002430483 6.348169e-06 6.5199536e-05 0.00024363166 1.2354863e-05 4.783878e-06
0.00047259705 6.9864523e-06 2.7600072e-05 0.00018984471 6.588604e-05 6.602613e-05 0.0006047482 0.00021039591
0.00028676743 0.00032121316 4.0463988e-06 0.00025032178 3.52139e-05 0.0001148206 2.879848e-05 9.643078e-06
0.00027414283 0.00045508042 3.576039e-06 8.394012e-05 1.02894855e-05 2.9258503e-05 0.00024618977 0.0004550836
6.4997446e-05 1.2565243e-05 0.0003700675 0.00056699564 0.0002453878 0.00016447341 6.1681553e-06 0.0002348652
0.00017538831 0.00019363046 0.00012765997 1.1602317e-05 0.00025303446 0.00043770982 2.0481066e-05 2.2180343e-06
1.6781825e-05 6.834929e-05 0.00045857322 0.0003302754 6.257074e-05 0.00031097565 5.4214754e-05 0.00020986114
0.000658144 7.7365505e-05 0.0001400636 0.00060946116 0.00011413617 0.00046928794 0.0002746197 0.00014818307
4.579241e-05 0.00057807745 0.00039104754 7.873675e-06 0.00011505664 0.0004908289 4.339905e-05 7.9105785e-06
0.00025234025 2.2200471e-05 6.9781436e-06 0.00016397616 3.2896598e-05 6.0980135e-05 0.00034582577 9.41536e-05
0.000105980136 0.00014514934 2.0205227e-06 6.948641e-05 4.3142786e-06 7.8205696e-05 5.5902815e-06 6.528859e-07
0.00019439949 0.00022666514 2.9383568e-06 4.9175418e-05 6.5623326e-06 1.8237311e-05 0.00014308379 0.00031074794
5.9395876e-05 1.1347952e-05 0.00014448025 0.00027595565 0.00013579523 7.119148e-05 3.2637465e-06 6.6982844e-05
0.00014720885 0.00017583725 7.256597e-05 9.557483e-06 0.00014449016 0.00031667136 8.771778e-06 8.751726e-07
2.8903023e-05 1.7856799e-05 0.00023425905 0.00016900254 2.7121554e-05 0.000103973005 4.513735e-05 0.00013242295
0.00037210895 3.6289533e-05 0.00013856159 0.0003324392 9.7219134e-05 0.00026571794 0.00014951135 5.324457e-05
1.3327745e-05 0.00031272485 0.00024125652 2.7351866e-06 6.1674706e-05 0.0002744447 1.641171e-05 2.425102e-06
0.0009373634 8.789899e-06 4.6369412e-05 0.00035451588 0.000115399685 0.00010846859 0.0012997923 0.00038597282
0.0005361174 0.0006379851 1.8677221e-05 0.00046879685 8.955842e-05 0.00018624475 4.7927435e-05 3.0069725e-05
0.0005228884 0.0009891614 9.228824e-06 0.00015295116 3.8038845e-05 4.3649623e-05 0.0005122303 0.0009570902
0.0001419712 3.854374e-05 0.0006582291 0.0011419574 0.0004751596 0.00028237072 2.2176591e-05 0.000453533
0.00040701666 0.0004234276 0.00032708544 1.5719444e-05 0.0005630418 0.00094891904 3.871083e-05 4.4089884e-06
3.932904e-05 0.0001253742 0.00096784974 0.0006509827 0.00011340875 0.00055431185 7.3667856e-05 0.0003802922
0.0013113444 0.00016317308 0.0003397814 0.001198616 0.00026653492 0.0010318976 0.000548366 0.00036293993
9.147625e-05 0.0012409823 0.0008687985 1.3616003e-05 0.00023447556 0.0009625042 6.295527e-05 1.2882703e-05

exp_avg f4 [8]
00000000: 9059 6a3b 6034 53bc 96e3 0dbc e885 573c
00000010: 4420 0abb a005 f13a 9ada 543b 5e6d 203b
0.003575895 -0.012890905 -0.008660218 0.013154484 -0.002107636 0.0018388517 0.003247893 0.002447925

exp_avg_sq f4 [8]
00000000: 961c 413a 28e9 e73a 489c 853a 8099 5a3b
00000010: 8243 5038 6935 0939 578f d238 5e36 aa38
0.00073666254 0.0017693387 0.001019367 0.0033355653 4.9653936e-05 0.00013085235 0.000100402794 8.1163584e-05

exp_avg f4 [2, 8]
00000000: 44a3 83bc 83ba 9e3c 74f4 ec3b 9506 acbc
00000010: 4cfc 9b3b 1c7b f9bb 2ca6 5eba 706d c63a
00000020: 42a3 833c 86ba 9ebc 6ef4 ecbb 9206 ac3c
00000030: 42fc 9bbb 227b f93b 34a6 5e3a 706d c6ba
-0.016069062 0.019376045 0.0072312895 -0.020999232 0.0047603007 -0.0076135527 -0.00084933895 0.0015138816
0.016069058 -0.01937605 -0.0072312867 0.020999227 -0.004760296 0.0076135555 0.0008493394 -0.0015138816

exp_avg_sq f4 [2, 8]
00000000: ece5 1039 8d0c 8d3a fea0 8e3a 5453 0b3a
00000010: 587b 5c39 df3a 0639 c6f2 bc38 26ad c639
00000020: eee5 1039 8e0c 8d3a fea0 8e3a 5353 0b3a
00000030: 567b 5c39 df3a 0639 c5f2 bc38 25ad c639
0.00013818563 0.0010761187 0.001088172 0.0005314846 0.00021026784 0.00012801167 9.009759e-05 0.0003789451
0.00013818566 0.0010761188 0.001088172 0.00053148455 0.00021026781 0.00012801167 9.009758e-05 0.00037894506

exp_avg f4 [2]
00000000: 83bf d2bb 83bf d23b
-0.0064315214 0.0064315214

exp_avg_sq f4 [2]
00000000: 9444 2c39 9444 2c39
0.00016428746 0.00016428746

model.1.defunc.m.0.weight f4 [64, 8]
00000000: 46e1 fcbd 6ffe 5ebe 259c 693e bf7d 123e
00000010: 0768 be3e 3c1a c23d 4fd7 4dbe b0ad e9bd
00000020: 3621 88bc 9094 9e3e b982 173f 0b24 45be
00000030: 5623 413e cf38 1ebe 587c b73d 26fd 20be
00000040: 72d8 093e 5152 9dbe 105a 82be 66a9 9f3e
00000050: 6a99 e93c b661 023f c9c5 883d 2b95 363e
00000060: 296f babe 5aaf c83e 804d 81be 25d5 13bf
00000070: 4e6b 5abe 02cb 4d3d 99f0 12bf 7c57 24bd
00000080: 4db1 71be e52e 16bd b32c 0dbe a6d3 e0be
00000090: d9f9 9abe 3973 d63d b1be 89bd c28b a0bd
000000a0: 9a05 123e 6902 26be fc56 37bc f94f 013f
000000b0: 73e9 8bbc 7042 a73e e9cd 023f 2b23 873d
000000c0: c26f 533d 8bd1 c63e 16fe 6f3e 58b6 22be
000000d0: 6fe2 243e b7b0 603f 46e3 ed3e ed85 ff3e
000000e0: 2dd4 86bd 7e48 853d f159 14bf 93f8 d83e
000000f0: 2b48 8a3c 5214 d7bd aee4 ce3e c2fc f43e
00000100: f1c7 76be 3d4b 033f 9ab5 623e 9a11 70be
00000110: c048 92be 8ff7 623e 9774 da3d 55f2 12bf
00000120: 65ae 36be d5e6 3e3e 7ae1 683e 512b 65be
00000130: 362b 233e f4a0 0c3c ac5e 843e 7cf2 30bd
00000140: 110d 78be 9277 c1be f0ab 26be 2a47 303e
00000150: d68b 5cbe bcad 7e3b 2055 e93a 9c79 56be
00000160: 5218 633c 93d5 073f 7714 723e 3221 acbe
00000170: b0eb 1c3e 2702 643e 3ddd 083f fb4b 12bf
00000180: c171 4f3d 695f 0ebc 677e 0c3f 5ea2 75be
00000190: 92a6 953d 675b 153e 8c21 753e f578 0ebe
000001a0: a807 d8be f688 603e ec90 cc3e f483 52be
000001b0: 0ee9 34be 31fe 86bb b06a 52be 286a 03be
000001c0: 13a7 b5be 9fea c43e 07ca 9b3d 35f8 113e
000001d0: 4e72 4cbe aa51 1cbd ba62 c2be 700a 663d
000001e0: 9d1f e63c 9783 83be 38c3 babd 8e8a 49be
000001f0: 61a6 563e 927a 663b 4f06 c9be 9de9 a0bd
00000200: db4c a83e 996e 80be 5c1e 5fbe 00f8 9ebc
00000210: 1ea1 513e 3c2c 143e 3a06 4b3d 6604 523e
00000220: bead 30be 644b b5be 7759 1abf 410d ed3c
00000230: f01d 113d 7ae9 903c 8343 21bf 9014 03bf
00000240: 1aa8 b63e 5326 01be 8646 813e bd86 90be
00000250: 29a2 59be b295 e3bd b5e9 cf3d 7877 0ebe
00000260: 40fc d13d d785 56bd e9e5 393e 2f4f ee3e
00000270: bbb3 c13d c8c9 e3bc e593 11bd 2acd 9a3d
00000280: be62 88be 16ef 98be 009b 033d 991e 4b3e
00000290: d7a4 c6be 1d6a febc 7dff fbbc c24b 38be
000002a0: 20b4 8a3e ebf7 343e efe0 72be 0ced 73be
000002b0: 619f 5cbe 711e 59bd 094e a7be 1b8d aabe
000002c0: 8f21 883e 9354 223e 65f8 ae3e 75e2 393e
000002d0: 90d2 86bd a4ce ea3b cebf 8cbe 62e2 873d
000002e0: d33a 36bd c7fc 113f 75b9 e13d 7b0e aabd
000002f0: e562 6b3c 5050 d6be 1c18 02be ff50 3b3f
00000300: 55f9 a0be c449 5abd 3e29 6e3e 71eb adbd
00000310: ce81 683d a6c7 a5bd 40d0 733d 7c53 5abe
00000320: e6da 5a3e 2786 093d 30d6 273d 1d55 fd3c
00000330: 03e6 553e 39c1 883e 5ecd 91bd f999 dd3d
00000340: 0174 e1be 58bd 8d39 6480 d1be 27d8 e83e
00000350: 110d 303e 48b1 ee3e da7f 14be b106 c53e
00000360: b2a2 493e 8621 883e 0810 403e e1a4 e9be
00000370: d274 713e 4e2b 413f 2656 233e c90b a2be
00000380: e9df bbbe 280a 8b3e 432a cd3d fb2c d9bd
00000390: edeb 3b3e 2683 07bc 1e03 e9bd eb63 13be
000003a0: 652c 6c3d 6baf b7be 43cf e83c c1d4 9d3e
000003b0: 7345 a23e dee6 633e b68e 0d3e f466 db3e
000003c0: 5d80 74bd 3901 6abd a9e6 b4be bed3 c53e
000003d0: 3689 a9be 7239 60bc a3e3 b4be 557a 0e3b
000003e0: c85b dc3e 655b a13e ebf2 1f3f bb4e b2be
000003f0: 8b51 98be 0665 a6be 4674 b13e 7ce4 bbbe
-0.12347655 -0.21776746 0.2281347 0.14305781 0.37188742 0.0947766 -0.20101665 -0.114100814
-0.016617399 0.3097272 0.5918384 -0.1925203 0.18861136 -0.15451358 0.089592636 -0.15721568
0.13461474 -0.30726865 -0.25459337 0.31183928 0.028515536 0.50930345 0.066783495 0.1783034
-0.36412933 0.39196283 -0.2525444 -0.5774711 -0.21329996 0.05024243 -0.5739837 -0.040122494
-0.23602791 -0.036665816 -0.13786583 -0.43911475 -0.30268744 0.10471196 -0.067258246 -0.07839157
0.1425995 -0.16211857 -0.011190172 0.50512654 -0.01707909 0.32667875 0.51095444 0.06598505
0.051620252 0.38831744 0.2343677 -0.15889871 0.16102003 0.87769645 0.46462458 0.49906865
-0.06583438 0.065079674 -0.5794974 0.42377147 0.016880115 -0.10501923 0.40408844 0.4784909
-0.24099709 0.5128668 0.22139588 -0.23444214 -0.2857113 0.22164749 0.10666769 -0.5740102
-0.17839964 0.18642743 0.22742262 -0.22379805 0.15934452 0.008583296 0.2585348 -0.0432
-0.24223734 -0.37786537 -0.16276526 0.17214647 -0.21537718 0.0038860878 0.0017801858 -0.20944828
0.013860779 0.53060263 0.23640619 -0.33619076 0.15324283 0.22266446 0.5346258 -0.57147187
0.050645594 -0.00868974 0.54880375 -0.2398772 0.073071614 0.14585648 0.23938578 -0.13913329
-0.4219334 0.21927246 0.39954317 -0.20558149 -0.17667028 -0.0041196574 -0.2054851 -0.12833464
-0.3547903 0.38460252 0.07606893 0.1425484 -0.19965479 -0.03816382 -0.37965947 0.056162298
0.028091246 -0.25686333 -0.09119266 -0.1968176 0.20961906 0.0035168272 -0.39262626 -0.07857058
0.32871136 -0.2508438 -0.21788925 -0.019405365 0.20471618 0.14469999 0.049566485 0.2050949
-0.17253777 -0.3540908 -0.6029276 0.028936984 0.03542894 0.017689455 -0.6299364 -0.5120325
0.35675126 -0.12612276 0.25249118 -0.28227797 -0.21253265 -0.111125365 0.10151998 -0.13912761
0.10253191 -0.052373733 0.1815411 0.46544787 0.09458109 -0.027806178 -0.035541434 0.07558663
-0.26637834 -0.29869908 0.03213024 0.19835891 -0.38797638 -0.031056458 -0.030761475 -0.1799765
0.2709055 0.17672698 -0.23718618 -0.23820895 -0.21545173 -0.053007547 -0.32676724 -0.3331078
0.26588103 0.15852575 0.34173885 0.18152793 -0.0658313 0.0071657468 -0.27490085 0.06634976
-0.044489693 0.5702633 0.11021701 -0.08303543 0.01436684 -0.4185815 -0.1270451 0.73170465
-0.31440225 -0.053293005 0.2325792 -0.084921725 0.056764416 -0.080947205 0.059524775 -0.2132091
0.21372566 0.033575203 0.04097575 0.030924374 0.20888524 0.26709917 -0.07119249 0.108203836
-0.44033816 0.00027034688 -0.40918267 0.4547741 0.17192484 0.4661963 -0.14501897 0.38481668
0.1969097 0.26588076 0.18756115 -0.45633605 0.2357972 0.754567 0.15950832 -0.31649616
-0.36694267 0.27156186 0.100178264 -0.106042825 0.18351717 -0.008271014 -0.11377548 -0.14393584
0.057659525 -0.3587602 0.028419143 0.3082638 0.3169361 0.22256038 0.13823971 0.42851985
-0.05969273 -0.057130072 -0.3533223 0.3863811 -0.33112496 -0.013685571 -0.35329923 0.0021740396
0.43038774 0.3151504 0.6248004 -0.34825692 -0.29749712 -0.3249895 0.34659022 -0.36697757

model.1.defunc.m.0.bias f4 [64]
00000000: 49fe ecbe edd0 8abe 8205 d0bd bf41 e33e
00000010: 2a01 60be 6c57 9ebe 6f72 de3e 1bb7 80be
00000020: bb92 a13e e38b c73e 1aef 823e b2af 9b3e
00000030: 1fab c5bd 99a2 cfbe 2b3b 00be b668 f03d
00000040: e449 ef3e 3544 84be 5fb1 2cbe 3168 763e
00000050: fc44 e33d 27d5 a63d f194 583e 45aa e63e
00000060: 1685 06be f8d2 12bd f1a7 cdbe 8f53 e03e
00000070: 1c6d a5be 4258 96be 73a8 163e d8b4 ed3d
00000080: 1526 883e f9b7 bbbe 26f2 9fbc 4950 753e
00000090: 0da6 56be ba3e d4be efb7 c0bd 3202 51bd
000000a0: 933d 17be 89ae bbbd df31 c4be 99b8 ce3e
000000b0: 4bcf 41be 5ecd b7be ddb4 adbe a661 d53e
000000c0: ebfe ff3e 9432 f2bd a35f 523e c50a f33e
000000d0: 9d0f 4dbe 17d1 953e 1462 a2be 7ec6 21bd
000000e0: 5bc5 d0bd a2ad b53e 4d86 9ebe 3cb9 e83b
000000f0: 3558 363e a6e1 f63e 25b8 983e 64c6 8f3d
-0.46287754 -0.27112523 -0.101573005 0.44386098 -0.21875444 -0.30926073 0.4344668 -0.25139698
0.3155726 0.38973913 0.25573045 0.30407482 -0.096517794 -0.4055374 -0.12522571 0.11738722
0.46736062 -0.25833288 -0.16864537 0.24063183 0.11097142 0.08146124 0.21150567 0.4505178
-0.13136706 -0.035845727 -0.40167192 0.4381375 -0.32309806 -0.2936421 0.14712696 0.11606759
0.26591554 -0.36663797 -0.019524645 0.23956408 -0.20961781 -0.41454107 -0.094100825 -0.051027484
-0.14769582 -0.09164149 -0.383193 0.40375212 -0.18926732 -0.3589887 -0.3392705 0.41676062
0.49999174 -0.11826053 0.20544295 0.47469154 -0.20025487 0.29261085 -0.31715453 -0.039495938
-0.101938926 0.35484034 -0.30961838 0.00710216 0.17807086 0.4821903 0.2982799 0.07020262

model.1.defunc.m.2.weight f4 [8, 64]
00000000: e90f a0be eb40 4dbe dda7 0f3e e3df 4bbd
00000010: 32d6 55be 5b7f 7b3e bc55 47be 9939 ea3d
00000020: c9fe abbb 5870 683e 205b 803d 6267 ab3c
00000030: 47b7 b13c 331c 99be 253a 42be ac77 2cbd
00000040: 570d 5f3e 4e71 003e 7e78 b73d 3061 883e
00000050: dbe6 38bd 4718 d0bd c16b 433d 5d97 28bd
00000060: e693 d3bc 6ce8 fd3d e1ae 30bd 9e32 0e3e
00000070: ddb2 8cbe 47bd 883d 36b7 fa3d 234a fabd
00000080: 7f31 efbd 288e c63d 0d0b a6bc eb47 b03e
00000090: 62bd fbbd d16e d13d 8423 a6bd 70f8 583c
000000a0: 51eb fd3d 48c8 c6bd 34ba f5bd b03b 523e
000000b0: 8fd1 65be 8b62 4cbe 23c4 f73c 0274 a43e
000000c0: f395 373e 8b14 80be 7a9d 8dbe 99b4 8f3e
000000d0: d095 89bd 6cfe fcbb 87b5 64be 949e 41bd
000000e0: 658f 4f3d 06d2 18be 90c4 2b3d 9725 ecbd
000000f0: 7eb2 033e 1b20 063e 7219 883e 3be5 133e
00000100: eb40 673d f45e 913e dcd1 b0bd c956 873e
00000110: a5cf 4b3e 90e5 4dbe c4ae 0a3e c927 5dbe
00000120: 92f4 793e 0e8b 943b ec62 4bbe c048 1f3e
00000130: 4d8a 4e3e a086 1d3e ebf2 233c 3f8d 093d
00000140: 5b49 f13d 54b3 2dbe 1310 e8bc bb46 7fbd
00000150: f8aa 93bc eb80 103e 631f a53d 3633 193e
00000160: f4f1 8c3d 1669 49bc b8a6 25be ab63 373e
00000170: 3049 293e 54d1 52bc eb2d 12be 43ad 783e
00000180: a816 5a3e c947 05be da4e 98be e1e8 04be
00000190: e61d 20be eafb 82be c03d a83d 9b67 98be
000001a0: 0d93 87be 9c4f 353d 6c11 7abe 517c 11be
000001b0: 20f2 063d c930 84bd 9b9a cfbd 3c6d 06be
000001c0: d7cc ab3d f026 8e3d 17ad a03e 3fd3 13be
000001d0: f1b8 25bd 6157 8a3e 9242 643d f705 693e
000001e0: dae5 cabc eacb 9d3e bf6f 1dbe 4d79 2e3d
000001f0: a2cc f4bd a532 cebd 7107 36be 0b45 4fbe
00000200: ebe9 06be 6100 b63e 310e 65be 5b04 813d
00000210: a3ba 61bd 9506 4dbd 5602 8b3e 4406 cb3d
00000220: aa26 8a3e 62ba 593e 5133 94bd 29a9 a03e
00000230: dca4 043d 93ac 19be 4aa4 87be 2648 cfbd
00000240: 6c18 87bd 3aab b6be ef44 063e aed8 b63d
00000250: 9473 9ebd 8e8a 55be d255 2bbe 9ab6 073e
00000260: f2a0 583e cb7e e2bd 15d0 6bbe 4f8c 63bd
00000270: fe0d 2dbe f9e6 b9bd 05d0 63be eef4 b13e
00000280: aef4 3f3d f0c8 1cbe e217 85be 6c72 16bd
00000290: becf bd3c 224a 26be 55f2 61be 9262 0fbe
000002a0: 0af1 a83d 9009 19be 7fe0 9fbe 02a9 363e
000002b0: f300 c9bd d2ce 58be 0b30 1e3e acf7 66bd
000002c0: 2a9e 20be cc70 06be dbfb 3cbd c53b b63d
000002d0: d2d5 31be cc47 343e 03be 81bd f9be 833e
000002e0: 5bf9 8ebe ba1b 353e 1197 a9bd 1c86 b2bd
000002f0: 483c 083e dc7e 86bd 9385 2a3d d2c9 09be
00000300: 8c6b 03be cafc 9abe 32f6 ab3e 094b 52be
00000310: 744d 87bd 8c9a 873e 2632 8ebe d0ff 213e
00000320: dda0 dbbd 77e4 8ebc cef1 913c 36cb 7ebe
00000330: 59c1 abbd 5184 8cbe 5929 65be 0a5c f83c
00000340: 7737 6b3d f949 493e 2657 fabb 4b12 5a3e
00000350: 0b94 2a3e f0ea 3d3d 6b9f f83d b6ce 01be
00000360: 7775 5e3d cc4e a5bd 71c9 653e 257d 1abe
00000370: f313 b0bd 6e69 373e 3588 c93d 1ef8 36be
00000380: c489 c5bd a327 823e 84bf 8c3e afa1 783e
00000390: 1cc6 0b3c 6702 7c3e 23cb 24be f77c a13e
000003a0: 0418 1f3e 9592 adbd ca89 513e 3c57 553e
000003b0: b4fc 18be 5092 153e c877 0c3e 6d6e 3b3e
000003c0: c7ff b43d 2edc 30bd eb26 1ebe 2ced d13d
000003d0: 212e cf3d 6de6 7dbe d02e 28be f5d8 43bd
000003e0: fb28 a0bd 4f2b edbd 52a5 223e fae5 e23c
000003f0: 571f d93d ffb4 f03d bf8b 503e 8b5e 8d3b
-0.31262138 -0.20044295 0.14028879 -0.049774062 -0.2088249 0.24560301 -0.19466299 0.11436767
-0.0052488786 0.22699106 0.06267381 0.02092332 0.021693839 -0.29904327 -0.18967493 -0.042106315
0.21782432 0.12543222 0.08958529 0.26636648 -0.045142036 -0.101608805 0.047710184 -0.041159976
-0.02582736 0.123978466 -0.043135528 0.13886496 -0.27480212 0.06676727 0.12241976 -0.12221172
-0.116793625 0.09695083 -0.020268941 0.3442987 -0.12291981 0.10226215 -0.08112243 0.013242826
0.12398399 -0.09706169 -0.11998406 0.20530581 -0.22443222 -0.19959466 0.030244892 0.32119757
0.17928295 -0.25015673 -0.27659208 0.28067473 -0.067180276 -0.007720759 -0.22334872 -0.047270373
0.05067386 -0.14923868 0.041935503 -0.11530607 0.12861058 0.13098185 0.26581913 0.14442913
0.056458395 0.28392756 -0.086337775 0.264334 0.19903429 -0.20107102 0.1354323 -0.21597208
0.24409702 0.004533178 -0.19861954 0.15555096 0.20169945 0.15383387 0.010006647 0.03358197
0.117815696 -0.1696294 -0.028327977 -0.062323313 -0.01802586 0.14111678 0.08062627 0.14960942
0.068820864 -0.012293121 -0.1617688 0.17909114 0.16531825 -0.0128672905 -0.14275329 0.24284844
0.21297705 -0.13015665 -0.2974766 -0.12979461 -0.15636405 -0.2558282 0.08214903 -0.29766545
-0.26479378 0.044265375 -0.24420708 -0.14207579 0.032945752 -0.064546175 -0.101369105 -0.13127607
0.083886795 0.069410205 0.31382057 -0.14436053 -0.040459577 0.2701979 0.05572755 0.22756182
-0.024767805 0.30819637 -0.15374659 0.04259615 -0.11953093 -0.100682534 -0.17776276 -0.20241182
-0.1317517 0.35547164 -0.22368695 0.06299659 -0.05510963 -0.050055105 0.2715022 0.099133044
0.26982623 0.21262506 -0.0723635 0.3137906 0.032383785 -0.15007238 -0.2649253 -0.10121183
-0.06596455 -0.3567751 0.13112234 0.08928047 -0.077368885 -0.20853636 -0.16731957 0.1325325
0.21155146 -0.1105934 -0.23028596 -0.05555373 -0.16899869 -0.09077258 -0.22247322 0.3475718
0.046864204 -0.15311027 -0.25994784 -0.036730215 0.023170348 -0.16239217 -0.22065099 -0.14002445
0.082490996 -0.14945054 -0.31225964 0.17837909 -0.09814634 -0.21172646 0.15448014 -0.056388542
-0.15685335 -0.13128966 -0.046138626 0.08898119 -0.17366722 0.17605513 -0.0633507 0.25731638
-0.27924618 0.17686358 -0.08280767 -0.087169856 0.13304245 -0.06567165 0.041631293 -0.13455895
-0.12833995 -0.30270988 0.3358627 -0.20536436 -0.0660657 0.26485097 -0.27772635 0.15820241
-0.107240416 -0.017442925 0.017815497 -0.24882206 -0.083864875 -0.274447 -0.22379054 0.030317325
0.057425942 0.19657125 -0.0076397834 0.2129604 0.16658036 0.046366632 0.121397816 -0.1267651
0.054311242 -0.0807167 0.22440125 -0.15086801 -0.08597555 0.17911312 0.098404326 -0.17868087
-0.09645417 0.25420865 0.27489865 0.24280427 0.00853112 0.24610291 -0.16093116 0.31540653
0.15536505 -0.08475224 0.20462719 0.20834059 -0.14940149 0.14606595 0.13717568 0.18303843
0.08837848 -0.04317873 -0.15444534 0.10250315 0.1011622 -0.24794932 -0.16424108 -0.04781433
-0.078203164 -0.11580526 0.15883377 0.027697552 0.10601681 0.11753272 0.20365809 0.004314249

model.1.defunc.m.2.bias f4 [8]
00000000: 5f80 a93e 6c66 0bbd 470a 21be 17fd 073e
00000010: 0b5d e2bd 44a4 943d e80f 863d 614e 343e
0.33105752 -0.034033224 -0.15726577 0.1328014 -0.11052903 0.07257894 0.065460026 0.17608024

model.2.weight f4 [2, 8]
00000000: 549a 8a3e 68f7 06be d0fa 563e 6b10 b73e
00000010: 8776 d83d da09 c03e f0e3 17bd b294 9b3e
00000020: 2e27 12bf 8e24 6d3e a1b8 8d3e 703a 9dbe
00000030: 0d95 cc3e 22d0 a2be 0c92 8d3a 5995 893d
0.27070868 -0.13180315 0.20994115 0.35754713 0.10569482 0.37507516 -0.037082613 0.30386883
-0.57091033 0.23158476 0.27679923 -0.30708647 0.39957467 -0.31799418 0.0010800972 0.06717939

model.2.bias f4 [2]
00000000: 4999 f93e c33e 84be
0.4874976 -0.25829133
