lightning_logs/version_14/checkpoints/epoch=49-step=49.ckpt (torch, 19857 bytes, 18 tensors)

exp_avg f4 [64, 8]
-0.011110121 -0.007177031 0.0046472964 -0.0017046193 -0.0014220586 0.013379803 -0.009851918 -0.01662755
0.003385298 0.0027475597 -0.0014916279 0.00037501327 0.0009989698 -0.0067986376 0.003930058 0.0040268614
0.0075851297 0.008471522 -0.011688154 0.0070270775 -0.008509267 -0.01423387 -0.0014852155 -0.0045536095
-0.00163854 -0.00077907223 0.0018451845 -0.0001940148 0.0007042659 0.0063659735 0.0007239024 0.0044729956
0.00033712096 0.001604635 -0.0011762308 0.0013499032 -0.0013881807 -0.00047039427 -0.0001975696 0.0017164112
0.0036207284 0.0037376822 -0.002953989 0.0025589191 -0.0019427658 -0.0015818417 -0.0015091635 0.0014985321
0.008474296 0.010834827 -0.009843224 0.008645295 -0.008017463 -0.0034117936 -0.006372942 0.0016702672
0.0015167553 0.0016980456 -0.0023826007 0.0014487265 -0.0019034944 -0.0032140147 -0.0011159432 -0.002063164
-0.00081726385 -6.632292e-05 0.00045185583 1.3837687e-05 6.6397806e-05 0.0010756587 0.0017109017 0.0027965284
-0.0036734345 -0.003804104 0.0032213903 -0.0032342873 0.0030316645 6.992067e-05 0.005714845 -0.00044425897
2.2435794e-05 -0.00037437648 0.0018196634 -0.00021073138 0.0009661718 0.005438229 -0.0016176358 0.0063776784
0.0037177305 0.0029280037 -0.0032059094 0.0022001248 -0.0022299131 -0.0024759835 -0.005010835 -0.00412709
-0.013785141 -0.012915399 0.014772052 -0.009735385 0.010151903 0.013200678 0.0047126613 -0.004978683
0.0021899177 0.0041467156 -0.0041968776 0.0030375742 -0.0027979226 -0.0045781583 0.0014634675 -0.0025052489
0.00069738354 0.0023813187 -0.0020304928 0.00090014667 -0.00041365263 -0.0072227176 0.009576537 0.0050596567
-0.0041349204 -0.0018082724 0.002567277 -0.00083311315 0.00093184086 0.0050219405 0.0038779425 0.003597787
0.00047537533 0.0036451127 -0.002328231 0.0027938492 -0.002203174 -2.2365712e-06 0.0022673907 0.0020250403
0.0005004733 0.00014105288 -0.0014434848 0.000115005416 -0.0007727568 -0.0038829767 -0.0013083143 -0.0071482467
-0.0066984175 -0.0076428214 0.008649977 -0.0064322967 0.0071133273 0.005989059 0.004474994 -0.0029154317
0.007157771 0.013145969 -0.009163074 0.010170868 -0.008050799 0.0010938398 -0.0033441193 0.0049131806
0.0011315482 -0.0008050704 0.001388655 -0.0009090411 0.0011771552 0.0013187961 -0.0016254173 0.005030811
0.0009977373 0.0010155307 -0.0011751002 0.00044519894 -0.0004084986 -0.0020383745 -0.0031981564 -0.006624444
-0.0076790564 -0.0040959315 0.0060818586 -0.0028632795 0.0037392178 0.009582116 0.005009638 0.0010819407
-0.0006353699 0.0022123607 -0.003135278 0.0019189867 -0.002140151 -0.0044988706 0.003285055 -0.0070083803
0.0004469409 -0.0005126752 0.0007087731 -0.0002256301 0.00058513065 0.0035856944 -0.0038951645 -0.0031547789
-0.00042717205 -0.0053983824 0.0049204146 -0.0049005346 0.004605118 -3.611669e-06 0.00078097405 0.0046579954
-0.008856462 -0.010259485 0.011641132 -0.008738732 0.009207281 0.0050067944 0.013078271 0.011523389
0.0032261813 0.0036268046 -0.0057431897 0.0029653353 -0.0040503996 -0.008159951 -0.0010671362 -0.0059159165
0.004952373 0.0025065078 -0.0022957085 0.0011247245 -0.00034902198 -0.003327758 -0.0032563072 -0.00093271467
-0.004516175 0.00013083842 0.0024217083 -7.0139795e-06 9.6056116e-05 0.00012406608 0.016255196 0.030445918
-0.011334925 -0.0075551337 0.007975145 -0.0059668627 0.0053491984 0.0015437182 0.019211715 0.013397358
-0.001516423 -0.0014486694 0.00092063285 -0.00073765975 0.00034059567 0.0012902799 0.00040409807 -0.0021371595
00000000: 3a07 36bc 4d2d ebbb 5948 983b 886d dfba
00000010: 5e64 baba f636 5b3c f069 21bc 8036 88bc
00000020: e0db 5d3b 6710 343b ba82 c3ba 6e9d c439
00000030: ddef 823a 1bc7 debb b7c7 803b c3f3 833b
00000040: ae8c f83b 23cc 0a3c ac7f 3fbc 6643 e63b
00000050: 746a 0bbc 2e35 69bc 90ab c2ba 7236 95bb
00000060: 47c4 d6ba a73a 4cba 1eda f13a 7470 4bb9
00000070: 7c9e 383a a899 d03b 45c4 3d3a 3592 923b
00000080: 9cbf b039 9e52 d23a c22b 9aba 3cef b03a
00000090: 9df3 b5ba 409f f6b9 b02a 4fb9 34f9 e03a
000000a0: be49 6d3b e7f3 743b b697 41bb 8ab3 273b
000000b0: 67a4 feba cd55 cfba 20cf c5ba 656a c43a
000000c0: c6d7 0a3c 8f84 313c 7945 21bc ffa4 0d3c
000000d0: ad5b 03bc 6698 5fbb 1dd4 d0bb deec da3a
000000e0: ddcd c63a f590 de3a 6825 1cbb 32e3 bd3a
000000f0: ac7e f9ba 38a2 52bb d744 92ba 2636 07bb
00000100: a63d 56ba d916 8bb8 10e7 ec39 6a28 6837
00000110: 0d3f 8b38 1efd 8c3a 5640 e03a f645 373b
00000120: 01be 70bb 464e 79bb f61d 533b 56f6 53bb
00000130: e4ae 463b 60a2 9238 9843 bb3b 6eeb e8b9
00000140: 8034 bc37 f647 c4b9 c681 ee3a c6f7 5cb9
00000150: b146 7d3a 2c33 b23b da06 d4ba d8fb d03b
00000160: 2ba5 733b c0e3 3f3b 3c1a 52bb f82f 103b
00000170: bc23 12bb 1c44 22bb ee31 a4bb 8a3c 87bb
00000180: 12db 61bc 1c9b 53bc 7a06 723c 2a81 1fbc
00000190: 2b54 263c a847 583c ab6c 9a3b 3824 a3bb
000001a0: b984 0f3b 2ce1 873b f685 89bb 0a12 473b
000001b0: 5a5d 37bb 6004 96bb d2d1 bf3a 1a2f 24bb
000001c0: 9ed0 363a e60f 1c3b 0412 05bb d2f7 6b3a
000001d0: 84df d8b9 8cac ecbb e8e6 1c3c 7acb a53b
000001e0: 3a7e 87bb 8e03 edba c33f 283b 4765 5aba
000001f0: c846 743a 178f a43b 1425 7e3b dac8 6b3b
00000200: cc3b f939 d8e2 6e3b 3c95 18bb 0319 373b
00000210: 2063 10bb 0018 16b6 8198 143b 8ab6 043b
00000220: 3232 033a 98e7 1339 5033 bdba 102f f138
00000230: d592 4aba 8a79 7ebb be7b abba d73b eabb
00000240: 667e dbbb a270 fabb a2b8 0d3c 04c6 d2bb
00000250: ea16 e93b de3f c43b f8a2 923b d410 3fbb
00000260: bc8b ea3b 3162 573c b820 16bc b6a3 263c
00000270: 80e7 03bc 2c5f 8f3a 0329 5bbb bffe a03b
00000280: 7550 943a 5c0b 53ba 8803 b63a b74c 6eba
00000290: c64a 9a3a 74db ac3a f40b d5ba 80d9 a43b
000002a0: 82c6 823a 8e1b 853a d205 9aba 9769 e939
000002b0: c12b d6b9 4096 05bb 2998 51bb dd11 d9bb
000002c0: 98a0 fbbb 2a37 86bb 544a c73b dca5 3bbb
000002d0: aa0d 753b 4ffe 1c3c e427 a43b e8cf 8d3a
000002e0: f48e 26ba 41fd 103b 3c79 4dbb 8286 fb3a
000002f0: c741 0cbb 436b 93bb 144a 573b 8ea6 e5bb
00000300: 6453 ea39 0d65 06ba f5cc 393a 1e97 6cb9
00000310: 7463 193a f8fd 6a3b 0446 7fbb 68c0 4ebb
00000320: 10f6 dfb9 eae4 b0bb 6e3b a13b aa94 a0bb
00000330: 88e6 963b 0060 72b6 48ba 4c3a 19a2 983b
00000340: b21a 11bc 6617 28bc 72ba 3e3c e62c 0fbc
00000350: 23da 163c 0910 a43b 3f46 563c 99cc 3c3c
00000360: 576e 533b afaf 6d3b 5e31 bcbb 1256 423b
00000370: 37b9 84bb 51b1 05bc 26df 8bba 4eda c1bb
00000380: 8447 a23b 3944 243b 9973 16bb 7e6b 933a
00000390: f0fc b6b9 8416 5abb c567 55bb 6c81 74ba
000003a0: 6cfc 93bb ac31 0939 86b5 1e3b a059 ebb6
000003b0: bc71 c938 bc17 0239 9e29 853c b869 f93c
000003c0: 1fb6 39bc 0e91 f7bb 2faa 023c ac85 c3bb
000003d0: 5448 af3b 9656 ca3a e361 9d3c 9880 5b3c
000003e0: b6c2 c6ba 47e1 bdba a056 713a 825f 41ba
000003f0: fa91 b239 9c1e a93a 20dd d339 960f 0cbb

exp_avg_sq f4 [64, 8]
4.2760446e-05 1.1257323e-05 7.053009e-06 2.4005806e-06 2.2391787e-06 2.1221089e-05 3.1007054e-05 4.354602e-05
2.8603814e-05 4.9583427e-06 4.7405506e-06 4.976595e-07 3.298836e-06 1.7796374e-05 1.9234141e-05 4.7956528e-05
0.00016382826 0.00025344722 4.5183428e-05 0.00011703228 1.8239856e-05 0.00039300864 0.00016804347 0.00014710042
1.5740645e-05 8.1729295e-06 2.9691967e-06 1.5742913e-06 3.0947892e-06 3.2362062e-05 1.9967689e-05 4.350649e-05
2.9378925e-06 5.830428e-06 1.0117666e-06 3.0227338e-06 5.588046e-07 9.773632e-06 3.851228e-06 2.968676e-06
5.842577e-06 7.0854667e-06 2.0533776e-06 3.4837988e-06 8.3668505e-07 5.4921784e-06 4.48453e-06 3.0782853e-06
8.0960606e-05 0.00014235503 2.648069e-05 7.153155e-05 1.2917101e-05 0.00016836413 8.035672e-05 5.1183404e-05
9.206065e-06 1.3338705e-05 2.4578658e-06 5.7489374e-06 9.665345e-07 2.6879577e-05 1.0462575e-05 1.1271586e-05
1.3502777e-06 2.0821747e-07 1.7050627e-07 4.0253628e-08 1.5502255e-07 1.1818971e-06 1.2329668e-06 2.2676902e-06
1.2887253e-05 1.9437693e-05 3.3175143e-06 9.022608e-06 1.039259e-06 2.9585246e-05 1.7041615e-05 1.0385447e-05
8.543193e-06 1.3646511e-05 2.1150163e-06 3.891759e-06 3.1205504e-06 5.5706496e-05 2.333955e-05 4.702389e-05
1.3589222e-05 1.6514448e-05 3.981006e-06 7.3716355e-06 1.3512265e-06 2.3533217e-05 1.3074548e-05 1.2758315e-05
0.0002589662 0.00040459124 6.886538e-05 0.00019201724 3.0241294e-05 0.00062228553 0.00026992775 0.00020301725
1.7232205e-05 2.8361796e-05 5.0515587e-06 1.2248132e-05 2.5151635e-06 5.4419237e-05 2.0771688e-05 2.9853161e-05
8.699389e-06 1.7438397e-05 2.4293536e-06 6.031203e-06 2.56086e-06 5.899815e-05 2.1274822e-05 3.9377588e-05
1.8585206e-05 5.936036e-06 3.1474242e-06 1.6850224e-06 7.2907864e-07 1.01358855e-05 1.2961393e-05 1.2923707e-05
2.977048e-06 1.2139671e-05 1.6980235e-06 6.1464725e-06 1.0702104e-06 2.301233e-05 4.289574e-06 4.7942563e-06
5.6725476e-06 5.952632e-06 1.2099331e-06 1.4767178e-06 1.7582773e-06 2.5566096e-05 1.2251248e-05 2.63769e-05
9.040782e-05 0.00015365818 2.657542e-05 7.647656e-05 1.2627703e-05 0.00020083615 9.766502e-05 6.098129e-05
4.2446656e-05 0.00010719047 1.888783e-05 5.544489e-05 1.0219824e-05 0.00013034431 4.3710214e-05 3.3398745e-05
2.0659156e-06 1.0549464e-05 7.565009e-07 4.4646335e-06 9.556713e-07 3.321468e-05 8.585265e-06 1.4359399e-05
1.5209912e-05 6.4804926e-06 3.0544913e-06 7.9536295e-07 4.3935133e-06 2.383013e-05 2.223195e-05 5.522995e-05
7.385295e-05 4.8709786e-05 1.4792366e-05 2.0606321e-05 3.9713473e-06 6.227818e-05 6.758556e-05 4.2594733e-05
1.6256608e-05 4.5729914e-05 4.718073e-06 1.9030495e-05 3.880996e-06 0.00013204591 3.562984e-05 6.1116916e-05
3.1138086e-06 4.5234306e-06 9.1879167e-07 2.0525852e-06 4.320636e-07 9.35124e-06 3.7581954e-06 3.6948702e-06
2.1196434e-05 6.763513e-05 7.971966e-06 3.30322e-05 4.550599e-06 0.00012384432 2.979528e-05 3.1553012e-05
0.00014746525 0.0002282733 4.2680025e-05 0.00010914754 1.7624068e-05 0.00030577317 0.00014291645 0.00010737666
4.5169352e-05 6.819741e-05 1.2331256e-05 3.0103118e-05 4.8908246e-06 0.00011822556 4.661139e-05 5.112379e-05
1.619332e-05 3.2636988e-06 2.7104047e-06 9.837522e-07 4.7213362e-07 4.3763253e-06 9.014423e-06 6.6119533e-06
1.6299451e-05 3.6374433e-06 2.7120352e-06 4.994249e-07 3.175346e-06 1.6036649e-05 2.1083613e-05 6.130805e-05
0.00013129257 7.295909e-05 2.5954661e-05 3.2540735e-05 7.1971526e-06 6.22257e-05 0.00012937778 6.354795e-05
2.5646104e-06 1.6201654e-06 3.5665914e-07 6.1827086e-07 4.7234526e-08 3.8280787e-06 3.6489528e-06 1.9266793e-06
00000000: ae59 3338 d6dd 3c37 e3a8 ec36 a919 2136
00000010: cc44 1636 f103 b237 920d 0238 2fa5 3638
00000020: 39f2 ef37 d75f a636 0511 9f36 e796 0535
00000030: 9261 5d36 6c49 9537 0159 a137 ee24 4938
00000040: 50c9 2b39 1ce1 8439 5683 3d38 3a6f f538
00000050: cb01 9937 ba0c ce39 d334 3039 f83e 1a39
00000060: c70a 8437 771e 0937 6942 4736 3d4c d335
00000070: 13b0 4f36 80bc 0738 4980 a737 bd7a 3638
00000080: 9c28 4536 ffa2 c336 09cc 8735 2cda 4a36
00000090: c200 1635 6ef9 2337 cc39 8136 7739 4736
000000a0: 5b0b c436 b2bf ed36 c2cc 0936 35cb 6936
000000b0: 8f98 6035 7449 b836 d279 9636 8a94 4e36
000000c0: 65c9 a938 2345 1539 d922 de37 3503 9638
000000d0: 87b6 5837 e78a 3039 3085 a838 c3ad 5638
000000e0: c073 1a37 4dc9 5f37 d0f1 2436 ffe6 c036
000000f0: dfb9 8135 747b e137 6b88 2f37 181b 3d37
00000100: 303b b535 6292 5f34 6814 3734 55e3 2c33
00000110: 4674 2634 ada1 9e35 6b7c a535 9f2e 1836
00000120: 5536 5837 210e a337 76a2 5e36 ce5f 1737
00000130: ab7c 8b35 d52d f837 97f4 8e37 283d 2e37
00000140: bc54 0f37 52f3 6437 b4ef 0d36 f595 8236
00000150: a66a 5136 65a6 6938 4dc9 c337 843b 4538
00000160: 44fd 6337 8288 8a37 9594 8536 de59 f736
00000170: ca5b b535 3369 c537 c25a 5b37 8c0c 5637
00000180: dbc5 8739 511f d439 d26b 9038 3c58 4939
00000190: afae fd37 e020 233a 1785 8d39 07e1 5439
000001a0: e18d 9037 7eea ed37 8f80 a936 547d 4d37
000001b0: 2eca 2836 3640 6438 dc3e ae37 2d6d fa37
000001c0: 97f3 1137 ac48 9237 fa07 2336 a45f ca36
000001d0: 3ddb 2b36 c874 7738 5577 b237 5d29 2538
000001e0: 6de7 9b37 292e c736 5638 5336 ee28 e235
000001f0: e7b5 4335 4c0d 2a37 c274 5937 e6d2 5837
00000200: 4cc9 4736 7dab 4b37 a5e7 e335 cc3d ce36
00000210: 26a4 8f35 9a0a c137 29ef 8f36 59de a036
00000220: d056 be36 b8bc c736 fc64 a235 a333 c635
00000230: f3fd eb35 c676 d637 b68a 4d37 f643 dd37
00000240: 5499 bd38 4e1f 2139 48ee de37 0a62 a038
00000250: 92db 5337 8b97 5239 82d1 cc38 29c6 7f38
00000260: c008 3238 72cb e038 4e71 9e37 7f8d 6838
00000270: cf75 2b37 09ad 0839 7c55 3738 a115 0c38
00000280: 29a4 0a36 9afd 3037 5912 4b35 e9ce 9536
00000290: 9e44 8035 fe4f 0b38 6f09 1037 26e9 7037
000002a0: 132e 7f37 0273 d936 c3fb 4c36 ed80 5535
000002b0: fe6b 9336 d1e6 c737 c07e ba37 b5a6 6738
000002c0: 80e1 9a38 bc4d 4c38 ba2c 7837 bddb ac37
000002d0: 9d41 8536 589b 8238 b9bc 8d38 bfa7 3238
000002e0: cd5e 8837 1fce 3f38 f04f 9e36 ada3 9f37
000002f0: 8039 8236 ce75 0a39 4071 1538 e52b 8038
00000300: d3f6 5036 f9c7 9736 e2a2 7635 25bf 0936
00000310: 5ef6 e734 45e3 1c37 4e35 7c36 63f5 7736
00000320: ffce b137 55d7 8d38 55bf 0537 0e8c 0a38
00000330: 59b1 9836 35dc 0139 e0f0 f937 ca57 0438
00000340: e7a0 1a39 a65c 6f39 5403 3338 24e6 e438
00000350: 66d7 9337 2e50 a039 d8db 1539 682f e138
00000360: 3974 3d38 3505 8f38 57e2 4e37 f485 fc37
00000370: dd1b a436 ddef f738 9980 4338 c06d 5638
00000380: e4d6 8737 eb05 5b36 66e4 3536 7809 8435
00000390: 8d79 fd34 59d8 9236 a73c 1737 3fdc dd36
000003a0: ceba 8837 cd1a 7436 6900 3636 3810 0635
000003b0: 0718 5536 7186 8637 b7dc b037 8292 8038
000003c0: 95ab 0939 9d01 9938 36b9 d937 597c 0838
000003d0: 127f f136 2b7f 8238 95a9 0739 0c45 8538
000003e0: ac1b 2c36 7674 d935 dc7a bf34 40f7 2535
000003f0: e9de 4a33 f272 8036 88e0 7436 194c 0136

exp_avg f4 [64]
0.035330806 -0.015793525 -0.015007925 0.0070426343 0.0003896912 -0.0063248505 -0.0097608585 -0.0032953115
0.002298589 0.003483707 0.0037386077 -0.0069894884 0.022820681 -0.0066109635 -0.009896638 0.009064975
-0.00025646458 -0.0033652997 0.008105229 -0.006543377 0.0005447478 -0.005997019 0.011076786 -0.0062557207
0.0005406083 0.0020343233 0.014838999 -0.00767368 -0.012218381 0.032059263 0.018097863 0.004566693
0.012791444 -0.010428837 -0.0038844123 0.008199278 -0.00024475507 0.00039164687 0.003386559 -0.019402407
0.0033388878 0.003210127 0.0018998673 0.02125824 -0.019370824 -0.017686393 0.006509534 0.006523031
0.0044138753 0.0048171193 -0.022097696 -0.03529173 -0.005241852 0.0048963 0.015145436 0.0025781926
-0.009949509 0.00411208 -0.005292745 0.0013428926 0.012176963 -0.0070390366 0.0015279963 0.004335967
00000000: 09b7 103d 6c61 81bc cde3 75bc e6c5 e63b
00000010: 784f cc39 b140 cfbb 02ec 1fbc 27f6 57bb
00000020: eda3 163b e84e 643b 6e03 753b 1408 e5bb
00000030: 70f2 ba3c c8a0 d8bb 8225 22bc 4385 143c
00000040: 1876 86b9 5c8c 5cbb cbcb 043c d369 d6bb
00000050: 68cd 0e3a a482 c4bb 687b 353c cafc ccbb
00000060: 9cb7 0d3a 4852 053b 461f 733c 7e73 fbbb
00000070: 9b2f 48bc 9350 033d f841 943c 33a4 953b
00000080: 3493 513c b6dd 2abc a091 7ebb 4456 063c
00000090: 7852 80b9 f455 cd39 08f1 5d3b ccf1 9ebc
000000a0: 3ed1 5a3b fe60 523b f804 f93a c325 ae3c
000000b0: 90af 9ebc 0ee3 90bc ee4d d53b 26bf d53b
000000c0: 45a2 903b edd8 9d3b 3a06 b5bc 108e 10bd
000000d0: d7c3 abbb 2471 a03b 9024 783c e5f6 283b
000000e0: 4403 23bc a1be 863b c36e adbb 0004 b03a
000000f0: e281 473c b8a7 e6bb 0c47 c83a ba14 8e3b

exp_avg_sq f4 [64]
0.0004370875 0.0004939761 0.0010746731 0.00042048475 9.375007e-06 2.3433446e-05 0.00022701107 9.631261e-05
2.6121874e-05 5.4127057e-05 0.0003998881 0.00011323628 0.0012812878 0.00024476717 0.00034789095 0.0001485104
2.6477488e-05 0.0002218265 0.0002655649 0.00014689223 9.8554454e-05 0.00047763812 0.00035961706 0.0005036994
2.5075038e-05 0.00017581615 0.0006605137 0.0004041836 9.291929e-05 0.00041401273 0.00050929864 1.6098364e-05
0.0009046971 0.0007099445 0.0004343264 0.000101471625 4.791966e-05 7.574293e-06 1.849182e-05 0.00026576515
0.000363215 0.00039866075 0.00012948042 0.00057176227 0.00013434683 0.00036036948 0.0005072247 0.00015081922
3.4391276e-05 0.00019114283 0.0007341309 0.00032891653 0.00016674449 3.336407e-05 0.00048831705 4.549235e-06
0.00012717664 0.00042974323 0.0002680323 9.054367e-06 0.00071534625 8.571554e-05 6.631934e-06 3.6572845e-05
00000000: e428 e539 2d7e 013a 0cdc 8c3a 8274 dc39
00000010: 5949 1d37 f192 c437 d209 6e39 70fb c938
00000020: 4c20 db37 7c06 6338 12a8 d139 4479 ed38
00000030: e2f0 a73a 1854 8039 2265 b639 75b9 1b39
00000040: f91b de37 199a 6839 843b 8b39 1507 1a39
00000050: 05af ce38 816b fa39 fc8a bc39 b20a 043a
00000060: 3c58 d237 4a5b 3839 5326 2d3a 9be8 d339
00000070: aadd c238 d90f d939 7482 053a f90a 8737
00000080: 3229 6d3a 921b 3a3a 4db6 e339 2acd d438
00000090: 58fd 4838 ae26 fe36 e21e 9b37 6556 8b39
000000a0: e46d be39 5703 d139 23c5 0739 51e2 153a
000000b0: 74df 0c39 f9ef bc39 46f7 043a 3a25 1e39
000000c0: 5a3f 1038 836d 4839 b172 403a 6e72 ac39
000000d0: 22d8 2e39 66f0 0b38 6702 003a a2a5 9836
000000e0: b85a 0539 294f e139 b086 8c39 36e8 1737
000000f0: 1386 3b3a 2ec2 b338 e187 de36 cb65 1938

exp_avg f4 [8, 64]
0.0023137147 -0.0038819574 0.0011587313 0.0039379727 0.004885817 0.0027358253 0.001981777 0.0038035524
0.0029335734 -0.0008774997 0.006073814 0.0034663375 -0.0011784548 0.00044761383 -0.00763436 0.00019666308
0.0029232576 -0.003989127 -0.0018858537 0.003247761 0.0031499262 -0.0057479655 -0.0012095914 -0.0062793577
-0.005092649 0.0013188679 -0.0009128795 0.0006607615 0.0016383053 0.0012493513 -0.00032038812 0.0049403063
0.005167393 0.00020933292 -0.0066192513 0.0066687576 -0.004540842 0.0016954393 0.00035231683 -0.005303145
0.0038419862 0.0056027523 -0.0018750927 0.0007555733 -0.006334101 -0.0034736136 0.0070043886 0.0011630348
0.004137746 -0.00070677116 0.0022180255 0.0029347776 0.0031997575 -0.0033895108 -0.0007928015 0.003382177
-0.0041580484 0.0046665017 -0.0036997427 -0.0033289283 -0.0025553275 0.0029453533 -0.00333372 -0.00052137364
-0.009720519 0.0012241215 7.366366e-05 -0.0016789946 -0.00780278 -0.004782174 -0.0015447289 -0.0056718485
-0.0022150478 -0.0023073368 -0.0067752283 -0.0069478415 -0.00506563 -0.000609047 0.009577146 0.004335214
-0.0029453372 0.0033014354 -0.0012652241 -0.003309364 -0.0033306386 0.0043400135 -0.0003425846 0.0075202486
0.008017583 -0.0027222047 0.0026264389 -0.0018213005 0.0019253459 -0.01748168 -0.004679101 -0.008149397
-0.0064001847 0.002284254 0.0140636545 -0.02190069 0.005573103 -0.0020514384 0.0032672102 0.010227467
-0.012779754 -0.007508105 -0.005986792 0.0027713962 0.028831528 0.00074559636 -0.012313674 0.002392663
-0.0042027347 -0.0056663593 0.0076229293 0.02419206 -0.002996989 0.0046769567 0.00021067564 0.0052996716
0.0016415729 -0.013058167 0.0032725425 0.010143637 0.0016786593 -0.00693484 0.0053084446 0.0029710955
0.012752531 -0.0014143996 -0.003529854 0.003036485 0.0077123274 0.0053878576 -0.0026795738 0.005626601
0.0025051576 0.0017829824 0.009035401 0.0074205715 0.012656795 -0.0018571885 -0.010818581 -0.004490616
0.0018122718 -0.0058056084 0.006359968 0.00014058128 0.0063157203 -0.0049558273 0.0012885692 -0.010075041
-0.0085565 0.0063088015 -0.00054063974 -0.00032212446 -0.0038674367 0.027492052 0.0046814643 0.0095527135
0.008704638 -0.0071384236 -0.018764999 0.028469324 -0.004692544 0.0021968246 -0.0026761892 -0.012662167
0.018884119 0.010660892 0.00556934 -0.0035565724 -0.037637874 -0.0011759363 0.016122026 -0.0016223313
0.004332141 0.009560738 -0.01405976 -0.03839299 4.7902577e-05 -0.0016172342 0.00042493083 -0.0066021527
-0.0006346172 0.018863374 -0.005766081 -0.013449859 0.0025357986 0.007836478 -0.007199897 -0.0021947827
-0.010108857 0.00083746295 3.0907104e-05 -0.0015367714 -0.008433055 -0.0051363916 -0.0011596917 -0.0059809713
-0.0023444507 -0.0026340664 -0.007915628 -0.0071838554 -0.0055051357 -0.00037341984 0.011688764 0.0046528103
-0.003274242 0.003570916 -0.0016624327 -0.0032653916 -0.0043443777 0.003878002 0.00026791397 0.009762591
0.008733716 -0.0038796617 0.0018540511 -0.0016500984 0.00036604912 -0.014988179 -0.003973004 -0.00959251
-0.005631267 0.0026172507 0.016344978 -0.025233958 0.0063221664 -0.0016179457 0.0043350044 0.011361904
-0.014691547 -0.008270523 -0.0061377236 0.0033363632 0.030689478 0.00038416684 -0.013509309 0.002989139
-0.004881854 -0.0056948755 0.006292433 0.021390691 -0.0034104614 0.0060446765 0.0010281727 0.004515205
0.0022583718 -0.014815258 0.0036317897 0.010549747 0.001909998 -0.007199255 0.0057680733 0.0018545128
00000000: b1a1 173b 7068 7ebb 92e0 973a 1c0a 813b
00000010: 3419 a03b 884b 333b b3e0 013b 0545 793b
00000020: 3241 403b 0208 66ba d806 c73b 7e2b 633b
00000030: 6276 9aba b6ad ea39 a729 fabb 5837 4e39
00000040: 2094 3f3b 39b7 82bb c02e f7ba 63d8 543b
00000050: fe6e 4e3b 6e59 bcbb 278b 9eba 12c3 cdbb
00000060: 3ce0 a6bb dddd ac3a 4e4e 6fba f436 2d3a
00000070: 67bc d63a 46c1 a33a c4f9 a7b9 4be2 a13b
00000080: 3c53 a93b 6180 5b39 4ee6 d8bb 9885 da3b
00000090: 58cb 94bb 8139 de3a 2ab7 b839 01c6 adbb
000000a0: d5c9 7b3b 4b97 b73b acc5 f5ba aa11 463a
000000b0: 4a8e cfbb 91a5 63bb 1285 e53b f970 983a
000000c0: ee95 873b 9c46 39ba 4b5c 113b 6655 403b
000000d0: 06b3 513b 8e22 5ebb 02d4 4fba 84a7 5d3b
000000e0: 3d40 88bb 74e9 983b 6277 72bb 262a 5abb
000000f0: 4877 27bb d406 413b 8a7a 5abb cbac 08ba
00000100: d042 1fbc b472 a03a e07b 9a38 b611 dcba
00000110: 76ae ffbb c8b3 9cbb 8078 caba eada b9bb
00000120: 562a 11bb b036 17bb bc02 debb b8aa e3bb
00000130: 96fd a5bb 74a8 1fba 76e9 1c3c 690e 8e3b
00000140: 8f06 41bb e55c 583b e0d5 a5ba eae1 58bb
00000150: d846 5abb ac36 8e3b ed9c b3b9 6b6c f63b
00000160: 2e5c 033c 0467 32bb 5520 2c3b b4b8 eeba
00000170: e35b fc3a bd35 8fbc 2553 99bb 0c85 05bc
00000180: a4b8 d1bb 6cb3 153b 3e6b 663c 1369 b3bc
00000190: 949e b63b 6d71 06bb b11e 563b 1b91 273c
000001a0: 2c62 51bc 8d06 f6bb da2c c4bb 50a0 353b
000001b0: 1930 ec3c 2074 433a 4bbf 49bc 39ce 1c3b
000001c0: 18b7 89bb deac b9bb c4c9 f93b 6d2e c63c
000001d0: 2269 44bb 2841 993b d0e8 5c39 dea8 ad3b
000001e0: 0c2a d73a ecf1 55bc 2778 563b 7f31 263c
000001f0: 7606 dc3a a83d e3bb 76f2 ad3b b6b6 423b
00000200: feef 503c 6063 b9ba 1f55 67bb c4ff 463b
00000210: b1b7 fc3b a08c b03b ca9b 2fbb 5a5f b83b
00000220: 922d 243b f6b2 e93a 3809 143c 4428 f33b
00000230: 725e 4f3c e86c f3ba 6b40 31bc 0426 93bb
00000240: c089 ed3a f93c bebb 4767 d03b 0069 1339
00000250: 1af4 ce3b 7e64 a2bb 35e5 a83a c911 25bc
00000260: 9030 0cbc 10ba ce3b b8b9 0dba d0e2 a8b9
00000270: d274 7dbb 0337 e13c f866 993b fc82 1c3c
00000280: e69d 0e3c 70e9 e9bb 0eb9 99bc 8038 e93c
00000290: eac3 99bb 9af8 0f3b 0163 2fbb fa74 4fbc
000002a0: deb2 9a3c 06ab 2e3c 037f b63b 6215 69bb
000002b0: 2c2a 1abd e021 9aba 5712 843c 68a4 d4ba
000002c0: a2f4 8d3b a4a4 1c3c e85a 66bc f841 1dbd
000002d0: 00eb 4838 60f9 d3ba 40c9 de39 df56 d8bb
000002e0: 705c 26ba 5d87 9a3c 65f1 bcbb cc5c 5cbc
000002f0: a42f 263b 9264 003c 1ded ebbb 58d6 0fbb
00000300: 9f9f 25bc 3089 5b3a 40a2 0138 7e6d c9ba
00000310: cc2a 0abc 2d4f a8bb cc00 98ba 06fc c3bb
00000320: 5ba5 19bb 4da0 2cbb 8db0 01bc 8c66 ebbb
00000330: 6d64 b4bb 90c7 c3b9 3b82 3f3c 9a76 983b
00000340: aa94 56bb 0706 6a3b fce5 d9ba 2e00 56bb
00000350: 485b 8ebb 1426 7e3b ce76 8c39 46f3 1f3c
00000360: dc17 0f3c ec41 7ebb a203 f33a 1d48 d8ba
00000370: 48ea bf39 fb90 75bc f92f 82bb e729 1dbc
00000380: 7e86 b8bb 2e86 2b3b e7e5 853c 72b7 cebc
00000390: 2d2a cf3b 4011 d4ba a70c 8e3b 4827 3a3c
000003a0: d0b4 70bc 1681 07bc f51e c9bb e3a6 5a3b
000003b0: 8068 fb3c 006a c939 2656 5dbc 6ee5 433b
000003c0: f6f7 9fbb 149c babb c130 ce3b 883b af3c
000003d0: 0c82 5fbb 6c12 c63b c0c3 863a 49f4 933b
000003e0: 3101 143b b2bb 72bc 5203 6e3b d9d8 2c3c
000003f0: e658 fa3a bae7 ebbb 1b02 bd3b 2013 f33a

exp_avg_sq f4 [8, 64]
8.577781e-06 7.644702e-06 8.452931e-07 5.549802e-06 1.0441953e-05 3.8896874e-06 3.321342e-06 8.634572e-06
3.2171067e-06 3.9744737e-06 9.0834765e-06 8.628994e-06 1.1431778e-06 1.678626e-06 8.4258045e-06 9.255667e-07
3.593371e-06 7.899036e-06 2.551845e-06 7.861301e-06 7.874732e-06 1.0406452e-05 4.977491e-06 8.491892e-06
9.54377e-06 3.9140227e-06 2.046879e-06 3.0091824e-06 9.393603e-06 8.626958e-06 2.0865959e-05 3.5588569e-06
1.0132248e-05 3.847558e-06 9.736628e-06 6.9802254e-06 8.417839e-06 2.9861756e-06 1.8122389e-06 4.053688e-06
4.36299e-06 9.289936e-06 9.257397e-06 5.474922e-06 8.5741385e-06 5.479664e-06 1.0912078e-05 2.2278386e-06
3.914775e-06 3.9209035e-06 6.4076507e-06 1.1579065e-05 4.8758634e-06 2.1963465e-06 8.0204645e-06 5.0641866e-06
3.7451953e-06 6.3571797e-06 5.5387754e-06 4.622465e-06 3.8826856e-06 4.6125533e-06 4.4659246e-06 3.6888407e-06
0.0001186108 0.00014352363 1.583458e-05 6.83112e-05 0.00025266007 8.635486e-05 9.047105e-05 0.00019692142
5.8949197e-05 2.2927732e-05 7.793537e-05 0.00020526226 2.19071e-05 2.4060366e-05 0.00012408075 2.697206e-05
7.838201e-05 4.465199e-05 5.5032888e-05 0.000181591 1.8741368e-05 0.00019594732 2.924164e-05 4.5340104e-05
0.00023066076 2.2246408e-05 5.837557e-05 4.2813386e-05 9.263581e-05 0.00015411587 0.00024694257 7.3050294e-05
0.00017709474 3.071888e-05 0.00019147675 0.0001929621 0.00018415957 5.7604026e-05 3.8921375e-05 8.304714e-05
0.0001111299 9.460138e-05 0.00013990636 7.5913376e-05 0.00020892864 0.00010346613 0.00020922584 3.669699e-05
7.952947e-05 5.3095e-05 5.9590035e-05 0.00015672087 0.000108672124 4.843884e-05 7.3279734e-05 7.386544e-05
6.798562e-05 0.000104459876 3.6522975e-05 0.00013218388 8.3085826e-05 0.00012504666 4.4975255e-05 7.870165e-05
0.00037531246 0.0004591328 3.0142612e-05 0.00021681303 0.000575952 0.00018959778 0.0001867026 0.0004717836
0.0001831333 4.6433837e-05 0.00020069184 0.0004646675 5.6085904e-05 5.295816e-05 0.00028875057 5.377234e-05
0.00020001958 0.0001302978 0.0001254886 0.00040636226 4.6349996e-05 0.0005586291 8.612131e-05 9.578736e-05
0.00054463843 6.4052554e-05 0.00011803131 7.4194824e-05 0.00028263745 0.00046865633 0.0005793304 0.00019877177
0.00050340383 6.298995e-05 0.00035448352 0.00035671645 0.00043835462 0.00017354659 0.00012458289 0.00024333515
0.00019677065 0.00023927477 0.00026220112 0.00026159475 0.00051718653 0.0003471066 0.00046570235 0.00010512783
0.00022836916 0.00010747701 0.00015250212 0.00044653966 0.00022674465 8.077595e-05 0.00023535945 0.00014057673
0.00021630852 0.0001869005 0.00010584297 0.00026683862 0.00017104064 0.00025530905 0.00010044447 0.00020209092
0.0001029118 0.000119957636 1.470312e-05 6.2874424e-05 0.00029310634 0.00010268775 9.889296e-05 0.00022508999
6.057915e-05 2.9408466e-05 8.518551e-05 0.0002424649 1.6214955e-05 2.5683523e-05 0.00013906245 3.437188e-05
8.080928e-05 4.7142097e-05 4.9207807e-05 0.00019987393 2.2634016e-05 0.00018086558 3.0851977e-05 5.7382695e-05
0.00026197755 1.8969351e-05 6.1004434e-05 4.82323e-05 8.81835e-05 0.00013776128 0.00028353828 7.998733e-05
0.00016559639 3.015103e-05 0.0002474113 0.00025397734 0.00020299689 5.5328503e-05 3.8691505e-05 8.3183746e-05
0.00015319974 0.00010399858 0.00018235663 6.301558e-05 0.00022820944 8.501078e-05 0.00023882439 3.9996998e-05
8.1578924e-05 7.0088754e-05 7.094587e-05 0.00015512382 0.00011892395 5.551791e-05 6.983435e-05 9.645519e-05
6.0534985e-05 0.00014183208 3.8705948e-05 0.00016184886 8.940694e-05 0.0001481037 5.2829753e-05 7.8660036e-05
00000000: 4ae9 0f37 bf41 0037 19e8 6235 7038 ba36
00000010: d92f 2f37 2984 8236 39e4 5e36 34dd 1037
00000020: 79e5 5736 785c 8536 3c65 1837 3fc5 1037
00000030: 4a6f 9935 264d e135 8e5c 0d37 7674 7835
00000040: a525 7136 1a86 0437 5d40 2b36 08e4 0337
00000050: b71d 0437 5f97 2e37 5204 a736 6678 0e37
00000060: 2e1e 2037 3355 8336 1d5d 0936 5cf1 4936
00000070: 3899 1d37 81bc 1037 4e09 af37 b2d4 6e36
00000080: acfd 2937 461a 8136 805a 2337 ae37 ea36
00000090: 583a 0d37 1b66 4836 0e3c f335 ea04 8836
000000a0: cc65 9236 f9db 1b37 3850 1b37 39b5 b736
000000b0: a5d9 0f37 f5dd b736 0513 3737 fa81 1536
000000c0: a95b 8336 4e90 8336 4d01 d736 b543 4237
000000d0: 599b a336 f264 1336 a28f 0637 08ed a936
000000e0: f755 7b36 c24f d536 b8d9 b936 ac1a 9b36
000000f0: 0448 8236 88c5 9a36 00da 9536 cd8d 7736
00000100: b0be f838 d57e 1639 80d4 8437 4c42 8f38
00000110: 7677 8439 6a19 b538 46bb bd38 b17c 4e39
00000120: 3840 7738 ee54 c037 3c71 a338 ab3b 5739
00000130: 24c5 b737 3ed5 c937 ac1b 0239 0f42 e237
00000140: 0561 a438 b648 3b38 1dd3 6638 7669 3e39
00000150: c836 9d37 3577 4d39 f24b f537 912b 3e38
00000160: 87dd 7139 cc9d ba37 4ad8 7438 8692 3338
00000170: 7945 c238 2a9a 2139 1278 8139 9432 9938
00000180: 82b2 3939 25d8 0038 26c7 4839 df55 4a39
00000190: f51a 4139 da9b 7138 823f 2338 9829 ae38
000001a0: 690e e938 bb64 c638 d4b3 1239 af33 9f38
000001b0: db13 5b39 f5fb d838 a263 5b39 18eb 1938
000001c0: 0fc9 a638 52b2 5e38 50f0 7938 7055 2439
000001d0: e7e6 e338 cf2a 4b38 c2ad 9938 35e8 9a38
000001e0: 8093 8e38 7811 db38 3f30 1938 d79a 0a39
000001f0: 5d3e ae38 f51e 0339 d0a3 3c38 a00c a538
00000200: 96c5 c439 c3b7 f039 c4da fc37 4e58 6339
00000210: 7cfb 163a c4ce 4639 99c5 4339 b959 f739
00000220: 7907 4039 f4c1 4238 ce70 5239 9e9e f339
00000230: c83d 6b38 641f 5e38 7263 9739 9c89 6138
00000240: 59bc 5139 8da0 0839 9795 0339 050d d539
00000250: ee67 4238 f770 123a 079c b438 73e1 c838
00000260: 11c6 0e3a f453 8638 9487 f738 0b99 9b38
00000270: f52e 9439 fdb5 f539 34de 173a 646d 5039
00000280: dcf6 033a 7919 8438 f9d9 b939 ac05 bb39
00000290: f6d2 e539 0ffa 3539 77a2 0239 c827 7f39
000002a0: 3854 4e39 d5e5 7a39 0a78 8939 a726 8939
000002b0: cd93 073a dcfb b539 8329 f439 1378 dc38
000002c0: 6176 6f39 4865 e138 fae8 1f39 8a1d ea39
000002d0: 4ec2 6d39 4266 a938 d2ca 7639 c767 1339
000002e0: e0d0 6239 b9fa 4339 03f8 dd38 79e6 8b39
000002f0: 5f59 3339 00db 8539 b7a5 d238 5ee8 5339
00000300: 5ad2 d738 c491 fb38 6bad 7637 73db 8338
00000310: 11ac 9939 115a d738 c164 cf38 2206 6c39
00000320: 5e16 7e38 33b2 f637 9fa5 b238 2d3e 7e39
00000330: 5a05 8837 f272 d737 4bd1 1139 862a 1038
00000340: 2778 a938 71ba 4538 7b64 4e38 4095 5139
00000350: 2ede bd37 bca6 3d39 0f67 0138 33ae 7038
00000360: 085a 8939 5f20 9f37 03df 7f38 0a4d 4a38
00000370: 28ef b838 0374 1039 dda7 9439 dfbe a738
00000380: f1a3 2d39 d8ec fc37 fcb6 8139 4328 8539
00000390: 90db 5439 8710 6838 b048 2238 ef72 ae38
000003a0: 3ea4 2039 d019 da38 fc36 3f39 3b27 8438
000003b0: 814b 6f39 d147 b238 ef6c 7a39 73c2 2738
000003c0: 5a15 ab38 9dfc 9238 c6c8 9438 bca8 2239
000003d0: cf66 f938 e7db 6838 0874 9238 fc47 ca38
000003e0: f2e6 7d38 c2b8 1439 3258 2238 f9b5 2939
000003f0: fc7f bb38 494c 1b39 8495 5d38 49f6 a438

exp_avg f4 [8]
-0.007360068 0.012400056 -0.010388155 0.013175763 -0.010462506 0.009804694 0.006995638 0.0022039162
00000000: ba2c f1bb 9b29 4b3c 1433 2abc 28df 573c
00000010: ee6a 2bbc dea3 203c aa3b e53b 946f 103b

exp_avg_sq f4 [8]
3.6210025e-05 0.0009201461 0.0019605784 0.0010898766 0.0010118219 0.00016991088 0.00017017368 0.000113713424
00000000: 38e0 1738 f635 713a 0c7d 003b 31da 8e3a
00000010: 1c9f 843a 1b2a 3239 a670 3239 6e79 ee38

exp_avg f4 [2, 8]
-0.0018831166 -0.022773057 0.021491941 -0.021576688 0.022229545 0.0064807953 -0.0056340657 -0.0022688357
0.001883117 0.022773061 -0.021491941 0.02157668 -0.022229552 -0.006480798 0.0056340676 0.0022688333
00000000: e8d2 f6ba 908e babc de0f b03c 98c1 b0bc
00000010: bc1a b63c da5c d43b f89d b8bb bfb0 14bb
00000020: ecd2 f63a 928e ba3c de0f b0bc 94c1 b03c
00000030: c01a b6bc e05c d4bb fc9d b83b b5b0 143b

exp_avg_sq f4 [2, 8]
0.00020523556 0.00086414843 0.00023433151 0.0005869074 0.0002413782 0.00034188476 0.0002055776 0.00018775096
0.00020523553 0.0008641485 0.0002343315 0.0005869075 0.00024137816 0.00034188476 0.00020557763 0.00018775095
00000000: 8034 5739 0588 623a e3b6 7539 b0da 193a
00000010: 781a 7d39 ff3e b339 5190 5739 04df 4439
00000020: 7e34 5739 0688 623a e2b6 7539 b2da 193a
00000030: 751a 7d39 ff3e b339 5390 5739 03df 4439

exp_avg f4 [2]
-0.00012530573 0.00012530433
00000000: 8064 03b9 2064 0339

exp_avg_sq f4 [2]
8.105193e-05 8.105192e-05
00000000: 6cfa a938 6bfa a938

model.1.defunc.m.0.weight f4 [64, 8]
-0.3555443 0.47258595 0.008832207 0.24726754 0.10082133 0.36006278 0.40306774 0.5841857
0.13415973 -0.57831275 -0.07243488 -0.44624382 0.22672503 -0.55911934 0.09470413 -0.48877755
-0.13666272 0.15662245 0.4228725 -0.31329215 -0.04836385 -0.029383423 -0.11244351 0.1547035
0.016590936 0.11240542 -0.4696205 0.35224307 -0.6087231 0.1299755 -0.23133387 0.36484173
0.06229024 0.19766554 0.16318172 0.17306682 0.006002591 -0.035619922 -0.06312726 0.0043406226
0.2065956 0.0069927927 -0.0359522 0.09894146 0.25310358 0.061464984 -0.08411986 -0.08449806
0.04448836 -0.058622923 0.4367263 0.15249147 0.4598422 -0.04356195 -0.18290012 0.06561368
0.19103499 0.010701827 -0.21914512 -0.03237014 -0.0605465 0.19631125 0.042615082 0.01896195
0.102239996 0.383089 -0.24376255 0.2420234 0.27544492 0.09708703 -0.030318774 0.070961215
-0.27071345 -0.18906872 0.036919743 0.39089745 -0.13169621 -0.13011512 0.26584277 -0.0129880505
0.043049734 0.21201435 -0.2713485 0.4679423 -0.20683853 -0.3536057 -0.4061451 0.33057803
0.25629753 0.2745954 0.1488685 -0.09736407 0.06969948 0.082267374 -0.022264056 -0.109924406
-0.19598651 0.16311789 -0.53758556 0.20029317 -0.3648086 -0.17723022 0.12560473 -0.28551647
-0.13311133 0.18043111 0.1955594 -0.057982817 0.30712166 -0.0023909027 -0.036909062 0.040015727
-0.43187788 -0.05338022 0.16834235 -0.0064423983 0.4204168 0.24875939 0.13133806 -0.50450456
0.28869042 -0.04381802 0.04614187 0.21722007 -0.35490122 0.25487545 0.15223502 0.10966256
-0.1111241 -0.13035947 -0.05974986 0.2257193 0.1831788 0.08658064 -0.086823635 0.15401568
-0.12852114 -0.23936221 0.2758248 -0.47763482 0.19296359 0.14367288 0.34687087 -0.22340705
0.12815711 0.34906876 0.08882145 0.2519073 -0.22892198 -0.20837662 0.1920423 -0.28599355
0.0875434 -0.2547618 -0.14590314 -0.051156547 0.29775143 0.19198969 -0.03463672 0.13397934
0.25655916 0.3441908 0.03905487 -0.13885687 -0.29623687 -0.2561479 -0.24451108 0.032561347
-0.097818844 -0.4131098 0.010462847 -0.55011654 0.6647881 -0.31146842 0.5962036 -0.47496814
-0.35205448 0.042982303 -0.5776834 0.10645488 -0.08950831 0.25322506 0.2684438 -0.07895615
-0.22540632 0.08818461 0.33816075 -0.17358758 0.3264245 0.40473792 0.20304999 -0.27921304
0.04658004 -0.19820805 0.25445792 0.030381378 0.23522662 -0.04786082 0.10881665 -0.11176785
0.16182299 0.19199252 -0.37610522 -0.11242075 -0.03987829 -0.2459982 -0.026311155 -0.036984287
0.21060792 0.027604662 -0.25036317 0.04026043 -0.26761314 0.0059441994 0.31950438 -0.030374618
-0.103702985 -0.32764283 0.35763067 0.1847327 -0.06648642 0.015114183 -0.04392042 0.026691271
0.21078384 0.09443613 0.27653667 -0.48907286 -0.09950398 -0.5915954 -0.10731226 0.2348317
-0.085661046 0.5411645 -0.29594752 0.661076 -0.4117709 0.60746306 -0.6973893 -0.22627756
0.09842262 0.23171882 0.038774572 0.15243015 0.14301008 0.59772325 0.5047732 -0.5008378
0.2024205 0.24573086 0.04141643 0.35059777 -0.116483845 -0.086065404 0.19583642 0.38165793
00000000: e709 b6be c9f6 f13e f6b4 103c b433 7d3e
00000010: 6a7b ce3d 265a b83e e55e ce3e 328d 153f
00000020: 2b61 093e 4e0c 14bf bd58 94bd 127a e4be
00000030: 9b2a 683e 7222 0fbf 3df4 c13d 0d41 fabe
00000040: 50f1 0bbe a361 203e bf82 d83e d467 a0be
00000050: 2c19 46bd 81b5 f0bc c848 e6bd 986a 1e3e
00000060: b7e9 873c d034 e63d 1972 f0be 3459 b43e
00000070: 47d5 1bbf 4c18 053e c9e2 6cbe 89cc ba3e
00000080: 0d24 7f3d d668 4a3e 1c19 273e 6e38 313e
00000090: 62b1 c43b 32e6 11bd dd48 81bd c83b 8e3b
000000a0: cc8d 533e cc23 e53b 9d42 13bd d2a1 ca3d
000000b0: cb96 813e b5c2 7b3d 0847 acbd 520d adbd
000000c0: 6d39 363d 971e 70bd 979a df3e b926 1c3e
000000d0: 7070 eb3e 046e 32bd 2b4a 3bbe 7760 863d
000000e0: ad9e 433e b756 2f3c 9467 60be 8d96 04bd
000000f0: 9bff 77bd d105 493e 278d 2e3d 1756 9b3c
00000100: 3463 d13d 3e24 c43e e49c 79be fbd4 773e
00000110: 1e07 8d3e 91d5 c63d 145f f8bc 1d54 913d
00000120: f49a 8abe 3b9b 41be 2839 173d b623 c83e
00000130: 5fdb 06be e63c 05be 8b1c 883e d5cb 54bc
00000140: eb54 303d 4a1a 593e 31ee 8abe 2296 ef3e
00000150: 7bcd 53be ce0b b5be 40f2 cfbe 8641 a93e
00000160: 6e39 833e c597 8c3e fc70 183e d066 c7bd
00000170: 9abe 8e3d cc7b a83d 1c63 b6bc 0c20 e1bd
00000180: b0b0 48be 6008 273e 359f 09bf a719 4d3e
00000190: 31c8 babe d77b 35be 879e 003e 372f 92be
000001a0: 564e 08be efc2 383e b940 483e 647f 6dbd
000001b0: 0d3f 9d3e b1b0 1cbb f52d 17bd 88e7 233d
000001c0: 191f ddbe 38a5 5abd f061 2c3e c11a d3bb
000001d0: df40 d73e c8ba 7e3e 7c7d 063e 3627 01bf
000001e0: 3bcf 933e 867a 33bd 42ff 3c3d f06e 5e3e
000001f0: 9db5 b5be 097f 823e 7fe3 1b3e c496 e03d
00000200: 0895 e3bd f47c 05be 45bc 74bd f622 673e
00000210: 3993 3b3e 3151 b13d 97d0 b1bd 49b6 1d3e
00000220: 0c9b 03be 5e1b 75be e838 8d3e 8d8c f4be
00000230: 3f98 453e fc1e 133e 0f99 b13e d1c4 64be
00000240: 9e3b 033e 24b9 b23e 05e8 b53d fef9 803e
00000250: 866a 6abe ae60 55be bda6 443e bf6d 92be
00000260: f449 b33d 2370 82be a267 15be 8789 51bd
00000270: e072 983e f298 443e 3cdf 0dbd e131 093e
00000280: b95b 833e c739 b03e 00f8 1f3d 7f30 0ebe
00000290: 5cac 97be d125 83be 1d61 7abe 0c5f 053d
000002a0: 3f55 c8bd 2183 d3be 5c6c 2b3c 70d4 0cbf
000002b0: 8e2f 2a3f ca78 9fbe cda0 183f 062f f3be
000002c0: 7c40 b4be 360e 303d 0fe3 13bf 0405 da3d
000002d0: 2250 b7bd b7a6 813e 7771 893e c3b3 a1bd
000002e0: ead0 66be 229a b43d 6823 ad3e f1c0 31be
000002f0: 1d21 a73e cf39 cf3e 56ec 4f3e 03f5 8ebe
00000300: b6ca 3e3d 0df7 4abe 4f48 823e 5ee2 f83c
00000310: 3fdf 703e b509 44bd 44db de3d 8be6 e4bd
00000320: edb4 253e b099 443e dd90 c0be da3c e6bd
00000330: 6b57 23bd f4e6 7bbe 7e8a d7bc d67c 17bd
00000340: 9aa9 573e 2c23 e23c 9a2f 80be 1fe8 243d
00000350: 9704 89be 8fc7 c23b 1496 a33e 31d4 f8bc
00000360: 3b62 d4bd cdc0 a7be 5e1b b73e 922a 3d3e
00000370: 082a 88bd 7aa1 773c e6e5 33bd a7a7 da3c
00000380: b8d7 573e bb67 c13d 3796 8d3e c267 fabe
00000390: bec8 cbbd cc72 17bf 88c6 dbbd b977 703e
000003a0: 0f6f afbd c289 0a3f 6f86 97be 473c 293f
000003b0: a3d3 d2be b382 1b3f 1b88 32bf 4eb5 67be
000003c0: cc91 c93d b347 6d3e 16d2 1e3d a616 1c3e
000003d0: 3c71 123e 6404 193f d138 013f e836 00bf
000003e0: 5247 4f3e dfa0 7b3e 46a4 293d 8d81 b33e
000003f0: 158f eebd 0f43 b0bd 5889 483e ab68 c33e

model.1.defunc.m.0.bias f4 [64]
-0.36157477 0.2613567 -0.24414349 -0.06529454 -0.58811945 -0.23064272 -0.3574953 -0.42042944
-0.08521723 -0.21801633 -0.1727406 -0.3974745 0.16708651 -0.18615751 0.33437228 0.20846818
-0.33890805 -0.046263922 0.35382903 -0.48680785 0.12731381 0.39493307 -0.10908237 0.152954
0.552007 0.2189453 0.33366242 -0.36598542 0.21672694 -0.23480071 -0.44665232 -0.21748969
-0.2972234 -0.273999 0.3754989 -0.51781833 0.500674 -0.23273371 0.18458314 0.29911003
-0.20348328 -0.14203228 -0.39424074 -0.14071909 0.45806783 0.12778494 -0.44749218 0.19118305
-0.26006973 -0.071407065 0.17637861 0.32733765 -0.43218488 0.3327788 -0.09787223 0.23366149
0.21630636 -0.19073981 0.049588207 0.4291293 0.37104204 -0.42858547 0.12574698 0.34307358
00000000: 5420 b9be 8cd0 853e c000 7abe 25b9 85bd
00000010: ff8e 16bf 9b2d 6cbe a009 b7be 8742 d7be
00000020: 5f86 aebd ac3f 5fbe e9e2 30be c781 cbbe
00000030: ba18 2b3e 13a0 3ebe d832 ab3e af78 553e
00000040: 5b85 adbe 3d7f 3dbd 1429 b53e e13e f9be
00000050: 8d5e 023e ab34 ca3e 9466 dfbd f99f 1c3e
00000060: 5550 0d3f 3233 603e cdd5 aa3e 7162 bbbe
00000070: abed 5d3e 996f 70be 9daf e4be 9eb5 5ebe
00000080: aa2d 98be 9949 8cbe 6441 c03e be8f 04bf
00000090: 2c2c 003f bf51 6ebe 5d03 3d3e f324 993e
000000a0: ec5d 50be e970 11be ecd9 c9be aa18 10be
000000b0: de87 ea3e 0eda 023e b21d e5be 7dc5 433e
000000c0: dc27 85be de3d 92bd 989c 343e cd98 a73e
000000d0: 5647 ddbe fc61 aa3e 3c71 c8bd f544 6f3e
000000e0: 6a7f 5d3e 4c51 43be 011d 4b3d d6b6 db3e
000000f0: 39f9 bd3e 8e6f dbbe d1c3 003e 57a7 af3e

model.1.defunc.m.2.weight f4 [8, 64]
-0.1434457 0.054246243 0.20463766 0.09896092 0.0890067 0.29166824 0.39461678 0.011351117
-0.056713536 -0.13751848 0.27162963 0.35939384 -0.2926084 -0.17988908 -0.017449511 -0.325193
0.0565336 -0.05072686 -0.26860777 0.27372718 0.24317138 -0.07136147 -0.13338454 -0.20186695
-0.097106375 0.17802244 -0.4459081 -0.10932477 0.14120188 0.1440907 -0.17543425 0.12041653
0.2213258 -0.045124732 -0.06595112 0.18826303 0.051603664 0.009625386 -0.0072156237 -0.13285756
0.26141044 0.17284685 -0.010820858 -0.35595116 -0.009739756 0.07618543 0.071465276 0.14221911
-0.0117275 -0.1746559 0.1707671 -0.098883234 0.047804043 -0.07571161 -0.12135316 -0.15914689
0.063682936 0.27119857 -0.08248861 -0.17708148 -0.11158358 0.30729505 -0.11900432 -0.13674231
0.2909624 -0.18891889 -0.17710619 0.12629998 0.089243256 -0.14774361 0.016125826 0.00023482129
0.25159174 0.084242485 0.1533681 -0.090313196 0.1816187 -0.12505177 -0.20850843 0.26814663
0.02886829 -0.16692798 0.0038374406 0.039867595 0.003021367 -0.15955739 0.29510945 -0.2725927
-0.019507652 -0.06283602 0.16497925 -0.06044097 -0.1198648 0.25540045 0.24945532 0.22657192
0.229424 -0.18748927 -0.07646683 0.075842194 -0.10635391 0.021378962 0.030741481 -0.24463332
-0.028516503 0.20689076 -0.0017293639 0.31932226 -0.12935862 -0.2164924 0.20611347 0.19192553
0.18478633 0.04414203 -0.2685845 -0.29640123 0.11223235 -0.036852542 0.26470083 0.021940354
-0.2866525 0.036306094 -0.1722404 0.14521803 0.062342636 -0.18087497 0.10264135 -0.02754251
-0.07812624 0.12775007 0.26078227 -0.14580593 -0.002825984 -0.14970732 0.1437949 0.17474924
-0.07024359 -0.12255158 -0.22064471 0.062739976 -0.3961043 0.1013443 0.25072417 -0.006669807
0.1467868 0.09736444 -0.20367804 0.21350113 -0.13737454 0.2592883 -0.044773903 0.20743433
-0.028008992 -0.11618996 -0.19146447 0.11315189 -0.059288792 -0.14066365 -0.263495 0.006348449
-0.2997638 0.2958548 0.18879336 -0.20834184 -0.13182555 0.023847079 0.11757086 0.12067663
-0.22196661 -0.18921253 -0.27277595 -0.12963273 0.11945337 0.047833115 -0.14483213 -0.092962496
0.05890722 -0.23839422 0.19279021 0.22075473 0.012831112 0.07412621 -0.078602836 0.12620726
0.054284953 -0.33053434 0.07716462 0.098182954 -0.2671728 -0.032552626 -0.09238854 -0.037082165
0.2868394 -0.2681529 -0.25381005 0.23203748 0.03712804 -0.11227869 -0.07675417 0.04856185
-0.07645035 -0.022767296 0.07937949 -0.12687267 0.19911945 -0.14947389 -0.1608785 0.13367864
0.019476913 -0.052252967 0.15039535 0.0086618215 -0.047825422 -0.25147656 0.2323099 -0.15131836
0.036977854 0.100990504 0.22634998 -0.24161033 -0.23810326 0.211433 0.1250847 -0.016783893
0.27911264 -0.15487666 -0.18712796 -0.060417082 -0.07016861 0.062406268 0.15526952 -0.1305534
0.081204474 0.08288347 -0.03166821 0.287891 -0.15136684 -0.2294123 0.3012849 0.03259507
0.120029636 0.026542326 -0.32079494 -0.15555565 -0.18173914 0.102880776 0.21836312 0.09533076
-0.08694238 -0.019795552 -0.12321105 -0.057248317 0.15860774 -0.039041266 -0.054371946 0.048606306
00000000: 6ee3 12be 4f31 5e3d 898c 513e 06ac ca3d
00000010: 2549 b63d 8a55 953e 360b ca3e 09fa 393c
00000020: 744c 68bd a5d1 0cbe 0a13 8b3e 7802 b83e
00000030: c5d0 95be d834 38be 47f2 8ebc b27f a6be
00000040: c78f 673d f8c6 4fbd f586 89be f825 8c3e
00000050: eb01 793e f625 92bd f595 08be 36b6 4ebe
00000060: b5df c6bd 844b 363e 114e e4be aae5 dfbd
00000070: 3a97 103e 838c 133e 09a5 33be f19c f63d
00000080: 3ba3 623e b6d4 38bd 6111 87bd 06c8 403e
00000090: 5d5e 533d ccb3 1d3c 0a71 ecbb d00b 08be
000000a0: 97d7 853e c4fe 303e f849 31bc 3b3f b6be
000000b0: 7f93 1fbc 1b07 9c3d 635c 923d e3a1 113e
000000c0: b324 40bc ffd8 32be 92dd 2e3e 4b83 cabd
000000d0: 2cce 433d b00e 9bbd 0188 f8bd 67f7 22be
000000e0: 336c 823d 8ada 8a3e caef a8bd d954 35be
000000f0: ef85 e4bd c755 9d3e 89b8 f3bd 2d06 0cbe
00000100: 06f9 943e f473 41be 535b 35be c854 013e
00000110: 2bc5 b63d 1a4a 17be 4f1a 843c 5c3a 7639
00000120: a2d0 803e 5387 ac3d 870c 1d3e 20f6 b8bd
00000130: 41fa 393e 920d 00be 3c83 55be 844a 893e
00000140: 317d ec3c 2bef 2abe 927d 7b3b 344c 233d
00000150: 2002 463b 0363 23be 9618 973e 4591 8bbe
00000160: 83ce 9fbc 2cb0 80bd 52f0 283e f390 77bd
00000170: ad7b f5bd d9c3 823e 3771 7f3e 7802 683e
00000180: 20ee 6a3e 30fd 3fbe a49a 9cbd 2753 9b3d
00000190: 14d0 d9bd ef22 af3c 8fd5 fb3c 2881 7abe
000001a0: 719b e9bc 2cdb 533e d3ab e2ba 357e a33e
000001b0: 9676 04be 2fb0 5dbe 690f 533e 2088 443e
000001c0: a138 3d3e 46ce 343d e883 89be e7c1 97be
000001d0: 13da e53d b1f2 16bd de86 873e 42bc b33c
000001e0: 1ec4 92be b3b5 143d ca5f 30be 09b4 143e
000001f0: fe5a 7f3d 4a37 39be a135 d23d d4a0 e1bc
00000200: a600 a0bd ead0 023e 4185 853e 264e 15be
00000210: 2534 39bb e04c 19be f83e 133e 77f1 323e
00000220: dfdb 8fbd 53fc fabd b0f0 61be d17d 803d
00000230: 2fce cabe 9a8d cf3d eb5e 803e 658e dabb
00000240: 474f 163e 0267 c73d fa90 50be 0aa0 5a3e
00000250: e9ab 0cbe 70c1 843e d764 37bd aa69 543e
00000260: 1d73 e5bc 00f5 edbd 430f 44be 2ebc e73d
00000270: ced8 72bd 220a 10be d1e8 86be a606 d03b
00000280: a47a 99be 487a 973e 0c53 413e 9057 55be
00000290: 47fd 06be f35a c33c fec8 f03d 4f25 f73d
000002a0: 374b 63be eec0 41be 4aa9 8bbe 71be 04be
000002b0: f8a3 f43d a8ec 433d e04e 14be 1f63 bebd
000002c0: b248 713d 9d1d 74be cc6a 453e 870d 623e
000002d0: 9639 523c 7bcf 973d 86fa a0bd 7a3c 013e
000002e0: e659 5e3d cc3b a9be 7c08 9e3d 2514 c93d
000002f0: e0ca 88be e755 05bd 3436 bdbd 78e3 17bd
00000300: 9ddc 923e 564b 89be 64f3 81be 3c9b 6d3e
00000310: 9213 183d 5ff2 e5bd 4a31 9dbd cae8 463d
00000320: 0092 9cbd 7b82 babc b791 a23d e9ea 01be
00000330: f8e5 4b3e af0f 19be 55bd 24be 0ee3 083e
00000340: 0c8e 9f3c 3507 56bd 3d01 1a3e 50ea 0d3c
00000350: 97e4 43bd 89c1 80be a5e2 6d3e 33f3 1abe
00000360: 1776 173d 1cd4 ce3d 4ac8 673e b368 77be
00000370: 57d1 73be e481 583e 3416 003e 607e 89bc
00000380: dae7 8e3e fd97 1ebe 799e 3fbe e777 77bd
00000390: 8fb4 8fbd b79d 7f3d f9fe 1e3e caaf 05be
000003a0: 884e a63d cfbe a93d 86b6 01bd 7366 933e
000003b0: e9ff 1abe 0feb 6abe 0442 9a3e 6882 053d
000003c0: 19d2 f53d 4b6f d93c 3c3f a4be fb49 1fbe
000003d0: d319 3abe 28b3 d23d 959a 5f3e c63c c33d
000003e0: d90e b2bd 482a a2bc 1356 fcbd 367d 6abd
000003f0: 116a 223e bce9 1fbd 1eb5 5ebd 6817 473d

model.1.defunc.m.2.bias f4 [8]
-0.19074243 -0.016849196 -0.11203082 0.18647029 -0.07351676 -0.19802365 0.24717967 -0.014920788
00000000: fc51 43be 5307 8abc 6a70 e5bd 11f2 3e3e
00000010: f48f 96bd b6c6 4abe ab1c 7d3e 5276 74bc

model.2.weight f4 [2, 8]
-0.15374608 0.020419342 0.013408894 0.29470524 -0.46508268 -0.32913467 0.47519732 0.22196123
0.17805581 -0.04484814 0.46943992 -0.1436331 0.31850508 0.4525393 -0.36235312 0.043073554
00000000: 9d6f 1dbe 7746 a73c fab0 5b3c 9be3 963e
00000010: 511f eebe 5784 a8be 104d f33e ce49 633e
00000020: 4354 363e afb2 37bd 6e5a f03e 8e14 13be
00000030: 1913 a33e 3bb3 e73e 5986 b9be e56d 303d

model.2.bias f4 [2]
0.20011176 -0.33631375
00000000: 19ea 4c3e 5131 acbe
