lightning_logs/version_13/checkpoints/epoch=49-step=49.ckpt (torch, 19857 bytes, 18 tensors)

exp_avg f4 [64, 8]
000000 ad ae 66 b9 71 15 a1 39 86 d6 b1 b9 0c 92 7c 38
       -0.00021999581 0.00030724288 -0.00033919903 6.02175e-05
000010 ba 12 a1 b8 ac e9 7d 3b eb 5b ba 3b 9c fe 18 39
       -7.680566e-05 0.0038744016 0.005687227 0.00014590699
000020 38 cc 44 bb f4 b0 c1 3a 97 43 5f 3b fc c3 be 3a
       -0.003002895 0.0014777468 0.0034067386 0.0014554258
000030 5c b8 43 3b 8c cc 1c 3b 2c 9f 3e 3b 4e 04 23 3c
       0.0029864525 0.002392563 0.0029086573 0.009949757
000040 80 56 8a bb 41 ad bf 3a 59 25 80 3b 2c e1 e2 3a
       -0.0042217374 0.0014623777 0.003910702 0.0017309538
000050 4c f8 b0 3b 3a 4f 8d 3b 1a fa 58 3c 29 fc dd 3c
       0.005400693 0.004312423 0.013243223 0.027097778
000060 e8 72 85 3b 2a 69 d5 ba 88 c1 64 bb ba 7e a4 ba
       0.004072536 -0.0016281952 -0.0034905393 -0.0012549974
000070 79 dd 5e bb cf 44 62 bc 8a eb 7d bc b6 fa 88 bc
       -0.003400652 -0.013810351 -0.015498051 -0.01672111
000080 b2 7a a5 bb 00 f3 08 3b d0 21 7e 3b 92 66 cb 3a
       -0.005050027 0.0020896792 0.0038777478 0.0015518239
000090 92 80 b2 3b c3 3f b1 3c b2 3d 04 3d b9 bf c9 3c
       0.0054474557 0.02163685 0.0322854 0.024627553
0000a0 55 92 89 3b 7e 2e e1 ba d4 59 91 bb 25 52 08 bb
       0.0041983523 -0.0017179993 -0.004435757 -0.0020800915
0000b0 e3 3c a4 bb c8 ba 13 bb ca 47 0a bc 5e 54 b5 bc
       -0.005012141 -0.002254175 -0.008439967 -0.022134956
0000c0 f8 b4 27 ba f0 c5 37 3a 7f 60 dd ba f4 50 bf 39
       -0.0006397511 0.0007010391 -0.001688972 0.00036490674
0000d0 56 f5 14 39 c7 12 88 3a 69 fd c8 3b f4 76 d4 3b
       0.00014205775 0.0010381573 0.0061337245 0.006483907
0000e0 64 33 19 ba f6 fa 89 3a b6 a5 0e bb aa bf 66 39
       -0.00058441446 0.0010527063 -0.0021766252 0.0002200591
0000f0 30 68 35 ba fe d7 9e 3b 06 e2 09 3c a4 30 2f 3a
       -0.0006920127 0.0048475256 0.008415705 0.0006682968
000100 7d 03 8b 39 b5 a5 f1 b8 38 45 82 38 c2 ac b8 b7
       0.00026514745 -0.00011522641 6.211776e-05 -2.2014956e-05
000110 0d 4a 5f b9 af 12 e3 3a bc dd ed 3a 57 3b 01 bb
       -0.00021294523 0.0017324294 0.0018147747 -0.0019719207
000120 5b f1 d2 3b 3f ae 61 bb 0a 59 9d bb 1b f8 44 bb
       0.006437463 -0.0034436134 -0.004801874 -0.003005511
000130 9d 54 d3 bb b2 63 07 bc 28 90 a3 bc 21 c9 ee bc
       -0.0064492957 -0.008263515 -0.0199662 -0.02914864
000140 a5 99 61 bb 9e 82 7a 3a 24 56 24 3b f5 b3 f5 39
       -0.0034423855 0.00095562066 0.0025075758 0.0004686412
000150 f8 53 36 3b 0a 45 88 3b 6a 40 ea 3b f5 2b b0 3c
       0.0027821045 0.0041586207 0.007148792 0.021505335
000160 a8 9a ac 3b eb 8b 5a bb b0 50 59 bb 36 c0 12 bb
       0.00526746 -0.0033347558 -0.0033159666 -0.0022392399
000170 01 0c 78 bb 54 f3 46 bc 4e f8 93 bc 86 54 76 bc
       -0.0037848952 -0.012142975 -0.018062737 -0.0150348
000180 4c 1d 00 3b 8e 47 ba ba 00 fb d3 3a 47 74 8a ba
       0.0019548712 -0.0014211999 0.0016172826 -0.0010563218
000190 48 eb 90 b8 74 4e 16 3b cf 50 97 3b 30 06 46 bc
       -6.9102796e-05 0.0022934945 0.0046177874 -0.012086436
0001a0 16 47 52 bb 7e db f9 3a 36 a7 fa 3a 6c f8 85 3a
       -0.0032085828 0.0019062606 0.0019123319 0.001022113
0001b0 cf 93 e1 3a 61 1b e6 3b 76 8f ae 3b dc c1 f3 3b
       0.0017210188 0.007022307 0.0053271605 0.0074388813
0001c0 de 1d 27 3a 4a 17 46 ba 62 41 4f 3a 7b 42 94 b9
       0.0006374995 -0.0007556571 0.0007906166 -0.00028278292
0001d0 e0 7b 9b 38 9c b8 67 bb ff 0d a1 bb d8 b5 8b b9
       7.4140495e-05 -0.0035357838 -0.0049149985 -0.0002664763
0001e0 56 ec 35 39 c3 c0 ca b9 4b b6 4e 3a 40 7b 34 b9
       0.00017349547 -0.0003867206 0.000788544 -0.00017212052
0001f0 5c 81 65 38 63 05 09 3a fc 57 06 bb 62 cf 07 ba
       5.471833e-05 0.0005226938 -0.002049922 -0.0005180744
000200 1e b9 49 3b ec fa f9 ba b0 ab fb ba 50 ea ad ba
       0.0030780504 -0.0019071973 -0.0019200947 -0.0013268683
000210 06 09 0f bb ba f5 c2 bb 2f df f8 bb d7 0e 06 bc
       -0.0021825447 -0.005949703 -0.007594965 -0.008182249
000220 91 9f 40 3a 18 6c 75 b9 32 f9 03 ba e8 8e cd b9
       0.0007347996 -0.00023405289 -0.00050343864 -0.0003920712
000230 62 18 26 ba 22 a3 30 3b d2 49 5e 3b b5 80 af bb
       -0.0006336031 0.0026952703 0.0033918512 -0.0053559192
000240 25 b1 06 3b bf 25 6b ba 6a c5 24 bb 70 d5 54 ba
       0.0020552364 -0.0008970163 -0.0025142082 -0.0008118963
000250 bd 45 01 bb b8 17 ad bb 66 74 bd bb d7 54 d2 bb
       -0.0019725405 -0.0052823685 -0.005781698 -0.006418805
000260 7c 3f 7e bb db bf e1 3a a4 b4 37 3b f2 ab de 3a
       -0.0038795164 0.0017223315 0.0028031254 0.00169885
000270 c3 07 47 3b 7b cb 3b 3b ec 33 17 3b 50 fa 7d 3c
       0.0030369617 0.002865522 0.002307172 0.015501574
000280 96 ef 49 3a 9d 85 93 ba 24 bb f6 3a cc 51 c6 b8
       0.00077032426 -0.001125503 0.0018824083 -9.4566116e-05
000290 80 29 e0 b8 14 14 f0 bb 56 37 80 bc 7c b6 f0 ba
       -0.00010688882 -0.0073266122 -0.015651386 -0.0018364931
0002a0 84 64 19 3b aa 82 1e bb f8 99 1c 3b c5 d6 bb 39
       0.002340586 -0.0024186769 0.0023895483 0.00035827435
0002b0 dc 1a ab b9 f7 c5 0d bd 87 d3 44 bd 08 e0 ea ba
       -0.00032635673 -0.034612622 -0.04805329 -0.001791955
0002c0 7f 6e d7 3b ac a4 63 bb 9c 5b 92 bb 9e f5 07 bb
       0.0065744515 -0.0034735603 -0.004466487 -0.0020745764
0002d0 81 6c 8f bb a0 78 b8 bc f7 b7 ca bc 86 ff a7 bc
       -0.0043769483 -0.022518456 -0.024745924 -0.020507585
0002e0 bb 2e 92 3b b8 ff 8d ba ad 75 bf bb 2a fc c0 ba
       0.004461137 -0.0010833656 -0.0058428855 -0.0014723588
0002f0 56 53 8f bb ae 42 2e bc b4 15 04 bc 6b 8f a0 bc
       -0.004373948 -0.010636015 -0.008061815 -0.019599637
000300 54 4a 67 ba fb 9b 21 3b 66 94 43 bb c2 cd d5 b9
       -0.00088230264 0.0024659622 -0.002984309 -0.00040779827
000310 5f 69 5c bb c3 e7 07 3d a8 7f 22 3d 2e 51 b0 bc
       -0.0033632142 0.03318001 0.039672524 -0.021523084
000320 8f 58 17 bb 02 45 f8 3a 80 54 3d ba d0 f9 db 37
       -0.0023093557 0.0018941464 -0.00072223693 2.6223162e-05
000330 0a a1 55 3a 4e b3 cf 3c 55 c0 0b 3d 70 fe a8 3b
       0.0008149302 0.025354054 0.03411897 0.0051572844
000340 76 ca 90 ba 59 22 77 3a 5a 08 d7 ba 45 cb 37 3a
       -0.0011046666 0.00094274204 -0.0016405687 0.00070111855
000350 e8 9d bd 38 84 41 3b bb e8 91 e0 ba 70 d0 12 3c
       9.0416346e-05 -0.0028572986 -0.0017133327 0.008960828
000360 82 e9 02 bb 4b f4 7b 3a c8 87 85 3a 86 44 76 3a
       -0.0019975607 0.00096112926 0.0010187561 0.0009394366
000370 aa de f7 3a 92 34 93 3a 7a 84 6a 3b 11 b3 21 3c
       0.0018910964 0.0011230877 0.0035784529 0.009869353
000380 90 80 69 3b de 0d 26 ba ba 25 cb bb df 0a c0 ba
       0.0035629608 -0.0006334464 -0.0061995657 -0.0014651677
000390 0e fb aa bb 6c 03 a3 3a 80 ee 80 b9 48 ce ad bc
       -0.0052179163 0.0012436933 -0.0002459176 -0.021216527
0003a0 03 42 89 3a 17 18 ac b9 00 cb 61 38 2c 5b a9 b9
       0.0010471944 -0.00032824345 5.383324e-05 -0.0003230212
0003b0 8a 35 bd ba bd eb 33 3b d8 85 33 bb a4 40 42 bc
       -0.0014435512 0.0027453743 -0.002739301 -0.011856232
0003c0 9e b2 81 3b 4a 47 0a bb ce 8e 1b bb 73 5b d3 ba
       0.0039580604 -0.002109962 -0.0023736241 -0.0016125276
0003d0 ad 27 51 bb 90 36 27 ba 80 15 49 b9 1b df 81 bc
       -0.0031914518 -0.0006378675 -0.00019176863 -0.015853455
0003e0 24 46 8b bb d0 5b 44 3b 94 f2 89 3a ba ee d9 39
       -0.004250305 0.002996195 0.0010524564 0.0004156733
0003f0 11 78 cb 3a d1 0b 27 3d 3c 22 3e 3d 78 e6 6c 3b
       0.0015523453 0.040782753 0.046419367 0.0036148112

exp_avg_sq f4 [64, 8]
000000 d6 53 23 33 a3 32 50 33 3e 5b 92 34 12 17 8d 31
       3.8027643e-08 4.8474828e-08 2.7261007e-07 4.106263e-09
000010 47 a0 ad 33 e5 72 41 35 e5 36 b9 35 aa d9 52 36
       8.0850945e-08 7.2065296e-07 1.379955e-06 3.1419136e-06
000020 8c 4e 09 38 e9 d4 11 36 36 1f 39 39 d3 fe 65 35
       3.2736498e-05 2.1730614e-06 0.00017654602 8.5679966e-07
000030 92 62 8b 37 53 59 b3 39 77 8e a5 39 60 d2 8c 39
       1.6615992e-05 0.00034208092 0.00031577397 0.00026859622
000040 91 17 10 39 21 86 78 37 33 bd 61 3a d9 88 16 36
       0.0001374169 1.4813181e-05 0.0008611262 2.2431398e-06
000050 db 19 aa 38 d6 76 e5 3a 2a db d2 3a 5a 0b cb 3a
       8.111048e-05 0.0017506729 0.0016087044 0.0015491054
000060 92 53 6b 38 52 95 d6 36 f2 5f be 39 98 1d 8a 35
       5.6106197e-05 6.39508e-06 0.0003631111 1.0290414e-06
000070 d9 fc 1f 38 23 6a 1b 3a ed 92 1a 3a cf 27 39 3a
       3.8144037e-05 0.00059285964 0.00058965274 0.0007063122
000080 67 d4 4e 39 d0 fe de 37 75 82 a6 3a 56 a7 50 36
       0.00019724817 2.6583119e-05 0.0012703674 3.1091818e-06
000090 02 7d f2 38 06 5b 28 3b a0 11 2a 3b 7b 15 23 3b
       0.00011562744 0.002568902 0.0025950447 0.002488463
0000a0 5d 9e b4 38 7f 1a f6 36 31 e1 04 3a e1 5e 0e 36
       8.612566e-05 7.334456e-06 0.00050689565 2.1214876e-06
0000b0 cf b4 54 38 e8 54 7e 3a 71 a7 5e 3a 64 58 6b 3a
       5.071313e-05 0.0009701983 0.00084935786 0.000897771
0000c0 b7 92 aa 35 f7 5d 26 36 48 37 09 38 72 6e 0b 35
       1.2708687e-06 2.4790622e-06 3.271483e-05 5.1942254e-07
0000d0 45 cb a0 36 83 36 9a 38 80 58 e7 38 13 f5 5f 38
       4.7920353e-06 7.353446e-05 0.00011031423 5.3395586e-05
0000e0 de 5c 98 34 f1 b0 9f 35 df 5d 31 37 b8 ce 66 34
       2.8379776e-07 1.189792e-06 1.0571878e-05 2.1495623e-07
0000f0 ec 4e 10 36 21 2a 9d 37 de 11 07 38 48 44 ad 37
       2.150361e-06 1.8735476e-05 3.220315e-05 2.0655003e-05
000100 71 26 86 36 f6 c8 2b 34 21 be 81 37 bc 3a 64 33
       3.9979864e-06 1.5998725e-07 1.5466534e-05 5.3138805e-08
000110 9a 64 11 35 30 c0 8d 38 4d 19 ad 38 d8 42 31 37
       5.4163104e-07 6.759202e-05 8.2539955e-05 1.0565585e-05
000120 20 51 60 39 f0 b9 b6 37 2b 54 ad 3a 0d e4 94 36
       0.00021392526 2.1782675e-05 0.0013223937 4.4372923e-06
000130 4e fb 0a 39 86 98 21 3b 4d 96 14 3b fb 24 1e 3b
       0.00013254324 0.0024657561 0.0022672594 0.0024130929
000140 da 63 e9 38 8a c2 c5 36 7f 5f 09 3a f7 08 d4 35
       0.000111289046 5.893705e-06 0.0005240365 1.579784e-06
000150 4f b1 d0 37 36 ee 00 3b 54 e9 0e 3b 07 79 15 3a
       2.4878098e-05 0.0019673235 0.0021806555 0.00057019334
000160 d3 08 cc 38 60 6b 1e 37 f4 ae 19 3a 0a d7 0d 36
       9.729122e-05 9.442534e-06 0.0005862557 2.1135806e-06
000170 8e e5 78 38 82 b3 86 3a 9d a1 81 3a 84 86 8f 3a
       5.9341597e-05 0.0010276886 0.0009890083 0.0010950123
000180 d1 1c 06 36 18 8b e7 36 98 ec 92 38 dd f1 ad 35
       1.998433e-06 6.900529e-06 7.0058915e-05 1.2959896e-06
000190 3e f5 5b 37 b3 93 16 39 74 7e 21 39 3d 66 14 39
       1.3110517e-05 0.00014360137 0.00015401264 0.00014152467
0001a0 cb 3b 67 38 c6 42 51 36 42 48 8a 39 31 e6 6f 35
       5.513038e-05 3.1182294e-06 0.00026375247 8.936941e-07
0001b0 43 73 a1 37 49 56 27 3a 50 f9 21 3a bf 2a c8 39
       1.9246369e-05 0.0006383402 0.0006178813 0.0003817882
0001c0 78 5b 0b 35 28 35 a4 35 d8 25 6d 37 02 95 c4 33
       5.191464e-07 1.2234423e-06 1.4135112e-05 9.1540656e-08
0001d0 00 d2 45 36 d2 2f 4b 37 f1 86 30 37 de ee 78 38
       2.9477524e-06 1.2110877e-05 1.0521836e-05 5.935027e-05
0001e0 32 87 95 34 73 06 d5 34 22 66 c9 36 bf 58 3d 33
       2.785178e-07 3.9679034e-07 6.0021566e-06 4.4085706e-08
0001f0 30 fb 86 35 91 db 0d 37 98 53 0c 37 1e 9d 74 37
       1.0056883e-06 8.455377e-06 8.3641135e-06 1.4580115e-05
000200 14 a0 15 38 94 08 6a 36 25 c1 68 39 5c 00 6e 35
       3.5673453e-05 3.487371e-06 0.00022197196 8.866243e-07
000210 99 83 ba 37 9a 4e de 39 ab 94 e6 39 e0 45 b8 39
       2.2234208e-05 0.00042401702 0.00043979785 0.00035147276
000220 a0 df 10 37 83 36 8a 34 27 19 f7 37 f7 5c 29 34
       8.635136e-06 2.5744166e-07 2.9456407e-05 1.5773172e-07
000230 92 f8 cf 35 3f 5d d9 38 b6 fa 91 38 0a 6e 20 38
       1.5495045e-06 0.00010364735 6.960837e-05 3.8249455e-05
000240 2b 04 5b 37 ee 3e 51 35 84 81 86 38 e3 a2 c0 34
       1.3054388e-05 7.795014e-07 6.413742e-05 3.5881303e-07
000250 20 6d c4 36 04 73 04 39 b9 72 df 38 f8 8a 06 39
       5.853959e-06 0.00012631348 0.000106548374 0.00012831006
000260 cb 34 5e 38 5e 4e fe 36 03 1c be 39 0e 33 9a 35
       5.2978092e-05 7.578913e-06 0.00036260494 1.1488753e-06
000270 66 87 1d 38 b5 bd 44 3a fa b7 1e 3a e7 86 47 3a
       3.7557817e-05 0.0007505075 0.00060546363 0.00076113496
000280 c4 86 3b 37 ca e4 b9 35 f9 5a 96 38 90 7b 9d 34
       1.1177446e-05 1.385016e-06 7.169502e-05 2.9333432e-07
000290 a5 b2 94 36 74 be 5c 39 fc 42 b2 39 55 fd 99 38
       4.4315407e-06 0.00021051784 0.00034000713 7.342795e-05
0002a0 36 2c 1f 38 76 fc c9 36 cd de 8d 39 2b 5a b1 35
       3.794973e-05 6.019657e-06 0.00027059615 1.321377e-06
0002b0 7a 2d 8e 37 03 20 4a 3a 73 24 d1 3a 88 b3 91 39
       1.6948896e-05 0.00077104586 0.0015956297 0.00027790316
0002c0 e1 0b 34 39 9a 5f ba 37 8a 78 8e 3a 41 c8 46 36
       0.00017170563 2.2217446e-05 0.0010869664 2.9620862e-06
0002d0 ae 36 d8 38 18 d5 05 3b bb 49 03 3b 37 ed 11 3b
       0.000103098675 0.0020421203 0.002003296 0.0022266635
0002e0 4b f1 89 38 f1 ef 02 37 1e 50 d6 39 61 bb a0 35
       6.5776134e-05 7.8044695e-06 0.00040876953 1.1975463e-06
0002f0 c2 e1 28 38 1f 5c 55 3a 20 ce 31 3a 64 38 6a 3a
       4.0264575e-05 0.0008139032 0.0006782729 0.00089347945
000300 d9 01 32 37 3b e9 f3 35 f7 30 99 38 c1 bf 0c 35
       1.0610057e-05 1.817279e-06 7.304729e-05 5.24331e-07
000310 46 4e ac 36 35 76 c7 39 7e 84 79 39 fb ca e5 38
       5.1351117e-06 0.0003804431 0.00023795848 0.00010957379
000320 89 50 8e 37 e0 c6 19 37 9f 59 53 39 d7 41 9a 35
       1.6965221e-05 9.165815e-06 0.00020155915 1.1493056e-06
000330 6f 3a ba 37 43 44 c1 39 27 b0 32 3a da 9c cc 39
       2.2200138e-05 0.00036862688 0.000681641 0.00039026776
000340 09 7b b7 35 34 ba 6c 36 19 14 2c 38 96 e9 2f 35
       1.367037e-06 3.5275125e-06 4.1026713e-05 6.553249e-07
000350 6b af e7 36 7f dd b2 38 54 8a c2 38 40 bd a1 38
       6.904758e-06 8.528958e-05 9.2764065e-05 7.712329e-05
000360 2e b7 b9 37 de de fd 36 d4 dd 5a 39 e6 59 3a 35
       2.2139018e-05 7.5659327e-06 0.00020872738 6.942122e-07
000370 ba 18 e0 37 06 11 bd 39 0e 3c 88 39 82 d7 11 3a
       2.6714395e-05 0.00036061573 0.00025984686 0.0005563424
000380 1a e2 aa 38 4a 29 9d 36 be a9 d9 39 d6 1f b8 35
       8.1483464e-05 4.6837713e-06 0.00041515933 1.3718334e-06
000390 d8 db 11 38 e3 6a 71 3a 9a fc 42 3a df a2 38 3a
       3.477544e-05 0.0009209348 0.0007438153 0.00070433127
0003a0 38 ac fc 37 10 ed 1a 36 f1 33 26 39 61 46 15 35
       3.0120937e-05 2.3085777e-06 0.00015850343 5.560924e-07
0003b0 4b 1a 0e 37 1b 82 14 3a a4 77 22 3a 3a ce 35 39
       8.469981e-06 0.0005665139 0.00061976374 0.0001733833
0003c0 0d 3e e8 38 7e a0 1b 37 ca 81 22 3a ff 7f e4 35
       0.0001107418 9.276087e-06 0.00061991496 1.7024576e-06
0003d0 32 7e 60 38 81 df ad 3a 27 79 97 3a 4e dd 84 3a
       5.352329e-05 0.0013265462 0.0011556492 0.0010136755
0003e0 1a b8 86 37 6b d5 e9 37 39 d5 c1 39 ec 36 23 36
       1.6059774e-05 2.7875145e-05 0.00036970692 2.4320861e-06
0003f0 ed 3e 87 38 7e 66 d4 39 38 cc 2f 3a 4b 5d 97 3a
       6.4490225e-05 0.00040512154 0.0006706151 0.0011548189

exp_avg f4 [64]
000000 83 52 25 bb 30 1a a2 bb 38 50 c9 bc 68 4a 5c 3c
       -0.0025226183 -0.0049469694 -0.024574384 0.013445474
000010 e6 f5 c7 bc f4 87 a8 3c d6 c1 a6 bc ae 2a 8c bc
       -0.024409246 0.02057264 -0.0203561 -0.017110195
000020 1a 3f 83 3b de a9 0f 3d 65 a8 b1 bc f7 b0 a1 3c
       0.004005325 0.035074107 -0.021686742 0.019737704
000030 96 d8 eb 3c 44 cc bd bb 4e 1b 12 3c b4 67 ec 3b
       0.0287898 -0.0057921726 0.008917643 0.007214511
000040 d8 c2 5d 3c 18 b6 c5 3b 6c 98 bc ba 07 11 ac bc
       0.013535224 0.00603367 -0.0014388687 -0.021004213
000050 f6 ab 7c 3c 26 90 12 3c eb 62 a5 3c 4e f7 1d 3c
       0.015421858 0.0089455005 0.02018877 0.009641482
000060 0e 20 a9 bb d0 59 8c bb 9c 57 bb bc ea a2 94 bc
       -0.005161292 -0.0042831674 -0.022868924 -0.01814409
000070 28 3c 43 3b e1 fd 97 3c 7a da 78 3c 3a 85 29 bc
       0.0029790495 0.018553676 0.015188808 -0.010346705
000080 24 99 ab bc 92 93 bb bc 42 7f df bc e4 6a c2 ba
       -0.020947047 -0.022897515 -0.027282361 -0.0014832881
000090 05 90 5c bc b3 1b 25 bc 26 c7 03 3c b5 a9 a9 bb
       -0.013462071 -0.010077405 0.008043086 -0.0051777014
0000a0 11 9b 95 bc 14 8d 8b bb ca 62 5a bc ed 6d c5 3c
       -0.018262418 -0.004258761 -0.013329217 0.024100268
0000b0 f1 7f 1c bc e1 e8 de bc e7 a9 01 3c 41 45 4c bc
       -0.009551988 -0.027210655 0.007914043 -0.012467683
0000c0 b7 9c ed 3b 14 51 86 3c f5 05 e4 3c 96 fb 2d bd
       0.007251348 0.016396083 0.027834872 -0.04247626
0000d0 57 cf db 3b e8 02 f4 bb 12 2d af bc ca 8f 9c 3c
       0.0067080664 -0.0074466355 -0.021383796 0.019111533
0000e0 9a 7d 47 bc 74 5a ec 3c df 1b 8c bc ea 12 42 3c
       -0.012175942 0.028851725 -0.017103134 0.01184533
0000f0 e0 27 4a ba 98 35 e1 3b 1f 7f 25 bc b8 ff c3 bb
       -0.00077116303 0.006872844 -0.010101109 -0.005981412

exp_avg_sq f4 [64]
000000 bf c0 4d 36 df c4 fc 3a 73 d9 3b 3c 63 57 84 3b
       3.0659573e-06 0.0019284746 0.011465418 0.0040387376
000010 0b 43 86 3c 9b 53 cf 3b ce 70 0f 3b 04 b5 54 3a
       0.01638939 0.006327105 0.0021887305 0.00081141316
000020 ae 09 dc 39 2e 00 88 3c 56 3f 52 3c a8 d6 d0 3b
       0.00041968882 0.016601648 0.012832483 0.0063732453
000030 49 85 98 3b bb 3c 47 3b 3f f7 a4 39 69 f4 42 39
       0.0046545607 0.0030401188 0.0003146473 0.00018592332
000040 33 89 5b 3b d3 c2 74 39 65 06 de 39 e5 41 b4 3b
       0.0033498525 0.00023342231 0.00042347904 0.0055010193
000050 75 bd 1b 3b 4c 07 29 3c 2f db 58 3c 98 72 9e 3b
       0.0023764048 0.010316681 0.013235851 0.004835438
000060 0e ec 4d 3b 4f 17 bb 3b c2 73 1f 3b c2 04 59 3b
       0.0031421217 0.0057095657 0.0024330472 0.0033114408
000070 24 5b 80 3b ee ce 8e 3b 99 97 f0 3b 87 7d 19 3c
       0.003917115 0.004358164 0.0073422906 0.009368307
000080 4a 0b 95 3b 5c 22 14 3c 0d fa 0f 3c 34 83 02 3a
       0.004548465 0.009041395 0.008787644 0.0004978657
000090 57 ef e3 39 c0 79 64 3b 9f 0b a7 3a 09 d2 d2 39
       0.00043475136 0.0034862608 0.0012744552 0.0004021081
0000a0 14 9a 00 3c 77 b8 1a 39 97 ca ca 3a 77 f6 1b 3c
       0.007849235 0.00014755303 0.0015471753 0.009519211
0000b0 e3 b7 1d 3b b4 39 3c 3c 46 9a 09 3b 48 13 46 3b
       0.0024065904 0.011488367 0.0020996495 0.0030223895
0000c0 5e 9d 77 38 da 7d b0 3a fc ae 69 3c 06 c2 e2 3b
       5.903595e-05 0.0013465241 0.014262911 0.006920102
0000d0 0f bc 00 39 8f 40 8b 3a 10 84 fb 3b 20 20 8c 3b
       0.00012277089 0.0010624098 0.007675655 0.0042762905
0000e0 64 48 d2 39 e8 f6 d1 3b 03 79 b8 3b d2 37 23 3a
       0.00040108257 0.0064076073 0.00562966 0.00062262744
0000f0 48 e1 a2 3b cb 86 ff 3a 06 25 9c 3a 5f 90 ed 3a
       0.0049707033 0.0019495127 0.0011912889 0.0018124691

exp_avg f4 [8, 64]
000000 09 42 80 3b 76 d2 4f bc fe 61 f7 bb bf d6 51 3c
       0.003914122 -0.012684455 -0.0075495234 0.012807547
000010 29 b1 61 bb 6d 9b 8f 3c c0 d0 cc ba 84 33 03 3c
       -0.003443787 0.017530167 -0.0015626177 0.008007888
000020 fa 1f aa 3b 1b c9 37 3c 74 52 7b bb 5a 4d 8c 3c
       0.0051918 0.011217381 -0.0038348706 0.017126728
000030 58 47 bd bb de fc 0a bc 66 8e 78 bc 60 a0 29 ba
       -0.005776327 -0.00848314 -0.015170669 -0.0006470736
000040 f3 4f 94 3c e3 dd df bb 6c 07 b8 ba 0c de bf 3c
       0.018104529 -0.006831871 -0.0014040298 0.02342131
000050 8b f6 0d 3c 0e 17 a4 3c 5a ec fb 3a ab 5f 10 bc
       0.008664737 0.020030525 0.0019220219 -0.0088118715
000060 b1 a0 df 3c 66 fe 87 bc f8 4e 4c 3b d4 e0 f5 3b
       0.027298303 -0.016600799 0.0031174999 0.0075036082
000070 45 19 19 3c 22 cc a6 3b a1 dc 73 3c 58 ac 91 ba
       0.009344404 0.0050902525 0.014884145 -0.0011113985
000080 ec ee 2e 3c 98 08 84 bc 3f 1d 32 3c 25 1d a9 bb
       0.010677081 -0.01611738 0.010871231 -0.005160945
000090 b0 21 d5 3a 08 45 50 bc d0 b9 c3 3b 28 f2 20 bc
       0.001626065 -0.012711771 0.0059730783 -0.00982336
0000a0 a4 4b 71 bc b8 5c bc bb 8c f2 18 3c 76 95 b2 bc
       -0.014727507 -0.0057483576 0.009335171 -0.021799784
0000b0 9c f6 37 bc 1f b5 80 bb 35 27 a2 3c 3d ab 6c bc
       -0.01122823 -0.0039278413 0.019794086 -0.014445123
0000c0 b4 e3 dc bb 00 ee 62 37 e1 50 2c bc 10 37 a9 3a
       -0.0067410115 1.3526063e-05 -0.01051733 0.0012910087
0000d0 2b 17 1a 3c 4e 6d ce ba 31 07 2e 3c 1c b1 66 ba
       0.009404938 -0.0015749128 0.010621832 -0.0008800195
0000e0 a4 54 22 3b 80 b9 ef 3a d0 b3 4b 39 30 d1 d5 3b
       0.0024769688 0.0018289536 0.00019426574 0.0065251812
0000f0 76 31 a8 bc a9 0c 09 bd 24 fa 66 3c a2 7e 6f bc
       -0.020531397 -0.03345934 0.014097724 -0.014617594
000100 4c 67 b4 ba 82 88 85 3c 41 e3 30 3c 08 49 64 bc
       -0.0013763695 0.016300444 0.010796369 -0.013933428
000110 98 61 29 3a cd f9 9e bc a0 e3 42 3a 0c 76 cc bb
       0.0006461381 -0.019406224 0.00074344315 -0.006239658
000120 c8 88 8b bb 16 95 58 bc 95 93 04 3c 9c 05 94 bc
       -0.004258249 -0.013219139 0.008091827 -0.018069081
000130 8c 79 f8 3b 61 85 0e 3c e0 97 8d 3c d0 ca 36 ba
       0.007582849 0.008698792 0.017284334 -0.00069729704
000140 ee 43 ad bc c1 09 09 3c cc 64 16 3b fe 75 f0 bc
       -0.021150555 0.008364142 0.0022948263 -0.029353138
000150 b6 b4 82 bc 51 0b 13 bd 40 19 57 b8 72 c1 73 3c
       -0.01595531 -0.035899464 -5.128351e-05 0.014877664
000160 ea 77 ef bc 49 d8 01 3d 84 1c 8e bb 4b 5d 3c bc
       -0.029231984 0.031700406 -0.0043368954 -0.011496852
000170 32 57 5d bc 9e 22 06 bc bc cf a8 bc 81 eb 1e 3c
       -0.0135095585 -0.008186964 -0.020606868 0.009699703
000180 76 ad 57 bc f5 da 89 3c ec e2 4c bc 41 af 06 3c
       -0.013163915 0.01682804 -0.012505274 0.008220495
000190 f4 79 38 3b 58 e5 34 3c cd e3 15 bc a1 eb 42 3c
       0.0028148862 0.011041008 -0.00914855 0.011896999
0001a0 7c 26 99 3c 16 24 64 3c 74 81 1a bc e3 4b d6 3c
       0.018695109 0.013924619 -0.009430278 0.026159232
0001b0 c4 4b 25 3c 4a 36 9c 3b b7 f4 a7 bc b1 bb 86 3c
       0.010088865 0.004767214 -0.020502431 0.01644692
0001c0 ae fa 09 3c 30 fa ee 39 06 82 ec 3b 80 69 03 ba
       0.008421583 0.00045581302 0.0072176484 -0.0005012974
0001d0 40 9a fe bb a4 0c 2d 3c 94 5f 33 bc 3e f0 4e 3a
       -0.007769853 0.010562096 -0.010948081 0.0007894075
0001e0 6c ca 3d bb 00 95 0b b9 9c e1 44 3b 80 a3 f3 bb
       -0.0028959764 -0.0001331158 0.00300417 -0.007435262
0001f0 d6 49 17 3d 2b 81 64 3d 81 1e 6f bc 5c 79 e8 3c
       0.03693565 0.055787247 -0.014594675 0.028378181
000200 20 9a 85 bb 2b 7a 50 3c 80 a7 db 3b eb 39 4f bc
       -0.004077211 0.01272444 0.006703317 -0.012648086
000210 4d df 43 3b 48 db 94 bc 90 f6 03 3b b8 aa 0f bc
       0.0029887736 -0.018170968 0.0020135976 -0.00876873
000220 da d5 c6 bb 06 4c 38 bc a4 39 8c 3b 8a 8c 92 bc
       -0.0060679736 -0.011248594 0.0042793322 -0.01788928
000230 e4 6e b9 3b fa e6 0e 3c 08 bf 82 3c 88 b7 88 3a
       0.005658971 0.008722061 0.015960231 0.0010430673
000240 b2 07 9a bc 02 19 f0 3b 88 7f d1 3a 05 36 cc bc
       -0.018802498 0.0073272 0.0015983442 -0.024928102
000250 10 16 0a bc 32 44 a0 bc 12 2c cb ba 5c dd 1c 3c
       -0.008428112 -0.019563768 -0.0015500805 0.009574261
000260 64 86 fc bc 64 6e 7b 3c f8 7d 44 bb c6 20 07 bc
       -0.030825801 0.015346143 -0.002998231 -0.00824756
000270 72 ad 08 bc 8c 73 b0 bb d8 ee 6c bc 20 96 ab 39
       -0.008342134 -0.005384868 -0.014461242 0.00032727513
000280 38 92 35 bc 6e 1f 8a 3c 23 79 42 bc be 3f af 3b
       -0.011082225 0.01686069 -0.011869702 0.005348175
000290 fc 4d 1e bb df 0c 5b 3c 37 09 b8 bb 32 78 25 3c
       -0.002415537 0.013369768 -0.005616333 0.010099458
0002a0 05 b4 67 3c 78 f8 c2 3b 3b 8f 29 bc 44 e0 c2 3c
       0.014142041 0.00595003 -0.01034909 0.023788579
0002b0 35 e4 41 3c 26 10 50 3b 9a 15 ab bc a5 d4 76 3c
       0.011834194 0.0031747906 -0.020884324 0.015065347
0002c0 d8 89 db 3b 70 ef 4c 39 ce c0 40 3c 80 fb 8a ba
       0.006699782 0.00019544153 0.011764718 -0.0010603517
0002d0 0c c9 38 bc 00 69 c7 38 d7 0c 3f bc 84 87 cb 3a
       -0.011278402 9.508617e-05 -0.011660776 0.0015528058
0002e0 6c 9d 38 bb 00 c9 62 bb dc fb 92 ba 6e e7 02 bc
       -0.0028170003 -0.0034604669 -0.0011213976 -0.007989747
0002f0 46 e5 a0 3c c5 c5 09 3d d8 6b 70 bc d8 8e 5e 3c
       0.019640576 0.033635873 -0.014674149 0.013583861
000300 c2 56 78 bb 2f 4b 3f 3c f0 49 d8 3b 87 36 41 bc
       -0.0037893509 0.01167564 0.006600611 -0.0117927855
000310 4f 88 1f 3b 8f b6 83 bc 20 22 fd 3a dc db ef bb
       0.002434272 -0.016078262 0.0019312538 -0.0073199105
000320 9d bb d5 bb 6b ea 28 bc 6c 7d cd 3b 52 3c 82 bc
       -0.0065226094 -0.010309796 0.006271055 -0.015897904
000330 d4 6d ae 3b 2e b6 09 3c 58 34 7f 3c 90 10 73 3a
       0.005323151 0.008405251 0.015576445 0.00092721824
000340 ca 91 8c bc 5e 8e c9 3b 84 07 f7 3a f6 67 bf bc
       -0.017159361 0.0061510047 0.0018846844 -0.023365002
000350 19 07 26 bc 1a 98 bb bc ba 17 f3 ba 09 6d 23 3c
       -0.010133528 -0.022899676 -0.00185465 0.0099747265
000360 f5 3f 00 bd 40 2d 96 3c d0 76 2d bb 67 f2 0d bc
       -0.031310994 0.018332124 -0.0026468523 -0.00866375
000370 da 67 fd bb ab 9e df bb d6 84 6a bc 20 0e 0e 3b
       -0.0077333273 -0.0068243346 -0.014313897 0.00216759
000380 b0 ef 2c bc bb 10 73 3c 42 2f 27 bc 6c ba d0 3b
       -0.010555193 0.014835532 -0.010204138 0.0063698795
000390 46 d1 d7 ba b5 55 38 3c a4 cd ae bb 03 88 1a 3c
       -0.0016465567 0.011250903 -0.005334573 0.009431842
0003a0 7f 4c 5a 3c ac 34 fa 3b 5d bf 13 bc 8c d0 b1 3c
       0.013323902 0.0076356735 -0.0090177925 0.021705888
0003b0 02 ec 1a 3c da 21 63 3b 52 42 96 bc 6b 80 5a 3c
       0.009455683 0.0034657628 -0.01834217 0.013336281
0003c0 b4 0f c3 3b 98 4e 6f 3a be 48 55 3c 00 cd a2 b9
       0.0059527997 0.0009128838 0.013017831 -0.00031051785
0003d0 1c 5c 42 bc d3 52 25 3b 1b c3 33 bc d2 1a 10 3b
       -0.011862781 0.002522637 -0.01097181 0.0021988642
0003e0 5c 35 31 bb 58 d3 6e bb 08 fc 18 3a b3 f1 16 bc
       -0.0027039861 -0.0036441889 0.00058358954 -0.009212899
0003f0 b6 1e bb 3c 67 01 19 3d 54 26 6d bc 2c ba 83 3c
       0.022841793 0.037354853 -0.01447447 0.016079985

exp_avg_sq f4 [8, 64]
000000 65 fe 02 39 58 51 17 3b 20 9c 39 3a 5b ab 01 3b
       0.00012492535 0.0023089256 0.00070804544 0.0019785974
000010 a2 c2 d9 39 5a 30 52 3b b8 34 04 3b da f3 6c 3b
       0.00041534478 0.0032072277 0.0020173024 0.003615609
000020 d9 ed d8 39 53 39 a2 3a 65 fd d4 3a 61 d9 1a 3b
       0.0004137594 0.0012376703 0.0016249834 0.0023628103
000030 2c c6 67 3b 5a 48 ab 39 55 d6 cb 3a a6 71 63 3a
       0.0035365922 0.00032669568 0.0015551547 0.0008676298
000040 0d 4c 15 3b 0f b3 27 39 a3 5b 0e 3a f5 b4 13 3a
       0.0022780926 0.00015993066 0.0005430525 0.00056345697
000050 86 4a 39 3a d4 73 10 3b e5 08 6d 39 2b 9c 3b 39
       0.0007068295 0.0022041695 0.00022605395 0.00017891887
000060 6e 0c 44 3b 84 6b 8a 3a c1 37 45 3b f6 9b 2f 39
       0.0029914635 0.0010560607 0.0030093046 0.000167474
000070 11 b6 bd 3a ad 5e 85 3a cb 29 9a 3a dc f2 31 3b
       0.0014473816 0.001017531 0.0011761723 0.0027152812
000080 e7 97 6c 3b 99 e4 0e 3b 12 1c 26 39 ce 82 0a 39
       0.0036101283 0.0021803735 0.0001584145 0.00013209434
000090 bf 61 26 3a 33 c3 04 3b c6 ad 5b 38 6c ac ca 38
       0.0006346963 0.002025795 5.2375508e-05 9.664227e-05
0000a0 88 22 0a 3b af dc ce 39 d0 16 fa 38 a0 fc 58 3a
       0.002107771 0.00039455804 0.00011925178 0.000827739
0000b0 3c 88 82 3a b2 2a 0d 3a 39 b7 73 3b 47 09 1a 3b
       0.0009958814 0.0005385085 0.0037188067 0.0023504065
0000c0 c5 87 57 3b 66 72 4b 39 4b 9f 2d 3b e9 45 82 3b
       0.0032887321 0.00019402205 0.002649265 0.003975619
0000d0 9a 5c 46 3b 11 10 4f 3a 5e 4f 00 3b ac 4a aa 38
       0.0030267597 0.00078988174 0.0019578557 8.1201404e-05
0000e0 f2 14 74 3a d8 fc ba 3b 06 46 f9 38 4b 0e 35 3b
       0.00093109824 0.005706411 0.00011886288 0.0027626927
0000f0 51 75 95 3a 93 70 21 3b bc 0a b5 3a 7d 08 c7 3a
       0.0011402761 0.002463375 0.0013812403 0.0015185025
000100 fd 42 23 39 3b 5c 7a 3b b3 32 9c 3a b9 e1 55 3b
       0.00015569846 0.0038201946 0.0011916965 0.0032635762
000110 fb f1 2d 3a db 1f ad 3b fe 48 72 3b 19 a2 cb 3b
       0.0006635484 0.0052833385 0.0036969776 0.006214392
000120 7a 74 56 3a 48 76 06 3b 8e dd 3c 3b 54 46 78 3b
       0.00081808085 0.0020517278 0.002881858 0.0037883716
000130 c6 cd cb 3b 35 e5 01 3a 1a e0 20 3b 15 3e cc 3a
       0.0062195985 0.0004955114 0.0024547637 0.0015582467
000140 5a 6c 74 3b bc a7 82 39 cc a5 7f 3a 84 4b 48 3a
       0.0037296028 0.00024920504 0.00097521837 0.0007640647
000150 66 67 ae 3a 3e 81 80 3b 14 9f bd 39 44 6e a7 39
       0.0013305962 0.003921657 0.00036167412 0.00031934876
000160 2e f6 ac 3b 55 23 ec 3a d4 60 ae 3b 56 0d 8d 39
       0.0052783703 0.0018015901 0.0053216014 0.00026903552
000170 86 30 1a 3b e3 4d f6 3a 4d cf f4 3a d6 da 8d 3b
       0.0023527457 0.0018791523 0.0018677503 0.004329066
000180 fa c1 c6 3b 70 92 65 3b 41 1d 7a 39 c1 e8 82 39
       0.0060656043 0.003502991 0.00023852756 0.00024968947
000190 e9 2f 8c 3a 98 18 55 3b c4 2b a0 38 12 05 2d 39
       0.0010695431 0.003251588 7.6375465e-05 0.00016500455
0001a0 ba 20 62 3b ae 28 34 3a 6f df 29 39 ef 73 99 3a
       0.003450437 0.0006872517 0.00016200331 0.0011707525
0001b0 d0 6c ca 3a f0 d5 70 3a 2c 50 c7 3b 0e 1f 7f 3b
       0.0015443806 0.00091871526 0.0060825553 0.0038928422
0001c0 44 34 bd 3b ba ea b8 39 e5 35 8a 3b a3 a2 e7 3b
       0.005774053 0.000352701 0.0042178505 0.0070689484
0001d0 3c e9 ad 3b 53 a0 a1 3a 5c 2f 51 3b 67 99 12 39
       0.0053073447 0.0012331106 0.0031919098 0.00013980792
0001e0 09 b5 dd 3a fe 1b 23 3c 5a 11 62 39 3f 32 a0 3b
       0.0016914915 0.009955404 0.00021559504 0.0048888023
0001f0 79 a1 06 3b 79 fc 83 3b 07 46 0b 3b 1a 79 2c 3b
       0.0020543023 0.0040279 0.0021251456 0.00263173
000200 99 db 35 39 9e 65 2e 3b 28 e6 53 3a c5 6b 15 3b
       0.00017343312 0.0026610862 0.0008083307 0.0022799831
000210 1c 3a 01 3a 15 38 71 3b ce 92 0a 3b 57 ee 82 3b
       0.00049296184 0.003680711 0.0021144631 0.0039956975
000220 47 03 cf 39 e8 1d ba 3a 52 40 df 3a a3 0e 36 3b
       0.00039484559 0.0014199587 0.0017032719 0.002777972
000230 18 ed 7c 3b c4 e3 d7 39 9b 51 f4 3a 2b 41 70 3a
       0.0038593467 0.00041177694 0.0018640043 0.0009164984
000240 5f 2e 2d 3b 2d 88 46 39 bd d4 16 3a 99 35 44 3a
       0.0026425344 0.00018933481 0.00057537464 0.00074847933
000250 46 2f 33 3a 90 32 17 3b 5d a1 8f 39 56 46 40 39
       0.00068353524 0.002307091 0.0002739531 0.00018336749
000260 6e 8d 55 3b 71 08 95 3a f3 d1 55 3b ea 38 55 39
       0.003258552 0.0011370314 0.003262636 0.00020334465
000270 cf c8 dd 3a 7c 55 86 3a a7 d7 ba 3a f5 49 51 3b
       0.0016920808 0.0010248865 0.0014254943 0.003193495
000280 16 3e 86 3b 14 b6 27 3b 6a 92 4d 39 47 94 0c 39
       0.0040967567 0.0025590705 0.00019604867 0.00013406678
000290 ab 5a 37 3a 8c 82 1b 3b e2 39 87 38 a9 6f e0 38
       0.00069944066 0.0023728935 6.448083e-05 0.00010701951
0002a0 a2 ac 20 3b 59 db d6 39 0c 2d 23 39 34 d0 8b 3a
       0.002451696 0.00040980687 0.00015561673 0.0010666908
0002b0 7a 25 9c 3a fa f8 1f 3a 4a 8f 8c 3b 13 36 30 3b
       0.0011913024 0.0006102469 0.0042895423 0.00268877
0002c0 f6 8c 6a 3b 84 28 54 39 7a 03 51 3b 70 79 8c 3b
       0.0035789586 0.00020232989 0.0031892941 0.0042869374
0002d0 b5 db 58 3b 15 d3 70 3a c6 1d 15 3b 01 91 c0 38
       0.003308994 0.0009186727 0.0022753342 9.1822825e-05
0002e0 df 52 7f 3a 75 f4 cd 3b e3 94 0d 39 ee 54 42 3b
       0.0009739827 0.006285245 0.00013502272 0.0029652673
0002f0 92 54 98 3a b9 c0 37 3b 85 94 dd 3a 05 b5 d6 3a
       0.0011621884 0.0028038456 0.0016905224 0.0016380852
000300 13 6a 18 39 3d 80 40 3b f9 5d 70 3a 15 68 27 3b
       0.00014535365 0.002937331 0.00091692765 0.0025544215
000310 25 32 0f 3a a2 c5 85 3b 8f f7 2e 3b e4 e2 99 3b
       0.0005462489 0.0040823976 0.002669785 0.004696237
000320 3b a5 10 3a f0 b7 cf 3a 0c 3c 0a 3b 85 ff 43 3b
       0.00055177853 0.0015847664 0.002109292 0.002990694
000330 5d 37 97 3b fb 65 d8 39 8d a5 ff 3a e4 24 96 3a
       0.004614754 0.00041274712 0.0019504294 0.0011455086
000340 5b 4e 3d 3b a3 c4 49 39 ef 03 3c 3a c1 3b 26 3a
       0.0028885815 0.00019242107 0.0007172217 0.00063413015
000350 fe 37 75 3a 6b 99 3e 3b 11 f8 9c 39 ea b5 75 39
       0.0009354352 0.0029083143 0.00029939463 0.00023432789
000360 24 49 7c 3b 85 26 b3 3a 1f d1 80 3b 1a 15 53 39
       0.0038495744 0.0013668096 0.003931179 0.00020130389
000370 86 ee ef 3a ce ee ae 3a aa 83 c2 3a 28 ac 61 3b
       0.0018305338 0.0013346316 0.0014840264 0.0034434889
000380 9b 78 97 3b 17 f5 34 3b be 6b 47 39 39 c0 33 39
       0.0046225316 0.0027611905 0.00019018256 0.00017142379
000390 bf 74 58 3a cb e7 28 3b 8e 78 7b 38 c1 27 f5 38
       0.00082571426 0.0025772925 5.995534e-05 0.00011689915
0003a0 67 8b 30 3b c1 c1 05 3a 17 f5 0f 39 5e d5 79 3a
       0.002693856 0.0005102419 0.00013728846 0.00095303904
0003b0 f9 f6 a2 3a 35 20 3b 3a 59 e3 9a 3b a6 04 44 3b
       0.0012433223 0.0007138283 0.004726809 0.0029909997
0003c0 d4 89 8c 3b d7 34 86 39 3b f1 53 3b 1c e7 aa 3b
       0.0042888913 0.0002559784 0.003233983 0.0052155387
0003d0 a5 65 7f 3b 5b c7 80 3a 7e 7d 22 3b 55 86 dd 38
       0.0038970497 0.0009825038 0.0024794037 0.000105631225
0003e0 18 dc a0 3a 2a 8c f2 3b d8 3e 2a 39 0d 17 6b 3b
       0.0012272624 0.0074019628 0.00016235875 0.0035871894
0003f0 ce 3b c5 3a 9d ce 4e 3b 03 26 e2 3a 73 8e 02 3b
       0.001504773 0.0031556257 0.001725376 0.0019921332

exp_avg f4 [8]
000000 69 3b 4b bd 0d 61 5d 3d 30 03 57 3d d6 5e 3f 3d
       -0.049617205 0.054047633 0.052493274 0.046721302
000010 c8 19 33 3d 5a c0 57 3b 70 fa f6 ba 66 01 a6 3b
       0.04372576 0.0032921047 -0.0018842947 0.0050660847

exp_avg_sq f4 [8]
000000 ce 92 8b 3c 9c f0 e0 3c 07 c2 a2 3c e0 b7 af 3c
       0.017037775 0.027458481 0.01986791 0.021449983
000010 0d b5 85 3c 70 42 a5 3a 8f 61 02 3a d0 ec 2f 3a
       0.016321683 0.0012608301 0.0004973644 0.0006711008

exp_avg f4 [2, 8]
000000 6a b7 3b bc a4 a7 81 3c 3e 85 03 3c 2e 7a 4e 3c
       -0.011457304 0.015827008 0.008027373 0.012602372
000010 ad 22 48 3c 6a c8 93 bc d0 71 af 3c a0 15 c7 bb
       0.012215299 -0.0180399 0.021416575 -0.006075576
000020 6a b7 3b 3c a6 a7 81 bc 43 85 03 bc 2c 7a 4e bc
       0.011457304 -0.015827011 -0.008027378 -0.01260237
000030 aa 22 48 bc 68 c8 93 3c cf 71 af bc 90 15 c7 3b
       -0.012215296 0.018039897 -0.021416573 0.0060755685

exp_avg_sq f4 [2, 8]
000000 86 02 4c 3a 60 a6 1b 39 41 9d f8 3a 7c ec 13 39
       0.00077823584 0.00014843931 0.0018967764 0.0001410711
000010 01 00 84 39 f0 30 97 3a 09 26 23 3a b8 36 ed 3a
       0.00025177005 0.001153497 0.0006223624 0.0018097972
000020 85 02 4c 3a 60 a6 1b 39 42 9d f8 3a 7c ec 13 39
       0.0007782358 0.00014843931 0.0018967765 0.0001410711
000030 00 00 84 39 f0 30 97 3a 09 26 23 3a b9 36 ed 3a
       0.00025177002 0.001153497 0.0006223624 0.0018097974

exp_avg f4 [2]
000000 78 e8 21 bc 7a e8 21 3c
       -0.009882085 0.009882087

exp_avg_sq f4 [2]
000000 bb 1d 9f 39 b9 1d 9f 39
       0.00030348994 0.00030348988

model.1.defunc.m.0.weight f4 [64, 8]
000000 29 74 1d 3e 7d d8 4d bd 66 b5 cd 3d 01 99 a1 be
       0.15376343 -0.050255287 0.10044365 -0.31562045
000010 1e 24 c6 3e 8c f4 85 bd 9c 1d 8f be a3 bc fc 3d
       0.3869943 -0.06540784 -0.27952278 0.12340667
000020 43 f6 87 3e a0 59 99 bc 18 29 53 be e4 7e 21 3e
       0.2655507 -0.018719494 -0.20621145 0.15771061
000030 29 24 19 3e ee 27 91 3d 45 5c 76 be 68 2c eb 3d
       0.149552 0.07087694 -0.24058636 0.11483079
000040 c8 50 7b 3d e2 4b d7 be f8 7c 33 be f6 b5 c3 be
       0.061356336 -0.42050081 -0.1752814 -0.38224763
000050 2a a4 b9 be cf bd 0b bc ed 16 d0 bd 3c d6 51 3e
       -0.3625806 -0.008529141 -0.10160623 0.2049188
000060 49 66 e7 be ef 31 e1 3e e3 54 79 3e 01 06 db bc
       -0.45195225 0.4398341 0.24348788 -0.026736261
000070 10 ae c6 3e c6 29 8d be b1 26 e1 3d 22 86 53 be
       0.38804674 -0.27570933 0.10993708 -0.20656636
000080 ad a5 e7 3e 63 99 06 bf cc 6b c8 be d0 ec e8 be
       0.45243588 -0.525778 -0.39144742 -0.45493174
000090 23 ea 08 be a1 54 a5 3e 90 c4 10 3d 1e 7d 0a 3e
       -0.13370566 0.3229113 0.035343707 0.13524291
0000a0 ab 2b 8f bc 97 cd a7 3e 89 cd 8e 3c 5a 63 05 3e
       -0.017476877 0.3277404 0.017431991 0.13026181
0000b0 75 24 90 3d 2d 5f 82 bd b8 f0 80 3d 6c a1 c7 bd
       0.070382036 -0.063658096 0.062959135 -0.09747586
0000c0 d7 d5 03 be 78 bf 91 be 69 04 81 be f1 94 ef be
       -0.12874542 -0.28466392 -0.25198677 -0.4679332
0000d0 80 a2 69 bc 45 76 8b be 83 6d 99 3e e4 5a ee be
       -0.014259934 -0.2723867 0.29966363 -0.4655372
0000e0 9a db 2a 3c c1 db 4e be 1e cd 27 3c d6 64 da be
       0.010428334 -0.20201017 0.010241775 -0.42655057
0000f0 b5 20 07 be 2d d1 f5 be d2 e9 35 3e 57 79 78 be
       -0.1319607 -0.4801115 0.17764977 -0.24265037
000100 6c 93 87 3d 2f 9f 6e bd 8c c4 c9 3d 29 e5 0c bd
       0.06619915 -0.058257278 0.098519415 -0.03439823
000110 8d 47 49 3e f8 2d a5 be f9 8c dd 3c 7c 16 ef 3e
       0.196562 -0.32261634 0.02704476 0.46696842
000120 82 50 cb be 78 41 4c bd 58 66 19 be 3c 41 1f 3e
       -0.3970986 -0.049867123 -0.14980447 0.15552229
000130 2a 8d e2 3e 85 62 44 bd fc 48 73 3d 8a 59 0f be
       0.44248325 -0.047945518 0.059395775 -0.13999
000140 18 f2 8a 3e 8e 93 d6 3d 66 c4 8b be 51 9b f8 bd
       0.27137828 0.104773626 -0.27298278 -0.12138999
000150 c5 8e fa be 94 c3 d2 3e 97 28 dc be fc 88 0e bf
       -0.4893705 0.4116484 -0.42999718 -0.5567777
000160 92 14 20 3e 76 4f c0 3e be c8 15 3e c4 8b bb bd
       0.15632847 0.37560624 0.14627358 -0.091575176
000170 f6 b5 99 3e 53 76 75 bd 15 8e 2c bc 1f c1 19 bd
       0.30021638 -0.059927296 -0.010531922 -0.03753769
000180 29 b1 66 be 68 54 38 3e 33 05 f2 3e ef dc 27 bd
       -0.22528519 0.18000948 0.47269592 -0.040982183
000190 ba 55 21 be 65 80 d8 3e 70 3d f6 be 67 b8 a8 3e
       -0.15755358 0.42285457 -0.48093748 0.32953188
0001a0 6c 11 ac 3e 53 83 ab be 58 5c b2 bb d6 16 da bd
       0.33607042 -0.3349863 -0.005443137 -0.10648887
0001b0 2e 00 98 bd 9b c9 a3 3e cf 6c f5 bd fa d0 42 be
       -0.07421909 0.3198975 -0.11983644 -0.1902503
0001c0 f8 4d 19 3e f4 d1 1d 3d 4a 76 3a 3b e2 01 5e 3e
       0.14971149 0.038530305 0.0028451853 0.21680406
0001d0 f5 66 8d 3e 9f 84 e2 3e 78 74 ab be 3b 61 c3 be
       0.27617612 0.44241807 -0.33487296 -0.38160118
0001e0 cb 85 16 be e8 01 bf 3d 7c ad 76 3e 9e b6 11 3e
       -0.14699475 0.093265355 0.24089617 0.14229819
0001f0 e3 72 93 bd 77 90 9b 3e 0c d5 0c be 8d de 82 3d
       -0.07199647 0.30383655 -0.13753146 0.063901044
000200 68 a8 7f be 0c 7a a1 3e 98 80 aa be a3 45 a9 3e
       -0.24966586 0.31538427 -0.33301234 0.3306094
000210 9f a1 5b 3e 56 d3 f5 bd 56 05 11 3e c8 fc a2 3d
       0.21448372 -0.120032 0.14162192 0.079583704
000220 68 7f 5b be 12 af 1e be cb d7 f2 3d 62 e2 8b 3e
       -0.2143532 -0.15496472 0.118575655 0.27321154
000230 2a a4 b9 3d a3 85 90 be c0 36 b5 3d 17 c6 11 bd
       0.09064515 -0.28226957 0.08848333 -0.035589304
000240 d3 ab 8a be e1 68 85 be e8 18 3b 3d 90 cb 3a be
       -0.27084216 -0.2605658 0.04567805 -0.18241715
000250 66 14 9f 3d 87 f1 ec bd 62 f2 ae 3d 64 36 72 be
       0.077675626 -0.11569505 0.085423246 -0.23653561
000260 f7 42 27 3e fd 9a 2d be 18 ef 4d be f3 71 56 be
       0.16334139 -0.16953655 -0.20110738 -0.20941906
000270 14 25 3f 3d 19 d7 9c 3e 33 ca 02 3c 49 88 d4 3e
       0.04666622 0.30632856 0.007982778 0.41510227
000280 c5 8d 12 3d 87 52 92 3e 43 b2 02 3f 83 f5 29 bd
       0.035779733 0.28578588 0.51053256 -0.041493904
000290 ed 9b 9f 3e 96 1f 2a bc 3f 34 af 3e b4 15 b0 3e
       0.3117365 -0.010383507 0.34219548 0.34391558
0002a0 2a ae 3b 3e f8 bd 8a 3d 42 29 05 3f 15 7e 4a 3e
       0.18328157 0.06774515 0.5201608 0.19774659
0002b0 08 a1 9c 3e 6a 42 aa 3e e8 82 0c 3f 67 89 e9 3e
       0.30591607 0.33253795 0.5488725 0.45612642
0002c0 2f b2 9d be 95 c8 9e 3d 69 a7 a2 3e 1f 0f 73 3e
       -0.30800006 0.07753102 0.3176835 0.23736237
0002d0 eb 4a dd 3e b5 ea b4 be 30 f1 58 3d fc ce c6 bd
       0.4322122 -0.35335317 0.05296439 -0.09707448
0002e0 15 c8 14 be c3 6d c8 3e cb ea ac 3e 81 6a eb 3e
       -0.1452945 0.39146242 0.33772883 0.45979694
0002f0 df 5c 13 be e0 20 74 be ff 73 18 be bd 46 92 be
       -0.14390896 -0.23840666 -0.14887999 -0.28569594
000300 04 bf 20 bb 6a 44 88 bd 4f 82 39 3e 94 9d 45 3d
       -0.0024527917 -0.06653674 0.18116115 0.04824598
000310 e0 aa f5 3e eb 06 06 bf 35 45 e5 be 12 7b 10 3f
       0.4798193 -0.52354306 -0.44779363 0.5643779
000320 5b a0 02 3f 01 d5 0a bf b6 25 04 be 02 df e1 be
       0.51025933 -0.5423127 -0.1290501 -0.44115454
000330 27 88 8a be f2 35 a6 be c0 ec d6 be 6b f5 1d bd
       -0.27057 -0.32463032 -0.419775 -0.038564127
000340 c1 86 9e 3e 14 dd 08 bf 02 58 ea bc d5 47 78 be
       0.30962184 -0.5346234 -0.028606419 -0.24246152
000350 ed 0b bb be 78 a4 95 be 60 3b c4 3e d7 8b c3 be
       -0.36532536 -0.29227042 0.3832655 -0.38192627
000360 b6 af 44 3e b9 6a a9 be 7c 36 03 3e 3f 04 b8 be
       0.19207653 -0.33089235 0.12813753 -0.3594074
000370 9c 83 ce be 31 3b e4 bd 10 b9 a1 3e 5e 00 72 3e
       -0.40334785 -0.11144102 0.31586504 0.23632953
000380 21 f8 53 bd 0f 23 8e 3e 30 7b bd 3e 9d bb c7 3b
       -0.051750306 0.27761123 0.37008047 0.0060953633
000390 0a 9c af 3d 80 0f 2f 3e 44 f3 f1 3d 3a 4f 66 be
       0.08574684 0.17095757 0.11813977 -0.2249116
0003a0 3e ea a8 be a3 0e 04 3e 12 f9 67 3e a0 f9 be bd
       -0.32991213 0.12896208 0.22653607 -0.09324956
0003b0 8c 49 fc 3e 22 db 8b be 27 d6 69 3e 92 67 e5 3e
       0.49274862 -0.27315623 0.22835599 0.4480558
0003c0 e7 29 84 be 0d 49 df 3d 4c 57 98 3e db aa 64 3e
       -0.2581322 0.10902605 0.29754102 0.22330801
0003d0 3b 7b 8a 3e eb b2 4a bd bc e0 79 3e 35 5f 93 bd
       0.27047142 -0.049487036 0.24402136 -0.07195894
0003e0 36 06 0f 3f 47 75 18 bf 6e d7 21 bd 4e 9d 9e be
       0.5586885 -0.5955395 -0.03951209 -0.3097939
0003f0 08 ca 3e be a0 e8 22 bf ec 1f 51 3d 73 8a b9 3e
       -0.18631756 -0.6363621 0.051055834 0.3623844

model.1.defunc.m.0.bias f4 [64]
000000 bb ed 03 be 93 df a3 3e d9 d3 35 3e 95 da 98 be
       -0.12883656 0.3200651 0.17756595 -0.29854265
000010 a2 8d 1d 3e 55 d1 cf be dd 3b aa bd ac ce 90 be
       0.1538606 -0.40589395 -0.08312199 -0.28282678
000020 33 5e b0 3d c5 85 77 be d5 24 b6 be f3 16 d2 be
       0.08611717 -0.24172123 -0.35574976 -0.41033134
000030 77 08 31 3e c3 cb ad 3d b6 c8 3d 3e 8a ae f9 3b
       0.17288385 0.0848613 0.18533596 0.0076196836
000040 f3 ba 91 be 07 14 0d 3e fb 90 b8 bd 9d d2 9a be
       -0.28462943 0.13777171 -0.09012028 -0.3023881
000050 9e 53 b2 3d b9 81 8b 3e fc 5a b3 bd 4d 2a e0 bc
       0.08707355 0.27247408 -0.08757588 -0.02736392
000060 13 04 ac 3e 06 5c 68 be 1a 66 46 be 9b 1f 8a bc
       0.33596858 -0.22691354 -0.19374886 -0.016860774
000070 aa 9c aa be e8 8e 3e 3e 0f 07 8a be 01 35 b9 be
       -0.3332265 0.18609202 -0.2695851 -0.3617325
000080 32 7c 74 be 0a 78 c7 3e d3 ae 40 be 90 17 d8 bd
       -0.23875502 0.3895877 -0.1881669 -0.10551369
000090 90 60 2e bd 32 04 a2 3e 19 15 ad bd 9a 89 4b 3e
       -0.042572558 0.31643826 -0.0845129 0.1987671
0000a0 28 81 b2 3e 8a 53 69 be 8a 75 24 be ce 9b a4 3e
       0.34864163 -0.22785774 -0.16060463 0.3215012
0000b0 88 a1 a2 3e a7 ec de 3d 62 9e d7 be 78 15 9a 3e
       0.31763864 0.108849816 -0.42113024 0.30094504
0000c0 6a b2 63 3e 78 c5 86 bd 02 9e cf be ab c2 4e be
       0.22236028 -0.06580633 -0.40550238 -0.20191447
0000d0 30 25 92 3e 3e 7a 6c be 24 e9 31 be a8 e3 c0 bd
       0.28543997 -0.23093507 -0.17374092 -0.09418422
0000e0 b5 4f 46 bc a3 e5 b2 3e 31 5c b3 bd ac c6 ac 3e
       -0.012103965 0.34940824 -0.087578185 0.33745325
0000f0 dd 92 2f be 38 e5 be be 72 b2 4b be eb 64 13 be
       -0.17145868 -0.37284255 -0.1989229 -0.14393966
