lightning_logs/version_15/checkpoints/epoch=49-step=49.ckpt (torch, 19857 bytes, 18 tensors)

exp_avg f4 [64, 8]
0.0010997745 -0.001474868 0.0014580495 -0.0014696642 -0.0027186386 0.0028637517 -0.0014157973 -0.0030091698
-1.4269957e-05 -0.0002982639 0.00093757175 -0.00022155093 -0.00044495938 0.0027297696 -0.0056332233 -0.00036137263
-0.008771469 0.010393524 -0.00889191 0.009727345 0.020955909 -0.005898189 0.006267233 0.0076220566
0.0017115017 -0.002184042 0.001193106 -0.0027359764 -0.0055564796 -0.0018075118 0.0022078191 0.00011741044
0.003400236 -0.0023448574 -0.0037637826 -0.0022021192 -0.002522286 0.0064582815 0.026763486 -0.008898098
0.0012783008 -0.001971324 0.0019464492 -0.0028228154 -0.0053247903 -0.00027962262 0.0012690808 0.0015540849
0.00068144064 -0.0003509441 -0.00012975222 -6.060746e-05 -0.0010905081 -0.0010608635 -0.001698795 0.0016615345
0.007288761 -0.0073464555 0.0045117834 -0.0053569637 -0.014995275 0.0015962636 -0.005759507 -0.0033352748
0.0005415729 -0.00087859505 0.00042586215 -0.0012853694 -0.0027622548 -0.0013430527 0.0018034731 0.0039946157
-0.00069527375 0.0006303097 -0.00028457853 0.0010079422 0.002330951 0.0077847503 -0.004304641 -0.002253413
-0.0061038183 0.0046822666 -0.0012925535 0.0026225136 0.010273317 0.005289104 -0.00056418293 -0.00059783645
-0.0036436552 0.0065151695 -0.0061985026 0.007842678 0.008540984 0.0014249301 -0.007979655 0.025122147
-0.00042067654 0.00028934074 0.00031375623 0.00039056427 0.0008118149 0.0032981567 -0.004182307 -0.0007012673
1.3054116e-05 0.00040187966 -0.0012249718 0.0008975732 0.0010613619 0.0019820037 0.0015131778 0.0015870197
0.0009124293 -0.0010080579 0.00040022843 -0.0011743899 -0.0029173638 -0.0073518455 0.0022445733 0.0039387154
0.0030618298 -0.0020338169 -0.0022555967 -0.000648111 -0.005679234 0.0016887513 0.008311095 0.01268084
-0.002551727 0.0017001556 0.00127301 0.00043821405 0.0044151186 0.0006635404 -0.0040220246 -0.006680943
-0.0005550246 0.0008182467 -0.00090782583 0.0012498242 0.0015725971 0.0005163761 -0.0016456979 0.0033432185
0.00836982 -0.008975251 0.00586731 -0.007880731 -0.016979853 0.008602367 -0.0032385208 -0.0094203185
0.0011632191 -0.0011597826 0.00095905433 -0.0017681476 -0.001213979 -0.013400506 0.008449029 -0.010443129
0.0004924586 -0.0005724806 0.0009670876 -0.0011682417 -0.002141367 -0.0042140046 -0.000531017 1.0111602e-05
0.0010621515 -0.0014821424 0.0016875574 -0.0022884437 -0.004454304 -0.0006487577 -0.00017416652 0.0011974669
0.0011992776 -0.0027011447 0.003665041 -0.0048999838 -0.008189399 -9.649759e-05 0.0015519601 0.0023845017
0.00027112593 -3.2651547e-05 -0.000919191 0.00040167157 0.00011900549 0.0006333455 0.0011721883 0.0034185038
-0.0019415622 0.0039359843 -0.005502494 0.0062880744 0.011167698 -0.00045549544 0.002697199 -0.0015517189
0.0027262191 -0.0044805612 0.0060393554 -0.0064105494 -0.012451434 -0.00068401825 -0.0052360157 0.0023164186
0.000883908 -0.0012289542 0.000752455 -0.0022473212 -0.0046472214 -0.004080154 0.005045453 0.0036140142
-0.0039257035 0.0013909995 0.006956596 -0.0014058696 0.0072072763 -0.013715571 -0.017217867 -0.03290188
0.0089489445 -0.010818969 0.009381004 -0.010587794 -0.023662208 0.006503645 -0.007981572 -0.0035521393
-0.0018923057 0.0016205196 0.0001452819 0.0012750488 0.0047131297 0.0012625965 -0.002514749 -0.004501776
0.0020227283 -0.0043554665 0.006405017 -0.0076497993 -0.012794709 -0.0026665353 -0.00039437308 0.0008038813
-0.0010737977 0.00067455624 -8.6207525e-05 0.00086226116 0.0012326639 0.008689357 -0.005635161 0.0032667094
00000000: 4f26 903a 5c50 c1ba 061c bf3a bfa1 c0ba
00000010: 302b 32bb c8ad 3b3b 4692 b9ba 7e35 45bb
00000020: 0069 6fb7 4e60 9cb9 60c7 753a 2050 68b9
00000030: 7049 e9b9 efe5 323b e796 b8bb 9d76 bdb9
00000040: 35b6 0fbc 9949 2a3c 60af 11bc 715f 1f3c
00000050: baab ab3c 9845 c1bb 5c5d cd3b 72c2 f93b
00000060: 7854 e03a 2522 0fbb ff61 9c3a 114e 33bb
00000070: 2113 b6bb 08ea ecba 0fb1 103b 403a f638
00000080: 7ed6 5e3b 2eac 19bb cba9 76bb 6e51 10bb
00000090: f04c 25bb fe9f d33b 193f db3c 54c9 11bc
000000a0: a88c a73a 5431 01bb ff1f ff3a fcfe 38bb
000000b0: 947b aebb 509a 92b9 4957 a63a 70b2 cb3a
000000c0: b5a2 323a ebfe b7b9 190e 08b9 c434 7eb8
000000d0: 61ef 8eba ac0c 8bba 1aaa deba d9c7 d93a
000000e0: 8fd6 ee3b 89ba f0bb 95d7 933b 7889 afbb
000000f0: beae 75bc b839 d13a 3fba bcbb a094 5abb
00000100: 58f8 0d3a 8451 66ba 4046 df39 d779 a8ba
00000110: f206 35bb 5f09 b0ba 8462 ec3a 44e5 823b
00000120: 0843 36ba 5e3b 253a 7c33 95b9 ee1c 843a
00000130: dec2 183b 3817 ff3b f20d 8dbb ffad 13bb
00000140: 8a02 c8bb b36d 993b e66a a9ba 7ade 2b3b
00000150: 6a51 283c 3850 ad3b ade5 13ba 20b8 1cba
00000160: 64ca 6ebb 347d d53b cf1c cbbb 937e 003c
00000170: 7cef 0b3c b8c4 ba3a 19bd 02bc f6cc cd3c
00000180: 408e dcb9 a8b2 9739 a67f a439 a6c4 cc39
00000190: facf 543a e325 583b bc0b 89bb 40d5 37ba
000001a0: 0003 5b37 60b3 d239 3c8f a0ba 1e4b 6b3a
000001b0: 651d 8b3a 81e4 013b d255 c63a 8b03 d03a
000001c0: 1830 6f3a cf20 84ba c0d5 d139 fced 99ba
000001d0: 3e31 3fbb c0e7 f0bb b119 133b 5710 813b
000001e0: fba8 483b c949 05bb a2d2 13bb fee5 29ba
000001f0: de18 babb 1759 dd3a 422b 083c 4cc3 4f3c
00000200: e03a 27bb c1d7 de3a 21db a63a 18c0 e539
00000210: b3ac 903b 71f1 2d3a 30cb 83bb d0eb dabb
00000220: 127f 11ba 9b7f 563a 29fb 6dba 24d1 a33a
00000230: 9a1f ce3a 6a5d 073a 75b4 d7ba e619 5b3b
00000240: 9221 093c ee0c 13bc 9042 c03b 2e1e 01bc
00000250: 5519 8bbc f1f0 0c3c 5d3d 54bb ae57 1abc
00000260: 2877 983a d903 98ba 0c69 7b3a 30c1 e7ba
00000270: 601e 9fba cc8d 5bbc cc6d 0a3c a819 2bbc
00000280: 5618 013a 8612 16ba 2684 7d3a b01f 99ba
00000290: 2d56 0cbb a215 8abb f333 0bba 00a5 2937
000002a0: e437 8b3a 7244 c2ba 0831 dd3a b7f9 15bb
000002b0: 69f5 91bb 6411 2aba 78a0 36b9 52f4 9c3a
000002c0: 1431 9d3a b005 31bb 2f31 703b 0b90 a0bb
000002d0: d42c 06bc c05e cab8 246b cb3a 4d45 1c3b
000002e0: e825 8e39 55f3 08b8 ddf5 70ba 7297 d239
000002f0: 9692 f938 1907 263a 1da4 993a fa08 603b
00000300: 047c feba 6ef9 803b 444e b4bb 310c ce3b
00000310: b8f8 363c 90cf eeb9 7dc3 303b 0c63 cbba
00000320: 5eaa 323b acd1 92bb c9e5 c53b 960f d2bb
00000330: 1901 4cbc b04f 33ba e292 abbb 0ecf 173b
00000340: 10b6 673a dc14 a1ba 6640 453a cb47 13bb
00000350: b847 98bb d0b2 85bb 5454 a53b 19d9 6c3b
00000360: 30a3 80bb 3352 b63a 28f4 e33b 2845 b8ba
00000370: 042b ec3b 46b7 60bc 7c0c 8dbc 1fc4 06bd
00000380: 989e 123c 0c42 31bc c8b2 193c 6d78 2dbc
00000390: 3fd7 c1bc 871c d53b 24c5 02bc 02cb 68bb
000003a0: 3e07 f8ba 9d67 d43a d056 1839 8a1f a73a
000003b0: 9970 9a3b b57d a53a 7dce 24bb a283 93bb
000003c0: c08f 043b 4db8 8ebb 2de1 d13b 2bab fabb
000003d0: e6a0 51bc 0ac1 2ebb dcc3 ceb9 90bb 523a
000003e0: acbe 8cba b4d4 303a 50ca b4b8 5e09 623a
000003f0: 5691 a13a ce5d 0e3c 28a7 b8bb 4a16 563b

exp_avg_sq f4 [64, 8]
4.342324e-07 5.92395e-07 2.1976699e-07 1.4073262e-07 1.0938707e-06 1.1916621e-06 1.0181279e-06 5.315373e-07
4.0591345e-07 1.392333e-07 4.3159105e-07 1.6062367e-07 2.0084634e-07 9.100021e-07 2.0382909e-06 1.8970961e-07
5.476192e-05 6.1491e-05 7.947606e-06 6.9192274e-06 0.000102407124 5.2359315e-05 2.569297e-05 2.7487376e-05
1.4641556e-05 7.4516815e-06 5.442223e-07 2.6787686e-07 1.3981158e-05 6.080396e-06 1.9603394e-06 6.1486e-06
5.6952513e-06 2.1474953e-06 8.61585e-07 3.8442843e-07 3.9836355e-06 1.2776e-06 1.5106145e-05 2.292593e-06
6.763912e-06 7.4095697e-06 8.403892e-07 7.138545e-07 1.1458131e-05 5.128005e-06 2.4357162e-06 3.1495483e-06
1.17961974e-07 1.6468255e-07 2.8563568e-08 1.7215935e-08 2.2808746e-07 1.9860005e-07 1.4560743e-07 1.5398653e-07
2.163462e-05 2.4120689e-05 3.1676768e-06 2.7863243e-06 4.1324212e-05 2.0736268e-05 9.7433085e-06 9.688082e-06
5.1299103e-06 2.1744445e-06 3.7982494e-07 9.809709e-08 4.2426777e-06 9.4719843e-07 5.7023374e-07 2.253955e-06
4.4103776e-06 1.132968e-06 9.713638e-07 2.103926e-07 2.7293236e-06 1.7493854e-06 3.1312682e-06 6.298032e-07
1.5248248e-05 7.440462e-06 5.581154e-07 2.5832745e-07 1.6564676e-05 5.3762747e-06 1.2255354e-06 4.3943e-06
3.9070284e-05 3.501368e-05 3.4319914e-06 2.8783736e-06 5.5609547e-05 3.2691594e-05 1.5498548e-05 2.3528622e-05
9.85591e-07 1.8963178e-07 3.4661963e-07 9.49016e-08 4.4158475e-07 4.8324375e-07 1.4419011e-06 1.1092649e-07
4.557896e-07 6.185484e-07 7.981014e-08 7.82923e-08 1.0162895e-06 6.585414e-07 2.6365794e-07 2.4329069e-07
6.2841473e-06 1.7914251e-06 1.199651e-06 2.830658e-07 3.9096494e-06 1.6496006e-06 2.823448e-06 1.4540078e-06
6.074194e-06 1.8680614e-06 1.1498864e-06 2.1927595e-07 4.0851646e-06 5.4668664e-07 4.2096294e-06 5.2688615e-06
3.9744773e-06 1.2576911e-06 6.218479e-07 1.3298067e-07 2.693855e-06 2.5503343e-07 1.5633073e-06 2.228175e-06
1.2802282e-06 6.288736e-07 4.5013905e-08 3.862141e-08 1.3645957e-06 6.8046694e-07 2.4053e-07 5.3777876e-07
1.8082708e-05 1.9691102e-05 2.816328e-06 2.8152356e-06 3.592252e-05 1.9187119e-05 1.0694787e-05 1.0340327e-05
6.003381e-06 1.7305816e-06 1.4252918e-06 3.9466647e-07 3.7532832e-06 4.51238e-06 3.7096324e-06 2.370075e-06
1.3671435e-06 1.9673025e-06 3.3309456e-07 2.6651406e-07 2.840059e-06 1.801818e-06 6.7813124e-07 4.436532e-07
5.642708e-06 4.7319186e-06 3.7271872e-07 3.262e-07 8.1061e-06 3.8128387e-06 1.5053276e-06 2.7236679e-06
1.898098e-05 1.969119e-05 2.1033798e-06 1.838321e-06 3.1414802e-05 1.4180838e-05 6.6772345e-06 8.937133e-06
6.863488e-08 1.8488581e-08 1.2627622e-07 7.493193e-08 3.164216e-08 1.3980467e-07 3.2785425e-07 2.9225734e-07
2.5948695e-05 2.9294873e-05 3.6917945e-06 3.1855063e-06 4.7144007e-05 2.4059573e-05 1.1628809e-05 1.3586943e-05
3.0263835e-05 3.7325055e-05 5.421183e-06 4.3967348e-06 5.8526428e-05 3.0326395e-05 1.5138481e-05 1.5620697e-05
1.4273548e-05 6.353436e-06 6.8055243e-07 1.9977156e-07 1.32681025e-05 3.4493132e-06 1.6991853e-06 4.9569044e-06
8.739829e-06 2.70596e-06 2.0750995e-06 3.458852e-07 5.3884914e-06 5.4811067e-06 8.785238e-06 3.056044e-05
9.417824e-05 9.190528e-05 1.0366755e-05 8.3059285e-06 0.00015601539 8.4213585e-05 4.1034426e-05 4.7038622e-05
6.2449817e-06 2.6472853e-06 3.9567192e-07 1.0627102e-07 5.3457466e-06 1.1122058e-06 8.223016e-07 2.8614954e-06
4.8250313e-05 5.5644745e-05 6.5230765e-06 5.274732e-06 8.408078e-05 4.3472584e-05 2.0180378e-05 2.2571068e-05
2.5920558e-06 5.9302124e-07 5.854327e-07 1.2729674e-07 1.6433355e-06 1.9778956e-06 2.23009e-06 3.7688105e-07
00000000: 7220 e934 1305 1f35 17f9 6b34 4a1c 1734
00000010: 1cd1 9235 33f1 9f35 9ca6 8835 f7ae 0e35
00000020: 52ec d934 2880 1534 6cb5 e734 e677 2c34
00000030: 39a8 5734 de46 7435 92c9 0836 fbb2 4b34
00000040: 2ab0 6538 bbf4 8038 b556 0537 b62b e836
00000050: 68c3 d638 639c 5b38 3c87 d737 b194 e637
00000060: 01a5 7537 7509 fa36 ac16 1235 b7d0 8f34
00000070: 9e90 6a37 3406 cc36 608e 0336 1250 ce36
00000080: d619 bf36 b01d 1036 ac47 6735 7163 ce34
00000090: 2bab 8536 007a ab35 6670 7d37 73da 1936
000000a0: 90f5 e236 b89f f836 1b97 6135 b59f 3f35
000000b0: 4c3c 4037 3a11 ac36 4975 2336 d45c 5336
000000c0: 4852 fd33 98d3 3034 f35b f532 3ee2 9332
000000d0: 34e8 7434 c43e 5534 4458 1c34 7f57 2534
000000e0: fe7b b537 c956 ca37 4694 5436 b0fc 3a36
000000f0: 8953 2d38 ccf2 ad37 3177 2337 ff89 2237
00000100: 9821 ac36 acec 1136 beea cb34 72a9 d233
00000110: 535c 8e36 fb42 7e35 2a12 1935 a742 1736
00000120: dbfc 9336 7c10 9835 ce5f 8235 47e8 6134
00000130: 6c29 3736 6dcc ea35 c722 5236 bf0f 2935
00000140: bad2 7f37 15a9 f936 66d1 1535 41b0 8a34
00000150: 5ff4 8a37 d965 b436 137d a435 c072 9336
00000160: 66df 2338 a7db 1238 2a51 6636 152a 4136
00000170: 4c3e 6938 551e 0938 e102 8237 555f c537
00000180: a648 8435 969d 4b34 0a17 ba34 b5cc cb33
00000190: f212 ed34 42b8 0135 5887 c135 7c36 ee33
000001a0: 3fb3 f434 530a 2635 1764 ab33 a621 a833
000001b0: 7167 8835 9fc6 3035 df8c 8d34 9e9d 8234
000001c0: 6adc d236 e670 f035 b203 a135 44f8 9734
000001d0: a22f 8336 d867 dd35 787a 3d36 5427 c335
000001e0: eed0 cb36 1aba fa35 cc55 9a35 1d72 6b34
000001f0: 4c13 8936 05c0 1235 7140 8d36 2dcb b036
00000200: 805c 8536 f0cd a835 10ed 2635 73c9 0e34
00000210: 14c8 3436 87eb 8834 d4d2 d135 c187 1536
00000220: 4ed4 ab35 ddcf 2835 5055 4133 b0e0 2533
00000230: 2727 b735 55a9 3635 3122 8134 e05b 1035
00000240: 52b0 9737 522e a537 2600 3d36 61ed 3c36
00000250: 83ab 1638 06f4 a037 c36d 3337 5e7b 2d37
00000260: a670 c936 5546 e835 a74c bf35 8ce2 d334
00000270: eae0 7b36 0d69 9736 00f3 7836 940d 1f36
00000280: b17e b735 0006 0436 2bd4 b234 6a15 8f34
00000290: d897 3e36 ffd5 f135 d308 3635 3b2f ee34
000002a0: 7e56 bd36 dfc6 9e36 121a c834 9620 af34
000002b0: 6fff 0737 12e0 7f36 aa0a ca35 42c8 3636
000002c0: 5839 9f37 822e a537 ca27 0d36 3bbc f635
000002d0: 63c3 0338 3cea 6d37 020d e036 b2f0 1537
000002e0: 6d64 9333 d2d0 9e32 8b96 0734 44ea a033
000002f0: ece6 0733 371d 1634 f203 b034 8be7 9c34
00000300: 66ac d937 43be f537 8cc0 7736 95c6 5536
00000310: 7ebc 4538 8ad3 c937 5b19 4337 7af3 6337
00000320: 17df fd37 798d 1c38 9be7 b536 aa87 9336
00000330: 467a 7538 7065 fe37 48fb 7d37 3109 8337
00000340: 6c78 6f37 9a2f d536 35af 3635 ca80 5634
00000350: 119a 5e37 c07a 6736 900f e435 7c53 a636
00000360: 48a1 1237 0a98 3536 f041 0b36 1ab2 b934
00000370: cace b436 59ea b736 4f64 1337 062e 0038
00000380: 8f81 c538 46bd c038 e0ec 2d37 b159 0b37
00000390: 1098 2339 d39b b038 611c 2c38 564b 4538
000003a0: fc8b d136 04a8 3136 bc6c d434 1c37 e433
000003b0: 9d5f b336 1a47 9535 23bc 5c35 1e08 4036
000003c0: 6160 4a38 1764 6938 cde0 da36 9afd b036
000003d0: 8654 b038 5556 3638 0849 a937 0057 bd37
000003e0: 2ef3 2d36 1c30 1f35 a126 1d35 10af 0834
000003f0: 9490 dc35 fdbb 0436 a8a8 1536 2356 ca34

exp_avg f4 [64]
0.00071951293 -0.004956742 -0.017085979 0.012095643 0.03557273 0.0065677953 0.0018321588 0.013536505
0.0072447276 -0.01043532 -0.02352555 -0.025777046 -0.0053838966 -0.00051380816 0.011924026 0.015016976
-0.013311275 -0.003613154 0.010916842 0.02178486 0.0034303186 0.0054686544 0.008790791 0.0038265018
-0.00866975 0.009483336 0.012694017 -0.029675482 0.024754755 -0.010180055 0.013046814 -0.012443796
-0.01566653 -0.015550358 -0.0077048494 0.0008391647 -0.0038416863 -0.0043757427 -0.013297581 0.016978873
0.0021329718 -0.012497959 -0.01625308 -0.015843764 -0.02271837 -0.020008367 0.041061852 -0.012422657
0.0014435546 -0.008835592 0.015012237 0.008155236 -0.0068102083 -0.02598413 -0.021107417 0.01382214
0.0076036253 -0.017406633 0.006565661 -0.0029236332 0.010720566 0.0042311545 0.016779989 -0.02260932
00000000: b29d 3c3a 2a6c a2bb e5f7 8bbc ce2c 463c
00000010: b6b4 113d a936 d73b 0c25 f03a 38c8 5d3c
00000020: 2e65 ed3b e8f8 2abc a7b8 c0bc 622a d3bc
00000030: 666b b0bb 15b1 06ba fd5c 433c c309 763c
00000040: 8917 5abc aaca 6cbb 8edc 323c 2a76 b23c
00000050: 32cf 603b 6632 b33b 4007 103c 0cc6 7a3b
00000060: 910b 0ebc fe5f 1b3c 91fa 4f3c ff19 f3bc
00000070: 7cca ca3c 3fca 26bc 4ec2 553c 10e1 4bbc
00000080: 1857 80bc eec6 7ebc f678 fcbb 64fb 5b3a
00000090: cdc4 7bbb 6462 8fbb 19de 59bc 4717 8b3c
000000a0: 54c9 0b3b 3dc4 4cbc 2e25 85bc c8ca 81bc
000000b0: e01b babc 96e8 a3bc 7930 283d 6688 4bbc
000000c0: a835 bd3a 29c3 10bc e3f5 753c 8a9d 053c
000000d0: 2b28 dfbb acdc d4bc 76e9 acbc 4276 623c
000000e0: d527 f93b 5b98 8ebc c224 d73b 6d9a 3fbb
000000f0: 50a5 2f3c 7fa5 8a3b 3076 893c 2e37 b9bc

exp_avg_sq f4 [64]
6.0021546e-07 1.3546229e-05 9.238373e-05 8.393864e-05 0.000100585035 1.7805723e-05 1.4881175e-07 2.7485361e-05
4.2785476e-05 5.7705656e-05 8.9345165e-05 0.00014710048 1.88394e-05 4.9563545e-07 8.3680294e-05 7.985931e-05
5.219788e-05 6.2220124e-06 2.4386014e-05 9.181499e-05 1.2527954e-06 1.4826386e-05 4.8165777e-05 5.7879843e-06
4.4578752e-05 3.7749996e-05 9.300723e-05 0.00014712296 0.00017876487 5.2646086e-05 0.00010470928 3.165156e-05
8.261987e-05 9.580448e-05 1.4476815e-05 9.3887587e-07 4.8040893e-06 2.0780858e-06 3.5236797e-05 0.000118436015
1.5558439e-06 4.1375813e-05 0.00012807222 7.7853634e-05 0.00021178908 0.00012529672 0.00038709876 5.355037e-05
3.958124e-06 2.2366621e-05 6.269665e-05 1.7561655e-05 2.3268844e-05 0.00016112014 0.00011361989 6.8422065e-05
1.8824434e-05 8.816461e-05 2.3277158e-05 2.0488023e-06 4.857599e-05 6.4292367e-06 7.876875e-05 0.0002922644
00000000: 7e1e 2135 9c44 6337 23be c138 3708 b038
00000010: 2ef1 d238 805d 9537 10c9 1f34 5d90 e637
00000020: 8e74 3338 fa08 7238 d25e bb38 fc3e 1a39
00000030: 4e09 9e37 cf0b 0535 847d af38 247a a738
00000040: 0cef 5a38 aec6 d036 9190 cc37 cc8c c038
00000050: b925 a835 d8be 7837 9c05 4a38 6836 c236
00000060: 12fa 3a38 c055 1e38 e00c c338 0545 1a39
00000070: d472 3b39 4ed0 5c38 5e97 db38 9bc1 0438
00000080: 3444 ad38 a3ea c838 72e1 7237 0f07 7c35
00000090: d032 a136 3e75 0b36 39cb 1338 da60 f838
000000a0: 64d2 d035 f18a 2d38 204b 0639 5a45 a338
000000b0: b313 5e39 1562 0339 84f3 ca39 469b 6038
000000c0: 07d0 8436 f49f bb37 027c 8338 5e51 9337
000000d0: 7631 c337 5cf2 2839 3747 ee38 d17d 8f38
000000e0: 2ae9 9d37 04e5 b838 5143 c337 287e 0936
000000f0: 12be 4b38 b9ba d736 a730 a538 103b 9939

exp_avg f4 [8, 64]
-0.00166844 0.0014456292 0.004819629 -0.0037705097 0.0017465705 -0.0012330962 0.0011528665 -0.0070956014
-0.0051241284 0.0055679427 0.009601286 0.0035992572 0.003860723 -0.0020478019 -0.0060009058 -0.0035773283
0.0042633093 0.005036803 -0.0046840496 -0.007430491 0.0006993194 -0.0035061028 -0.0015123428 -0.003268993
0.00022659331 -0.0031071848 -0.0053108535 0.0003393581 -0.00505662 0.0030684029 0.0005669977 0.0062546255
0.0011882079 0.0025397353 0.00031196908 0.0013750554 -0.0031102216 0.0034712492 0.00684742 -0.006904142
-0.008735517 0.007466768 0.004362577 0.0052577113 0.0044438625 0.0038677014 -0.0029620836 0.001302353
-0.0009439708 0.0013516754 -0.00045664178 0.00025398447 0.0018512865 0.0077428957 0.0034687652 -0.0030807455
-0.002673205 0.006124313 -0.0030798044 -5.433103e-07 -0.0025676521 -0.0009640866 -0.008445297 0.002452667
-0.0028166207 -0.0012744517 -0.0014329273 0.00256316 -0.0056499406 0.0009910832 0.0020505548 0.0013841956
0.0026858351 -0.0034543253 -0.00054569345 0.0053806556 -0.003321217 0.0049680187 0.0022695772 0.0025734105
-0.0024581428 0.000567193 0.001049916 0.0014407989 0.0014694335 0.0028003955 0.0011958918 -0.0021558325
-0.00096286694 0.0015904123 0.0027853027 0.0051057716 -0.000415535 -0.0025926318 0.0011552717 -0.0013998249
-0.00044471317 0.000186324 0.0035274776 -0.0012751175 -0.00024154992 -0.0005261889 0.0009443278 0.003252534
0.004944848 -0.00040869322 -0.0010188189 -0.0026619325 -0.00028229086 -0.00016342453 -0.0035393331 0.0017066101
0.0016033021 -0.0007986366 -0.002909346 0.0006922742 -0.0025038915 -0.0018103877 0.002563938 0.001541663
0.0021138415 -0.002293773 0.0028604513 -0.0026400865 0.0006220253 -0.0026856079 0.002835425 0.0042235283
0.01150158 -0.0071792053 0.0040060375 0.0033286437 0.03955262 -0.0052652266 -0.022201585 0.003404932
0.009100717 -0.0054762983 -0.01805228 -0.035267815 -0.004470296 -0.009173554 0.013942363 0.009948424
-0.010204373 -0.015231181 -0.005981045 0.024975175 -0.015826628 -0.0009531989 -0.006116076 0.02189961
0.008576573 -0.004430373 0.0041915984 -0.03387129 0.008421419 -0.0022307937 -0.011235756 -0.020430513
0.0022192413 -0.00038749445 -0.024966212 0.0060299146 0.016324239 0.0040684976 -0.021118587 0.012914059
-0.0033174236 -0.026287809 0.00032317266 -0.010261195 -0.0011667814 0.00096855126 0.017763266 -0.0031328788
0.0012253169 0.008508732 0.019043375 -0.0121699665 -0.003912569 -0.007096528 -0.0087108435 -0.005421453
0.00897776 -0.018492408 0.0044107973 0.0112284925 0.0050532953 0.02502355 0.013825253 -0.021544777
-0.012089933 0.00885399 -0.0014748797 -0.00395349 -0.0498807 0.002879363 0.023069182 -0.003382991
-0.008634111 0.0026963893 0.012609204 0.036371477 0.003746014 0.0073311804 -0.012130933 -0.013054374
0.011903011 0.01469271 0.0058826655 -0.022212502 0.01770211 0.0031716833 0.006019975 -0.018879753
-0.008338816 0.004262577 -0.0033332035 0.041486055 -0.008477751 0.0037341528 0.010497833 0.018762855
0.002111218 0.0034441194 0.03371338 -0.008699647 -0.013291865 -0.0040336084 0.018864363 -0.010178091
0.007471819 0.022243144 0.0012755459 0.010560619 0.0022144113 0.002478593 -0.024762893 0.004771317
-0.0002056444 -0.008179053 -0.026598426 0.009448112 0.007125423 0.004170551 0.009055962 0.0057259854
-0.01184749 0.017804177 -0.0064006224 -0.009887654 -0.008526624 -0.029525401 -0.008441273 0.02246349
00000000: 8eaf daba 447b bd3a faed 9d3b a81a 77bb
00000010: 2eed e43a d89f a1ba c81b 973a 3882 e8bb
00000020: 4ee8 a7bb 4a73 b63b b64e 1d3c 84e1 6b3b
00000030: 2f04 7d3b 6a34 06bb 3fa3 c4bb 9c71 6abb
00000040: 3bb3 8b3b c40b a53b a87c 99bb 7a7b f3bb
00000050: 8852 373a a5c6 65bb ce39 c6ba 9a3c 56bb
00000060: ae99 6d39 e9a1 4bbb ab06 aebb e0eb b139
00000070: 01b2 a5bb 4217 493b 92a2 143a 9af3 cc3b
00000080: a4bd 9b3a b071 263b c88f a339 343b b43a
00000090: dcd4 4bbb e67d 633b 5260 e03b 243c e2bb
000000a0: 6a1f 0fbc caab f43b f3f3 8e3b e148 ac3b
000000b0: d29d 913b 4379 7d3b 841f 42bb b7b3 aa3a
000000c0: cf74 77ba b32a b13a 6c69 efb9 3829 8539
000000d0: dea6 f23a 1eb8 fd3b 3954 633b 55e6 49bb
000000e0: f030 2fbb 76ae c83b 8bd6 49bb 00d8 11b5
000000f0: 0e46 28bb c2ba 7cba 255e 0abc edbc 203b
00000100: 0e97 38bb 810b a7ba 10d1 bbba b0fa 273b
00000110: 2323 b9bb 3ce7 813a 9a62 063b e66d b53a
00000120: d604 303b f661 62bb de0c 0fba 3650 b03b
00000130: c6a8 59bb c3ca a23b 30bd 143b aaa6 283b
00000140: cb18 21bb aeaf 143a 569d 893a 30d9 bc3a
00000150: 029a c03a d786 373b 78bf 9c3a de48 0dbb
00000160: e868 7cba 6275 d03a a089 363b 514e a73b
00000170: 2adc d9b9 25e9 29bb 7c6c 973a 547a b7ba
00000180: 6428 e9b9 f85f 4339 412d 673b d821 a7ba
00000190: 9048 7db9 f0ef 09ba c48c 773a 7728 553b
000001a0: 6408 a23b e045 d6b9 e489 85ba d173 2ebb
000001b0: 7000 94b9 f05c 2bb9 28f4 67bb 55b0 df3a
000001c0: e425 d23a 985b 51ba baaa 3ebb bc79 353a
000001d0: 5418 24bb 884a edba be07 283b a011 ca3a
000001e0: 6088 0a3b 2053 16bb 6976 3b3b 4d05 2dbb
000001f0: 690f 233a 0601 30bb 8ad2 393b 8665 8a3b
00000200: 1f71 3c3c 8a3f ebbb 1445 833b 6025 5a3b
00000210: ee01 223d ec87 acbb 19e0 b5bc 4825 5f3b
00000220: 2c1b 153c 8572 b3bb 60e2 93bc fc74 10bd
00000230: 907b 92bb ad4c 16bc 826e 643c b7fe 223c
00000240: 3e30 27bc 348c 79bc a4fc c3bb bd98 cc3c
00000250: d8a6 81bc 18e0 79ba 5d69 c8bb d066 b33c
00000260: c184 0c3c aa2c 91bb ad59 893b 9fbc 0abd
00000270: fef9 093c 8232 12bb 2d16 38bc e45d a7bc
00000280: b170 113b a028 cbb9 f185 ccbc 9796 c53b
00000290: 69ba 853c 0851 853b e300 adbc 7d95 533c
000002a0: 2269 59bb 8859 d7bc 806f a939 921e 28bc
000002b0: b0ee 98ba 60e6 7d3a 4584 913c fc50 4dbb
000002c0: d09a a03a 3568 0b3c da00 9c3c 8a64 47bc
000002d0: 0235 80bb fe89 e8bb edb7 0ebc 72a6 b1bb
000002e0: 7417 133c 647d 97bc 7388 903b b6f7 373c
000002f0: 1d96 a53b 30fe cc3c 5083 623c ac7e b0bc
00000300: db14 46bc 5310 113c c050 c1ba 478c 81bb
00000310: b44f 4cbd b2b3 3c3b 95fb bc3c 2cb5 5dbb
00000320: 1676 0dbc e8b5 303b d696 4e3c 42fa 143d
00000330: b07f 753b 663a f03b d2c0 46bc 03e2 55bc
00000340: d904 433c b1b9 703c 60c3 c03b fef6 b5bc
00000350: 0404 913c 04dc 4f3b 3643 c53b b6a9 9abc
00000360: 889f 08bc 16ad 8b3b e071 5abb 48ed 293d
00000370: 44e6 0abc b0b8 743b 1aff 2b3c 8fb4 993c
00000380: 5c5c 0a3b bcb6 613b 0b17 0a3d f788 0ebc
00000390: 1fc6 59bc 5c2c 84bb 7089 9a3c 02c2 26bc
000003a0: 29d6 f43b 4137 b63c 3830 a73a 7206 2d3c
000003b0: a81f 113b e46f 223b 8ddb cabc b558 9c3b
000003c0: 40a2 57b9 6f01 06bc f1e4 d9bc 41cc 1a3c
000003d0: 617c e93b 1ea9 883b 755f 143c 0ca1 bb3b
000003e0: fa1b 42bc 11da 913c 50bc d1bb d4ff 21bc
000003f0: 41b3 0bbc 41df f1bc 444d 0abc 5a05 b83c

exp_avg_sq f4 [8, 64]
1.0718232e-05 1.4002407e-05 4.3967684e-06 2.221474e-05 2.3531218e-05 8.33273e-07 1.5764641e-05 3.281302e-06
2.2401298e-05 2.3138798e-05 4.7447734e-06 2.5033494e-06 2.3676932e-05 1.7796843e-05 2.4355888e-05 2.4863117e-05
2.6141075e-05 2.5536235e-06 8.968279e-06 2.7289894e-05 6.6488483e-06 1.4284409e-05 2.1928558e-06 1.4856146e-05
4.5020797e-06 1.0697167e-06 1.857095e-05 2.4370482e-05 9.723585e-07 2.1216567e-05 1.5431717e-06 2.1143676e-05
1.0032038e-06 3.897789e-06 1.4159536e-05 9.68429e-07 1.21918865e-05 6.7033293e-06 1.5732887e-05 2.6463063e-05
2.6338387e-06 2.350855e-05 1.0642939e-06 2.4550289e-05 8.9886356e-07 5.20587e-06 4.7923563e-06 2.812946e-06
1.1232279e-05 7.91134e-06 4.365357e-06 9.191964e-06 2.2583754e-05 2.5172526e-06 7.181466e-06 1.23418e-06
2.5647985e-05 2.6948837e-05 2.4611281e-05 2.4120611e-06 6.2652257e-06 8.4581025e-06 2.4592071e-05 3.934321e-06
2.7408091e-06 3.828548e-07 4.0948416e-06 2.8421807e-06 2.7781616e-06 1.5271971e-06 6.600565e-06 1.1988557e-06
6.4579143e-07 9.0889284e-07 2.5315276e-07 4.960855e-06 5.364711e-07 6.189936e-06 7.054406e-07 7.747854e-07
5.322247e-07 8.332862e-07 3.18096e-06 1.0978677e-06 3.6688452e-06 2.7206895e-06 2.0712546e-06 3.1573463e-06
2.2536042e-06 2.829884e-06 1.985197e-06 2.4789797e-06 9.236374e-08 1.2369113e-06 3.479542e-06 6.430672e-07
9.2190294e-07 6.137276e-07 1.7656214e-06 8.7674005e-07 3.3192396e-06 2.4619565e-06 7.368841e-07 5.8359194e-07
2.8690154e-06 9.867551e-07 2.5412742e-06 5.375402e-07 1.4084063e-06 1.6083343e-06 7.6271635e-07 1.2337347e-07
1.7329465e-07 2.8487416e-06 1.4677528e-06 3.991254e-06 7.055319e-07 5.245247e-07 5.6000187e-07 3.5109204e-06
5.133989e-07 1.6101977e-06 1.5015303e-06 3.2607095e-06 2.3080179e-07 2.910152e-06 4.9797006e-07 7.3544497e-06
1.2458248e-05 5.9817332e-05 0.00010026888 1.19552715e-05 0.00020242637 2.0797892e-05 0.00025203143 4.1003303e-05
5.325907e-05 5.0172457e-05 2.1770267e-05 8.4687046e-05 8.088934e-05 1.187598e-05 0.00014160603 0.00014686218
0.00012243717 2.8278271e-05 0.00012022505 0.0001850685 0.00012887544 5.732153e-06 4.4243647e-05 0.00016431272
6.882516e-05 4.938461e-05 1.56372e-05 0.0002265386 6.9919265e-06 2.8257218e-05 7.9575686e-05 0.000105373954
7.4469303e-06 3.1537944e-05 0.0001194084 1.642761e-05 0.00016118574 9.686286e-05 8.620066e-05 9.474387e-05
2.8218128e-05 0.00015978787 3.7437072e-05 0.00011107601 3.541944e-05 6.7025976e-05 2.4684625e-05 1.2047121e-05
3.6117377e-05 0.00010648088 5.7247424e-05 0.00014959415 4.621508e-05 4.002803e-06 8.674548e-06 5.8626836e-05
7.947672e-05 0.00020834219 3.1468655e-05 3.888706e-05 6.5994723e-06 0.00012412806 7.193501e-05 8.275187e-05
1.8734301e-05 9.125185e-05 0.00013183453 2.3512035e-05 0.00028105447 2.7389935e-05 0.00033411663 5.2473635e-05
8.6375025e-05 8.3223094e-05 3.0394564e-05 0.00010195054 0.00012573076 1.7163957e-05 0.00020910207 0.00021596393
0.00018139125 3.826477e-05 0.00016143968 0.0002681503 0.00017143921 1.08734985e-05 5.882454e-05 0.00022484454
9.377593e-05 6.326473e-05 2.9415038e-05 0.0003136886 8.840867e-06 4.826046e-05 0.00010377371 0.000156952
1.0106086e-05 4.5988283e-05 0.00016015807 2.1473159e-05 0.00021881924 0.00013105164 0.00012787695 0.00014631962
3.125572e-05 0.00023021243 4.6504116e-05 0.00016943403 4.561092e-05 9.2074086e-05 3.400892e-05 1.9275556e-05
5.7524423e-05 0.00014441146 7.289091e-05 0.00020212024 7.364553e-05 3.2896146e-06 1.4884576e-05 7.503948e-05
0.00012099251 0.0002986954 5.2897252e-05 4.6055724e-05 1.255666e-05 0.00016773774 0.00011323481 9.375709e-05
00000000: 75d2 3337 e1eb 6a37 f487 9336 ca59 ba37
00000010: e864 c537 16ae 5f35 4f3e 8437 5734 5c36
00000020: 6cea bb37 311a c237 4b35 9f36 37ff 2736
00000030: d39d c637 6e4a 9537 df4f cc37 2391 d037
00000040: 8849 db37 eb5e 2b36 7776 1637 9aec e437
00000050: 2c19 df36 12a7 6f37 fa28 1336 a93e 7937
00000060: 9210 9736 3093 8f35 d0c8 9b37 366f cc37
00000070: fc81 8235 3bfa b137 fa1e cf35 b35d b137
00000080: d2a5 8635 c1c9 8236 be8e 6d37 f8fa 8135
00000090: c18b 4c37 29ed e036 1efa 8337 fffc dd37
000000a0: 01c1 3036 3a34 c537 dcd8 8e35 58f1 cd37
000000b0: 6f49 7135 15ae ae36 07ce a036 0bc6 3c36
000000c0: 4572 3c37 f2ba 0437 227a 9236 2f37 1a37
000000d0: 3e72 bd37 12ee 2836 53f8 f036 1aa6 a535
000000e0: a126 d737 3010 e237 5374 ce37 e5de 2136
000000f0: e139 d236 46e7 0d37 124b ce37 8f03 8436
00000100: beee 3736 2a8b cd34 6c66 8936 4bbc 3e36
00000110: 7470 3a36 18fa cc35 6c7a dd36 5ee8 a035
00000120: 735a 2d35 a4fa 7335 0de9 8734 6c75 a636
00000130: 0302 1035 25b3 cf36 825d 3d35 d9fa 4f35
00000140: 34de 0e35 feae 5f35 7a78 5536 725a 9335
00000150: 4836 7636 1795 3636 e2ff 0a36 cce2 5336
00000160: a03c 1736 09e9 3d36 6d39 0536 8c5c 2636
00000170: 8159 c633 f303 a635 1482 6936 3e9f 2c35
00000180: b078 7735 0abf 2435 4afa ec35 1e59 6b35
00000190: 1ac0 5e36 1738 2536 4ace 4535 22a8 1c35
000001a0: 4f89 4036 a670 8435 c28a 2a36 7b4b 1035
000001b0: 7908 bd35 f2dd d735 78bd 4c35 a478 0434
000001c0: df12 3a34 022d 3f36 9aff c435 9cec 8536
000001d0: c863 3d35 10cd 0c35 0953 1635 279d 6b36
000001e0: 81d0 0935 f91d d835 3088 c935 90d2 5a36
000001f0: 50d2 7734 084c 4336 3eac 0535 3ec6 f636
00000200: c503 5137 5fe4 7a38 7247 d238 8093 4837
00000210: 6a42 5439 2277 ae37 1623 8439 f6fa 2b38
00000220: 7e62 5f38 4470 5238 4b9f b637 039a b138
00000230: 22a3 a938 f23e 4737 147c 1439 04ff 1939
00000240: 7a62 0039 2037 ed37 5521 fc38 f20e 4239
00000250: bd22 0739 d256 c036 4192 3938 5c4b 2c39
00000260: 3a56 9038 5222 4f38 a22c 8337 fe8a 6d39
00000270: 319c ea36 ea09 ed37 dfe1 a638 36fc dc38
00000280: a5e0 f936 9c47 0438 e66a fa38 06ce 8937
00000290: f803 2939 da22 cb38 a0c6 b438 3ab1 c638
000002a0: f8b5 ec37 bb8c 2739 c005 1d38 7bf1 e838
000002b0: 568f 1438 4c90 8c38 d411 cf37 fe1d 4a37
000002c0: bd7c 1738 7d4e df38 f41c 7038 60dc 1c39
000002d0: 10d7 4138 d14f 8636 e688 1137 16e6 7538
000002e0: bdac a638 6e76 5a39 36fd 0338 aa1a 2338
000002f0: 0971 dd36 5f28 0239 d0db 9638 128b ad38
00000300: 9b27 9d37 775e bf38 103d 0a39 b63b c537
00000310: 7e5a 9339 70c3 e537 602c af39 2317 5c38
00000320: 3d24 b538 0f88 ae38 d4f7 fe37 48ce d538
00000330: 98d6 0339 51fb 8f37 6942 5b39 6074 6239
00000340: d833 3e39 7c7e 2038 2248 2939 8696 8c39
00000350: 5dc4 3339 526d 3637 5eba 7638 3fc4 6b39
00000360: 92a9 c438 feac 8438 50c0 f637 9276 a439
00000370: 3c53 1437 466b 4a38 16a1 d938 7b93 2439
00000380: 4f8d 2937 8be3 4038 1bf0 2739 4221 b437
00000390: d872 6539 e86a 0939 b516 0639 606d 1939
000003a0: 9318 0338 2e65 7139 6a0d 4338 1aaa 3139
000003b0: 5a4e 3f38 e617 c138 cda4 0e38 f1b1 a137
000003c0: 6146 7138 286d 1739 02dd 9838 3df0 5339
000003d0: 2572 9a38 26c3 5c36 c4b8 7937 845e 9d38
000003e0: 5cbd fd38 389a 9c39 fedd 5d38 f52b 4138
000003f0: 72aa 5237 c2e2 2f39 7a78 ed38 749f c438

exp_avg f4 [8]
0.0017115079 0.0035167616 -0.029809749 0.028175522 0.03028553 0.012423855 -0.0053047864 -0.004909386
00000000: ad54 e03a 7879 663b 9333 f4bc 5ad0 e63c
00000010: 5c19 f83c 6d8d 4b3c c6d3 adbb eade a0bb

exp_avg_sq f4 [8]
1.7087215e-05 2.140513e-05 0.0005153248 0.0006734391 0.0008097703 8.4155254e-05 6.4598964e-05 6.6087094e-05
00000000: 8456 8f37 2b8f b337 dd16 073a bc89 303a
00000010: c446 543a 827c b038 4e79 8738 3d98 8a38

exp_avg f4 [2, 8]
-0.030722424 0.006482278 0.033750456 -0.03710377 -0.024263311 -0.02563557 0.011311122 0.020970915
0.030722428 -0.0064822733 -0.03375046 0.037103772 0.024263311 0.02563556 -0.011311117 -0.020970915
00000000: 98ad fbbc 4a69 d43b eb3d 0a3d 1ffa 17bd
00000010: dac3 c6bc b001 d2bc 4952 393c 32cb ab3c
00000020: 9aad fb3c 4069 d4bb ec3d 0abd 20fa 173d
00000030: dac3 c63c aa01 d23c 4352 39bc 32cb abbc

exp_avg_sq f4 [2, 8]
0.00054684264 0.0011368893 0.00037166337 0.00029989902 0.001639767 0.0007951957 0.0004897318 0.00024135508
0.0005468427 0.0011368894 0.00037166337 0.00029989902 0.0016397669 0.00079519564 0.0004897318 0.00024135511
00000000: fd59 0f3a ad03 953a d0db c239 c43b 9d39
00000010: 73ed d63a ae74 503a 5861 003a 4314 7d39
00000020: fe59 0f3a ae03 953a d0db c239 c43b 9d39
00000030: 72ed d63a ad74 503a 5861 003a 4514 7d39

exp_avg f4 [2]
-0.0004649358 0.00046493486
00000000: a0c2 f3b9 80c2 f339

exp_avg_sq f4 [2]
0.00013966083 0.00013966083
00000000: eb71 1239 eb71 1239

model.1.defunc.m.0.weight f4 [64, 8]
0.1867229 -0.20057812 -0.12041905 0.11221931 0.047081087 0.10180238 -0.11023434 0.023031332
-0.26217997 -0.034577023 -0.022937547 -0.12895359 -0.09696216 0.17028104 0.021523554 -0.26821426
-0.33911484 0.13686217 0.031481236 -0.3724907 -0.35826877 -0.06762492 0.007876573 0.051701628
-0.24831454 0.26782507 -0.34836125 0.3084183 0.44682023 0.038432337 -0.084837876 -0.053064886
-0.43164045 0.23369315 0.07958494 0.64946526 0.20622604 -0.7403953 -0.67444927 0.6835855
0.031659935 -0.3719845 -0.041969556 0.00605808 0.39035645 -0.08535045 -0.031641573 -0.14119291
0.3647234 -0.23894908 -0.04336562 0.060553662 -0.28031448 0.12841275 0.2554027 -0.14943394
0.15247177 -0.076051176 -0.4209105 0.38504836 0.16651267 0.26747638 -0.09597546 0.12980348
-0.1989818 -0.081073254 -0.6797749 0.314811 0.34249598 -0.07999477 0.107866555 0.09295244
0.21360898 -0.053843476 0.12115161 -0.14646898 -0.26474845 -0.015781078 -0.33829778 -0.047783617
-0.30823278 0.18101177 0.14808305 -0.044114597 -0.31635752 -0.340397 -0.43450147 -0.092464305
0.06909773 0.3842042 0.08016787 -0.3574376 -0.4009513 -0.3900527 0.4472333 -0.5815997
-0.049193986 -0.25691342 -0.18487903 0.016201258 -0.2716774 0.18516901 -0.32754448 -0.10650788
-0.057606816 0.07102477 -0.11780225 0.08429512 0.030798625 -0.4564419 0.27366146 0.016573614
-0.27597624 0.32934615 -0.41620326 0.50479496 0.11747445 -0.07962373 0.40946782 0.074476205
-0.11632381 0.09851431 0.13819452 0.47730136 0.1522144 -0.6878417 0.51118416 -0.09267297
0.41520795 -0.33107966 0.02522189 -0.3449324 -0.119400285 0.43325385 -0.43183863 0.21157621
-0.1954677 0.0698487 0.095268376 -0.33681676 -0.19573584 -0.20243338 0.086190455 -0.22975723
0.12925369 -0.21735787 -0.45373452 0.08588972 0.25900143 0.19146194 0.0171588 -0.19348444
-0.41745254 0.41119862 -0.71377593 0.061931424 0.45624268 0.11016002 0.37181184 0.91132444
-0.10835462 0.0073516085 0.20359468 0.24584194 -0.20824829 0.21683158 0.15044373 -0.081963204
-0.1640785 0.2524827 -0.080235004 -0.11861501 0.44835114 0.23315394 -0.0627083 0.082453996
-0.15871319 -0.41151184 -0.15863468 -0.014601413 0.26958212 0.08272742 -0.050936982 -0.009051312
-0.34877497 0.55352783 0.20070569 0.1836455 -0.07904863 0.10790526 0.33180988 -0.3657278
0.21933594 0.2710429 0.27424505 0.06350348 -0.1090892 -0.11052511 0.13175993 -0.009055194
0.040667392 0.07958073 0.00059123384 0.15359719 0.26043448 0.22363038 -0.116164565 0.06411725
0.12272382 -0.066093974 -0.17219411 0.2560617 0.5135357 0.019421414 0.15677696 -0.030364824
0.50055796 0.020219982 0.013142448 -0.26450536 -0.68884397 0.91669106 -0.1747267 0.5884898
0.26674375 0.3966704 -0.40580446 -0.080972105 0.22798641 0.3263156 -0.27444988 0.06511091
0.06867502 -0.2492489 0.030637672 -0.11191464 -0.36380413 0.16206235 -0.09087083 0.1564284
-0.20622772 -0.0034559523 -0.23824961 0.020861728 -0.042260945 0.06713535 -0.101812325 -0.08582681
0.28969672 -0.22547948 0.4634797 -0.43248722 0.10455905 -0.13727835 -0.07226894 -0.54111135
00000000: 4a34 3f3e 5a64 4dbe 439e f6bd 3dd3 e53d
00000010: 19d8 403d c47d d03d 8bc2 e1bd 34ac bc3c
00000020: 743c 86be a3a0 0dbd 86e7 bbbc 690c 04be
00000030: 1994 c6bd 275e 2e3e 2a52 b03c 6153 89be
00000040: 76a0 adbe 9925 0c3e 78f2 003d 1ab7 bebe
00000050: 016f b7be ef7e 8abd be0c 013c 16c5 533d
00000060: 2b46 7ebe 5e20 893e 685c b2be 01e9 9d3e
00000070: 9fc5 e43e 3a6b 1d3d 7bbf adbd 915a 59bd
00000080: faff dcbe 424d 6f3e 6efd a23d 5b43 263f
00000090: eb2c 533e 8c8a 3dbf b5a8 2cbf 76ff 2e3f
000000a0: d9ad 013d c174 bebe 45e8 2bbd dc82 c63b
000000b0: cddc c73e 37cc aebd 989a 01bd e094 10be
000000c0: 07bd ba3e 11af 74be 26a0 31bd 1e07 783d
000000d0: 6185 8fbe a27e 033e 25c4 823e 3605 19be
000000e0: 8f21 1c3e b8c0 9bbd 9581 d7be 0f25 c53e
000000f0: 4c82 2a3e aaf2 883e c88e c4bd 34eb 043e
00000100: e3c1 4bbe bc09 a6bd ba05 2ebf e82e a13e
00000110: a25b af3e 4cd4 a3bd 24e9 dc3d d95d be3d
00000120: 50bc 5a3e fa8a 5cbd 561e f83d f7fb 15be
00000130: 1c8d 87be 5247 81bc 5e35 adbe c1b8 43bd
00000140: b0d0 9dbe 265b 393e 15a3 173e 82b1 34bd
00000150: 9df9 a1be 8448 aebe fa76 debe ed5d bdbd
00000160: 1c83 8d3d 6ab6 c43e 0d2f a43d 1002 b7be
00000170: 7d49 cdbe fdb4 c7be c3fb e43e b8e3 14bf
00000180: a27f 49bd 288a 83be ee50 3dbe 80b8 843c
00000190: 4d19 8bbe f29c 3d3e e9b3 a7be ce20 dabd
000001a0: 20f5 6bbd 6f75 913d 4e42 f1bd eba2 ac3d
000001b0: 664d fc3c c1b2 e9be 5b1d 8c3e 63c5 873c
000001c0: c24c 8dbe 0fa0 a83e 9818 d5be 3e3a 013f
000001d0: 7296 f03d c411 a3bd c4a5 d13e fb86 983d
000001e0: 2d3b eebd dfc1 c93d dd82 0d3e d860 f43e
000001f0: 17de 1b3e 6516 30bf f7dc 023f 53cb bdbd
00000200: 2396 d43e 4683 a9be 239e ce3c fb9a b0be
00000210: 2388 f4bd 73d3 dd3e f419 ddbe 6fa7 583e
00000220: af28 48be d60c 8f3d 111c c33d 3f73 acbe
00000230: fa6e 48be b24a 4fbe 9f84 b03d 7b45 6bbe
00000240: 145b 043e 1093 5ebe e44f e8be f3e6 af3d
00000250: d69b 843e 990e 443e 9d90 8c3c c920 46be
00000260: 57bc d5be a088 d23e 05ba 36bf ceab 7d3d
00000270: a498 e93e 949b e13d 1f5e be3e 8f4c 693f
00000280: 07e9 ddbd c3e5 f03b 207b 503e fdbd 7b3e
00000290: 0a3f 55be 1909 5e3e ec0d 1a3e 53dc a7bd
000002a0: 3204 28be 6a45 813e 4052 a4bd 6dec f2bd
000002b0: 488e e53e e8bf 6e3e 366d 80bd a4dd a83d
000002c0: b685 22be aeb1 d2be 2171 22be c43a 6fbc
000002d0: ab06 8a3e fe6c a93d 4ca3 50bd f44b 14bc
000002e0: a292 b2be 00b4 0d3f cb85 4d3e 910d 3c3e
000002f0: 40e4 a1bd 6ffd dc3d fce2 a93e ad40 bbbe
00000300: 9a99 603e 23c6 8a3e d969 8c3e 1d0e 823d
00000310: 296a dfbd fd5a e2bd 13ec 063e 3d5c 14bc
00000320: da92 263d 39fb a23d 08fd 1a3a 9548 1d3e
00000330: ab57 853e 5dff 643e b0e7 edbd e84f 833d
00000340: a056 fb3d 475c 87bd a753 30be 851a 833e
00000350: 1377 033f a819 9f3c 248a 203e a7bf f8bc
00000360: 9124 003f 60a4 a53c 6c53 573c 3f6d 87be
00000370: 1458 30bf 44ac 6a3f 8eeb 32be 44a7 163f
00000380: a392 883e 6218 cb3e 9ac5 cfbe b4d4 a5bd
00000390: 4575 693e d712 a73e b284 8cbe de58 853d
000003a0: 7da5 8c3d 1b3b 7fbe dbfb fa3c 8133 e5bd
000003b0: 8944 babe acf3 253e 7c1a babd c42e 203e
000003c0: 5c2d 53be 427d 62bb b5f7 73be 37e6 aa3c
000003d0: d019 2dbd 427e 893d fb82 d0bd f7c5 afbd
000003e0: 2153 943e 18e4 66be 364d ed3e f76e ddbe
000003f0: 0e23 d63d b292 0cbe bd01 94bd 4686 0abf

model.1.defunc.m.0.bias f4 [64]
-0.34706444 0.1884035 -0.4058209 0.35015348 -0.23704322 0.25500047 0.4772678 0.19173066
-0.014250932 -0.04625139 0.2427268 0.38029334 0.05691176 0.36123234 -0.27669987 -0.341353
0.16835175 0.21583441 0.35524046 -0.2492549 0.44986546 0.42987755 0.34865463 -0.4156658
-0.39250392 0.43430194 0.16685209 0.4242189 0.09889802 -0.15727481 0.45855555 0.20900823
-0.18485975 -0.16314468 0.135362 -0.1761568 -0.3396643 -0.3689576 0.41018742 -0.06299357
0.36188254 0.29483783 -0.3418649 0.253844 -0.25764355 -0.21500167 -0.060088478 -0.051408444
-0.077895254 -0.3792053 -0.09969281 0.42415354 -0.094276845 -0.08195524 0.16802084 0.4785349
0.007967807 0.303181 0.23752971 -0.2943356 0.014939044 -0.36434588 -0.016005 0.37878478
00000000: 6eb2 b1be d9ec 403e c2c7 cfbe 5147 b33e
00000010: 75bb 72be 6c8f 823e 725c f43e 0b55 443e
00000020: be7c 69bc 1972 3dbd 608d 783e cfb5 c23e
00000030: 4e1c 693d 72f3 b83e 9bab 8dbe d2c5 aebe
00000040: 6764 2c3e b203 5d3e 14e2 b53e ad3c 7fbe
00000050: c454 e63e e918 dc3e dc82 b23e 26d2 d4be
00000060: 46f6 c8be d35c de3e 46db 2a3e 3833 d93e
00000070: 0c8b ca3d a60c 21be cbc7 ea3e 4106 563e
00000080: e04b 3dbe 660f 27be 569c 0a3e 7362 34be
00000090: 7be8 adbe 03e8 bcbe 1604 d23e c602 81bd
000000a0: ab48 b93e fcf4 963e eb08 afbe d7f7 813e
000000b0: dbe9 83be 6629 5cbe 561f 76bd a991 52bd
000000c0: 8c87 9fbd 3227 c2be be2b ccbd a72a d93e
000000d0: 3814 c1bd 26d8 a7bd a80d 2c3e 8702 f53e
000000e0: 688b 023c 8a3a 9b3e fd3a 733e 28b3 96be
000000f0: e4c2 743c 8b8b babe eb1c 83bc 14f0 c13e

model.1.defunc.m.2.weight f4 [8, 64]
0.14877383 0.18249777 -0.29506984 0.032313924 -0.005953943 0.08721201 0.24743631 0.30235258
0.059493046 -0.07666116 -0.007270232 -0.09605272 0.12904012 -0.1494025 -0.02409474 0.03610708
0.0029080948 -0.030375518 0.23621592 0.20898598 0.22076675 0.1289658 0.15697639 -0.18057752
-0.24880823 0.30784386 0.08274963 -0.09971091 0.3424315 0.03192527 0.18385604 0.08276075
-0.07641024 -0.21199273 0.06471162 -0.15484552 -0.12632333 -0.28036553 0.039238926 0.13592786
0.23979536 0.030831523 -0.34708747 -0.008939799 -0.24984857 -0.29018843 0.0976637 -0.2277604
-0.21824291 -0.27872413 -0.088109076 0.14833501 0.07865175 -0.17300244 -0.09559669 0.20083928
-0.0071293693 -0.04545074 0.038773388 0.053576726 0.09094859 -0.16344754 0.0062744757 -0.2420589
0.025798017 -0.052233133 0.13212359 -0.00097628124 0.3631884 -0.01116436 0.07092734 -0.09229639
0.038544267 -0.19310492 0.057489574 -0.0645292 0.08137667 0.12444776 0.095838055 -0.07133857
0.057924584 0.08571546 0.002310162 0.0013222769 -0.1660395 -0.10861824 0.09573558 0.08477156
-0.0601038 -0.023791349 -0.0043663853 -0.34373245 -0.019364601 -0.08404783 0.023805201 0.054876592
0.16343395 -0.05137827 -0.12389425 -0.018017754 0.12421541 0.061462242 -0.034309275 0.1737481
-0.18393368 -0.03130121 0.047879428 -0.07501839 -0.024134045 0.030813286 -0.022505552 0.14926112
-0.1644097 -0.042305402 -0.009987621 -0.045103095 -0.0044198637 -0.002149317 0.10031073 -0.102695316
-0.034150578 -0.07265441 0.03747007 0.11111061 -0.013015109 -0.020897923 0.017923022 0.04957095
0.04134275 0.05168175 0.14428648 -0.13993438 -0.20250711 -0.022030948 -0.14977682 -0.2653445
-0.120451435 0.257924 0.31061736 0.27020442 0.16352606 0.0712049 -0.11573661 -0.14179139
0.11672724 -0.016327789 -0.16425648 -0.23523678 -0.18857385 -0.17424726 -0.1206473 0.04004052
0.029307187 -0.1704225 -0.2762935 0.23738615 -0.2739742 0.13448918 -0.20763317 0.28377464
0.029131234 0.13247941 -0.04073042 -0.021967212 0.047265805 0.08797416 0.13925302 -0.31749386
-0.08198349 0.19135275 0.122718595 0.16181128 0.22889404 0.13808236 -0.07634275 -0.0031494845
-0.019053454 0.19027895 0.22331065 -0.11684635 0.08756193 0.4269734 0.12202507 -0.26043674
-0.0940344 0.228292 0.013513265 0.11931348 -0.08317472 -0.004906973 -0.13737823 0.12979065
0.044511598 -0.13069157 -0.19621558 0.22743587 0.22136573 0.12356879 -0.019515365 0.12682723
0.06766982 -0.047893632 -0.036522623 -0.27919528 -0.059782658 -0.083609186 0.07780326 0.09050995
-0.07422986 -0.09896717 0.063864656 0.19679554 0.0889113 0.14719658 0.14178328 -0.07227895
-0.1813548 0.08080428 0.23127647 -0.26273492 0.16379881 -0.03274211 0.19869272 -0.20655786
-0.1767939 -0.29373887 0.016799778 0.04012557 -0.06508526 -0.09568718 -0.09143833 0.20299394
0.105867445 -0.13737547 -0.22253427 -0.058041334 -0.1961399 -0.17061459 0.27176136 -0.10732201
-0.017946504 -0.04053645 0.24618937 0.1487041 0.010554925 -0.11143695 -0.08742517 0.21439448
0.21199174 -0.19994761 0.19979742 -0.07116108 0.028753594 0.08768951 0.18096384 -0.2621148
00000000: 2b58 183e b2e0 3a3e 6513 97be 9b5b 043d
00000010: 4b19 c3bb 369c b23d f25f 7d3e f5cd 9a3e
00000020: fbae 733d 8700 9dbd 203b eebb 4ab7 c4bd
00000030: 1823 043e f8fc 18be 5562 c5bc 04e5 133d
00000040: bc95 3e3b 14d6 f8bc 96e2 713e 6c00 563e
00000050: ae10 623e 9c0f 043e 6bbe 203e 50e9 38be
00000060: 96c7 7ebe b69d 9d3e a378 a93d 3c35 ccbd
00000070: 2e53 af3e 12c4 023d c244 3c3e 787e a93d
00000080: f97c 9cbd 9f14 59be 8787 843d d38f 1ebe
00000090: e75a 01be 128c 8fbe ffb8 203d ac30 0b3e
000000a0: ea8c 753e 6492 fc3c 73b5 b1be 3c78 12bc
000000b0: 4ed8 7fbe 9493 94be e803 c83d 063a 69be
000000c0: 127b 5fbe eeb4 8ebe 8872 b4bd 22e5 173e
000000d0: 2b14 a13d 8d27 31be 33c8 c3bd d0a8 4d3e
000000e0: 7c9d e9bb 8e2a 3abd d8d0 1e3d 4573 5b3d
000000f0: 4143 ba3d cb5e 27be 1e9a cd3b 4ade 77be
00000100: 5d56 d33c 69f2 55bd 684b 073e 20ed 7fba
00000110: d4f3 b93e b8ea 36bc 5a42 913d e405 bdbd
00000120: 98e0 1d3d 4cbd 45be 307a 6b3d e327 84bd
00000130: d0a8 a63d 78de fe3d be46 c43d f519 92bd
00000140: 5442 6d3d 968b af3d 1666 173b 4050 ad3a
00000150: 4206 2abe 3d73 debd 0411 c43d b69c ad3d
00000160: 672f 76bd 13e6 c2bc e513 8fbb b3fd afbe
00000170: 83a2 9ebc 4521 acbd 2003 c33c 47c6 603d
00000180: 3b5b 273e 0572 52bd 45bc fdbd f899 93bc
00000190: a664 fe3d d5bf 7b3d e287 0cbd 06eb 313e
000001a0: 1c59 3cbe b335 00bd 381d 443d 3ea3 99bd
000001b0: c3b4 c5bc 256c fc3c 905d b8bc e8d7 183e
000001c0: 045b 28be 6e48 2dbd 1ea3 23bc 06be 38bd
000001d0: 81d4 90bb 8edb 0cbb b66f cd3d ec51 d2bd
000001e0: 7ae1 0bbd d6cb 94bd 377a 193d f68d e33d
000001f0: 533d 55bc 1f32 abbc 4dd3 923c e90a 4b3d
00000200: 0457 293d 3eb0 533d d6bf 133e f54a 0fbe
00000210: 065e 4fbe 3f7a b4bc 185f 19be 3cdb 87be
00000220: 3eaf f6bd 9d0e 843e 3d09 9f3e 3c58 8a3e
00000230: 6073 273e e0d3 913d 5107 edbd c331 11be
00000240: b10e ef3d dbc1 85bc da32 28be e9e1 70be
00000250: 8119 41be e06d 32be ee15 f7bd 8701 243d
00000260: a015 f03c 3c83 2ebe 5776 8dbe 5b15 733e
00000270: 5946 8cbe 88b7 093e ca9d 54be e94a 913e
00000280: a0a4 ee3c afa8 073e f1d4 26bd 95f4 b3bc
00000290: ca99 413d cc2b b43d 5898 0e3e 8e8e a2be
000002a0: f6e6 a7bd faf1 433e e353 fb3d dbb1 253e
000002b0: 3363 6a3e 7665 0d3e 9659 9cbd 9567 4ebb
000002c0: fd15 9cbc 7cd8 423e 8cab 643e 244d efbd
000002d0: ab53 b33d 429c da3e 48e8 f93d f757 85be
000002e0: 1c95 c0bd 61c5 693e be66 5d3c a05a f43d
000002f0: 8257 aabd acca a0bb e1ac 0cbe d7e7 043e
00000300: cb51 363d 03d4 05be bdec 48be f3e4 683e
00000310: b3ad 623e a211 fd3d b0de 9fbc ffde 013e
00000320: 7996 8a3d 1d2c 44bd bf98 15bd aff2 8ebe
00000330: a9de 74bd 4b3b abbd 5157 9f3d 485d b93d
00000340: d305 98bd 4daf cabd 79cb 823d c584 493e
00000350: 2117 b63d b3ba 163e a32f 113e fc06 94bd
00000360: 13b5 39be b77c a53d bdd3 6c3e 3185 86be
00000370: e0ba 273e 971c 06bd 1b76 4b3e e783 53be
00000380: 7609 35be f164 96be b09f 893c b65a 243d
00000390: 6c4b 85bd a4f7 c3bd 0544 bbbd a5dd 4f3e
000003a0: 08d1 d83d 28ac 0cbe 06e0 63be c0bc 6dbd
000003b0: e6d8 48be 97b5 2ebe 4e24 8b3e a4cb dbbd
000003c0: 8c04 93bc 8c09 26bd 1119 7c3e e345 183e
000003d0: 90ee 2c3c 0e39 e4bd f80b b3bd 3a8a 5b3e
000003e0: 5d14 593e 11bf 4cbe b297 4c3e e6bc 91bd
000003f0: a88c eb3c 8f96 b33d 964e 393e e933 86be

model.1.defunc.m.2.bias f4 [8]
0.1888028 -0.10632876 -0.19479528 0.20079978 0.043264274 0.018567052 -0.098821275 -0.07468353
00000000: 8555 413e e5c2 d9bd 6a78 47be 759e 4d3e
00000010: e135 313d ee19 983c cf62 cabd aef3 98bd

model.2.weight f4 [2, 8]
0.41501877 0.27138585 -0.10939747 0.25111663 -0.14780653 0.11341643 -0.2883459 -0.43139282
-0.27914155 0.30875707 0.32870978 -0.45737323 -0.3674277 -0.086480744 -0.20996922 0.06943942
00000000: 577d d43e 16f3 8a3e c80b e0bd 5c92 803e
00000010: 985a 17be e046 e83d 13a2 93be 85df dcbe
00000020: a4eb 8ebe 6815 9e3e a64c a83e d32c eabe
00000030: 7c1f bcbe d11c b1bd 2c02 57be 4136 8e3d

model.2.bias f4 [2]
-0.0764153 -0.12411453
00000000: a07f 9cbd c22f febd
