lightning_logs/version_4/checkpoints/epoch=199-step=199.ckpt (torch, 19857 bytes, 18 tensors)

exp_avg f4 [64, 8]
000000 8a 03 14 b6 bf 8e 4f 35 1d d2 61 b6 0a ca 45 b6
       -2.2055779e-06 7.732123e-07 -3.3649915e-06 -2.947289e-06
000010 a9 d7 b3 b5 fa 85 35 36 c5 50 97 b6 3f dc 92 36
       -1.3399305e-06 2.7049086e-06 -4.5095535e-06 4.376779e-06
000020 f9 4c 03 36 9e 99 c1 b5 60 11 41 34 b2 d5 7d 35
       1.9565325e-06 -1.4424329e-06 1.7980847e-07 9.456081e-07
000030 3c b7 1e 35 9f 5e 9c b6 77 ec a6 b6 20 db 90 35
       5.912623e-07 -4.6601776e-06 -4.9747136e-06 1.079261e-06
000040 a9 b0 8c 36 85 aa 20 b6 a9 f6 57 36 a8 e4 4d 36
       4.192891e-06 -2.3941113e-06 3.2181072e-06 3.0680476e-06
000050 77 a3 3d 36 97 e4 bf b6 25 07 44 b6 c3 99 69 35
       2.8258344e-06 -5.718855e-06 -2.9210435e-06 8.7023017e-07
000060 18 91 10 35 57 7b 93 b4 c7 1c 07 35 e1 3b 33 35
       5.385532e-07 -2.7470625e-07 5.0333296e-07 6.676983e-07
000070 d5 32 de 32 98 4c a4 b5 fb bd 50 b6 2b e9 a3 35
       2.5867317e-08 -1.2241244e-06 -3.1104998e-06 1.2212307e-06
000080 09 a8 d2 31 40 c5 e9 33 8a 65 96 b4 90 65 4a b3
       6.130908e-09 1.08857876e-07 -2.8013557e-07 -4.712416e-08
000090 a8 ae 23 34 d4 db 3d b6 8f d3 ac 35 65 b1 6f 36
       1.5244098e-07 -2.8291151e-06 1.287657e-06 3.5717032e-06
0000a0 6e 67 f9 b4 f5 9b 57 36 50 47 c3 36 20 ba c2 36
       -4.645512e-07 3.2128276e-06 5.8197547e-06 5.8033183e-06
0000b0 70 24 bf b5 3b 3d ab b7 8a f1 54 35 b6 10 db 36
       -1.4241214e-06 -2.0413301e-05 7.932764e-07 6.528654e-06
0000c0 47 90 c8 b5 65 aa a4 b5 0b 35 10 b7 99 10 d1 b6
       -1.4943151e-06 -1.2268544e-06 -8.595419e-06 -6.2306176e-06
0000d0 86 ea 7e b5 24 a0 23 36 b9 73 26 b6 13 56 23 37
       -9.496365e-07 2.4382107e-06 -2.4803287e-06 9.735598e-06
0000e0 10 aa f4 34 11 c7 30 b5 c6 78 22 b6 de 40 98 b5
       4.5572278e-07 -6.585479e-07 -2.421018e-06 -1.1343761e-06
0000f0 01 6c b7 34 13 cd d3 b6 ba ad 0d b6 0b c8 3c 37
       3.416499e-07 -6.312164e-06 -2.111176e-06 1.1252249e-05
000100 66 e6 6f 36 5b 02 1e b6 24 df 04 36 84 a5 f1 35
       3.5747885e-06 -2.3545206e-06 1.9799418e-06 1.8004071e-06
000110 38 54 49 36 93 8b 2d b6 d6 f9 9f 36 47 91 b5 35
       3.0000356e-06 -2.5860252e-06 4.767654e-06 1.3527832e-06
000120 c5 5c 77 36 27 9f ee b5 f8 2a 96 36 f8 cd 8c 36
       3.6859867e-06 -1.7778701e-06 4.4753506e-06 4.196303e-06
000130 7f 14 d5 35 52 20 ea b6 63 10 b4 b6 d6 c6 55 b5
       1.5875702e-06 -6.977506e-06 -5.3663257e-06 -7.963803e-07
000140 15 53 9f b6 ee 06 d9 36 f7 7b 97 36 c3 9a 78 36
       -4.7482413e-06 6.4679107e-06 4.514582e-06 3.7044963e-06
000150 57 e5 9a b6 7b e3 2f b7 55 a5 37 b5 fc 37 2f b6
       -4.6162563e-06 -1.0483777e-05 -6.84134e-07 -2.610962e-06
000160 bb a5 8a 36 36 d4 84 b6 79 e3 a0 35 d3 41 fd 35
       4.132014e-06 -3.958611e-06 1.1987132e-06 1.8869126e-06
000170 92 30 15 35 67 0d ff 36 d1 1c b9 b7 99 43 59 b7
       5.5577505e-07 7.6011524e-06 -2.2067137e-05 -1.2949947e-05
000180 f3 2b bc b6 b5 07 37 36 1a f5 b9 b6 44 d1 b3 b6
       -5.607953e-06 2.727361e-06 -5.541963e-06 -5.3589774e-06
000190 a6 87 46 b6 b3 65 41 37 fb 61 bd 36 0c 69 52 35
       -2.9583257e-06 1.1527375e-05 5.6440454e-06 7.838396e-07
0001a0 74 e4 21 b6 e6 fe 1a 36 37 a8 9c 35 a9 a2 58 34
       -2.4123847e-06 2.3096159e-06 1.1671863e-06 2.0175743e-07
0001b0 0b 07 f2 b5 b7 20 8d 36 1b a0 c5 b5 fd 14 54 b6
       -1.8032455e-06 4.205936e-06 -1.4724241e-06 -3.1602679e-06
0001c0 31 6c cf b6 17 b1 6e 36 b5 98 bf b6 12 93 ae b6
       -6.181676e-06 3.5567843e-06 -5.710021e-06 -5.2027253e-06
0001d0 ec 2c 69 b6 23 bb b1 36 a6 b9 00 37 80 1d 4a 36
       -3.4745854e-06 5.2967966e-06 7.672619e-06 3.0117517e-06
0001e0 f1 af a1 b5 c9 b0 d3 35 e7 1a fc 35 9f 5c 33 35
       -1.204664e-06 1.5772176e-06 1.8783293e-06 6.681748e-07
0001f0 58 ba 02 b5 56 57 bb 35 25 4f c3 36 b7 f7 d6 b6
       -4.869994e-07 1.3958004e-06 5.8206665e-06 -6.406535e-06
000200 91 b8 5e 36 f4 b2 c8 b5 d1 90 5a 36 9f 59 58 36
       3.318801e-06 -1.4953243e-06 3.2568826e-06 3.2238675e-06
000210 c2 73 02 36 a8 68 fd b6 2e b1 b9 b5 ed c6 36 b5
       1.943889e-06 -7.552171e-06 -1.383514e-06 -6.808976e-07
000220 b1 f1 9b b4 f1 f4 9b 36 3a 5d 5e 37 1c 52 43 37
       -2.9046853e-07 4.647875e-06 1.3253937e-05 1.1642023e-05
000230 a4 02 0e b6 b6 51 a5 b6 4a 85 6d b6 70 0b 9c 36
       -2.1161186e-06 -4.9268956e-06 -3.5393336e-06 4.650494e-06
000240 33 69 22 b7 b7 f0 62 37 de a9 78 37 3d d9 28 37
       -9.680446e-06 1.35266955e-05 1.4821502e-05 1.006416e-05
000250 d5 1a 24 b7 7a 43 57 b6 cd 84 87 b6 1d e6 ad b7
       -9.781409e-06 -3.2076773e-06 -4.0387736e-06 -2.0730362e-05
000260 26 b6 f4 36 80 9d 1d b6 54 e5 39 37 b0 5b 19 37
       7.2929715e-06 -2.34865e-06 1.1080254e-05 9.140858e-06
000270 97 0e a1 36 b1 cf 7e b7 72 c1 24 35 a4 2e 29 b7
       4.7998724e-06 -1.5187937e-05 6.137626e-07 -1.0084044e-05
000280 20 e1 a5 b6 f3 28 19 36 7a 35 2b b7 cf 61 f0 b6
       -4.943591e-06 2.2822612e-06 -1.0204845e-05 -7.163944e-06
000290 4e db 14 b6 c3 00 b5 b6 58 43 98 36 d6 ab d6 37
       -2.218137e-06 -5.394309e-06 4.537793e-06 2.5590805e-05
0002a0 f0 34 64 36 45 fd 59 36 05 50 c9 37 7b 8d 9a 37
       3.4005461e-06 3.2482942e-06 2.399833e-05 1.8424113e-05
0002b0 0b ba 0e b5 3a a9 96 b3 88 d8 c2 b6 09 e9 02 b8
       -5.316985e-07 -7.0157014e-08 -5.806858e-06 -3.1211446e-05
0002c0 04 6e 68 b4 4a aa 88 34 5e 9f 61 35 66 68 c9 34
       -2.1646707e-07 2.5455876e-07 8.405094e-07 3.7515127e-07
0002d0 00 cb 6e b4 1a d4 3c 36 b7 8e ef 33 85 f7 8e b6
       -2.2239328e-07 2.8137642e-06 1.11552644e-07 -4.260745e-06
0002e0 64 6d ac 35 7d 09 0b b6 ee 5f 55 b6 45 b6 08 b6
       1.2846835e-06 -2.0718137e-06 -3.1795312e-06 -2.0371674e-06
0002f0 6c 7a 80 35 59 5c f2 35 91 f6 76 b6 0c 97 fb 36
       9.572373e-07 1.8057282e-06 -3.6800377e-06 7.497967e-06
000300 d2 de 0c 36 11 e2 1a b6 18 f8 1e b6 dc 4c 92 b5
       2.0991324e-06 -2.3079376e-06 -2.3688244e-06 -1.0900217e-06
000310 ae dc 00 36 03 3a 4c b6 f5 7b 1a b5 3a ab 26 37
       1.9201939e-06 -3.0432136e-06 -5.754985e-07 9.934238e-06
000320 27 e0 4b b6 b8 06 7b 35 94 c9 15 b7 12 36 c8 b6
       -3.037983e-06 9.3514564e-07 -8.928026e-06 -5.966759e-06
000330 df 79 96 b5 38 c2 b1 b6 64 a5 8d 36 01 a7 92 37
       -1.121134e-06 -5.297621e-06 4.2213815e-06 1.7482324e-05
000340 25 7e 35 b6 84 73 c2 36 05 3f 51 37 c4 18 bb 36
       -2.7044528e-06 5.7950983e-06 1.2472044e-05 5.5759174e-06
000350 fa 1b 29 36 54 c2 74 b6 d0 6e 26 38 30 d2 b4 b7
       2.5199247e-06 -3.6471947e-06 3.9680686e-05 -2.1555548e-05
000360 78 44 6e 36 37 0e 31 b6 d4 70 37 b5 01 39 56 35
       3.5504618e-06 -2.638333e-06 -6.8337e-07 7.9804164e-07
000370 c0 cd 3a 36 6c 65 22 b7 8d ed 3d 36 d4 49 1d 37
       2.7835922e-06 -9.679567e-06 2.8301467e-06 9.375119e-06
000380 d4 43 55 b6 44 c8 c7 35 d7 b1 80 b6 ae 17 65 b6
       -3.1778955e-06 1.488494e-06 -3.8354005e-06 -3.4137443e-06
000390 1e 87 d9 b5 a7 97 5e 36 dd 80 74 36 2b 5e 3e 36
       -1.6207084e-06 3.316885e-06 3.6433842e-06 2.836702e-06
0003a0 a1 79 b2 b6 08 1e d5 36 0e c4 a5 36 39 46 52 36
       -5.318973e-06 6.3513908e-06 4.940207e-06 3.1333313e-06
0003b0 f1 67 ac b6 17 44 59 b5 48 0f a6 b5 7a 6a 2a b7
       -5.1381e-06 -8.0937883e-07 -1.2372411e-06 -1.0157581e-05
0003c0 e8 86 88 b5 7f c2 cf 35 30 da 51 36 7e 36 00 36
       -1.0172052e-06 1.5479308e-06 3.1270429e-06 1.9105205e-06
0003d0 92 0f 9c b5 6d eb 61 36 ba bf 98 b4 5c 72 11 b7
       -1.1627437e-06 3.3664649e-06 -2.8451706e-07 -8.6693e-06
0003e0 ea 1a 06 b7 24 4d c9 36 de e6 c9 b5 16 1d 18 b6
       -7.993289e-06 5.999247e-06 -1.5042858e-06 -2.2666695e-06
0003f0 7b e9 da b6 38 b3 43 37 77 4c f9 b4 8a f5 0b b7
       -6.524087e-06 1.1664633e-05 -4.64355e-07 -8.342215e-06

exp_avg_sq f4 [64, 8]
000000 c3 43 3e 34 c6 78 30 36 fa 30 a4 37 d6 09 6e 37
       1.771978e-07 2.6296343e-06 1.957313e-05 1.4188196e-05
000010 f1 f1 e3 35 33 12 59 37 3d ae 1c 37 42 58 3f 37
       1.6983232e-06 1.2938445e-05 9.338893e-06 1.1405036e-05
000020 ba 91 a8 33 28 dc 81 35 ea d8 36 37 b4 e0 dd 36
       7.849617e-08 9.675323e-07 1.089855e-05 6.612472e-06
000030 45 44 00 35 3d c8 31 36 ec c2 48 36 d7 08 00 37
       4.778306e-07 2.649161e-06 2.9915782e-06 7.631453e-06
000040 80 be 3e 36 d5 9f 8b 36 95 d7 1d 39 bc dc b8 38
       2.8423092e-06 4.1611297e-06 0.00015052997 8.814919e-05
000050 a8 0f 2a 35 f8 cd 22 37 d1 3d 8d 37 d5 1c 8f 38
       6.335272e-07 9.703908e-06 1.6837295e-05 6.824142e-05
000060 cb 59 c4 35 5c be 40 35 26 48 2e 38 6d 82 9e 37
       1.4629271e-06 7.1802583e-07 4.1552026e-05 1.8895802e-05
000070 c0 c0 bd 34 52 f8 fa 36 5f c8 ae 35 62 b1 63 37
       3.5344237e-07 7.479489e-06 1.3022326e-06 1.35715545e-05
000080 c8 0a 07 35 1a 61 a7 34 b1 bf 33 35 a7 57 92 34
       5.030711e-07 3.1176825e-07 6.6961644e-07 2.7258395e-07
000090 48 ef bf 34 53 49 fe 34 d0 b9 8f 34 08 82 d3 34
       3.5750622e-07 4.7364537e-07 2.6771022e-07 3.9396423e-07
0000a0 37 f8 08 35 c6 9e 09 36 65 66 27 37 f0 97 bc 36
       5.102515e-07 2.050701e-06 9.977816e-06 5.6205245e-06
0000b0 12 15 34 35 00 3a 6f 36 41 2d af 35 f9 ea bb 36
       6.7085887e-07 3.5647536e-06 1.3051687e-06 5.6003887e-06
0000c0 47 11 0e 35 69 d8 da 36 68 a0 3a 38 a2 55 0c 38
       5.2924264e-07 6.5220997e-06 4.4495246e-05 3.3458353e-05
0000d0 01 fc 95 36 9b 7d e9 37 a7 69 a9 37 36 86 05 38
       4.469883e-06 2.7834254e-05 2.0195568e-05 3.1834665e-05
0000e0 d7 1d 9f 33 3c 16 8b 35 87 c1 a7 37 74 ac 29 37
       7.409442e-08 1.0362778e-06 1.999807e-05 1.0113337e-05
0000f0 2b b4 dc 33 25 99 55 36 05 6e 15 35 12 89 54 37
       1.0277321e-07 3.1828615e-06 5.5666925e-07 1.2668099e-05
000100 28 1b 26 34 0b d4 7b 36 38 06 45 38 bd 48 ff 37
       1.5469834e-07 3.752534e-06 4.697425e-05 3.043224e-05
000110 eb 27 c7 35 29 68 23 37 15 a8 29 37 b9 b3 dd 37
       1.4838273e-06 9.739809e-06 1.011232e-05 2.6428943e-05
000120 25 e8 00 35 26 7c 09 37 5b 56 8b 38 80 69 41 38
       4.802153e-07 8.194742e-06 6.6441215e-05 4.611304e-05
000130 4a 73 a0 36 4e cc 85 37 9e 33 91 37 de 58 4e 38
       4.781793e-06 1.5949972e-05 1.7309383e-05 4.919699e-05
000140 0a c8 26 35 bd 14 50 37 a8 c8 fc 38 9b b5 9b 38
       6.2130914e-07 1.2402595e-05 0.000120536715 7.4248026e-05
000150 34 de a6 36 e2 81 16 37 d2 7f 96 37 74 b7 94 38
       4.9730534e-06 8.970937e-06 1.7940914e-05 7.091361e-05
000160 d1 a6 ad 34 69 d0 5d 36 50 38 d6 37 4d a9 82 37
       3.2345136e-07 3.3052877e-06 2.553701e-05 1.5576044e-05
000170 35 42 d0 35 78 21 9e 36 c7 44 96 37 9d da b1 37
       1.5516476e-06 4.712663e-06 1.791342e-05 2.1201844e-05
000180 88 7d fb 36 70 3b 6e 37 82 fa f4 39 5c ba 8c 39
       7.4949967e-06 1.4199744e-05 0.0004672595 0.0002684173
000190 22 06 02 36 1b fd 05 38 42 28 22 38 3e 54 4c 39
       1.937508e-06 3.1945394e-05 3.8661303e-05 0.00019486339
0001a0 3d dd 9d 33 d3 76 41 36 08 76 09 38 70 0b bf 37
       7.351125e-08 2.8828406e-06 3.277327e-05 2.27743e-05
0001b0 a9 58 ce 35 da 32 4c 37 18 60 20 37 ce 5f aa 37
       1.5374e-06 1.2171187e-05 9.559117e-06 2.0310192e-05
0001c0 3f 46 4e 37 3c e4 bd 37 7e 98 4b 3a c5 76 e9 39
       1.2294912e-05 2.2636836e-05 0.00077665586 0.00044529713
0001d0 04 26 3d 36 15 82 8f 38 e5 81 9a 38 07 eb a8 39
       2.8185323e-06 6.843001e-05 7.367487e-05 0.00032218566
0001e0 f1 6f 51 34 28 c8 af 35 ec e9 98 37 3b 0a 18 37
       1.9505366e-07 1.3096769e-06 1.822874e-05 9.062288e-06
0001f0 7a f3 80 34 c3 5a 6c 36 2c 36 00 35 10 f3 11 37
       2.401901e-07 3.521957e-06 4.7762546e-07 8.699266e-06
000200 53 95 a4 36 85 29 b4 36 96 43 78 39 80 a9 0a 39
       4.9049645e-06 5.3692515e-06 0.00023676301 0.00013223849
000210 fa da 08 35 3e c6 66 37 62 9a 91 37 e5 c9 c8 38
       5.09826e-07 1.3755225e-05 1.7357237e-05 9.574349e-05
000220 f7 1b 1d 36 19 14 69 37 09 e2 d4 38 b7 8d 65 38
       2.34111e-06 1.3892562e-05 0.0001015105 5.4729837e-05
000230 3b 29 8b 36 0b c2 77 37 08 a2 53 36 97 2e 47 38
       4.1473227e-06 1.4767526e-05 3.1535765e-06 4.7488687e-05
000240 ad 03 b3 36 f3 d3 42 38 5c 98 7c 3a e3 e0 11 3a
       5.3350436e-06 4.6450597e-05 0.00096357404 0.0005564822
000250 c9 65 25 37 fc ed 8f 38 f5 5d d0 38 0d c7 00 3a
       9.858465e-06 6.8630994e-05 9.935714e-05 0.00049124734
000260 5c 38 fe 36 8c f3 73 38 28 50 a6 3a f7 6f 42 3a
       7.576351e-06 5.8162535e-05 0.0012688683 0.0007417197
000270 69 8f 47 37 57 6b c4 38 80 af 17 39 0d 02 20 3a
       1.1894715e-05 9.366002e-05 0.00014465861 0.0006103821
000280 18 23 44 35 91 0f 3c 37 d8 7c b1 38 4f c7 80 38
       7.306676e-07 1.1209298e-05 8.463272e-05 6.14064e-05
000290 50 4f 09 37 d1 f7 f5 37 87 00 6c 38 31 b0 83 38
       8.184303e-06 2.9321674e-05 5.6267276e-05 6.279385e-05
0002a0 57 c5 8f 35 51 16 2b 37 56 ee 80 38 3f 86 52 38
       1.0711764e-06 1.019759e-05 6.147909e-05 5.0192928e-05
0002b0 a1 c4 10 37 c7 94 81 38 bc 47 3c 38 e2 89 0e 38
       8.62885e-06 6.178911e-05 4.48895e-05 3.398385e-05
0002c0 74 3a bb 34 18 4f 31 36 4e 42 5f 38 5e 83 df 37
       3.4873995e-07 2.6421094e-06 5.3229094e-05 2.6644844e-05
0002d0 26 2d b6 34 94 ee c6 36 dc d0 80 35 74 8f cd 37
       3.3932992e-07 5.928634e-06 9.597529e-07 2.4504705e-05
0002e0 28 36 8f 34 02 2e 94 35 c6 cf 8f 36 bb 47 54 36
       2.667523e-07 1.1040249e-06 4.28592e-06 3.1632214e-06
0002f0 a3 da 4b 35 90 e3 02 36 19 ad f4 35 ab 65 11 36
       7.594155e-07 1.9503968e-06 1.8229795e-06 2.1665862e-06
000300 14 88 ce 35 54 b9 66 33 2b 97 b2 37 a5 96 34 37
       1.53878e-06 5.3719603e-08 2.1289647e-05 1.0763911e-05
000310 d1 74 c4 34 43 8d 11 36 84 45 30 35 42 45 04 37
       3.659284e-07 2.168891e-06 6.566627e-07 7.883938e-06
000320 8b d5 14 35 c7 7c 90 36 53 c8 db 37 3e c5 99 37
       5.544504e-07 4.3060604e-06 2.6200118e-05 1.833087e-05
000330 56 36 40 36 62 e5 cf 36 36 d8 51 37 6e 2a b3 37
       2.8641857e-06 6.1957844e-06 1.2507711e-05 2.135822e-05
000340 14 49 61 35 29 f2 b6 36 ef 1e da 37 8a 73 9f 37
       8.3925374e-07 5.452214e-06 2.600203e-05 1.900808e-05
000350 cc df 37 36 13 b2 f1 37 ef 05 a4 37 a2 17 29 37
       2.7399392e-06 2.8812361e-05 1.9553087e-05 1.0078687e-05
000360 25 84 0a 36 f0 10 57 36 44 55 e5 38 2f 0b 8c 38
       2.064052e-06 3.2047355e-06 0.00010935453 6.677803e-05
000370 41 03 e1 34 25 48 3e 37 bf 48 43 37 28 4b 5f 38
       4.1911883e-07 1.134168e-05 1.1639843e-05 5.3237338e-05
000380 1e 12 37 36 74 c8 99 36 2c 05 23 39 40 2d bf 38
       2.727967e-06 4.583091e-06 0.00015546818 9.116018e-05
000390 07 de 15 35 77 7a 7f 37 ad 09 69 37 59 86 8b 38
       5.582992e-07 1.5227698e-05 1.3890135e-05 6.653061e-05
0003a0 c5 9c 9d 36 1e 3a 96 37 e2 c9 fa 39 ec ce 8b 39
       4.697215e-06 1.7908456e-05 0.0004783413 0.00026666315
0003b0 6a c1 34 36 98 4c 15 38 4f 22 18 38 07 7c 67 39
       2.6934672e-06 3.55957e-05 3.6271576e-05 0.0002207608
0003c0 f1 39 53 34 64 64 b6 33 c7 f1 42 35 bd de a5 34
       1.9671985e-07 8.4932964e-08 7.2622464e-07 3.0895708e-07
0003d0 3e bf 46 34 40 b3 99 35 c5 67 28 35 49 18 46 35
       1.850976e-07 1.1451557e-06 6.273588e-07 7.379609e-07
0003e0 23 1f 03 36 86 8c 78 37 5f 90 9d 39 7c c2 3c 39
       1.9538645e-06 1.481467e-05 0.00030052938 0.00018001528
0003f0 0c a1 64 36 d7 12 e1 37 08 f1 19 38 3c 6b 2a 39
       3.406839e-06 2.6830863e-05 3.670252e-05 0.00016252411

exp_avg f4 [64]
000000 8c 87 15 37 11 6e 70 b6 d6 ec c7 b5 8a 92 bd 35
       8.9126515e-06 -3.5826854e-06 -1.4895584e-06 1.4124246e-06
000010 51 ee 3e 36 04 36 a6 b7 51 58 5f 37 fd 6b 2a 36
       2.8450925e-06 -1.9813895e-05 1.3312399e-05 2.5394831e-06
000020 18 e0 6d b6 26 c7 38 b7 a2 1b c5 36 46 47 e0 b6
       -3.5446192e-06 -1.10136225e-05 5.8742744e-06 -6.6840175e-06
000030 83 5b ee b3 e0 aa 7d 36 3d c4 d5 b3 a5 ad 01 37
       -1.10993845e-07 3.77994e-06 -9.954281e-08 7.729429e-06
000040 c7 c0 19 35 d4 d6 55 b8 07 2a 8a b6 91 c3 b6 b6
       5.727747e-07 -5.098323e-05 -4.117613e-06 -5.4467896e-06
000050 ba 7f 85 37 a1 8c 84 b8 73 45 95 35 db b8 fe 36
       1.5914313e-05 -6.320445e-05 1.1121577e-06 7.59131e-06
000060 3e ac 1c 36 be b3 20 37 a8 56 ab 36 c4 20 07 b4
       2.334607e-06 9.578593e-06 5.1062852e-06 -1.2584775e-07
000070 d1 07 5a 33 b0 2f 71 b5 cf 76 ef b6 49 69 9e 36
       5.076419e-08 -8.984889e-07 -7.136586e-06 4.7210237e-06
000080 83 73 91 b7 a6 a1 e6 36 e8 b1 2e b6 83 d3 84 37
       -1.7339136e-05 6.8733525e-06 -2.6031576e-06 1.5834119e-05
000090 a1 8e 9b 36 ae 16 0f b6 9c 4e 8d 35 75 ea a3 37
       4.635964e-06 -2.1321862e-06 1.0528197e-06 1.9540292e-05
0000a0 97 43 b6 b5 e5 21 c7 b6 5f 4a ac 34 54 d8 a9 35
       -1.3579728e-06 -5.934608e-06 3.209161e-07 1.2654441e-06
0000b0 6b ee cc 35 ea 07 4a 38 2a 97 08 b7 f5 97 fc 36
       1.5268573e-06 4.8167924e-05 -8.141427e-06 7.5278754e-06
0000c0 64 f7 6f 36 84 81 7e 35 0d 7d 0c 37 3e ab 22 38
       3.5757776e-06 9.4810844e-07 8.373766e-06 3.878329e-05
0000d0 bd 1e d3 36 f9 8e dd b6 09 9c 70 b5 8b aa 10 37
       6.2918684e-06 -6.6029575e-06 -8.963403e-07 8.6227765e-06
0000e0 29 93 4b 36 41 be 45 b5 8e 58 5b 35 c1 5b 25 b7
       3.0335016e-06 -7.3665075e-07 8.171272e-07 -9.8561295e-06
0000f0 27 b4 be 37 ca 74 25 b7 51 bd 0b 35 3b f0 3f 35
       2.2733655e-05 -9.8619585e-06 5.2057027e-07 7.1502626e-07

exp_avg_sq f4 [64]
000000 a9 25 e5 38 a3 ee 00 38 2c b0 79 38 eb 7f f4 36
       0.00010926586 3.0739826e-05 5.95303e-05 7.2866583e-06
000010 7a 9e 77 37 c9 f3 91 38 58 fd 8a 39 ec f4 c3 36
       1.47592455e-05 6.959547e-05 0.00026510167 5.8399655e-06
000020 30 74 d4 38 69 f5 8e 39 d6 08 ad 39 92 71 0c 39
       0.00010130589 0.00027267195 0.00033003715 0.00013393749
000030 b1 64 84 39 eb 11 ad 38 c2 2d ae 39 7e 49 c9 37
       0.00025252023 8.25262e-05 0.00033221958 2.399529e-05
000040 a8 60 7a 38 d9 7a d1 39 23 d5 21 3a 62 ca 7c 3a
       5.9694663e-05 0.00039955115 0.00061734224 0.00096431945
000050 bb fb 0d 3a 7c 69 1a 3a 45 43 f0 37 d7 ce 62 38
       0.0005416234 0.0005890352 2.8641554e-05 5.4075233e-05
000060 87 30 b4 36 27 3f 61 39 96 20 5a 39 ec b7 16 38
       5.3700674e-06 0.00021481198 0.0002080224 3.5934077e-05
000070 b8 ec 9e 38 ec 62 56 39 18 eb 81 37 07 61 73 39
       7.5781194e-05 0.00020445482 1.5487472e-05 0.00023210431
000080 7c 89 75 39 6c d5 32 39 32 9d 3e 39 f6 18 a6 39
       0.00023416238 0.00017054909 0.00018178372 0.00031680585
000090 c6 b3 ca 37 6c fb a3 38 89 67 08 35 29 76 f9 39
       2.416399e-05 7.819277e-05 5.081461e-07 0.00047581017
0000a0 82 66 29 39 69 52 0f 39 b4 64 ef 37 1e d5 15 39
       0.00016155283 0.00013668243 2.8537914e-05 0.0001428914
0000b0 96 3f 4f 39 cf c7 9b 39 48 fe 94 38 b8 0f b7 3a
       0.00019764746 0.00029712773 7.1045535e-05 0.0013966477
0000c0 ae 93 4d 39 d0 c2 31 39 e6 e6 81 3a 77 e1 27 3a
       0.00019605338 0.00016952609 0.0009910732 0.00064041413
0000d0 61 6b 1d 39 95 4c 52 38 0e 5e 88 39 21 54 32 38
       0.00015012689 5.0139224e-05 0.00026010018 4.251686e-05
0000e0 18 b7 aa 39 63 29 15 39 05 e7 ce 38 a9 d9 98 38
       0.00032561342 0.00014225165 9.865876e-05 7.288467e-05
0000f0 73 0c 04 3b 2c a2 79 38 b3 60 0e 38 26 05 44 39
       0.0020149022 5.951726e-05 3.3945496e-05 0.00018693935

exp_avg f4 [8, 64]
000000 c5 ba 60 b7 ac a1 28 b6 f5 5f 67 37 7d 8b d3 b6
       -1.3394926e-05 -2.5128056e-06 1.3791015e-05 -6.3045286e-06
000010 4d 63 cb b6 e1 ab ed 36 e6 43 e9 b6 bf 94 5e b6
       -6.0614316e-06 7.0831597e-06 -6.9518455e-06 -3.316716e-06
000020 8f a9 3d 37 94 38 b6 34 2d f8 4d b7 2c c0 dc b6
       1.1304756e-05 3.3941308e-07 -1.2276735e-05 -6.5788827e-06
000030 0a 83 05 b7 51 72 4a b6 46 53 2a b7 ae a8 c3 b7
       -7.957928e-06 -3.0166887e-06 -1.0152178e-05 -2.3324359e-05
000040 8d b5 1e 37 3e 0d d3 37 4a d1 23 b7 44 0c 4c 37
       9.4598045e-06 2.5159326e-05 -9.764286e-06 1.2162203e-05
000050 1a f6 37 b7 46 f7 29 38 95 0d e6 b6 79 05 5d b7
       -1.096495e-05 4.052303e-05 -6.8561153e-06 -1.3173901e-05
000060 dc 12 0b 36 d8 c0 95 b7 b8 ca 44 b7 e3 f6 6a b6
       2.0723592e-06 -1.7851984e-05 -1.17297095e-05 -3.5012424e-06
000070 a4 20 27 b7 aa ef 1e b7 a3 f9 05 36 a4 4e 80 b7
       -9.961575e-06 -9.473335e-06 1.9963852e-06 -1.5295409e-05
000080 99 a0 ae 37 6d 40 ba b7 4d d8 53 37 52 7d c9 b7
       2.08172e-05 -2.2202928e-05 1.26269415e-05 -2.4019424e-05
000090 6d 97 00 37 12 1d e2 36 05 3a 88 b6 c4 5f 7a b7
       7.664651e-06 6.738709e-06 -4.05987e-06 -1.4923458e-05
0000a0 c7 11 00 37 2d 7c 6f 37 62 3f 17 b7 ab e7 4d 37
       7.633534e-06 1.4274422e-05 -9.015059e-06 1.2272892e-05
0000b0 a9 cf 44 b7 f2 bf b4 b7 2b 13 8c 36 c9 b5 5b b7
       -1.173086e-05 -2.1547054e-05 4.1745566e-06 -1.3095742e-05
0000c0 66 cd c0 b7 02 00 24 37 10 69 8b b7 08 89 9a b7
       -2.298383e-05 9.775164e-06 -1.6619015e-05 -1.842204e-05
0000d0 c0 9a c4 b7 9a 8f 70 37 87 70 17 37 94 50 eb b7
       -2.3437082e-05 1.433855e-05 9.026501e-06 -2.8051705e-05
0000e0 4f 4e a5 b7 e0 aa 10 b7 bb 51 87 37 f2 87 a5 37
       -1.9705998e-05 -8.622854e-06 1.6131313e-05 1.9732837e-05
0000f0 21 13 5f b7 65 1e 6a b6 84 ae f4 b6 4d 8e 44 37
       -1.329629e-05 -3.488641e-06 -7.292083e-06 1.1715642e-05
000100 09 58 9c 36 85 43 24 b6 28 98 2a b7 ab 9e a1 b5
       4.659411e-06 -2.4477206e-06 -1.0168216e-05 -1.2041613e-06
000110 04 4b de 35 bf 05 c1 36 b6 0d 11 b6 cf 8c cc 35
       1.6562121e-06 5.752517e-06 -2.1614665e-06 1.5240165e-06
000120 94 dd c7 b6 aa fb a6 b4 70 d5 06 37 76 5f 24 b5
       -5.9564572e-06 -3.110302e-07 8.036717e-06 -6.1233675e-07
000130 84 ad 13 37 4f ab 00 36 76 36 2b 37 b0 65 05 37
       8.8022825e-06 1.91732e-06 1.0205074e-05 7.951094e-06
000140 e7 98 23 b7 01 1d 83 b6 9d 7e 2d 37 2a eb 28 b7
       -9.751157e-06 -3.9074807e-06 1.0341083e-05 -1.0068334e-05
000150 7a 96 bc 35 e1 65 1c b6 8c f1 1d 36 95 fb f7 b5
       1.4050886e-06 -2.3305113e-06 2.3535422e-06 -1.8476154e-06
000160 82 20 a5 b6 d4 b1 99 36 68 3e 30 37 5d 89 98 b6
       -4.9211676e-06 4.5804572e-06 1.0504948e-05 -4.545944e-06
000170 68 e0 2f 37 57 aa 1b 37 ca c8 5e 36 81 d6 24 37
       1.04830615e-05 9.27838e-06 3.3197452e-06 9.825105e-06
000180 b7 c1 94 34 68 01 50 37 f6 d8 11 b7 1c 27 fe b5
       2.7708094e-07 1.23980935e-05 -8.693189e-06 -1.8935857e-06
000190 f0 5e 18 b7 ed 02 1c b6 55 55 e3 b5 65 8d 93 35
       -9.08201e-06 -2.3247514e-06 -1.6937653e-06 1.0993505e-06
0001a0 c5 d2 0d b7 9d 68 f9 b6 d9 8f 1d 37 e7 bc 2f b7
       -8.4533285e-06 -7.432957e-06 9.391421e-06 -1.0474795e-05
0001b0 58 fd 44 37 20 94 36 36 4d 18 8b b6 a4 a7 30 37
       1.1741497e-05 2.7206333e-06 -4.145352e-06 1.0529449e-05
0001c0 56 77 04 37 04 99 17 b7 eb 63 d7 36 93 99 a6 36
       7.895598e-06 -9.035928e-06 6.4191313e-06 4.965064e-06
0001d0 c5 93 ac 36 ca 61 24 b7 15 8d 25 b7 90 01 45 36
       5.143202e-06 -9.79793e-06 -9.867615e-06 2.9356197e-06
0001e0 08 ed 3d 37 68 e2 1b 37 d3 d7 21 b7 35 00 15 b6
       1.1320466e-05 9.291434e-06 -9.646598e-06 -2.220285e-06
0001f0 23 c5 2c 37 c7 dc bd 36 da 0e 9a 36 a3 b7 21 b7
       1.0297898e-05 5.658341e-06 4.5912866e-06 -9.639104e-06
000200 32 42 de b6 56 e7 02 b5 73 01 2a 35 64 79 ad b6
       -6.6238217e-06 -4.876541e-07 6.3332044e-07 -5.1699335e-06
000210 f8 af fa b5 0d 88 df 36 16 55 06 b7 33 9a f6 b4
       -1.8677665e-06 6.6617563e-06 -8.006833e-06 -4.5933265e-07
000220 d2 c8 76 36 3d d3 ad 35 f6 a8 5c b5 5c 21 10 b7
       3.677375e-06 1.2950983e-06 -8.2202257e-07 -8.590836e-06
000230 2e 98 e3 b3 8a 07 1a b6 7a 4b 48 34 7b 5d c9 b6
       -1.05981925e-07 -2.2952177e-06 1.865391e-07 -6.0011494e-06
000240 20 85 d2 b4 72 aa 25 37 d0 23 20 36 ff d7 e0 34
       -3.921241e-07 9.874451e-06 2.3862704e-06 4.188041e-07
000250 5a 09 ba b6 c9 b1 d1 37 8e b6 ca b4 aa 1f 28 b7
       -5.5443206e-06 2.499753e-05 -3.7758258e-07 -1.0020953e-05
000260 01 83 c1 b5 03 1e cf b6 78 59 39 36 54 d6 55 b6
       -1.4417748e-06 -6.1725746e-06 2.7619226e-06 -3.1864229e-06
000270 17 74 66 35 ae 6d b3 35 d7 10 81 36 15 12 b3 b5
       8.585061e-07 1.336846e-06 3.84646e-06 -1.3341802e-06
000280 48 80 6d 37 f7 51 35 b6 79 8f 2f 36 e2 68 99 b7
       1.4156169e-05 -2.7018812e-06 2.6160544e-06 -1.8287861e-05
000290 c2 ae de b5 ea fa 61 36 d1 37 80 b6 5d c1 18 b7
       -1.659115e-06 3.3673664e-06 -3.821195e-06 -9.104927e-06
0002a0 3a b7 72 b6 0d 93 96 36 ce 20 b4 b4 b4 92 07 b5
       -3.6167462e-06 4.4874673e-06 -3.355148e-07 -5.05049e-07
0002b0 48 24 33 35 8c 72 08 b7 72 08 02 b6 21 2b bd b4
       6.673549e-07 -8.132902e-06 -1.9376425e-06 -3.5235374e-07
0002c0 ba 1c 06 b7 52 15 bd 34 d4 1d a4 b6 ea 60 ae b6
       -7.993711e-06 3.5219506e-07 -4.8910533e-06 -5.1968864e-06
0002d0 57 f1 cc b6 ce 0e f8 b5 97 3a 05 b5 f7 46 6e b7
       -6.1077694e-06 -1.8481749e-06 -4.963162e-07 -1.4202428e-05
0002e0 92 50 3f b6 68 e4 9c b3 ce 01 64 36 21 2d 08 37
       -2.8508116e-06 -7.305863e-08 3.3975698e-06 8.116739e-06
0002f0 8e 78 69 35 a3 ca 79 35 5c cd 40 b6 91 db 92 35
       8.6974694e-07 9.3054604e-07 -2.8729764e-06 1.094175e-06
000300 9f 6a 9d b6 e3 4d 18 b6 68 03 d7 34 49 cb 96 b6
       -4.691377e-06 -2.26951e-06 4.004935e-07 -4.494014e-06
000310 94 4e cd b5 1b d8 04 37 cf 1c dd b6 19 65 47 b4
       -1.529656e-06 7.918129e-06 -6.589667e-06 -1.8570098e-07
000320 da 9f 27 36 76 57 32 35 59 b9 11 b5 42 cd c4 b6
       2.4977985e-06 6.643744e-07 -5.4286426e-07 -5.8651503e-06
000330 8a b9 cb 35 11 a7 98 b5 b5 57 cf 35 b9 b3 d4 b6
       1.5178678e-06 -1.1373505e-06 1.5448228e-06 -6.339015e-06
000340 6e 5d ba b5 37 22 2e 37 e1 9c 1c 36 bc ad 69 b4
       -1.3885272e-06 1.03791745e-05 2.3337127e-06 -2.176302e-07
000350 16 fc a0 b6 7a 25 b2 37 9a 0e d6 b5 2a 02 12 b7
       -4.7977182e-06 2.1236705e-05 -1.5948492e-06 -8.702782e-06
000360 77 2f 02 b6 28 f1 be b6 70 8b 48 36 7d da 86 b6
       -1.9399138e-06 -5.6905155e-06 2.9883486e-06 -4.0189466e-06
000370 44 06 03 36 d6 8d d7 35 7f 72 51 36 ea 4a af b5
       1.9524168e-06 1.6060028e-06 3.1210072e-06 -1.3060319e-06
000380 9d e7 4d 37 24 04 c3 b5 c7 a8 85 35 68 b4 84 b7
       1.2272879e-05 -1.4529837e-06 9.958393e-07 -1.5819634e-05
000390 1a b9 0d b6 5b f6 26 36 ef 4f 78 b6 55 3e 03 b7
       -2.111838e-06 2.4879325e-06 -3.7001407e-06 -7.822721e-06
0003a0 17 57 1a b6 ad e6 46 36 ab 0c c2 35 b3 e1 7a b5
       -2.2998481e-06 2.963857e-06 1.4457813e-06 -9.3460693e-07
0003b0 17 b1 ee 35 0f 56 1a b7 80 c8 00 b6 ce 72 fe 33
       1.7783922e-06 -9.199152e-06 -1.9190193e-06 1.18486795e-07
0003c0 6a 00 eb b6 69 4b 73 b5 cc 82 a9 b6 49 96 be b6
       -7.003594e-06 -9.063429e-07 -5.0518192e-06 -5.6799367e-06
0003d0 a7 e2 fc b6 8b 69 2f b5 2c 80 eb b5 37 94 58 b7
       -7.536571e-06 -6.5346165e-07 -1.7546167e-06 -1.2909112e-05
0003e0 c8 40 11 b6 30 65 cf 35 13 38 0f 36 3f 19 05 37
       -2.1644391e-06 1.5452151e-06 2.13413e-06 7.933296e-06
0003f0 a8 8f 2a 35 c3 60 ba 35 74 69 b7 b5 ef e3 a5 b3
       6.353898e-07 1.3886241e-06 -1.3665253e-06 -7.724872e-08

exp_avg_sq f4 [8, 64]
000000 96 be 1d 39 dd 51 ab 39 95 97 29 39 7e dc 4f 39
       0.00015043686 0.00032676655 0.00016173565 0.00019823198
000010 f9 20 c1 39 c3 90 6b 3a 18 49 33 3a 3a 7d 70 38
       0.00036836395 0.000898611 0.00068392 5.7337085e-05
000020 f5 80 45 38 9e 83 b5 39 07 b8 be 37 d6 15 50 3a
       4.708856e-05 0.00034621073 2.273546e-05 0.0007937824
000030 a6 74 88 3a dc dd 3c 39 77 0f 26 3a 1d 28 cf 39
       0.001041074 0.00018011726 0.0006334702 0.00039512003
000040 a3 5f 35 3a 0f 18 77 3a 12 c2 89 38 c7 c6 4b 39
       0.0006918853 0.0009425887 6.5688175e-05 0.00019433639
000050 14 88 6e 3a e1 f9 b7 3a d2 64 47 39 e1 0e 34 3a
       0.0009099257 0.0014036262 0.00019015677 0.0006868672
000060 38 0d 59 3a 02 46 4e 3a 52 ef bd 3a b9 3b 67 39
       0.0008279863 0.00078687083 0.0014490879 0.00022052125
000070 8e dc 72 3a 16 26 0c 39 41 24 2f 3a e9 59 2e 37
       0.00092644326 0.00013365629 0.00066811225 1.0392142e-05
000080 80 be 9b 3a 6b e2 af 3a 3c c3 23 3a 2c 3a a9 3a
       0.0011882335 0.0013418918 0.0006247049 0.0012911013
000090 3e c0 1e 3a 4b 69 9e 37 31 29 67 3a c7 31 85 3a
       0.0006055868 1.8884099e-05 0.00088180887 0.001016193
0000a0 2a 2f 86 37 29 20 7e 38 25 a0 bd 3a ef 3b 21 39
       1.5996007e-05 6.058827e-05 0.0014467282 0.00015376483
0000b0 7d a7 19 3a 75 f4 6f 3a f0 47 64 39 ce cd 9e 38
       0.00058614445 0.00091535534 0.00021770573 7.572361e-05
0000c0 07 d5 8a 3a ea 91 3e 3a 81 e8 81 39 64 21 16 3a
       0.0010592052 0.00072696677 0.00024778026 0.00057270215
0000d0 11 3b 2b 3a eb ed fc 38 1a 59 69 3a cd ed 90 3a
       0.0006531934 0.00012060612 0.0008901522 0.0011057198
0000e0 f0 dd df 36 db df a6 3a d0 67 0c 39 96 b2 86 3a
       6.671755e-06 0.0012731509 0.00013390114 0.0010276611
0000f0 81 a6 68 37 50 22 fd 38 77 1d d2 38 2d f7 0b 3a
       1.3867045e-05 0.00012070371 0.000100190686 0.0005339261
000100 95 d6 37 38 b9 0d 16 38 b3 b1 14 38 ca fc df 36
       4.3830445e-05 3.5775567e-05 3.5451445e-05 6.6753464e-06
000110 d7 52 4f 38 8a 5c d3 38 d8 da 24 39 59 b2 41 38
       4.9429796e-05 0.00010078501 0.00015721784 4.6180885e-05
000120 9c 5c aa 37 19 b1 ed 38 88 d7 9f 37 27 2d e1 38
       2.0308704e-05 0.00011334028 1.9054642e-05 0.00010737246
000130 b4 aa df 38 7f 85 97 38 65 ea 4d 38 21 21 52 38
       0.000106652646 7.225107e-05 4.9094106e-05 5.0098755e-05
000140 f7 a0 89 38 bf 3e 0e 39 f0 3c 88 35 f7 26 97 37
       6.562651e-05 0.0001356555 1.0150525e-06 1.8018747e-05
000150 2f 9d 34 39 8f 14 7b 39 1f 7e 14 38 f5 09 09 39
       0.00017224693 0.00023944884 3.540341e-05 0.00013069047
000160 46 5b d1 38 3e c5 35 39 d2 22 62 39 18 5e f6 37
       9.9828976e-05 0.00017334984 0.00021566011 2.9369301e-05
000170 c3 cf ce 38 81 34 29 37 17 87 01 39 2e c3 ce 36
       9.861544e-05 1.00854095e-05 0.00012352724 6.1620003e-06
000180 f1 02 4c 39 2d 8a 58 39 c1 e3 bd 38 4a 44 5d 39
       0.00019456052 0.0002065084 9.054645e-05 0.00021101642
000190 46 3a a6 38 d5 05 33 37 98 8a 06 39 db 52 49 39
       7.926351e-05 1.0670589e-05 0.00012830866 0.0001919972
0001a0 dd c3 01 37 ff 4f 04 38 0c b1 2b 39 6d a7 40 37
       7.734602e-06 3.1545755e-05 0.00016373786 1.1483074e-05
0001b0 d4 95 0a 38 fa 5d 0f 39 d8 58 a9 38 ee 1a c7 36
       3.3041302e-05 0.00013672552 8.0750964e-05 5.933797e-06
0001c0 c8 f5 29 39 13 ca af 38 7e c3 d2 37 42 20 c6 38
       0.00016208657 8.3822895e-05 2.5124984e-05 9.447384e-05
0001d0 4e b7 94 38 20 4c 0d 37 d7 3a af 38 c1 45 3c 39
       7.091333e-05 8.421979e-06 8.35561e-05 0.00017955063
0001e0 f0 38 71 36 b1 45 10 39 24 cb 17 37 91 00 28 39
       3.594494e-06 0.00013758872 9.047599e-06 0.0001602194
0001f0 46 59 3c 37 f0 8f 1a 37 16 44 bc 37 d7 21 6c 38
       1.1226459e-05 9.212628e-06 2.2443051e-05 5.62983e-05
000200 c8 88 28 37 be 88 93 38 79 66 8a 37 2f d6 90 38
       1.0045427e-05 7.0349764e-05 1.64986e-05 6.90635e-05
000210 b9 84 7b 38 b8 68 34 39 5a 4c 56 38 13 74 35 36
       5.996667e-05 0.00017205148 5.1092684e-05 2.7038666e-06
000220 cb 05 09 36 8a 99 39 37 6f 56 0d 36 cd d1 07 39
       2.0417963e-06 1.1062608e-05 2.1060948e-06 0.0001295276
000230 cd 0d 54 39 3c 30 69 36 85 7b 17 39 d2 70 9f 38
       0.00020223037 3.4747782e-06 0.00014446497 7.602725e-05
000240 e3 6a 16 39 4c 67 1a 39 de ac f2 37 70 eb 2b 38
       0.00014344933 0.00014725066 2.8929146e-05 4.0988845e-05
000250 9c bc c1 38 13 6c 26 39 b9 0e d6 37 64 d2 98 38
       9.2380884e-05 0.00015871254 2.5517644e-05 7.287113e-05
000260 d4 ef 17 39 95 ee 8b 38 77 1c 52 39 1a 51 95 38
       0.00014489825 6.672476e-05 0.00020037765 7.11998e-05
000270 58 df 37 39 4b bb 17 38 8b 42 a2 38 47 3b b6 35
       0.00017535442 3.6175636e-05 7.7371566e-05 1.3577309e-06
000280 e5 48 16 39 31 c5 3f 39 b4 bc bf 38 36 d0 23 39
       0.0001433227 0.00018288639 9.1427384e-05 0.00015622456
000290 ab 1c d1 38 d0 e4 02 36 69 6f 04 39 ba e8 d7 38
       9.9712364e-05 1.9504696e-06 0.00012630004 0.000102953476
0002a0 c9 6f 94 35 ff f0 0c 36 1f 19 8a 39 b0 2e 24 38
       1.1059393e-06 2.1001904e-06 0.00026340128 3.9144128e-05
0002b0 0e 56 24 39 1e 45 12 39 15 24 c8 36 24 c9 a3 37
       0.00015672317 0.00013949393 5.964665e-06 1.9524778e-05
0002c0 1e c2 17 39 7d 90 06 39 aa f9 68 38 52 a8 a2 38
       0.00014472796 0.00012833062 5.5545628e-05 7.756114e-05
0002d0 26 30 0b 39 17 29 29 38 45 e6 3f 39 a6 d4 16 39
       0.0001327401 4.0331008e-05 0.00018300962 0.00014384332
0002e0 14 1b 85 35 d7 a7 7a 39 35 01 1b 38 01 10 10 39
       9.917153e-07 0.00023904383 3.6956004e-05 0.00013738872
0002f0 2b 80 1f 37 fc 35 64 38 5c 90 7c 37 26 89 d7 38
       9.50698e-06 5.4409713e-05 1.5053982e-05 0.00010277545
000300 62 47 04 37 f8 ce 5b 38 68 2a 66 37 9e 19 5c 38
       7.884433e-06 5.2406423e-05 1.3718942e-05 5.2475945e-05
000310 1e 47 41 38 f3 e6 06 39 b4 d5 31 38 c3 5f d1 35
       4.608102e-05 0.00012865271 4.2399115e-05 1.5599584e-06
000320 e2 25 bc 35 d3 72 25 37 bb 08 c2 35 72 42 cc 38
       1.4018117e-06 9.861501e-06 1.4456667e-06 9.7398544e-05
000330 f6 e3 21 39 56 f6 43 36 13 49 e9 38 88 44 69 38
       0.00015439079 2.920065e-06 0.00011123917 5.5615354e-05
000340 57 b1 ea 38 d7 2a e9 38 c1 20 be 37 93 6c 0b 38
       0.000111910216 0.00011118285 2.2665017e-05 3.32413e-05
000350 53 f7 9c 38 a8 06 07 39 d4 e1 9d 37 b0 e8 74 38
       7.4847274e-05 0.00012877083 1.8821018e-05 5.839084e-05
000360 fe 66 e9 38 77 8c 66 38 09 12 24 39 e5 9d 5e 38
       0.000111294896 5.496709e-05 0.00015646977 5.3075975e-05
000370 fd 84 0d 39 ec 4a ed 37 3d ac 7f 38 bb 54 3f 35
       0.0001349635 2.828749e-05 6.0957147e-05 7.1276344e-07
000380 50 d3 ef 38 8f 15 15 39 b8 74 93 38 9d 8b 02 39
       0.00011435768 0.00014217779 7.031247e-05 0.00012449776
000390 73 7b a1 38 b9 c8 be 35 6d 17 cc 38 d7 2e af 38
       7.7000725e-05 1.4214521e-06 9.7318414e-05 8.353375e-05
0003a0 20 62 2c 35 6f 67 c0 35 a6 0d 52 39 28 f1 00 38
       6.4217784e-07 1.4335218e-06 0.00020032245 3.0742172e-05
0003b0 2f f4 ff 38 2a 92 dc 38 45 63 a3 36 04 92 87 37
       0.0001220483 0.00010517643 4.869335e-06 1.6161248e-05
0003c0 2f b1 ea 38 86 6f ce 38 d7 14 23 38 15 49 77 38
       0.000111909925 9.843618e-05 3.8881637e-05 5.8957452e-05
0003d0 68 09 d1 38 88 c6 f7 37 3e 3f 14 39 14 3f ec 38
       9.967649e-05 2.9537143e-05 0.0001413794 0.00011265106
0003e0 3e 13 30 35 1a 4d 3f 39 d8 87 f3 37 1c 5c e2 38
       6.559311e-07 0.00018243902 2.9031115e-05 0.000107936765
0003f0 2c 8b f3 36 00 00 30 38 a3 e2 3a 37 fe aa a8 38
       7.258166e-06 4.196167e-05 1.1139232e-05 8.042714e-05

exp_avg f4 [8]
000000 ed 7f d0 36 81 8b 99 36 23 4b a7 36 70 c6 e2 36
       6.2137756e-06 4.5759957e-06 4.985735e-06 6.758426e-06
000010 d1 26 e4 b5 53 96 5c b7 3e 9a 85 36 c9 27 7f b7
       -1.6998621e-06 -1.3148022e-05 3.981665e-06 -1.5208448e-05

exp_avg_sq f4 [8]
000000 65 49 73 3b 55 51 b9 39 6a ae 45 3a 5a 4f 15 3a
       0.0037122604 0.00035346547 0.00075409433 0.0005695723
000010 44 af 12 3b f8 0b e9 37 89 3c f5 36 35 98 f5 39
       0.0022382298 2.7781338e-05 7.308616e-06 0.00046843445

exp_avg f4 [2, 8]
000000 32 59 2a b8 e0 87 25 38 78 25 7e 34 4b 17 2f b5
       -4.0614228e-05 3.946561e-05 2.3669224e-07 -6.5226476e-07
000010 e3 4f 24 b8 45 22 eb b7 bf e4 0f b8 15 1b 29 b8
       -3.9175047e-05 -2.8030141e-05 -3.4306893e-05 -4.0317962e-05
000020 99 5e 2a 38 69 8c 25 b8 e9 98 7b b4 81 7c 2f 35
       4.061926e-05 -3.9469833e-05 -2.3431825e-07 6.537376e-07
000030 ca 55 24 38 1a 2a eb 37 a3 ea 0f 38 2e 1f 29 38
       3.9180544e-05 2.8033788e-05 3.431238e-05 4.032178e-05

exp_avg_sq f4 [2, 8]
000000 40 94 ae 39 8f 9f cc 38 23 c3 97 3b 14 3c 0c 3b
       0.0003329832 9.757198e-05 0.0046314164 0.0021398114
000010 8e cd b8 38 c5 e3 30 3a 06 fd 18 39 6d 90 7b 3a
       8.812091e-05 0.00067478075 0.00014590108 0.0009596411
000020 42 94 ae 39 8f 9f cc 38 23 c3 97 3b 14 3c 0c 3b
       0.00033298327 9.757198e-05 0.0046314164 0.0021398114
000030 8a cd b8 38 c3 e3 30 3a 06 fd 18 39 6d 90 7b 3a
       8.812088e-05 0.00067478063 0.00014590108 0.0009596411

exp_avg f4 [2]
000000 a8 c9 2c 35 72 c3 2c b5
       6.436844e-07 -6.4359403e-07

exp_avg_sq f4 [2]
000000 f2 a7 35 39 f3 a7 35 39
       0.0001732407 0.00017324071

model.1.defunc.m.0.weight f4 [64, 8]
000000 67 3c b6 3e c9 08 f9 be 83 f6 54 3e 3b ca 3f be
       0.35592958 -0.48639515 0.20797162 -0.18729489
000010 9b 53 bb bd f6 41 53 3e c7 54 af 3e d9 63 bb bd
       -0.09146806 0.20630631 0.34244367 -0.09149904
000020 67 7d 8f be 37 9b 97 3e 63 b9 57 bd 65 83 dc 3d
       -0.28025362 0.29610607 -0.052667033 0.10767249
000030 a9 df 9c bd 4f a9 61 be a5 e4 bb be 15 f4 1d 3e
       -0.07659847 -0.22037242 -0.3669788 0.15425141
000040 b9 ef cf be 87 cb 03 3e 91 a0 08 3d 13 e3 3d be
       -0.4061258 0.12870608 0.033356253 -0.18543653
000050 b8 6f a5 be e7 9c ed bd da 5b c4 3d b7 56 b3 be
       -0.32311797 -0.11602192 0.09587832 -0.35027096
000060 ac 48 cf 3d 04 e1 d2 bc c2 c9 4c be 99 8e 1f be
       0.10121283 -0.025742061 -0.1999884 -0.1558174
000070 c8 39 56 be c4 63 04 3e e4 b1 5e 3e 70 63 b1 bd
       -0.2092048 0.12928683 0.21747547 -0.08661544
000080 61 1f 3c bd ce 96 64 be 0c a9 8b bd c5 56 92 bd
       -0.045928363 -0.22323152 -0.068193525 -0.07145456
000090 de 7a ba be d9 9f 5c be 8b 67 de 3e 32 59 4f bd
       -0.36421865 -0.21545352 0.43438372 -0.050622173
0000a0 a8 15 05 bf 7c 8a 73 3b d3 4f dd 3d 80 b3 43 3e
       -0.5198617 0.00371614 0.10806241 0.19111443
0000b0 5e d8 4b 3e 99 13 7e 3e 9e 82 97 3f f3 b5 2a 3f
       0.19906756 0.24812163 1.1836736 0.6668388
0000c0 cf f2 f7 3e 26 9c fa bd c9 01 04 3f cf 78 d3 3e
       0.48427436 -0.12236814 0.51565224 0.41303107
0000d0 2e 3a 3c be 02 3f ea 3e 1d 3f fb 3d 4f 98 22 be
       -0.18381569 0.45751196 0.12267897 -0.15878414
0000e0 83 e2 e8 bd 2a 5f 60 be 0f c6 c1 be 6f 72 88 be
       -0.11371329 -0.21911302 -0.3784642 -0.26649806
0000f0 14 ec 3e be a7 d9 19 be 59 a2 97 3e 40 4c ac 3c
       -0.18644744 -0.15024434 0.2961605 0.021032453
000100 7e e4 80 be 31 93 c7 3e 8b d5 d6 bd 2b 6b aa bd
       -0.25174326 0.38979486 -0.10489949 -0.08321222
000110 14 31 5e 3e fd 87 8a be 19 cc 36 be 8d 6a 2b be
       0.2169841 -0.27056876 -0.17851295 -0.16739865
000120 bf 43 b0 be 46 19 7f be 96 0a d6 be c6 02 0b bf
       -0.34426686 -0.24911985 -0.4180495 -0.54301107
000130 92 40 25 be 46 2f 83 be 68 74 90 be bf f1 75 bd
       -0.16137913 -0.25622004 -0.2821381 -0.060045
000140 2a f1 95 3e fe 08 bc bd 77 ee c6 3e fc d5 90 bd
       0.29285556 -0.091814026 0.3885381 -0.07072064
000150 f3 03 d6 3e a0 16 63 be 3b 44 ed 3d 53 92 bd 3d
       0.41799888 -0.221766 0.115852796 0.09256425
000160 33 8c 15 3e 65 84 1f be 0c e4 e6 be 4e 1a 15 be
       0.14604263 -0.15577848 -0.4509586 -0.14560816
000170 fb 3c e3 3d bd b0 83 3f ed 6b 34 bf b8 e2 2f be
       0.110956155 1.0288311 -0.7047718 -0.1717633
000180 fd 2f 0c 3f ed 0a 11 be 8a 95 2e be d3 0a 92 3e
       0.54760724 -0.14164324 -0.17049232 0.28523883
000190 45 b1 7f 3e 16 44 29 3e db 02 a1 3d bd a2 c2 3d
       0.24969967 0.16529879 0.07861873 0.09503696
0001a0 db 10 3d 3f 84 11 9c 3e a6 8a 0f 3e 0d 77 a9 3e
       0.73853844 0.30482113 0.14017734 0.3309864
0001b0 40 ce 16 3e 3b 90 9e 3e d5 96 8a 3e a4 54 1d 3c
       0.14727116 0.30969414 0.270682 0.009602699
0001c0 16 c6 00 3f fe f2 82 be 15 d5 87 bd 14 34 a8 3e
       0.50302255 -0.25576013 -0.06632439 0.32852232
0001d0 da b2 ff 3d e6 5a b2 3d 48 33 00 3e 6c 98 3f 3e
       0.12485285 0.08708744 0.12519562 0.18710488
0001e0 46 1e 2d 3f 9c 43 0e be 9c 30 4d bd fa 63 cf 3d
       0.6762432 -0.13892978 -0.050095186 0.10126491
0001f0 91 ea 70 3e 15 08 b2 be ed f9 3b be da ed 77 3c
       0.2352698 -0.3477179 -0.18357058 0.015132392
000200 1d a5 02 bf 42 5e 01 3e 86 06 82 be 9b 3b 59 3e
       -0.5103319 0.12633613 -0.25395602 0.21214144
000210 b5 e9 20 bf 55 64 0a be ab 4a 22 3e 04 25 66 be
       -0.6285661 -0.13514836 0.15848796 -0.22475058
000220 bb 75 45 bf 0f c0 89 3e fc c8 a1 be 8a 35 04 3d
       -0.7713277 0.26904342 -0.3159865 0.03227762
000230 7a 56 45 bd db c9 34 3f 8b 37 1c 3f bf 5e 1a 3f
       -0.048178174 0.70620507 0.6102225 0.6030082
000240 28 34 6f 3e c5 6d 78 3e b7 d1 c6 3d 1c 20 9e 3e
       0.2335974 0.24260624 0.09707969 0.30883873
000250 c8 75 1c 3f e2 e6 8f bd 48 73 e7 bc 85 bd aa 3e
       0.6111722 -0.07026459 -0.028253213 0.33347717
000260 3c 0f d4 be 73 ad 04 3f 47 01 5a be af 99 7d 3b
       -0.41417873 0.5182716 -0.2128955 0.003869634
000270 5e 63 96 be 75 e2 0b be ed 5e e0 3d 60 bc 9a be
       -0.29372686 -0.13660605 0.10955606 -0.30221844
000280 18 39 ae 3e be 51 04 3f 12 02 ff 3e ab e1 02 3e
       0.34027934 0.5168723 0.49806267 0.12781398
000290 80 e2 93 3e 0d 1f 0d be 8e ea 1f 3f 6f 99 ed bd
       0.28883743 -0.13781376 0.6246728 -0.11601531
0002a0 02 50 57 be 9a fd d6 be d6 3d f1 be 10 f8 21 bf
       -0.21026614 -0.41990358 -0.4711749 -0.6326914
0002b0 7a 9d 88 3e 61 0f fc be 83 cb e1 be 6b 79 1d 3f
       0.26682645 -0.49230483 -0.4410058 0.61513394
0002c0 41 82 1b 3e 37 31 77 3e ff 91 26 3e 04 a8 66 bd
       0.15186407 0.24139868 0.1626663 -0.056312576
0002d0 5c eb d0 3e d2 6f 82 be 83 f6 cd be 6d 7e fd 3c
       0.40804565 -0.25475937 -0.40227136 0.030944074
0002e0 88 0e f3 3d 13 62 0b 3e 02 04 92 bd 3c d8 60 3e
       0.11868006 0.13611631 -0.07129671 0.21957487
0002f0 d7 5b 82 3e 5e df a2 bd 10 cc 32 3e 1c e1 0d bf
       0.25460693 -0.0795276 0.17460656 -0.55421615
000300 78 2a f5 bd 37 cb 20 bd ca 40 1e 3e 99 1f 6e be
       -0.11970991 -0.0392563 0.15454403 -0.23254241
000310 f9 16 e0 be fe 22 32 be 62 b3 a6 3e 48 50 f3 bd
       -0.43767527 -0.17396161 0.32558733 -0.11880547
000320 d2 1f 02 3f b6 2c c1 3e d4 a1 09 3f c0 d1 1d 3f
       0.50829804 0.37729424 0.53762555 0.6164818
000330 f0 8b d7 3e 49 7d e3 be 5b 29 f8 3e 74 ff 3f be
       0.4209895 -0.44431522 0.48469052 -0.18749791
000340 59 8c 3d bf a0 a8 cf 3d d3 3c a7 be d7 ba 1c be
       -0.7404228 0.101395845 -0.32663593 -0.15305649
000350 3f 09 a2 be 47 87 28 bf ef d7 38 3f de c2 2f 3f
       -0.3164768 -0.65831417 0.7220449 0.6865672
000360 d0 c3 7e bd 2b ee 74 3e 1d b6 e0 be f1 b0 b1 be
       -0.06219846 0.23918979 -0.4388894 -0.34705308
000370 86 97 35 3e ce 40 27 bf 64 ce de bd 35 a5 04 bf
       0.17733583 -0.6533326 -0.1087921 -0.51814586
000380 e4 dd 14 3e 75 59 a7 be f2 01 8c 3e d9 27 30 be
       0.1453777 -0.32685438 0.27345234 -0.172027
000390 91 69 18 3f aa 94 c5 bb 19 a8 0a 3c 41 18 57 3e
       0.5953608 -0.006029685 0.008462929 0.21005346
0003a0 2c 26 66 3e e8 ea 81 be 9c b4 45 3e 30 57 8a 3d
       0.22475499 -0.25374532 0.19307178 0.06754911
0003b0 89 b1 1d 3e 8f d8 9e bd b8 74 41 bd 74 10 62 3e
       0.15399756 -0.07756149 -0.047230452 0.22076589
0003c0 95 00 02 be 57 c5 b1 bd f1 d8 b8 3d fb a8 90 3e
       -0.12695535 -0.08680218 0.09025753 0.28253922
0003d0 2b be 8c bc a2 45 76 3e 0d ff 86 be 16 dc cf 3e
       -0.017180523 0.2405 -0.26366463 0.405976
0003e0 8e fe 23 3e af eb 94 be 3d 6a b0 bc 5f e9 6c 3e
       0.16015074 -0.29086062 -0.021535033 0.23135899
0003f0 13 d9 6e 3e 34 05 49 3d 7f 0a cd bd c2 02 a7 3e
       0.23324995 0.049077228 -0.100117676 0.32619292

model.1.defunc.m.0.bias f4 [64]
000000 d3 61 35 be fe 6a 32 be 97 db 5b 3d 97 44 de be
       -0.17713098 -0.17423627 0.053676214 -0.43411705
000010 0a 18 74 be c7 89 ba 3e 00 56 c6 3c 86 80 a6 be
       -0.23837295 0.3643324 0.02421093 -0.3251993
000020 b2 08 ce 3d be 29 3c be 6f af 16 3e 83 e5 b4 3e
       0.10060252 -0.18375298 0.1471536 0.35331354
000030 92 9b ce 3e 35 68 bd 3d bb a3 c1 3e cc 9c 84 be
       0.40353066 0.092483915 0.3782023 -0.25900877
000040 7e e5 96 be 24 aa 34 3e 2e 3a 83 3e 93 d9 b9 bd
       -0.29471964 0.17643028 0.25630325 -0.09074702
000050 4b 17 26 be 22 84 19 3e 4e cb 98 bc 8d ce e8 bd
       -0.16219823 0.14991811 -0.01865163 -0.113675214
000060 95 48 b0 be 9c e2 98 3d 4c 73 c6 3e 53 a0 a7 be
       -0.34430376 0.07465097 0.3875984 -0.32739505
000070 db 38 af 3e 04 7e 7c 3e df f9 d7 3d cd 78 f4 bd
       0.34223065 0.24657446 0.10545706 -0.119371034
000080 0a 1b 82 3e 7b 78 84 3e 82 0b ad bd b8 dd 65 be
       0.25411254 0.2587317 -0.084494606 -0.2244786
000090 db ee 22 be f1 5b 50 3e 17 9c 3e be 51 f6 9a bd
       -0.15911429 0.20347573 -0.18614231 -0.075665124
0000a0 58 9f a7 bd 92 4f 11 bd ae e5 c0 3e 08 cf 4d be
       -0.08184689 -0.035476275 0.37675232 -0.20098507
0000b0 11 c7 ca 3e 80 c0 1b bd 56 a7 2d 3e 3a 37 99 3d
       0.39605 -0.03802538 0.16958365 0.07481237
0000c0 22 0e e4 be a8 eb 8c be a9 19 ec be 81 d4 1b be
       -0.44542032 -0.2752354 -0.46113327 -0.15217783
0000d0 a3 89 84 be 10 86 98 3e 24 99 c5 be 5d d3 39 be
       -0.25886258 0.29789782 -0.385934 -0.18147035
0000e0 5a e9 22 bd e9 9d d0 3e 6f a8 17 be 95 6e 6a 3e
       -0.039773323 0.40745476 -0.14810346 0.22893746
0000f0 f4 48 6a 3e 12 5d b9 3e dd ea 55 3c 89 f6 3a be
       0.22879392 0.3620382 0.013056484 -0.18258108
