lightning_logs/version_10/checkpoints/epoch=199-step=199.ckpt (torch, 19857 bytes, 18 tensors)

exp_avg f4 [64, 8]
000000 79 8b 3e b8 c6 60 48 38 db 3a 9c 36 a3 b7 6b b8
       -4.5429424e-05 4.7773843e-05 4.656014e-06 -5.619939e-05
000010 78 b7 29 38 fc 7e dd 37 3e 07 b1 b8 78 97 a4 b7
       4.046361e-05 2.6404385e-05 -8.441367e-05 -1.9620857e-05
000020 39 90 24 b8 71 dd 12 38 cc ce 96 37 67 2b 26 b8
       -3.9234965e-05 3.5015346e-05 1.797769e-05 -3.9617906e-05
000030 87 cc 0c 38 58 59 09 38 5b 1d 88 b8 ec e0 1c 38
       3.3569082e-05 3.2746553e-05 -6.490453e-05 3.7402773e-05
000040 f1 6e 7c b8 6a 38 48 38 a1 3e 58 37 ea 4d 73 b8
       -6.0184804e-05 4.7736256e-05 1.2889185e-05 -5.8008278e-05
000050 70 0e 2e 38 59 04 9e b7 66 8e 07 b7 19 5a 43 b8
       4.149828e-05 -1.8837092e-05 -8.079782e-06 -4.6575533e-05
000060 ac 9d b9 37 da 15 84 b7 30 cd 81 36 cb d5 b3 37
       2.212714e-05 -1.5745802e-05 3.8683866e-06 2.1438018e-05
000070 62 c4 39 b7 cd 40 d0 36 90 6d fb b6 01 3e 39 37
       -1.1072583e-05 6.206427e-06 -7.4931377e-06 1.1041296e-05
000080 86 d5 7e 38 6d a1 51 b8 3a 0c 04 b8 a9 6f 7a 38
       6.075718e-05 -4.9979823e-05 -3.148264e-05 5.9708636e-05
000090 22 bd 4f b8 c7 7d a6 37 27 8d 59 36 36 31 5c 36
       -4.952879e-05 1.9847312e-05 3.2417681e-06 3.28112e-06
0000a0 a4 64 8f 38 af 9a 58 b8 80 65 9d b6 5a c8 89 38
       6.837517e-05 -5.1642473e-05 -4.6907808e-06 6.5699875e-05
0000b0 96 4e 2f b8 ca a0 d0 37 66 31 40 b7 75 86 5d 38
       -4.179644e-05 2.4870405e-05 -1.1455593e-05 5.281573e-05
0000c0 6a 76 5e b8 fb b4 62 38 fd 2f db 37 25 b8 7a b8
       -5.3039206e-05 5.405115e-05 2.612918e-05 -5.9776143e-05
0000d0 06 21 55 38 a1 c6 aa b6 9c 18 81 b8 be 91 02 b8
       5.0813913e-05 -5.0895183e-06 -6.155783e-05 -3.113015e-05
0000e0 40 8a ed b8 89 20 c7 38 bd fc 13 38 2d 82 f2 b8
       -0.00011326792 9.4951196e-05 3.5282912e-05 -0.00011563706
0000f0 98 4d b4 38 d6 4d 01 b8 3f 7a be b7 df d6 40 b8
       8.597522e-05 -3.0828487e-05 -2.270669e-05 -4.597648e-05
000100 ee 1e 95 38 2d f9 75 b8 d2 95 66 b8 78 0e 90 38
       7.110635e-05 -5.8644615e-05 -5.4975804e-05 6.86915e-05
000110 75 24 89 b8 9e 3b bb b6 cc 6b ca 37 6e 95 62 b8
       -6.53946e-05 -5.5799746e-06 2.4130473e-05 -5.4021766e-05
000120 5a 99 d5 38 e7 a2 ce b8 65 c8 47 b6 f2 ba ea 38
       0.000101851954 -9.8531884e-05 -2.9769956e-06 0.00011192811
000130 91 ff 9d b8 90 2b b1 b8 e9 e1 45 38 1f fa 82 b7
       -7.533946e-05 -8.448132e-05 4.7178855e-05 -1.561368e-05
000140 28 f7 fd 38 fd 3f bf b8 b4 36 98 b8 74 25 e9 38
       0.000121100165 -9.1195085e-05 -7.258114e-05 0.00011117282
000150 6d be cb b8 b2 a9 05 38 ff 07 60 b8 14 6a 91 37
       -9.715264e-05 3.1867712e-05 -5.341321e-05 1.7334743e-05
000160 94 30 98 38 87 7d 84 b8 db 23 88 37 83 c2 a8 38
       7.256973e-05 -6.317632e-05 1.622916e-05 8.047095e-05
000170 54 85 47 b8 f1 29 fa 37 bd a8 78 37 41 83 5c 39
       -4.756947e-05 2.9821853e-05 1.4821239e-05 0.00021029731
000180 d9 84 d1 b7 a0 c4 99 37 34 72 43 37 bb 36 cd b7
       -2.4976604e-05 1.8330582e-05 1.1649496e-05 -2.446339e-05
000190 0b 3e ac 37 72 69 8c b7 ac ee c3 37 d9 84 9a b8
       2.0532889e-05 -1.6738402e-05 2.3356952e-05 -7.368037e-05
0001a0 ba 98 13 b8 0c 2a 12 38 96 ad 20 38 ad 41 1b b8
       -3.518977e-05 3.484827e-05 3.8308637e-05 -3.7016045e-05
0001b0 c2 58 2c 38 66 3c da 37 9e f3 85 b8 11 52 c1 37
       4.1090658e-05 2.601575e-05 -6.3873114e-05 2.3045608e-05
0001c0 e4 f1 11 b9 87 ab f7 38 7d 53 da b7 7d ce 12 b9
       -0.00013918389 0.00011809827 -2.6026502e-05 -0.00014000568
0001d0 a1 53 a3 38 e0 91 95 b7 a9 41 08 b8 20 41 17 b9
       7.788023e-05 -1.7830112e-05 -3.2486078e-05 -0.00014424743
0001e0 f5 e5 17 b9 fa 34 e4 38 4d 2d 24 38 42 7d 15 b9
       -0.00014486148 0.00010881755 3.9142837e-05 -0.0001425641
0001f0 58 43 dc 38 7a 21 33 35 9d f3 1f 38 9e 13 bc b8
       0.00010502961 6.673141e-07 3.8135437e-05 -8.9681926e-05
000200 36 5c de b8 6f ef ce 38 c5 66 1e 38 78 d0 f3 b8
       -0.000106029605 9.8674434e-05 3.7765847e-05 -0.00011625973
000210 19 17 be 38 0a fa 0f 37 81 cd cc b8 7d 01 5c b7
       9.064208e-05 8.581681e-06 -9.765756e-05 -1.3113368e-05
000220 48 a1 c7 38 43 4f a4 b8 57 f0 20 36 cb a3 d7 38
       9.5191004e-05 -7.834893e-05 2.3981754e-06 0.00010282508
000230 fb 64 86 b8 c2 f9 36 b7 80 84 28 38 bb 88 f6 37
       -6.408427e-05 -1.0906197e-05 4.017772e-05 2.9389155e-05
000240 dc 62 86 b8 89 90 4f 38 0d d3 18 38 93 a4 7a b8
       -6.408032e-05 4.9487255e-05 3.643618e-05 -5.9757916e-05
000250 12 d8 5e 38 f5 c3 fa b6 b3 22 73 38 24 5b 3b b8
       5.3130156e-05 -7.473393e-06 5.796803e-05 -4.4669156e-05
000260 3c f1 bd 38 27 e8 ac b8 29 6e d6 b7 26 67 d0 38
       9.057156e-05 -8.244841e-05 -2.5562085e-05 9.937426e-05
000270 90 64 9d b8 6a 78 9f b6 09 78 78 38 b3 fb 70 38
       -7.5050746e-05 -4.7525873e-06 5.92396e-05 5.7454872e-05
000280 6a 0d e8 38 7a 01 bf b8 fd 1a be b7 68 45 ee 38
       0.000110651206 -9.107865e-05 -2.2662332e-05 0.00011361652
000290 bd 19 a7 b8 9d 04 ea 37 eb a6 02 37 d8 ed 90 38
       -7.967975e-05 2.7897122e-05 7.787467e-06 6.910757e-05
0002a0 43 12 48 38 19 29 0f b8 b6 d0 82 35 9f bb 41 38
       4.7700723e-05 -3.4132132e-05 9.746498e-07 4.618952e-05
0002b0 74 d1 e6 b7 94 34 59 37 cd 8b b2 b7 16 bb 30 38
       -2.751567e-05 1.294645e-05 -2.1284353e-05 4.2135907e-05
0002c0 83 87 28 b8 99 b6 20 38 5c 80 12 38 55 cf 31 b8
       -4.0180526e-05 3.831703e-05 3.4928657e-05 -4.239318e-05
0002d0 ba 85 32 38 48 be d4 35 f3 16 2a b8 76 c4 1e 36
       4.256305e-05 1.585061e-06 -4.055253e-05 2.365819e-06
0002e0 77 ca d8 37 56 79 95 b7 65 cf 03 b8 59 98 aa 37
       2.5843487e-05 -1.7818686e-05 -3.1425985e-05 2.0336522e-05
0002f0 96 07 cc b7 66 fa 5c 37 4e eb 0e b7 d1 d2 e6 b7
       -2.4322228e-05 1.3171322e-05 -8.518646e-06 -2.7516306e-05
000300 be 6b 72 b8 ee 60 41 38 4a 85 8e 37 8b 2f 7c b8
       -5.779764e-05 4.610506e-05 1.6989787e-05 -6.012576e-05
000310 f6 ac 42 38 75 94 3c 38 35 6d 1e b8 67 4d 0d 38
       4.6414287e-05 4.4960954e-05 -3.7771842e-05 3.3689106e-05
000320 88 ea 5d b7 6d 65 1b 37 ba 2d a4 37 7d c1 32 b7
       -1.3227233e-05 9.262335e-06 1.9571617e-05 -1.0654677e-05
000330 e8 99 6d 37 6c 0e 93 b6 d6 80 dc 36 65 62 ad 37
       1.4162135e-05 -4.3826203e-06 6.5715094e-06 2.0669026e-05
000340 fd 1a 8e b8 93 8c 8a 38 98 8f fb 37 1a 95 a8 b8
       -6.7761146e-05 6.606537e-05 2.9988398e-05 -8.0386366e-05
000350 a6 1e 90 38 d6 16 87 38 be bd d0 b8 9a 0f d8 b6
       6.872164e-05 6.441555e-05 -9.953555e-05 -6.439118e-06
000360 37 46 83 38 75 56 4d b8 29 20 87 b7 56 12 84 38
       6.259645e-05 -4.8956328e-05 -1.610823e-05 6.297666e-05
000370 07 00 41 b8 0f bb 8b b7 fc 5b c2 36 fd 60 db b6
       -4.601481e-05 -1.6657197e-05 5.792359e-06 -6.5379995e-06
000380 4c 84 fe 38 6b c2 df b8 72 9a 05 b8 e4 ea 0a 39
       0.00012136306 -0.00010669682 -3.185351e-05 0.00013248209
000390 6d e0 d0 b8 3b 86 93 b7 8a 37 7c 38 45 3d c0 38
       -9.9600154e-05 -1.7586271e-05 6.0133207e-05 9.166686e-05
0003a0 42 13 c0 38 f2 d0 af b8 c4 39 b5 b7 28 ad e3 38
       9.1588605e-05 -8.3835694e-05 -2.160378e-05 0.00010856456
0003b0 b6 6f b1 b8 6e 4b bb b8 c8 d9 c5 38 24 5a 76 38
       -8.4608255e-05 -8.930905e-05 9.434257e-05 5.873492e-05
0003c0 cb 16 a7 b8 a9 2b 80 38 a2 30 0d 37 d6 59 a8 b8
       -7.967426e-05 6.111648e-05 8.415578e-06 -8.0275975e-05
0003d0 dc 6e 5d 38 bc b0 2d b6 82 70 2b 37 9d 0c 29 b8
       5.2793752e-05 -2.5881882e-06 1.02185895e-05 -4.0304487e-05
0003e0 c0 7f 2a b9 ca 7e fe 38 77 e3 36 38 cb 24 29 b9
       -0.00016260054 0.0001213528 4.3604025e-05 -0.00016130802
0003f0 b2 d1 fa 38 fe a4 c0 b6 5e 4c 08 38 47 98 17 b9
       0.00011959988 -5.7412535e-06 3.249605e-05 -0.0001445721

exp_avg_sq f4 [64, 8]
000000 19 b3 c2 38 29 20 e3 37 cf 56 1c 3a d5 67 fa 38
       9.2840004e-05 2.7075484e-05 0.0005963863 0.00011940269
000010 eb 2d b2 37 f5 d0 46 39 ef 88 8f 39 78 6a b4 3a
       2.1240636e-05 0.00018960594 0.0002737711 0.001376464
000020 10 6a 7f 38 45 b8 89 37 9f 8f c5 39 d4 3f 7d 38
       6.0895516e-05 1.641748e-05 0.00037681774 6.0379345e-05
000030 cb 9a a5 37 6b 98 b8 38 7d 03 e3 39 32 bc 5d 3a
       1.9741614e-05 8.802194e-05 0.00043299413 0.0008458524
000040 bf a2 c8 38 3a 4c fe 37 6d c0 36 3a bd 14 e9 38
       9.567057e-05 3.0314655e-05 0.00069714227 0.000111141686
000050 d9 ef 0b 38 56 f1 ed 38 47 27 e9 39 0e 43 ff 3a
       3.3363558e-05 0.00011345993 0.00044470487 0.001947494
000060 03 de e0 36 27 76 0c 36 42 e4 13 38 ca 63 04 37
       6.701566e-06 2.09304e-06 3.5260113e-05 7.891047e-06
000070 50 53 c5 35 5d 81 9e 36 c5 f7 eb 37 05 af 0d 39
       1.4701891e-06 4.723827e-06 2.812956e-05 0.00013512008
000080 20 9a 90 38 bf b9 bd 37 89 4d d4 39 07 2b ab 38
       6.895163e-05 2.261705e-05 0.0004049356 8.16193e-05
000090 4b 62 8f 37 8b cb 90 38 74 04 78 39 e6 dc 7a 3a
       1.70927e-05 6.904368e-05 0.00023652782 0.00095696596
0000a0 73 ce 8d 38 ba 1c b9 37 b9 8f de 39 28 b8 a5 38
       6.761858e-05 2.2067095e-05 0.0004245022 7.902115e-05
0000b0 6b cf 9c 37 71 49 b7 38 74 83 8f 39 05 59 8d 3a
       1.8693236e-05 8.7397995e-05 0.00027373026 0.0010783976
0000c0 57 0f 2c 39 52 16 53 38 8b 93 da 3a 8f c7 58 39
       0.00016408913 5.0327108e-05 0.0016676051 0.00020673707
0000d0 d6 5c be 38 18 92 ed 39 4e bb 40 3a 33 78 79 3b
       9.077198e-05 0.0004531301 0.00073521293 0.003806603
0000e0 dd b8 53 39 21 8e 8c 38 1c b2 99 3a c7 9d 83 39
       0.00020191395 6.702194e-05 0.0011726054 0.0002510382
0000f0 92 ea 37 38 32 04 c1 39 a2 9d 0c 3a dd d0 24 3b
       4.384906e-05 0.00036814954 0.00053640653 0.0025148906
000100 4f 72 f2 38 39 eb 15 38 40 94 1e 3a b9 92 0f 39
       0.00011560751 3.5743436e-05 0.00060493127 0.00013692201
000110 4c c6 c1 37 d1 30 57 39 1c e4 b0 39 bc da 8e 3a
       2.3099732e-05 0.00020522183 0.0003373929 0.0010898928
000120 9c 1f 69 39 a2 a9 ab 38 e5 32 17 3b f5 58 a4 39
       0.00022232387 8.185512e-05 0.0023071107 0.00031346796
000130 69 4e ed 38 8c 20 1e 3a 7c 1d 51 3a a0 41 c7 3b
       0.00011315646 0.00060320715 0.0007977111 0.006080821
000140 2a 04 f0 39 bd b9 19 39 ed 44 61 3b e3 35 11 3a
       0.0004577947 0.0001466041 0.0034373358 0.0005539341
000150 66 7e 25 39 8b fb 80 3a 46 28 d6 3a 07 d1 ee 3b
       0.00015782713 0.0009840591 0.0016338907 0.0072881016
000160 00 e0 2d 39 82 9a 4a 38 1f 50 06 3b 60 df 77 39
       0.00016582012 4.830445e-05 0.0020494533 0.0002363897
000170 83 ef e1 38 c5 ed 0c 3b 1e aa 14 3a 16 a6 31 3b
       0.000107734486 0.0021504026 0.00056711014 0.0027107052
000180 78 48 ff 36 2d 92 73 36 3a 86 11 39 17 f5 35 37
       7.6080287e-06 3.6294907e-06 0.00013878281 1.0845505e-05
000190 aa 7c 2e 37 dd 57 15 39 8e 3b d9 38 d4 ce fd 38
       1.0400234e-05 0.00014242479 0.00010358459 0.00012102505
0001a0 ff 62 15 38 ac 15 63 37 15 73 b0 39 9d 8f 0f 38
       3.5616566e-05 1.35353e-05 0.0003365508 3.4227607e-05
0001b0 06 a9 d3 37 5b 33 b1 38 67 d8 a6 39 71 27 4a 3a
       2.5231868e-05 8.4495834e-05 0.0003182322 0.00077115657
0001c0 8c da fd 39 79 b5 28 39 5a 2f 7a 3b 4d 3b 18 3a
       0.0004841875 0.00016089332 0.0038175196 0.00058071763
0001d0 e1 5d 47 39 e7 99 f9 39 05 82 1a 3b c4 e5 42 3c
       0.00019013092 0.00047607647 0.0023576033 0.011895601
0001e0 29 bc 21 3a a1 4d 50 39 91 c5 69 3b 24 54 4b 3a
       0.00061697006 0.00019865345 0.0035670737 0.00077563734
0001f0 4e fe 01 39 2d 8f 9e 3a 02 66 c1 3a b7 a2 f3 3b
       0.00012397135 0.0012097113 0.0014755132 0.0074351686
000200 44 d1 a2 39 6c 5f d2 38 a8 c2 f1 3a 1f 58 cf 39
       0.00031054963 0.00010031354 0.0018444853 0.00039547772
000210 ba 60 8a 38 ab 02 1a 3a 00 07 4f 3a d6 32 83 3b
       6.5983695e-05 0.00058750313 0.00078974664 0.004003863
000220 31 20 e3 38 68 34 20 38 be 3d 1e 3a 2a 51 01 39
       0.000108301996 3.819578e-05 0.0006036422 0.00012332635
000230 29 2a d6 37 5a 08 83 39 3a 75 b3 39 bb 4f bd 3a
       2.553042e-05 0.0002499249 0.0003422888 0.0014443317
000240 03 ab e3 37 25 bb a8 37 b8 61 fa 39 47 65 0f 38
       2.7140142e-05 2.0114307e-05 0.00047756522 3.418818e-05
000250 45 49 35 38 b0 84 45 39 9f 27 fb 39 88 40 81 3a
       4.3222e-05 0.00018836814 0.0004790397 0.0009861151
000260 be a5 96 39 c5 cd b7 38 63 d8 00 3b 8f 00 c0 39
       0.00028733717 8.7644476e-05 0.0019660227 0.0003662151
000270 5f c3 9e 38 3a 4a 4c 3a 13 87 54 3a 5e e0 7b 3b
       7.570418e-05 0.0007793043 0.0008107286 0.0038433294
000280 52 14 7f 39 44 80 a8 38 3d 92 b1 3a b1 25 98 39
       0.00024326265 8.0347556e-05 0.0013547611 0.00029019782
000290 cc 9d 5c 38 57 9c c1 39 e7 fd 47 3a 8a cd 48 3b
       5.2599047e-05 0.0003692831 0.0007629082 0.003064009
0002a0 f5 cf cb 37 a3 47 08 37 4b 5f 1e 39 65 cd de 37
       2.4296323e-05 8.122911e-06 0.00015103554 2.6560107e-05
0002b0 0e 9a 01 37 63 98 93 37 52 12 07 39 69 37 f8 39
       7.724868e-06 1.7594726e-05 0.00012881428 0.0004734353
0002c0 fe bb b3 38 4d 78 d3 37 1d fd 62 3a 66 43 df 38
       8.5704014e-05 2.520918e-05 0.00086589326 0.000106460226
0002d0 26 51 47 38 d0 98 98 39 47 b2 c8 39 78 a7 ef 3a
       4.7520873e-05 0.00029105553 0.000382798 0.0018284163
0002e0 74 25 e0 36 4b 67 1c 36 59 68 40 38 f9 61 cf 36
       6.6800803e-06 2.3305936e-06 4.587355e-05 6.1804863e-06
0002f0 33 a2 49 36 d7 5f 32 37 24 5d 55 38 45 8c ab 38
       3.0045746e-06 1.0631941e-05 5.08699e-05 8.180043e-05
000300 0f 68 b7 38 aa c3 d7 37 85 f1 b6 39 f9 b3 dc 38
       8.7455024e-05 2.572111e-05 0.0003489369 0.0001052394
000310 6d 04 26 37 6c 77 04 39 34 c4 7b 39 dd 12 62 3a
       9.8954015e-06 0.00012632989 0.00024010317 0.00086240267
000320 20 fd bd 36 db 93 ff 35 b1 9d 79 38 53 44 d4 36
       5.6621066e-06 1.9042012e-06 5.9513088e-05 6.3260463e-06
000330 e7 0d 81 36 e9 09 c0 37 f3 be 07 38 28 87 c0 38
       3.846118e-06 2.2892798e-05 3.2364343e-05 9.180448e-05
000340 2f 65 a5 39 aa eb be 38 e3 78 35 3b 3e d5 d5 39
       0.0003154664 9.103802e-05 0.0027690462 0.00040785404
000350 f6 b4 04 39 4b 29 84 3a 1c 2a 8f 3a 8a eb c0 3b
       0.00012655914 0.0010083107 0.0010922584 0.0058874534
000360 31 57 81 38 02 12 b7 37 4f 45 77 39 e5 6e 98 38
       6.16744e-05 2.1823686e-05 0.00023581575 7.2685805e-05
000370 65 f6 0c 37 9c c5 47 38 4a fa 1a 39 a2 e1 11 3a
       8.4020185e-06 4.7629335e-05 0.00014779824 0.0005564933
000380 a5 1b 15 3a 87 62 38 39 6f 96 87 3b 49 1f 3d 3a
       0.0005688018 0.00017584312 0.004137806 0.00072144397
000390 6f 6d 31 39 15 a1 b3 3a db 76 ea 3a c8 fe 10 3c
       0.00016920803 0.0013704622 0.0017888205 0.008849807
0003a0 65 29 07 3a ae 14 21 39 05 2d 93 3b 2f 8b 2a 3a
       0.00051560096 0.0001536186 0.0044914507 0.00065057253
0003b0 51 20 5e 39 63 0e d6 3a 49 07 fa 3a a9 a4 1a 3c
       0.00021183609 0.0016331192 0.0019075657 0.009438672
0003c0 03 d9 b3 38 ba d9 00 38 de dc c9 39 07 e5 d5 38
       8.575807e-05 3.072035e-05 0.00038502266 0.00010199291
0003d0 1d 2b 71 37 09 b7 d2 38 2e a7 61 39 8c 76 6f 3a
       1.43747575e-05 0.00010047673 0.00021519951 0.00091347913
0003e0 fd b7 5f 3a 73 8e 8b 39 25 41 d0 3b 44 33 8c 3a
       0.00085341913 0.0002661828 0.006355422 0.0010696431
0003f0 b3 93 8d 39 75 8a fa 3a 9d f3 32 3b c9 ae 6b 3c
       0.0002700366 0.001911475 0.002730585 0.014384934

exp_avg f4 [64]
000000 1a 06 88 b7 4a ff 5f b7 04 54 eb 36 4d a0 4d b7
       -1.6215305e-05 -1.3351275e-05 7.0133265e-06 -1.2256275e-05
000010 c0 da 63 38 cc 5c fa b7 c6 65 46 b8 ee fe 74 b8
       5.4324744e-05 -2.9845534e-05 -4.7301663e-05 -5.8411555e-05
000020 89 cb ac 38 bb 2c 82 b8 35 8a 13 39 42 1b 86 b8
       8.2395105e-05 -6.207215e-05 0.00014070499 -6.394695e-05
000030 e7 82 b0 b7 51 71 97 b8 ea 65 60 39 8a 40 db b8
       -2.1041791e-05 -7.221348e-05 0.0002140027 -0.00010454755
000040 e5 14 84 b8 74 3a cc b5 55 aa 46 b8 bb 60 95 38
       -6.2981424e-05 -1.5216197e-06 -4.7365513e-05 7.122891e-05
000050 fa b8 80 38 71 04 7b 36 aa 68 6d b8 5c 77 39 38
       6.13797e-05 3.74045e-06 -5.660268e-05 4.42186e-05
000060 76 f9 f8 b7 2d f8 19 b8 9e 03 a4 b8 f1 e2 1f 38
       -2.9680068e-05 -3.6709174e-05 -7.820803e-05 3.811991e-05
000070 98 de dc 38 13 73 ff 38 95 8b 0f b8 d2 92 07 b9
       0.00010531879 0.00012180782 -3.4223853e-05 -0.00012929298
000080 be cd f1 38 41 23 0d b9 ce b3 c4 38 77 72 c9 b7
       0.00011530098 -0.00013459941 9.3794995e-05 -2.4014369e-05
000090 94 c7 c9 b8 7a a1 36 b8 87 96 0e b8 9c 90 a8 b8
       -9.621601e-05 -4.3542568e-05 -3.3995628e-05 -8.0378e-05
0000a0 17 84 64 38 7d 36 e4 b8 cc 93 05 38 7c cc 26 b4
       5.4482454e-05 -0.000108820364 3.1847318e-05 -1.5534346e-07
0000b0 e2 39 06 b9 84 99 6b b8 28 64 d3 38 5e 21 07 39
       -0.00012800799 -5.617134e-05 0.000100799196 0.00012887034
0000c0 26 66 b8 b7 ed 55 80 38 1a 49 56 b8 3b f0 30 b8
       -2.1982076e-05 6.1195205e-05 -5.1089657e-05 -4.2185402e-05
0000d0 7f 2e 0e b9 01 e4 c9 b8 63 30 35 39 58 70 8f 37
       -0.00013559496 -9.626896e-05 0.0001727953 1.7099243e-05
0000e0 df 34 1b 38 07 f7 46 38 9c 35 a7 37 0a 0c c2 38
       3.700412e-05 4.743694e-05 1.9932915e-05 9.252883e-05
0000f0 07 41 36 37 2d fd c4 36 1a 24 cc b8 ac f3 0f b8
       1.0863186e-05 5.8707287e-06 -9.7342025e-05 -3.4320794e-05

exp_avg_sq f4 [64]
000000 c5 ea 6e 3b 7a 19 b8 3b 61 a9 10 3c 9a ce 54 39
       0.0036455852 0.0056182714 0.008829446 0.0002029486
000010 d7 e8 87 3b 61 69 a2 3b a1 d3 a8 3c 0d b8 26 3c
       0.0041476297 0.00495641 0.020608725 0.010175717
000020 19 08 ac 3b 7b 2a d4 3c 63 e3 2c 3d 0d 42 d7 3c
       0.0052499888 0.025899163 0.04220904 0.026276613
000030 c5 f3 75 3b bf 3a 14 3c a2 3c 54 3d 5a 48 e4 3c
       0.0037529331 0.009047209 0.051815636 0.027866531
000040 97 09 60 3c b2 f6 dd 3b 38 9f 94 3c 33 e7 85 3c
       0.013674161 0.006773793 0.018142328 0.016345596
000050 4a d9 5c 3c 78 20 05 3b 2f a2 2d 3c 8e c4 a5 3a
       0.01347954 0.0020313542 0.01059775 0.0012647079
000060 51 91 a0 3a 46 fe a8 3a ab b9 da 3c fe 41 e0 3a
       0.0012250339 0.0012893162 0.026699862 0.0017109511
000070 1c a7 1a 3d ee 5b 4c 3d 29 c8 5f 3b fe 47 80 3d
       0.037757024 0.04989236 0.0034146404 0.062637314
000080 d3 86 0b 3c 5a 97 27 3d 3c f7 b5 3c 85 5d c6 3a
       0.008516031 0.040915824 0.022212617 0.0015134072
000090 5d c8 d3 3c 69 20 b5 3c e7 0b c0 39 c5 9b cd 3c
       0.025852377 0.02211018 0.00036629962 0.02509869
0000a0 3b dd bb 3c 78 d5 1d 3c 72 b4 a6 3c 64 be c7 3d
       0.02293264 0.009633414 0.020349715 0.09753111
0000b0 57 6e c2 3c 04 49 08 3c cf d9 ea 3c 99 58 1a 3d
       0.023734255 0.0083181895 0.028668312 0.03768215
0000c0 e9 f2 ef 3b 4b a0 8a 3c 4c e1 76 3b 04 5c 16 3d
       0.0073226583 0.016922137 0.0037670908 0.036708847
0000d0 ea 68 15 3d 76 44 09 3d 25 fa 06 3d 4a 70 8d 38
       0.036477007 0.033512555 0.0329534 6.7443194e-05
0000e0 18 06 18 3b b1 49 77 3b a8 e1 a2 38 e8 0d 4c 3d
       0.0023196992 0.0037733132 7.766794e-05 0.04981795
0000f0 62 cc 0f 38 82 a4 3a 3c e5 7c d3 3c c4 b7 88 3b
       3.4284203e-05 0.011391761 0.02581639 0.004172297

exp_avg f4 [8, 64]
000000 04 a7 f4 b8 63 26 18 b9 20 99 cc b8 5a 70 80 37
       -0.00011665936 -0.0001451015 -9.756e-05 1.5311107e-05
000010 a6 64 c1 38 8b 41 81 37 3a e1 dc b8 f0 99 91 b8
       9.2217044e-05 1.540852e-05 -0.00010532369 -6.942812e-05
000020 64 54 a0 38 98 ed e8 38 31 cc 09 39 8b 62 07 39
       7.6451135e-05 0.00011106877 0.00013141405 0.00012911313
000030 92 4a 37 b9 1d a8 21 b9 bf 01 c4 b8 7f d2 09 b9
       -0.0001748002 -0.00015416784 -9.3463335e-05 -0.00013143754
000040 9b ea 8a b8 e5 44 10 b8 54 8a 08 b9 6b 03 e8 38
       -6.6240515e-05 -3.439644e-05 -0.00013021502 0.00011063259
000050 d1 e4 bf 38 4d 7d 9d 38 c1 9e c9 b8 37 5f b4 38
       9.15021e-05 7.5096825e-05 -9.613997e-05 8.600804e-05
000060 df 02 ae b8 63 65 30 b8 fc 75 a7 b8 86 99 cd 38
       -8.297501e-05 -4.2056094e-05 -7.985157e-05 9.803758e-05
000070 75 ed cf 38 eb f9 f1 38 bf 9a d3 b8 34 ae f3 b8
       9.914759e-05 0.00011538326 -0.00010090088 -0.00011619591
000080 7c b8 be 38 ba 34 1b b9 38 5b ed 38 74 aa 67 b8
       9.094269e-05 -0.00014801594 0.000113180315 -5.523344e-05
000090 79 9a d7 b8 31 3f 81 38 5b aa 26 b8 71 f7 19 b9
       -0.00010280772 6.16297e-05 -3.973614e-05 -0.00014683396
0000a0 c2 43 4f 39 86 ca 0c b9 75 1c 10 b8 ba b3 cf 38
       0.000197663 -0.00013426886 -3.4358778e-05 9.904006e-05
0000b0 5d 9f ad b8 1d 15 c2 b8 68 c5 38 b9 5c e5 e2 38
       -8.2789666e-05 -9.2545735e-05 -0.00017621147 0.00010819241
0000c0 14 f8 0d b9 a9 08 f2 38 28 c8 ad b8 e0 58 c0 38
       -0.00013539224 0.00011541072 -8.286565e-05 9.171828e-05
0000d0 62 14 04 b9 32 59 1e b9 ef d3 e8 b8 32 27 df b5
       -0.00012596094 -0.00015101282 -0.00011102098 -1.6626202e-06
0000e0 67 ce 90 38 06 5b 70 38 dc da 00 b7 e0 79 1b 39
       6.9049005e-05 5.730523e-05 -7.680352e-06 0.00014827354
0000f0 8b f5 8e 38 89 76 83 38 32 96 d7 b8 3f 45 b9 b8
       6.8168236e-05 6.268646e-05 -0.00010279975 -8.8343855e-05
000100 57 69 86 39 41 30 80 39 e4 de 38 39 3d be fd b7
       0.00025636956 0.00024450014 0.0001763064 -3.0248537e-05
000110 c8 0a 44 b9 35 36 da b7 53 50 6b 39 5f 25 19 39
       -0.00018696033 -2.6012867e-05 0.0002244127 0.00014605139
000120 4f 63 22 b9 4f de 80 b9 19 10 85 b9 5e ef 90 b9
       -0.00015486519 -0.00024579695 -0.0002537973 -0.00027644163
000130 fa de b0 39 a3 e4 8e 39 a5 26 35 39 3a ba 8e 39
       0.00033735466 0.00027254698 0.00017275901 0.000272231
000140 9a 81 18 39 b0 22 78 38 aa 57 81 39 9c 6f 79 b9
       0.0001454413 5.9160113e-05 0.00024670112 -0.00023788068
000150 b7 a9 45 b9 5d af 1b b9 c1 8f 53 39 8f 9f 20 b9
       -0.00018850608 -0.0001484728 0.0002017608 -0.00015318229
000160 ba f6 3a 39 44 7d a1 38 e7 a6 3f 39 47 99 59 b9
       0.00017830255 7.700411e-05 0.00018277355 -0.00020751833
000170 7c ad 63 b9 50 95 85 b9 6b 73 58 39 f5 75 7a 39
       -0.00021713035 -0.00025478983 0.00020642362 0.000238858
000180 d7 d0 0c b9 44 65 a1 39 0b b5 82 b9 82 b8 ca 38
       -0.0001342924 0.00030783762 -0.0002493042 9.666478e-05
000190 f6 fb 60 39 df 7c 81 b8 05 3c b0 38 5f 19 a5 39
       0.00021456167 -6.1744584e-05 8.4035135e-05 0.00031490155
0001a0 fb 15 c0 b9 a0 c5 76 39 d1 01 35 38 87 f5 6f b9
       -0.0003663747 0.00023534009 4.3155454e-05 -0.00022884282
0001b0 73 c8 37 39 8d b1 4d 39 e8 94 ba 39 a9 e9 6c b9
       0.00017526913 0.00019616466 0.00035587628 -0.00022593759
0001c0 75 b9 54 39 be fb 76 b9 64 be 25 39 07 d8 02 b9
       0.00020286984 -0.0002355417 0.00015806552 -0.00012478243
0001d0 ba 06 89 39 67 ff a2 39 fc 71 82 39 a7 5d 24 37
       0.00026135688 0.00031089337 0.00024880457 9.796967e-06
0001e0 c2 76 14 b9 bd f3 e9 b8 cd 09 26 38 8d b2 a3 b9
       -0.0001415862 -0.000111557056 3.9586612e-05 -0.00031222813
0001f0 1f 12 18 b9 a6 b7 d5 b8 12 58 5f 39 39 43 32 39
       -0.000145026 -0.00010190839 0.00021299746 0.00017000445
000200 3d c1 91 37 33 0d fc 37 35 f3 2b 38 ab 57 19 b8
       1.737533e-05 3.0046887e-05 4.099608e-05 -3.655969e-05
000210 46 57 cb b7 53 9b 25 b8 bc c7 b1 37 9c 52 2e 37
       -2.4240126e-05 -3.9483723e-05 2.1193053e-05 1.0390442e-05
000220 2c db 85 b7 d8 97 87 b7 64 03 f4 b7 c7 4f f3 36
       -1.5956895e-05 -1.6163962e-05 -2.9088646e-05 7.2512516e-06
000230 7b b6 e0 b6 82 e8 fb 37 7e 65 26 38 4b 35 02 38
       -6.6969637e-06 3.0029802e-05 3.9672006e-05 3.104405e-05
000240 7c 3e 05 37 e1 c4 d3 b7 68 63 a0 36 84 a9 cf b7
       7.941966e-06 -2.5244839e-05 4.779944e-06 -2.475526e-05
000250 f8 49 a0 b7 4c 04 1b b8 37 ce 70 37 ad 71 21 b8
       -1.910793e-05 -3.695888e-05 1.4353128e-05 -3.849126e-05
000260 cb 1b b7 37 8b b8 b1 37 2f 90 eb 37 36 19 ba b7
       2.1828242e-05 2.1185979e-05 2.8081324e-05 -2.2184668e-05
000270 ad b0 00 b8 78 b1 0b b8 36 f9 ca 37 4c 50 26 38
       -3.068212e-05 -3.3305463e-05 2.4196324e-05 3.9652266e-05
000280 7d 63 89 b6 13 69 0f 38 ed 47 ce b7 d6 72 81 37
       -4.0945e-06 3.4191715e-05 -2.4590607e-05 1.5431473e-05
000290 02 0f 9c 37 fd 60 a4 b6 ea b2 3a 36 74 e8 0d 38
       1.8603638e-05 -4.898872e-06 2.7820302e-06 3.383351e-05
0002a0 c1 6b 9b 37 3c fd 94 37 04 aa 0b 38 ac 10 38 b7
       1.8527617e-05 1.7760896e-05 3.3298522e-05 -1.0971136e-05
0002b0 46 62 aa 37 7c 39 e9 36 10 28 a0 b5 95 51 87 b7
       2.0311341e-05 6.950633e-06 -1.1932589e-06 -1.6131244e-05
0002c0 00 b9 6a 37 7f 06 d1 b7 2a b7 53 37 a1 66 21 36
       1.3990561e-05 -2.4917766e-05 1.2619226e-05 2.4050607e-06
0002d0 4b e1 40 37 3e cd b3 37 97 36 45 b7 02 94 0a 37
       1.1496547e-05 2.1434036e-05 -1.1754825e-05 8.259902e-06
0002e0 f8 23 b4 b4 00 11 14 b6 90 73 9b b6 b0 ab f5 b7
       -3.3553783e-07 -2.2063614e-06 -4.632813e-06 -2.9286224e-05
0002f0 2c 9d 29 b8 52 3d 42 b7 7e cd ee 37 fb 75 01 38
       -4.0439118e-05 -1.1577578e-05 2.84675e-05 3.0865875e-05
000300 d8 f1 3d b9 04 bc 0f b9 44 a7 c6 b8 df d1 cc 37
       -0.00018114538 -0.00013707584 -9.4725314e-05 2.4416424e-05
000310 4b 8c 07 39 f3 0e 44 37 45 cc 17 b9 02 40 e0 b8
       0.00012926866 1.1685991e-05 -0.00014476579 -0.00010693075
000320 55 7d e6 38 c6 f6 26 39 c0 e2 30 39 7d 7a 43 39
       0.000109905995 0.00015922924 0.00016869139 0.0001864228
000330 62 1e 55 b9 a0 3b 16 b9 ca e8 a4 b8 b8 f4 43 b9
       -0.00020324581 -0.00014327327 -7.86349e-05 -0.00018687814
000340 e6 86 df b8 5c 6e 88 b7 e6 bf 04 b9 72 87 2d 39
       -0.000106585954 -1.6263853e-05 -0.00012659989 0.00016549023
000350 99 8e 0e 39 94 0f da 38 dd 09 06 b9 d8 43 bc 38
       0.00013595297 0.00010397952 -0.0001278291 8.9771755e-05
000360 f4 ce 0b b9 6d 2c 70 b8 57 1f 08 b9 f2 c7 20 39
       -0.00013333169 -5.7261834e-05 -0.00012981646 0.00015333274
000370 6c 92 1c 39 c8 c3 37 39 ba 88 1d b9 89 3f 25 b9
       0.00014931866 0.00017525174 -0.00015023621 -0.00015759295
000380 6b 38 4f 38 ca 61 56 b9 2c 6a 31 39 1c 17 3c b8
       4.940519e-05 -0.0002044506 0.00016919588 -4.4844215e-05
000390 5a 46 1f b9 3c 5d e7 37 c0 9c 8a b8 d8 70 5b b9
       -0.0001518963 2.7580762e-05 -6.60955e-05 -0.00020927505
0003a0 1a 44 6a 39 e6 2b 02 b9 66 6e 38 b8 98 a2 26 39
       0.00022341349 -0.0001241412 -4.3971835e-05 0.00015891565
0003b0 0d 07 05 b9 36 8b 03 b9 bc 5a 57 b9 4b 7a 26 39
       -0.00012686495 -0.00012544994 -0.00020537799 0.00015876551
0003c0 e9 15 e4 b8 53 8a 29 39 b2 6b b6 b8 98 89 9c 38
       -0.00010875968 0.00016168626 -8.698496e-05 7.4642885e-05
0003d0 ea 3a 34 b9 3b 96 62 b9 c2 9e 31 b9 07 d7 6d b6
       -0.00017188085 -0.00021609005 -0.00016939177 -3.5440914e-06
0003e0 4e 56 d0 38 6d 14 9d 38 47 99 01 b8 99 ef 57 39
       9.9342884e-05 7.490148e-05 -3.0898747e-05 0.00020593255
0003f0 b0 00 d1 38 a5 5d ae 37 3e e8 1b b9 d1 bf b4 b8
       9.966025e-05 2.0786023e-05 -0.00014868469 -8.6187974e-05

exp_avg_sq f4 [8, 64]
000000 47 b7 a8 3b 26 c8 8f 3b 6f 09 a6 3a 15 59 a4 38
       0.0051488015 0.004387873 0.0012667606 7.836722e-05
000010 c0 f8 92 3a a3 62 a5 39 18 89 10 39 de c6 a8 3b
       0.0011213049 0.00031544743 0.00013783982 0.00515066
000020 88 18 cf 3a bf 63 a5 3a de 7b eb 39 58 3e 50 3b
       0.0015800158 0.0012618228 0.0004491498 0.003177544
000030 8c d2 01 3c 36 1b c8 3b 51 39 4f 3b 8f 81 63 3b
       0.007923733 0.0061067594 0.0031619857 0.0034714674
000040 27 95 7f 3b 6d 25 fc 39 82 d0 26 3c b1 03 50 3b
       0.0038998814 0.0004809307 0.010181548 0.0031740481
000050 01 47 3c 3b 56 55 dd 38 d9 8e 5b 39 ea 4c 3b 3b
       0.0028728845 0.00010553996 0.00020938682 0.002857978
000060 97 1c 22 3b 0b 43 92 3a ce 4a 80 38 b0 94 cd 3b
       0.002473628 0.0011158896 6.117449e-05 0.0062738284
000070 38 4f 77 3a 76 7c ba 38 07 7a 88 3b 7f 66 07 39
       0.0009434107 8.892354e-05 0.0041649374 0.00012912786
000080 7d fa 93 3c 62 5b 8b 3b d1 7a 15 3b 90 78 7f 3a
       0.018063778 0.004252837 0.00228088 0.0009745443
000090 b5 4e 8b 3b 8b 45 18 3c 69 04 c3 3b c5 e8 0d 3b
       0.004251326 0.009293924 0.0059514535 0.0021653634
0000a0 ae 85 1d 3c 8c a8 06 3c 49 38 2b 3a a7 ca 42 3a
       0.009614391 0.008218896 0.00065315195 0.000743071
0000b0 6a 15 35 3b 79 0e 4b 39 0b e9 0d 3c 27 7f 02 3a
       0.0027631172 0.0001936498 0.008661519 0.00049780536
0000c0 48 b4 34 3c fb 8f 2e 3b d6 ed c9 3a a1 83 09 3c
       0.0110293105 0.0026636112 0.0015405964 0.008393199
0000d0 8f 73 8d 3a ec eb e2 3b 5c 7d af 3b cf 30 02 39
       0.0010791885 0.0069250967 0.00535552 0.00012415949
0000e0 6c 83 8a 3a 56 8f 3d 39 b1 f4 b9 3b 61 e9 c6 3a
       0.0010567731 0.00018077841 0.0056749214 0.0015175754
0000f0 98 39 a2 38 3b 88 3b 3c 84 70 23 3b 20 b2 db 3a
       7.7354896e-05 0.011446054 0.002493889 0.0016761459
000100 09 8b 97 3c 5b 99 7e 3c 90 d5 99 3b 22 20 cb 39
       0.018498914 0.0155394925 0.004694648 0.00038743118
000110 35 02 8a 3b b0 51 85 3a 78 ed c7 39 02 44 9d 3c
       0.004211689 0.001017144 0.00038133166 0.019197468
000120 a3 0d c4 3b ef ab b9 3b 49 4b e4 3a 14 6e 4b 3c
       0.005983071 0.005666248 0.0017417456 0.012416381
000130 14 7e 03 3d 77 25 c6 3c 03 3e 48 3c f0 dc 57 3c
       0.03210266 0.024187787 0.012221816 0.013175234
000140 23 7c 69 3c ae b9 a8 3a 77 87 2d 3d 15 c8 3d 3c
       0.014250788 0.001287272 0.042365517 0.011583348
000150 23 60 30 3c 58 c7 04 3a 29 70 18 3a b1 1a 2d 3c
       0.010765108 0.0005065105 0.0005815053 0.010565446
000160 73 e5 21 3c 19 19 81 3b cc 16 84 39 5c 9c c8 3c
       0.009881365 0.0039397595 0.00025193987 0.02448862
000170 3f 1a 64 3b 42 35 ba 39 b8 b4 85 3c 56 c6 12 3a
       0.0034805683 0.00035516365 0.016321525 0.00055990124
000180 80 e3 90 3d c9 94 81 3c 4e 98 01 3c e6 73 8d 3b
       0.07074642 0.015818017 0.007909847 0.0043167947
000190 9b c1 80 3c d7 c3 09 3d 06 a1 ba 3c e6 1a fd 3b
       0.015717318 0.033634033 0.02278186 0.007724154
0001a0 90 33 19 3d 57 e6 06 3d a8 76 b8 3a f9 d0 4c 3b
       0.03740269 0.032934513 0.0014073448 0.0031252487
0001b0 13 c6 2c 3c 4a e6 0c 3a 90 6d 17 3d ad 36 f2 3a
       0.010545271 0.0005374892 0.03696972 0.001847943
0001c0 c4 fb 23 3d dd 45 1f 3c 92 8a de 3b d1 b0 f2 3c
       0.040035024 0.009721247 0.006791421 0.029625328
0001d0 10 73 78 3b 42 a0 d2 3c 6e 3b ab 3c 84 6c 03 3a
       0.003791038 0.025711183 0.020902362 0.00050134235
0001e0 ec b6 7a 3b ef a0 33 3a 5b 1f ae 3c fa f0 a6 3b
       0.0038256003 0.0006852289 0.021255186 0.0050946446
0001f0 f2 3b 81 39 84 7e 3c 3d ac f2 1a 3c 8b 79 eb 3b
       0.0002464946 0.046019092 0.009457272 0.00718612
000200 03 9d ca 38 d6 fb 05 38 0d 69 06 37 67 6f 7e 37
       9.661356e-05 3.194421e-05 8.011481e-06 1.5165518e-05
000210 df 28 99 37 66 e0 80 37 c1 60 99 37 a7 fc 9e 38
       1.8258053e-05 1.5363283e-05 1.8284076e-05 7.581087e-05
000220 c8 39 ee 37 88 f3 aa 37 08 e6 57 37 97 5e 6b 38
       2.8398717e-05 2.0378982e-05 1.2868557e-05 5.611646e-05
000230 e9 e1 60 38 48 c8 93 37 7a 8c f2 37 40 99 82 38
       5.3616157e-05 1.7617029e-05 2.8914063e-05 6.227428e-05
000240 9c e9 86 38 70 71 e7 38 31 50 5b 38 e0 a1 78 38
       6.433131e-05 0.00011036068 5.2288353e-05 5.9278565e-05
000250 b7 78 14 38 ce 85 ed 36 a2 8a 04 38 85 dd d9 37
       3.5398374e-05 7.0787273e-06 3.1600364e-05 2.5971569e-05
000260 cf 00 c5 37 75 8f 80 37 77 da d5 36 90 72 9a 38
       2.3484607e-05 1.5325591e-05 6.3733273e-06 7.364631e-05
000270 a6 4b 5e 37 3a fd 50 37 6e 17 2e 38 32 2d d3 35
       1.3249844e-05 1.2456725e-05 4.1506653e-05 1.5733879e-06
000280 8a cd 17 39 a9 aa e3 38 f8 36 7a 38 9e a8 4c 36
       0.00014477051 0.000108559914 5.965584e-05 3.0496517e-06
000290 f9 64 9f 38 0d 8d 9f 38 58 1d 95 38 ed 51 45 38
       7.6005184e-05 7.6079836e-05 7.110339e-05 4.704476e-05
0002a0 3f b7 b3 38 d3 63 0f 38 42 29 d6 38 14 fb bc 37
       8.5695174e-05 3.4186825e-05 0.00010212 2.2528264e-05
0002b0 33 37 37 38 2b b7 0d 38 80 10 50 38 c6 6f 4d 37
       4.368201e-05 3.3787608e-05 4.960643e-05 1.22449765e-05
0002c0 63 ab ce 38 0a 96 62 38 35 1f 4d 35 f2 66 d0 38
       9.854769e-05 5.4022334e-05 7.6413863e-07 9.937388e-05
0002d0 5c 23 83 38 d3 3c 11 39 ac 6b e7 38 1d 7e 05 36
       6.253153e-05 0.00013850936 0.00011034994 1.9891952e-06
0002e0 66 98 05 38 f0 f7 44 37 b3 2d 4e 38 90 e3 58 38
       3.1851603e-05 1.1740238e-05 4.9156788e-05 5.1710347e-05
0002f0 a0 2b a6 37 aa 93 97 38 91 3e 22 38 3a c2 ba 35
       1.9809057e-05 7.227746e-05 3.868208e-05 1.3914607e-06
000300 32 69 f6 3b 04 8c ce 3b df 30 f5 3a e7 2c 02 39
       0.0075198645 0.0063033123 0.0018706581 0.00012414494
000310 28 00 df 3a 8d 44 f8 39 83 3b 41 39 62 54 ff 3b
       0.0017013596 0.0004735332 0.00018428084 0.0077920416
000320 ac f5 1c 3b 4d 66 0e 3b 6b 1f 3d 3a 45 aa a7 3b
       0.0023950143 0.0021728456 0.00072144595 0.0051167333
000330 06 ba 46 3c 08 c5 15 3c c3 66 9d 3b b3 4e ab 3b
       0.012129312 0.009141214 0.00480351 0.0052278875
000340 e6 c7 bd 3b 8b a0 4a 3a ce c0 7f 3c e9 9a 98 3b
       0.005791652 0.0007729611 0.015609933 0.0046571386
000350 c5 15 8e 3b ea e1 2f 39 1f 24 96 39 ca 0c 8c 3b
       0.004336091 0.0001677346 0.00028637142 0.0042739855
000360 84 9f 73 3b 20 7f da 3a f1 69 02 39 84 4d 1c 3c
       0.0037173936 0.0016669966 0.00012437232 0.009539966
000370 8f 05 b0 3a 6e ed 3e 39 1a 06 d1 3b 24 25 53 39
       0.0013429391 0.00018208261 0.006378901 0.00020136364
000380 2e 9c de 3c 55 ab d0 3b 63 73 54 3b 79 a3 c3 3a
       0.027174082 0.0063680806 0.0032417409 0.0014926038
000390 ca d7 d0 3b b4 62 5e 3c 9c 27 15 3c af f1 4b 3b
       0.0063733803 0.013573337 0.009103682 0.0031119396
0003a0 49 9f 6e 3c 54 4c 4b 3c 4e 94 71 3a e1 7f ad 3a
       0.014564344 0.012408335 0.00092155195 0.0013236963
0003b0 63 f6 87 3b b8 20 8a 39 7d 15 5d 3c 51 ba 3c 3a
       0.0041492446 0.00026345789 0.013493893 0.0007199394
0003c0 17 d6 82 3c bc 90 83 3b a9 4a 1d 3b ab 21 4a 3c
       0.015971227 0.0040150564 0.00240008 0.012337129
0003d0 bd e6 d0 3a c9 a3 2b 3c d1 b9 0c 3c 51 d1 4b 39
       0.0015937906 0.010476061 0.008589224 0.00019437565
0003e0 1a 4a cf 3a 0d 17 94 39 6b 1c 0b 3c 63 5b 0e 3b
       0.0015814931 0.00028245934 0.008490662 0.0021721951
0003f0 23 f0 0c 39 ef c3 8e 3c a5 bd 75 3b 46 fd 2a 3b
       0.00013440898 0.017427413 0.003749707 0.0026090904

exp_avg f4 [8]
000000 b3 ab 24 b9 c0 fd ad 39 6d ad 9a b7 eb b7 7d b9
       -0.00015704222 0.0003318619 -1.8438988e-05 -0.00024196475
000010 57 6f 8f 39 a6 4d 1f b8 db 34 9a b8 9a 91 0e b8
       0.0002735804 -3.798087e-05 -7.353137e-05 -3.399104e-05

exp_avg_sq f4 [8]
000000 dc 80 38 3d 50 e6 2b 3e aa d3 43 3a b3 4e 8c 3d
       0.045044765 0.16787076 0.00074702 0.06850948
000010 da 97 c1 3d 4c 6b cf 3a c2 0a 54 39 b3 5a 3f 3b
       0.094527915 0.0015824824 0.00020221903 0.0029198348

exp_avg f4 [2, 8]
000000 7c f6 0d ba 60 ca 0d 3a 8e b7 c7 39 bf 9a 13 ba
       -0.0005415452 0.00054088794 0.00038092997 -0.0005630664
000010 02 43 06 3a 07 f5 51 b9 44 a6 29 ba 23 8a 16 3a
       0.0005121679 -0.00020023073 -0.0006471614 0.000574263
000020 34 f6 0d 3a 14 ca 0d ba 12 b7 c7 b9 7b 9a 13 3a
       0.000541541 -0.0005408835 -0.00038092636 0.00056306244
000030 bb 42 06 ba 94 f3 51 39 de a5 29 3a fe 89 16 ba
       -0.0005121638 0.00020022533 0.00064715545 -0.00057426083

exp_avg_sq f4 [2, 8]
000000 d7 3e 29 3b 9c 38 9c 3a db ea d8 3a ad 01 50 3b
       0.002582481 0.0011918726 0.0016549485 0.003173928
000010 4d 8e d5 39 57 0a 4c 39 72 0c c4 3a 9d 7b 64 3b
       0.00040732548 0.00019458808 0.0014957322 0.0034863718
000020 d7 3e 29 3b 9c 38 9c 3a da ea d8 3a af 01 50 3b
       0.002582481 0.0011918726 0.0016549483 0.0031739285
000030 4c 8e d5 39 57 0a 4c 39 72 0c c4 3a 9d 7b 64 3b
       0.00040732545 0.00019458808 0.0014957322 0.0034863718

exp_avg f4 [2]
000000 01 cf 4f b8 54 cf 4f 38
       -4.9545433e-05 4.9545735e-05

exp_avg_sq f4 [2]
000000 e9 28 23 3a e9 28 23 3a
       0.00062240526 0.00062240526

model.1.defunc.m.0.weight f4 [64, 8]
000000 9a 0a 86 3e 69 63 08 bf d9 0e 66 bc f3 6f 5d bd
       0.26179963 -0.5327669 -0.014041626 -0.05406184
000010 5f 72 e1 bd e5 ef a9 3d d6 9c 11 be 89 1a dc bd
       -0.11008143 0.082977094 -0.14219984 -0.10747249
000020 1a 63 9c 3e da ac 09 bf 7c 88 43 3e 4f 31 08 be
       0.30544358 -0.53779376 0.19095033 -0.1330006
000030 01 3d 96 be 3b e7 34 be a8 5b 2f 3f f4 a8 14 3e
       -0.29343417 -0.17666332 0.6849923 0.14517576
000040 16 bb fd 3d 52 3d 0f bf 28 c3 e7 3d df 8b a9 3e
       0.123891994 -0.5595294 0.1131652 0.33114526
000050 91 6e ab 3d 95 61 9c be d3 69 c5 3e 35 02 70 be
       0.08370698 -0.305432 0.385573 -0.23438342
000060 76 c3 88 3d d6 09 33 3e e0 6f 45 be 76 43 e7 bd
       0.06677906 0.17484221 -0.19280958 -0.11292164
000070 2e 2d 85 3e 08 94 04 be 13 ea 3f be a4 64 d3 3e
       0.26011032 -0.12947094 -0.18741636 0.4128772
000080 67 98 a5 be aa 7f f8 3e 7f 30 2e 3e d9 0e 60 3e
       -0.32342836 0.485349 0.17010687 0.21880664
000090 1c c9 bb bd 23 41 99 3d ca 79 a4 bd 3f 8b 48 3d
       -0.09169218 0.07483127 -0.08031042 0.04896092
0000a0 26 31 f8 be 79 af 68 3e 88 9f 9c be 0a a9 c2 3d
       -0.48474997 0.22723188 -0.30590463 0.09504898
0000b0 57 96 39 be 99 32 ff 3c d8 5f b5 be a3 25 09 3f
       -0.18123756 0.031152057 -0.35424685 0.53573054
0000c0 b9 5f 61 3e 93 17 7d be d3 42 44 be 97 50 b5 3e
       0.22009172 -0.24716024 -0.19166116 0.35413048
0000d0 8c 24 9b 3d 9f 4d 4e be 6c 06 0c be 40 ec 0c bd
       0.0757533 -0.20146798 -0.13674325 -0.034404993
0000e0 ad 9c 42 be ef 06 ac be f2 5e 21 3e 23 8c bd bd
       -0.1900508 -0.3359904 0.15758875 -0.092552446
0000f0 e2 75 a7 be 0d 13 65 bc 5e 7f 3b 3a de bf 12 be
       -0.32707125 -0.013981593 0.0007152463 -0.14331004
000100 2d 08 07 3e 42 9a e9 3e e2 05 9b bd 68 56 6e 3d
       0.13186713 0.45625502 -0.075694814 0.058187872
000110 a3 22 5d 3e 3f c4 a2 bd fa 21 2c bd 54 af 45 bb
       0.21595244 -0.07947587 -0.04202459 -0.0030164318
000120 55 5a 10 bf 3b fa 1e 3f a8 fe 7e 3d 0b a1 88 bd
       -0.56387836 0.6210057 0.062254578 -0.066713415
000130 75 6c 3f 3d e8 bd 85 3e b6 4f 10 3f a3 42 d3 3e
       0.046734292 0.2612145 0.5637163 0.41261777
000140 51 a9 e1 bd 10 ea 72 3e 12 a7 63 3e 92 7f af 3d
       -0.11018623 0.237221 0.22231701 0.08569254
000150 da 57 19 3f e3 f4 26 3e 66 ba 22 be b2 b7 cd bd
       0.59899676 0.16304354 -0.15891418 -0.10044803
000160 7d 44 f0 be 2e 3b 1b 3e ff 83 a7 bc d3 35 9d be
       -0.46927252 0.15159294 -0.020448683 -0.30705127
000170 4b 23 a9 3e b9 8a 2d bf f8 f8 f8 3e 90 54 67 be
       0.3303474 -0.677898 0.48627448 -0.22590852
000180 20 eb 38 bd 74 87 f6 be fe 93 d1 3d dc be 02 3f
       -0.045146108 -0.48150218 0.102333054 0.5107248
000190 9d ea 15 bf 78 8d 31 bd 49 d6 d2 be a1 83 17 3f
       -0.58561116 -0.043347806 -0.41179112 0.59185225
0001a0 62 a0 aa 3e e8 1f ef be 73 e0 52 3c 00 be 0b 3f
       0.33325487 -0.4670403 0.012870896 0.5458679
0001b0 4f 9f c2 3d 32 2d 0d bf f6 e7 bd 3e e6 2f 6e 3e
       0.09503042 -0.5514709 0.37091035 0.2326046
0001c0 7e 09 a4 3e 54 5e bf bd 10 7a af 3e e1 2d 19 3f
       0.32038492 -0.093441635 0.34272814 0.5983563
0001d0 f3 4e 02 bd f8 c5 18 bf 60 02 b1 3e a8 07 02 bf
       -0.031813573 -0.59677076 0.34572124 -0.5079293
0001e0 14 6a 45 3e 5c ee 0d bf 3a 37 3a 3d 06 6a a7 3c
       0.19278747 -0.5544183 0.045462824 0.020436298
0001f0 89 4d 40 be 53 1b 99 3d 6a fb eb 3d 75 3e 16 be
       -0.18779577 0.07475915 0.11522563 -0.14672263
000200 08 dc 62 bd 8d 55 c4 be 28 e7 84 3e ea f4 85 be
       -0.05538562 -0.3834652 0.25957608 -0.26163417
000210 da 48 d1 be 7a cd 80 3d c4 15 a5 bd 39 bc f7 bd
       -0.40875894 0.062891915 -0.08060792 -0.120964475
000220 fd ee 03 be 69 30 24 3e 9e f8 1f 3e db ec 32 3e
       -0.12884136 0.16034092 0.15622184 0.17473166
000230 75 56 84 3d db 2d ef be 88 a0 82 bd f4 19 0c 3f
       0.06461803 -0.46714672 -0.06378275 0.547271
000240 9d 57 c1 3e 59 cd 55 be d6 45 a6 3e 62 2e 22 3f
       0.37762156 -0.20879115 0.32475156 0.63352025
000250 a4 3b c8 be 6a 99 38 bf a1 6a dd be fe aa c4 3e
       -0.39108002 -0.7210909 -0.43245414 0.38411707
000260 11 78 79 bd 7f 74 81 bc cd ef b6 bd 5a 41 a9 be
       -0.06090552 -0.01580262 -0.08932457 -0.33057672
000270 e1 08 ce 3e 4f b9 82 bd c0 ce a0 3c c4 f6 35 3e
       0.4024115 -0.06383001 0.019629836 0.17769915
000280 cf 69 65 3e cd 6d a1 3e 10 e1 a7 3e 44 99 ae be
       0.22403644 0.31529084 0.32788897 -0.34101307
000290 ea e2 03 bd 77 bd ac 3d e5 23 14 bc 2e 07 c3 3d
       -0.032198824 0.08434575 -0.009041761 0.09522854
0002a0 a1 dc 40 3e d7 68 63 3e 1e f9 97 3e 0d 73 93 be
       0.18834163 0.22207962 0.2968225 -0.28798714
0002b0 81 e9 10 3f 6a a2 93 3d 09 cc 16 be bd d6 88 3e
       0.566063 0.072087124 -0.1472627 0.26726332
0002c0 a4 21 b5 bc 84 3a d8 be d9 0e 24 3e d4 4c 81 3e
       -0.022110768 -0.42232144 0.16021289 0.25253928
0002d0 18 87 23 be 96 0e 8f bd 83 f9 f9 bd f7 33 b8 3c
       -0.15969503 -0.06985204 -0.12205794 0.022485716
0002e0 87 0e cd bd 41 10 d3 3e 80 ee 8c 3d 85 df 43 be
       -0.100125365 0.41223338 0.06881428 -0.19128235
0002f0 5d 0e 01 3d 07 ed f9 3d c4 21 a9 be 40 9a b1 3d
       0.03150784 0.122034125 -0.33033574 0.08671999
000300 9e 8c 4f 3b 0d 18 54 be 22 7c 93 bd 75 38 b5 3e
       0.0031669508 -0.207123 -0.07201411 0.35394636
000310 b0 0d 48 bd a6 bd ba 3e d3 4b 8d 3d 14 4b 93 bd
       -0.04884118 0.36472815 0.06899228 -0.071920544
000320 c6 d7 00 3e f0 52 5e be 35 29 5d be 30 6e ea bd
       0.12582311 -0.21711326 -0.2159775 -0.11446798
000330 c9 f7 b5 bd 2e 45 c6 3d 02 c3 08 3e 3e a2 77 3d
       -0.08885152 0.09681164 0.1335564 0.06045746
000340 80 cd 14 3e 8e 59 ad be 1a 96 62 3c e0 29 9d 3e
       0.14531517 -0.33857387 0.013829732 0.3069601
000350 6a 65 c2 be bf 20 9f 3e 3a bb f5 bd 4f 00 81 be
       -0.37967998 0.3107967 -0.11998601 -0.25195548
000360 fc fa 38 3c e0 c3 99 3d 6c d8 84 3c e5 30 98 be
       0.011290308 0.07508063 0.01621648 -0.29724804
000370 c0 33 11 3e c4 e7 79 be 5c fa e3 bd 8b 40 df 3d
       0.14179897 -0.24404818 -0.11131737 0.109009825
000380 da ec c4 be 83 c2 ab 3d 6f 85 d5 bd 92 6a 55 bd
       -0.38461953 0.083867095 -0.10425841 -0.052103586
000390 bb f6 d9 3e f1 51 c0 bd cb 3a 8b 3a ef d9 7d 3e
       0.42571053 -0.09390629 0.001062238 0.24790166
0003a0 f0 cc b6 be 8e 13 c3 3e 09 78 6b 3e f1 0f c2 be
       -0.3570323 0.38100857 0.22995009 -0.37902787
0003b0 b8 8d ff 3e a3 25 8f be 19 46 aa 3d a7 19 9d 3e
       0.4991281 -0.27958402 0.08314151 0.30683634
0003c0 e3 98 46 3c e1 db b3 be 97 24 29 be 75 68 4a bc
       0.012121412 -0.35128692 -0.16517864 -0.012354006
0003d0 64 a6 7c be c5 99 50 3d 26 47 e3 3d e6 8a d0 bd
       -0.24672848 0.050927896 0.11097555 -0.10182743
0003e0 a1 c0 b4 3e 63 1b b0 be 40 76 a5 bd 44 0f 4a 3e
       0.35303214 -0.34395894 -0.08079195 0.19732386
0003f0 8a ce 73 be d3 15 4a 3d 1f 53 2e 3e 05 68 72 be
       -0.23809257 0.04933722 0.17023896 -0.23672493

model.1.defunc.m.0.bias f4 [64]
000000 a5 e3 b0 3e 55 d1 87 be 96 a2 15 be 8f 41 55 3e
       0.3454868 -0.26526895 -0.14612803 0.2082579
000010 98 6c 04 be 94 80 31 3e 08 4c ca 3d 99 fe a5 3e
       -0.1293205 0.17334205 0.09877783 0.32420805
000020 5a 27 42 be d4 a4 4b 3e 6c e8 86 bd 8e 44 6a 3e
       -0.18960324 0.19887096 -0.065873 0.22877714
000030 50 f9 5c be 33 df 43 be e0 cd 9f be 19 a8 87 3e
       -0.2157948 -0.19128112 -0.31211758 0.26495436
000040 26 3d 9c 3e 97 0e dc 3e ef 96 85 be f7 ec 79 be
       0.30515403 0.4297988 -0.26091716 -0.24406801
000050 83 d9 3e be 51 4f 37 3e 36 68 37 3e 68 fb 51 3e
       -0.18637662 0.1790135 0.17910847 0.2050606
000060 25 00 14 3e 77 b1 08 be df 77 bc bd 69 b9 9e be
       0.1445318 -0.13348947 -0.09202551 -0.31000832
000070 3f 11 b9 bd c7 cd 28 3e 30 2f 55 3e 74 5c 03 bd
       -0.090364926 0.16484748 0.20818782 -0.032070592
000080 86 eb f6 3e 91 90 b3 3e f5 49 85 be 84 7f 5d 3d
       0.48226565 0.35071233 -0.26032987 0.054076687
000090 ce 3e 9b 3e 94 19 ab 3e 5f a3 9c 3e cf 9e 4b 3e
       0.30321354 0.33417952 0.30593392 0.198848
0000a0 50 7d 88 3e 2d 42 51 be d2 02 dc be ef 57 2b 3e
       0.26658106 -0.204354 -0.42970902 0.16732763
0000b0 df de 80 3e fa 06 4e 3e 1e e3 7b be 60 4b c5 bd
       0.25170037 0.20119849 -0.24598357 -0.09633517
0000c0 7d b8 f3 be 63 f5 64 be 63 bc 29 3d 6a aa cf 3e
       -0.4760169 -0.22359233 0.041439425 0.40559703
0000d0 0f 24 97 3e 65 77 da 3e c7 d5 d5 be 61 d3 14 bd
       0.29519698 0.42669216 -0.41764662 -0.0363344
0000e0 04 a3 32 be 21 00 f0 bd 16 dd 07 3e c2 98 47 be
       -0.17444998 -0.117187746 0.13267931 -0.19491866
0000f0 c3 66 4f 3e b3 be b9 3e c8 67 44 3e 13 e2 ab bc
       0.20254044 0.36278304 0.19180214 -0.020981824
