lightning_logs/version_0/checkpoints/epoch=199-step=199.ckpt (torch, 19857 bytes, 18 tensors)

exp_avg f4 [64, 8]
-0.00011750992 0.00012545161 -8.138871e-05 -0.00010230565 0.00013724348 3.816116e-05 -0.00011902648 -6.5461325e-05
1.4083232e-05 -4.7219368e-05 2.0537618e-05 3.1497395e-05 -2.4732133e-05 -1.3402964e-06 -3.2075644e-05 -6.7680107e-06
-3.3633172e-05 6.1651476e-06 -2.4344832e-05 -6.5473414e-06 2.7838763e-05 -2.871485e-05 3.5659705e-05 0.00011654246
0.00016877435 -0.00036287404 0.00016168196 0.00026144192 -0.00024032431 0.00013510072 8.727572e-05 -7.205e-05
0.00013058721 -0.0003130035 9.347075e-05 0.00022751487 -0.000170177 0.00016862144 3.414828e-05 -0.000150423
1.29614e-05 5.313851e-06 5.711356e-06 -4.1817674e-07 -1.2737514e-05 -3.0909194e-07 2.4991874e-05 1.1321166e-05
1.1837217e-05 -3.039437e-05 1.5259106e-05 2.1370592e-05 -1.9784253e-05 -1.1602749e-05 -2.733351e-06 6.076378e-06
5.0617466e-05 -7.598165e-05 5.183861e-05 5.5596327e-05 -6.6791246e-05 2.476039e-05 2.0880012e-05 2.441754e-05
-0.000101385886 0.00029961378 -8.580247e-05 -0.00022165969 0.00016941516 -0.00019116784 -7.381887e-05 3.3554097e-05
1.414039e-05 -1.6787584e-05 8.711139e-06 1.1923693e-05 -1.1903641e-05 6.8292326e-07 2.3552377e-05 -1.3142369e-05
1.2249445e-05 6.9891616e-06 2.012484e-05 -6.3781245e-06 -1.311146e-05 -3.6156678e-05 -2.9448123e-05 -1.058093e-05
-2.029698e-05 7.799723e-05 -3.176949e-05 -5.2274667e-05 3.837924e-05 -5.8963206e-08 2.9690307e-05 1.1303195e-05
2.6020294e-05 -8.387214e-06 3.0094263e-05 9.556812e-06 -3.8742586e-05 1.5139912e-05 3.8027208e-06 2.438379e-05
-0.00014860374 0.00030851076 -0.000111552494 -0.00023709041 0.00021591861 -0.00015790964 -0.0001450153 -7.664573e-05
-9.7256314e-05 0.00024515172 -9.319912e-05 -0.0001769571 0.00014867725 -0.00011375625 -5.2371703e-05 4.5563487e-05
-1.5176572e-05 -7.47915e-06 -2.1967064e-05 7.420552e-06 1.27773155e-05 3.1210988e-05 4.0099523e-05 4.6960988e-05
0.00013116824 -1.9211038e-05 0.00016500357 2.26746e-06 -0.00012530183 -0.00030750342 -5.586479e-05 -7.114181e-06
0.000113701244 -0.0003095364 0.00012683265 0.00021475996 -0.00017540503 0.00013155217 7.6462345e-07 -9.263705e-05
-4.280242e-06 -1.9840017e-07 -1.4133736e-06 -2.142625e-06 6.568403e-06 -4.9475217e-05 -9.350978e-06 1.8109427e-05
-5.130966e-05 7.5033655e-05 -3.285426e-05 -5.9248865e-05 6.230393e-05 -1.3800436e-05 -4.044108e-05 8.810797e-06
-1.0172314e-05 3.5868685e-05 -1.9025696e-05 -2.2705142e-05 1.8671903e-05 1.3983147e-05 3.2901167e-05 2.2046277e-06
2.3465896e-05 -1.5720711e-06 3.4511e-05 -4.578505e-07 -2.6574997e-05 1.5414218e-05 -7.154081e-05 -9.184987e-05
6.2431104e-06 -1.6087613e-06 -4.6517794e-06 6.196201e-06 -8.25761e-06 8.963946e-05 3.8690974e-05 -2.2704093e-05
-0.00015278388 4.4164106e-05 -0.00021510852 -8.985054e-06 0.00015584238 0.00036822673 8.023948e-05 7.999278e-06
-9.0042966e-05 0.00014934769 -9.237019e-05 -0.00010184841 0.00010923855 2.7041482e-05 2.9944908e-05 5.6122444e-05
0.00012952441 -0.00033509533 9.321553e-05 0.00025013206 -0.00019105768 0.00018873284 8.915999e-05 -5.4664542e-05
3.7109156e-05 -7.8669706e-05 5.4585515e-05 4.9064125e-05 -4.9617363e-05 -2.1716794e-05 -4.1864932e-05 -4.3398624e-05
-3.7721344e-05 6.789247e-05 1.3906667e-05 -6.454472e-05 4.2427302e-05 -0.00034038574 -0.00017557308 6.403903e-05
-1.2651233e-05 3.5288576e-05 8.419579e-06 -3.2426884e-05 1.9042065e-05 -0.00018710215 -8.83011e-05 2.4427347e-05
3.6462938e-05 -0.00017269059 3.644053e-05 0.000120800556 -6.724147e-05 0.00011345675 -2.7592853e-06 -7.1730145e-05
0.00010789925 -0.00025769413 8.871468e-05 0.00019231193 -0.00016805428 0.00020165309 8.512029e-05 -4.48237e-06
-2.3557403e-05 1.0693911e-05 -9.44603e-06 -1.9191784e-05 4.0941857e-05 -0.000116909665 -6.6884146e-05 -5.4343607e-05
00000000: a86f f6b8 a98b 0339 3baf aab8 ed8c d6b8
00000010: 04e9 0f39 3c0f 2038 db9d f9b8 4848 89b8
00000020: 0547 6c37 690d 46b8 3348 ac37 121c 0438
00000030: da77 cfb7 3ce4 b3b5 f688 06b8 c518 e3b6
00000040: 5811 0db8 37de ce36 2138 ccb7 3cb1 dbb6
00000050: 4a87 e937 ace0 f0b7 5191 1538 4268 f438
00000060: 05f9 3039 2140 beb9 2c89 2939 2412 8939
00000070: 91ff 7bb9 d3a9 0d39 cc07 b738 8d19 97b8
00000080: 3dee 0839 9e1a a4b9 ba05 c438 0f91 6e39
00000090: 8a71 32b9 f9cf 3039 703a 0f38 deba 1db9
000000a0: ca74 5937 a24d b236 2da4 bf36 c681 e0b4
000000b0: 35b3 55b7 46f1 a5b4 a4a5 d137 0af0 3d37
000000c0: 7698 4637 6af7 feb7 ae00 8037 ff44 b337
000000d0: 5cf6 a5b7 6da9 42b7 9d6e 37b6 b1e3 cb36
000000e0: 174e 5438 5658 9fb8 496d 5938 1a30 6938
000000f0: 4712 8cb8 88b4 cf37 7c27 af37 45d4 cc37
00000100: 229f d4b8 7b15 9d39 daf0 b3b8 526d 68b9
00000110: 09a5 3139 3a74 48b9 34cf 9ab8 70bc 0c38
00000120: 833c 6d37 10d3 8cb7 0f26 1237 df0b 4837
00000130: c0b5 47b7 2152 3735 5892 c537 0c7e 5cb7
00000140: f782 4d37 7184 ea36 c4d1 a837 ac03 d6b6
00000150: 4bf9 5bb7 f0a6 17b8 5d07 f7b7 c084 31b7
00000160: 6f43 aab7 7292 a338 3b40 05b8 7f41 5bb8
00000170: 65f9 2038 bb3e 7db3 730f f937 daa2 3d37
00000180: 2846 da37 cfb6 0cb7 f072 fc37 3256 2037
00000190: 897f 22b8 6d01 7e37 3f32 7f36 ca8b cc37
000001a0: 83d2 1bb9 9dbf a139 4af1 e9b8 799b 78b9
000001b0: 3668 6239 8c94 25b9 400f 18b9 ddbc a0b8
000001c0: 16f6 cbb8 b587 8039 e673 c3b8 8f8d 39b9
000001d0: 3fe6 1b39 6c90 eeb8 b0a9 5bb8 6c1b 3f38
000001e0: e19e 7eb7 69f5 fab6 e945 b8b7 0efe f836
000001f0: 275e 5637 8be8 0238 8930 2838 faf7 4438
00000200: 358a 0939 6427 a1b7 cf04 2d39 ab2a 1836
00000210: 7463 03b9 6938 a1b9 5d50 6ab8 59b6 eeb6
00000220: e472 ee38 4649 a2b9 61fe 0439 3031 6139
00000230: eeec 37b9 44f1 0939 8640 4d35 2346 c2b8
00000240: 009f 8fb6 d307 55b4 26b3 bdb5 04ca 0fb6
00000250: 2766 dc36 9c83 4fb8 25e2 1cb7 b3e9 9737
00000260: 5435 57b8 635b 9d38 fecc 09b8 fc81 78b8
00000270: 2ba9 8238 6c88 67b7 479f 29b8 16d2 1337
00000280: c2a9 2ab7 b571 1638 5f99 9fb7 ec76 beb7
00000290: 9ba1 9c37 2999 6a37 5cff 0938 37f3 1336
000002a0: a1d8 c437 f4ff d2b5 e7bf 1038 7ece f5b4
000002b0: 5fed deb7 c84d 8137 2e08 96b8 869f c0b8
000002c0: e97b d136 9eec d7b5 7b16 9cb6 f6e8 cf36
000002d0: 2a8a 0ab7 d2fc bb38 1e48 2238 ab74 beb7
000002e0: 9c34 20b9 d93c 3938 c18e 61b9 83be 16b7
000002f0: 9f69 2339 8e0e c139 3e46 a838 a334 0637
00000300: 73d5 bcb8 379a 1c39 deb6 c1b8 7397 d5b8
00000310: 0017 e538 24d7 e237 3332 fb37 0465 6b38
00000320: f2d0 0739 bcaf afb9 b57c c338 2824 8339
00000330: a856 48b9 96e6 4539 68fb ba38 9b47 65b8
00000340: a7a5 1b38 7afb a4b8 c0f2 6438 34ca 4d38
00000350: 3d1c 50b8 762c b6b7 2198 2fb8 eb06 36b8
00000360: fc36 1eb8 7e61 8e38 ae50 6937 2f5c 87b8
00000370: f8f3 3138 cd75 b2b9 0a1a 38b9 b14c 8638
00000380: a240 54b7 d202 1438 d141 0d37 1a02 08b8
00000390: 86bc 9f37 da30 44b9 4b2e b9b8 54e9 cc37
000003a0: c8ef 1838 4714 35b9 b9d7 1838 4e56 fd38
000003b0: fd03 8db8 a1ef ed38 292c 39b6 d46d 96b8
000003c0: f847 e238 1f1b 87b9 550c ba38 57a7 4939
000003d0: ba37 30b9 d772 5339 9c82 b238 4467 96b6
000003e0: 239d c5b7 ff69 3337 647a 1eb7 0bfe a0b7
000003f0: fcb8 2b38 662d f5b8 2744 8cb8 01ef 63b8

exp_avg_sq f4 [64, 8]
0.00014941729 0.0015661316 0.00013367903 0.0006186134 1.973237e-05 0.006004749 0.0006579299 0.0016901117
3.992169e-06 4.32611e-05 1.0616853e-05 1.9035162e-05 1.1013501e-06 0.00026380472 3.0560255e-05 0.00011659528
3.903523e-05 0.00018959983 3.916419e-05 7.284113e-05 5.524696e-06 0.0012387584 0.0003334976 0.00023785059
0.00024714848 0.0030260347 0.00024597594 0.0011920325 3.891517e-05 0.009109931 0.0018159604 0.0040489603
0.00012872966 0.0013957659 9.796893e-05 0.0005393639 1.969268e-05 0.0048042964 0.0006548738 0.0016788387
1.9176263e-05 7.4370124e-05 4.9532987e-06 2.0889927e-05 1.8239451e-06 0.00032514177 0.00024504945 6.8400506e-05
9.465907e-07 7.5336447e-06 9.573788e-07 2.360865e-06 5.250493e-07 2.8062694e-05 2.7647991e-05 7.2834155e-05
0.00015265383 0.0012073272 9.970357e-05 0.00039172886 3.171468e-05 0.004462585 0.0021011014 0.0031932965
0.00013160601 0.0014218676 0.00011652419 0.0005508867 2.1287377e-05 0.005043859 0.000994359 0.0016461154
2.517636e-06 3.62835e-05 1.9509122e-05 1.9543491e-05 1.3911862e-06 0.00024423958 6.377135e-05 0.00019476103
5.568394e-06 3.9700513e-05 1.1187973e-05 1.7629738e-05 1.2649889e-06 0.00032747877 5.2150524e-05 5.7260386e-05
8.2781054e-07 4.516603e-06 2.641075e-06 2.2095962e-06 4.7547857e-07 4.7263664e-05 0.00014328888 7.812131e-05
1.4345722e-05 0.00018565058 6.577958e-05 8.3575505e-05 1.0539639e-05 0.0012099708 0.00021612347 0.0010788799
0.0005290007 0.00506744 0.0004614588 0.0019590491 7.458344e-05 0.020274537 0.0025622048 0.0061998847
0.00012597618 0.0011836876 7.0727896e-05 0.00044063234 1.386989e-05 0.003574245 0.0008975298 0.00072577
6.215204e-06 3.759905e-05 9.467363e-06 1.601474e-05 1.0031407e-06 0.0002583247 6.632479e-05 4.9771512e-05
0.00042900722 0.0032813465 0.0003012269 0.0011480458 6.302046e-05 0.013049576 0.0029819433 0.005158555
0.00017846546 0.00222764 0.0001772844 0.00089043303 2.5664278e-05 0.0070194807 0.0010759361 0.002598388
6.514739e-07 5.243002e-06 2.2192776e-06 2.2641375e-06 3.1546497e-07 3.8002057e-05 2.8466127e-05 2.1892207e-05
2.3465464e-05 0.00014547547 1.5333033e-05 5.229484e-05 2.5732222e-06 0.00069854036 0.00014355156 0.00012487767
3.0018098e-06 4.592066e-05 1.4203631e-05 2.2286255e-05 1.3163153e-06 0.00029490996 3.7103284e-05 0.00012699259
1.2972232e-05 0.0001272399 6.831366e-05 6.432287e-05 7.246643e-06 0.0010928831 0.00034166768 0.00045262816
1.8042016e-06 8.934024e-06 2.2547113e-06 2.988872e-06 5.0172474e-07 5.418762e-05 5.6076635e-05 3.2099975e-05
0.00049256557 0.0041905115 0.00036663152 0.0015123683 6.65598e-05 0.01611348 0.0033740196 0.0059249965
6.484073e-05 0.00079620816 9.413628e-05 0.00032425337 1.4473169e-05 0.003363938 0.00032158187 0.0016025163
0.00015181677 0.0017819401 0.00014001506 0.0006956712 2.5983252e-05 0.006118821 0.00082287536 0.0024892245
3.4381825e-05 0.00032716902 2.8666756e-05 0.000120035635 5.2450137e-06 0.0011915405 0.00023416859 0.0005029382
0.00023803058 0.0011401313 7.230887e-05 0.00026904934 4.0338222e-05 0.0029326961 0.0061740917 0.0040725465
2.2454664e-05 0.0001782654 1.3521304e-05 4.8158323e-05 8.4685325e-06 0.00045294294 0.000890335 0.0013442605
2.8469324e-06 2.234256e-05 2.8072745e-06 8.24827e-06 6.2928933e-07 7.989069e-05 2.2503522e-05 5.8963942e-05
0.00030154912 0.0029075434 0.00023112986 0.0010928329 3.2496333e-05 0.009341157 0.0020240243 0.0033398068
1.5236407e-05 0.00019351623 8.219604e-05 8.7149565e-05 1.5059288e-05 0.00116017 0.00032898952 0.0021605657
00000000: e6ac 1c39 a846 cd3a 312c 0c39 712a 223a
00000010: f186 a537 7cc3 c43b ee78 2c3a bd86 dd3a
00000020: 78f4 8536 4173 3538 091f 3237 b3ad 9f37
00000030: 1ad2 9335 454f 8a39 d32d 0038 9d84 f438
00000040: c2b9 2338 51cf 4639 3b44 2438 49c2 9838
00000050: c760 b936 d65d a23a 4ad9 ae39 8867 7939
00000060: b593 8139 7050 463b 55f6 8039 f93d 9c3a
00000070: d838 2338 d241 153c 8505 ee3a 24ad 843b
00000080: 9bfb 0639 22f2 b63a ab74 cd38 1964 0d3a
00000090: b531 a537 5c6d 9d3b d6ab 2b3a 7b0c dc3a
000000a0: b6dc a037 28f7 9b38 8334 a636 c73c af37
000000b0: 47ce f435 ca77 aa39 fb79 8039 3e72 8f38
000000c0: 3819 7e35 84c9 fc36 497f 8035 5a6f 1e36
000000d0: 1df1 0c35 2d68 eb37 9ced e737 8abe 9838
000000e0: b311 2039 2e3f 9e3a f217 d138 f560 cd39
000000f0: 6105 0538 e03a 923b a2b2 093b a046 513b
00000100: b8ff 0939 f65d ba3a 735e f438 6169 103a
00000110: 4b92 b237 f546 a53b 2755 823a 78c2 d73a
00000120: a8f4 2836 1d2f 1838 85a7 a337 54f1 a337
00000130: cbb8 ba35 480d 8039 fcbc 8538 c438 4c39
00000140: 24d8 ba36 1a84 2638 fab3 3b37 93e3 9337
00000150: b0c8 a935 75b1 ab39 33bc 5a38 df2a 7038
00000160: b536 5e35 538d 9736 533d 3136 9348 1436
00000170: 4745 ff34 f93c 4638 d13f 1639 0fd5 a338
00000180: 68ae 7037 33ab 4239 25f3 8938 4245 af38
00000190: 68d3 3037 e297 9e3a 349f 6239 3469 8d3a
000001a0: a3ac 0a3a c50c a63b f4ef f139 6463 003b
000001b0: ae69 9c38 c916 a63c aaea 273b 6728 cb3b
000001c0: 7918 0439 f725 9b3a c053 9438 ac04 e739
000001d0: b9b2 6837 e13d 6a3b 3548 6b3a 9a41 3e3a
000001e0: 328c d036 acb3 1d38 04d6 1e37 6457 8637
000001f0: a7a3 8635 c16f 8739 da17 8b38 c1c1 5038
00000200: 60ec e039 dc0b 573b fded 9d39 067a 963a
00000210: da29 8438 e4cd 553c b56c 433b 1909 a93b
00000220: 7522 3b39 99fd 113b 6be5 3939 f36b 693a
00000230: 9e49 d737 ac03 e63b 6d06 8d3a b749 2a3b
00000240: f2e0 2e35 0bed af36 e6ee 1436 96f1 1736
00000250: 2d5d a934 6664 1f38 8bca ee37 28a5 b737
00000260: b3d7 c437 c68a 1839 709f 8037 2857 5b38
00000270: 9faf 2c36 401e 373a 5486 1639 98f1 0239
00000280: b372 4936 ef9a 4038 214c 6e37 5ef3 ba37
00000290: 40ac b035 259e 9a39 599f 1b38 5029 0539
000002a0: 50a3 5937 b36b 0539 9e43 8f38 14e5 8638
000002b0: 3028 f336 123f 8f3a dc21 b339 b94e ed39
000002c0: e527 f235 57e3 1537 a54f 1736 6e94 4836
000002d0: 43ae 0635 8447 6338 d433 6b38 16a3 0638
000002e0: 841f 013a 8f50 893b 7338 c039 a93a c63a
000002f0: 0596 8b38 6b00 843c a81e 5d3b 7926 c23b
00000300: 1afb 8738 a0b8 503a 086b c538 8d00 aa39
00000310: cad1 7237 8475 5c3b fd99 a839 860b d23a
00000320: 0131 1f39 fd8f e93a 02d1 1239 b45d 363a
00000330: 9cf6 d937 6480 c83b 3bb6 573a 4222 233b
00000340: 3435 1038 e287 ab39 6479 f037 a4bb fb38
00000350: 53fe af36 772d 9c3a 278b 7539 9cd7 033a
00000360: d997 7939 7570 953a 87a4 9738 310f 8d39
00000370: d630 2938 7a32 403b 0950 ca3b ff72 853b
00000380: 065d bc37 c1ec 3a39 8fd9 6237 9bfd 4938
00000390: 1214 0e37 f978 ed39 5f65 693a e631 b03a
000003a0: ed0d 3f36 486c bb37 9c64 3c36 0d62 0a37
000003b0: 6fec 2835 fd8a a738 f2c5 bc37 0d50 7738
000003c0: 3d19 9e39 7c8c 3e3b 735b 7239 633d 8f3a
000003d0: ac4c 0838 a70b 193c 7ea5 043b a9e0 5a3b
000003e0: df9f 7f37 9eea 4a39 aa60 ac38 11c4 b638
000003f0: 26a7 7c37 d810 983a 3a7c ac39 4798 0d3b

exp_avg f4 [64]
-0.00011333764 -2.2450069e-05 -0.00019728029 9.362617e-05 -0.00011202995 7.560189e-05 5.7070097e-06 9.8652e-06
-3.305883e-05 -6.0198625e-05 0.0001209323 3.2475185e-05 0.00020074795 -2.0019492e-05 -3.7353544e-05 -0.00012623925
0.00018212105 -2.143135e-05 -0.00010596558 -1.3246836e-05 1.4709035e-05 0.00024965862 0.00011756102 -0.00019252511
-2.663646e-05 -4.400028e-05 -4.295887e-05 -9.629022e-06 -3.9049108e-05 -0.00013815337 4.7543384e-05 -0.0002694287
-0.0001349298 -2.9881852e-05 -2.3613852e-06 -6.56143e-05 5.1271556e-05 2.8917486e-05 -2.5429064e-05 -7.648123e-06
1.3515715e-05 4.0318693e-05 0.00010198136 -6.9988084e-05 0.00021507112 -0.0001276162 7.4320575e-05 0.00021727761
1.6005617e-05 0.00014646327 3.555815e-05 -0.00023574062 0.00010483356 4.4025794e-05 2.5497306e-05 -0.00022520266
-0.00043674617 -0.00024611974 0.00026148654 -0.00020696841 2.996429e-05 -0.00014138124 -9.103326e-05 0.00011091149
00000000: afaf edb8 2853 bcb7 06dd 4eb9 2b59 c438
00000010: 9ff1 eab8 758c 9e38 d77e bf36 b682 2537
00000020: a6a8 0ab8 c87d 7cb8 099d fd38 f735 0838
00000030: de7f 5239 88ef a7b7 10ac 1cb8 175f 04b9
00000040: bff7 3e39 79c7 b3b7 d639 deb8 ba3e 5eb7
00000050: d3c6 7637 9de4 8239 188b f638 91e0 49b9
00000060: 5d71 dfb7 f18c 38b8 bc2e 34b8 568c 21b7
00000070: a9c8 23b8 43dd 10b9 5269 4738 1c42 8db9
00000080: f17b 0db9 caaa fab7 4a78 1eb6 699a 89b8
00000090: 6a0c 5738 d493 f237 8050 d5b7 7050 00b7
000000a0: 8ec1 6237 de1b 2938 d3de d538 91c6 92b8
000000b0: b784 6139 b6d0 05b9 8edc 9b38 04d5 6339
000000c0: cd43 8637 ef93 1939 4624 1538 2431 77b9
000000d0: 17da db38 56a8 3838 0ce3 d537 6124 6cb9
000000e0: 14fb e4b9 a209 81b9 2118 8939 a905 59b9
000000f0: d35b fb37 bd3f 14b9 1ce9 beb8 2799 e838

exp_avg_sq f4 [64]
0.010323251 0.0005342506 0.007822035 0.01969705 0.009302217 0.0016411556 0.00011190332 0.015049892
0.011695041 0.0009660006 0.0017221515 7.9686826e-05 0.0066528106 0.039921854 0.006250214 0.001591361
0.031053264 0.011897531 0.0006027183 0.0012649316 0.00048805372 0.009142236 0.00094557484 0.03478441
0.008277506 0.012335315 0.0020937324 0.027076649 0.006058018 0.0001189729 0.018158102 0.010578284
0.018480545 0.007312655 0.01568397 0.00065654214 0.019699888 0.00052186 0.012701784 0.009831072
0.000110292436 0.0065770606 0.063621685 0.021233575 0.009848571 0.0089009665 0.02243469 0.009697235
0.016546605 0.011551506 0.007997281 0.015930219 0.045257162 0.0006261996 0.00026228782 0.014436885
0.050847318 0.029019631 0.016917681 0.021695774 0.0020949978 0.027009558 0.0062588886 0.023878384
00000000: da22 293c f30c 0c3a fe27 003c b55b a13c
00000010: 5368 183c 0b1c d73a a3ad ea38 d293 763c
00000020: 8f9c 3f3c 343b 7d3a d1b9 e13a 8a1d a738
00000030: d2ff d93b 1985 233d 98ce cc3b 3795 d03a
00000040: 6a63 fe3c dded 423c beff 1d3a 10cc a53a
00000050: 76e1 ff39 51c9 153c 74e0 773a 197a 0e3d
00000060: 609e 073c 101a 4a3c 0037 093b d9cf dd3c
00000070: 5782 c63b 1781 f938 4dc0 943c 8a50 2d3c
00000080: 8364 973c ff9e ef3b ab7b 803c cc1b 2c3a
00000090: a961 a13c 6fcd 083a 251b 503c 8112 213c
000000a0: cd4c e738 6284 d73b 164c 823d 09f2 ad3c
000000b0: e75b 213c 5cd5 113c f4c8 b73c 27e1 1e3c
000000c0: bf8c 873c 8742 3d3c 0707 033c 1780 823c
000000d0: 935f 393d 8b27 243a ad83 8939 af88 6c3c
000000e0: 4745 503d 94ba ed3c f396 8a3c 56bb b13c
000000f0: 3b4c 093b 2643 dd3c 5d17 cd3b 9a9c c33c

exp_avg f4 [8, 64]
-0.00017605066 -9.32961e-05 -0.00011384377 0.00012161404 0.00010203474 0.00011986134 2.5538362e-05 0.00013920573
-0.00010389693 -8.8624256e-05 7.08392e-05 -3.9977785e-06 8.4506726e-05 -0.00014155806 -0.00016686147 -0.000106993604
0.00019079795 0.00019680528 -0.00011056377 -3.2527572e-05 -3.8437747e-06 0.000106149695 0.00013953667 -0.00020831988
-0.00010569199 8.127003e-05 0.0001022382 -0.00026475603 -0.00023263015 6.8576795e-05 0.00020322872 -8.924421e-05
-0.00015026197 0.00021745931 0.00017334735 6.290373e-05 0.000117402255 -2.4937352e-05 -0.000188494 -6.96455e-05
-1.1075729e-05 0.00018773065 0.00020448356 -0.000110064175 9.587576e-05 -8.145358e-05 0.00019732639 1.5586797e-05
0.000208718 0.00012210132 -0.00011654527 -5.700848e-05 0.00015603169 0.000112483685 3.3434084e-05 -0.0001162171
-0.00020995842 -0.00014700656 0.00024131966 -0.00012973833 2.4331259e-05 -0.00016521958 -0.00011458491 0.00016507109
0.000404887 8.577386e-05 -1.6669624e-06 -0.0003385795 -0.00020477978 -0.000112000445 -6.465288e-05 -9.191262e-05
0.00017638094 0.00014525114 -1.31922225e-05 4.279133e-05 -4.4419015e-05 0.00027141772 0.0004152217 1.749574e-06
-0.00024504284 -0.00046853724 9.281477e-06 0.00029434246 9.299817e-05 -6.4727287e-06 -5.9644888e-05 0.00024831065
0.00017365105 -0.00018013672 -0.00015981664 0.00027117817 0.00021636474 -0.00014224315 -0.00034962635 -4.3877972e-07
6.031847e-05 -0.00051334396 -0.00028087193 -0.00027603138 -0.00037116164 -0.00019970024 0.00028062443 0.00030443858
-1.8204222e-05 -0.00036399782 -0.00030028538 -3.5078e-06 -6.9344635e-05 8.827373e-05 -0.0004020655 0.00014058803
-0.00026696047 -0.00020318414 0.00022072042 -1.0966746e-05 -0.00017157868 -2.6381394e-05 -7.2322895e-05 -5.5363747e-05
0.00033707177 0.00020371121 -0.0002221845 3.5576702e-06 -3.5918063e-05 0.00016831272 0.000104236184 -0.00010991482
-0.00013738754 -2.5198759e-05 -2.0963835e-05 0.000103616556 9.2691735e-05 4.6594807e-05 3.692446e-05 3.6374262e-05
-7.000523e-05 -7.956477e-05 3.7602404e-05 -3.7562826e-05 4.00087e-05 -0.0001183249 -0.00012768341 -2.8017916e-05
8.382292e-05 0.00014842501 -1.5486023e-05 -5.5449807e-05 -4.5745943e-05 2.8803719e-05 2.2130638e-05 -9.542117e-05
-7.105389e-05 7.77197e-05 5.004777e-05 -7.974624e-05 -6.587237e-05 5.2380852e-05 0.00013440738 -2.2842261e-05
-7.0901566e-05 0.00015775838 0.00014032425 8.731761e-05 0.00010486383 2.457229e-05 -0.000110627036 -7.928274e-05
6.7444334e-06 0.00012460405 0.00013357878 -1.2724401e-05 6.0928316e-05 -7.277067e-05 0.00013642755 -2.4908697e-06
0.00013953379 9.1406226e-05 -9.558873e-05 -4.538424e-05 6.632331e-05 2.5301757e-05 4.0850256e-05 -1.3142904e-05
-0.00013038464 -7.707209e-05 6.301302e-05 -1.9439274e-05 4.742008e-05 -6.0060498e-05 -7.462124e-05 4.2553223e-05
-0.00028054876 -9.308785e-05 -3.3745528e-05 0.00022745626 0.00011440556 0.000114380295 3.2511136e-05 9.1212634e-05
-0.00010800657 -9.719891e-05 2.8487935e-05 -1.2160089e-05 4.89192e-05 -0.0001747438 -0.0002851481 -3.233511e-05
0.0001952712 0.00032410488 -4.257596e-05 -0.00019912193 -4.440771e-05 3.37168e-05 8.420311e-05 -0.00018672933
-0.00010540469 0.0001023198 0.000116294636 -0.00025101707 -0.0002093858 7.778701e-05 0.0002355827 -2.4434034e-05
-5.183336e-05 0.00035919456 0.00017432985 0.0001701107 0.00025201615 0.00012691937 -0.0001887704 -0.00020045042
1.2713548e-05 0.00025532144 0.00019361686 -9.383317e-06 6.097567e-05 -5.042426e-05 0.0002784198 -9.9230434e-05
0.00019410132 0.00013855443 -0.00013360253 1.7720222e-05 0.00012509979 4.1696858e-05 4.660511e-05 1.524859e-05
-0.0002462227 -0.0001516331 0.00021484819 -4.1303738e-05 2.2913912e-06 -0.00015193751 -9.014168e-05 0.00011930077
00000000: 3d9a 38b9 f6a7 c3b8 69bf eeb8 0a0b ff38
00000010: 7cfb d538 115e fb38 373b d637 c1f7 1139
00000020: 3de3 d9b8 c9db b9b8 828f 9438 a824 86b6
00000030: 3439 b138 346f 14b9 89f7 2eb9 c161 e0b8
00000040: ef10 4839 845d 4e39 79de e7b8 376e 08b8
00000050: c6f9 80b6 af9c de38 9750 1239 7170 5ab9
00000060: f4a6 ddb8 846f aa38 b768 d638 f4ce 8ab9
00000070: 2eee 73b9 e3d0 8f38 cb19 5539 9f28 bbb8
00000080: a48f 1db9 ca05 6439 93c4 3539 2feb 8338
00000090: db35 f638 8e30 d1b7 79a6 45b9 a50e 92b8
000000a0: e5d1 39b7 90d9 4439 a36a 5639 41d2 e6b8
000000b0: e810 c938 0fd2 aab8 66e9 4e39 64c0 8237
000000c0: 50db 5a39 5308 0039 c469 f4b8 641c 6fb8
000000d0: 709c 2339 38e5 eb38 933b 0c38 95b9 f3b8
000000e0: 4928 5cb9 c625 1ab9 c10a 7d39 5e0a 08b9
000000f0: fb1a cc37 cb3e 2db9 4e4d f0b8 ef16 2d39
00000100: 0347 d439 7ee1 b338 64bc dfb5 5f83 b1b9
00000110: 27ba 56b9 c8e1 eab8 4096 87b8 36c1 c0b8
00000120: e6f2 3839 8e4e 1839 2a54 5db7 d77a 3338
00000130: 8e4e 3ab8 124d 8e39 1db2 d939 e8d2 ea35
00000140: 1879 80b9 01a6 f5b9 a4b7 1b37 fa51 9a39
00000150: 0308 c338 5130 d9b6 362b 7ab8 b12f 8239
00000160: 1916 3639 15e3 3cb9 7494 27b9 eb2c 8e39
00000170: f8df 6239 1b27 15b9 0e4e b7b9 6d91 ebb4
00000180: 77fe 7c38 ee91 06ba fe41 93b9 4eb8 90b9
00000190: 7998 c2b9 a066 51b9 c620 9339 0e9d 9f39
000001a0: 45b5 98b7 f6d6 beb9 9f6f 9db9 8c67 6bb6
000001b0: 1e6d 91b8 991f b938 51cc d2b9 d06a 1339
000001c0: d4f6 8bb9 d40d 55b9 3071 6739 d1fd 37b7
000001d0: cde9 33b9 9d4d ddb7 0fac 97b8 5f36 68b8
000001e0: 02b9 b039 509b 5539 33fa 68b9 4fc0 6e36
000001f0: baa6 16b8 1a7d 3039 6099 da38 1282 e6b8
00000200: b00f 10b9 ec61 d3b7 7edb afb7 b74c d938
00000210: 7f63 c238 cb6e 4338 56df 1a38 9190 1838
00000220: c6cf 92b8 03dc a6b8 46b7 1d38 c78c 1db8
00000230: 04cf 2738 3225 f8b8 c1e2 05b9 0408 ebb7
00000240: 16ca af38 89a2 1b39 fbe7 81b7 c792 68b8
00000250: 55df 3fb8 849f f137 2fa5 b937 da1c c8b8
00000260: c402 95b8 72fd a238 62ea 5138 703d a7b8
00000270: f624 8ab8 83b3 5b38 b5ef 0c39 629d bfb7
00000280: fdb0 94b8 f16b 2539 0124 1339 491e b738
00000290: 57ea db38 9720 ce37 7000 e8b8 9944 a6b8
000002a0: 3e4e e236 25a8 0239 4811 0c39 e37a 55b7
000002b0: 488d 7f38 759c 98b8 fe0d 0f39 d128 27b6
000002c0: d14f 1239 58b1 bf38 cf76 c8b8 f55a 3eb8
000002d0: 0e17 8b38 1c3f d437 a156 2b38 5880 5cb7
000002e0: dcb7 08b9 c3a1 a1b8 dc25 8438 8611 a3b7
000002f0: ece4 4638 78e9 7bb8 f97d 9cb8 2d7b 3238
00000300: 9e16 93b9 2938 c3b8 fc89 0db8 5381 6e39
00000310: 04ed ef38 74df ef38 915c 0838 6949 bf38
00000320: 9681 e2b8 44d7 cbb8 60f9 ee37 2f03 4cb7
00000330: 972e 4d38 6e3b 37b9 ee7f 95b9 8f9f 07b8
00000340: b7c1 4c39 9fec a939 9793 32b8 63cb 50b9
00000350: 6a42 3ab8 236b 0d38 3396 b038 c6cc 43b9
00000360: b60c ddb8 8694 d638 35e3 f338 f19a 83b9
00000370: 938e 5bb9 9521 a338 c006 7739 b0f7 ccb7
00000380: a667 59b8 4752 bc39 50cc 3639 be5f 3239
00000390: 0921 8439 a915 0539 abf0 45b9 0030 52b9
000003a0: 464c 5537 aadc 8539 a105 4b39 0a6d 1db7
000003b0: 21c0 7f38 a37e 53b8 dff8 9139 ef19 d0b8
000003c0: ad87 4b39 ec48 1139 a817 0cb9 e3a5 9437
000003d0: 382d 0339 a9e3 2e38 db79 4338 32d4 7f37
000003e0: 7417 81b9 b3ff 1eb9 df48 6139 8d3d 2db8
000003f0: cdc5 1936 6a51 1fb9 720a bdb8 1d31 fa38

exp_avg_sq f4 [8, 64]
0.0013894138 0.000104942905 0.0068283495 0.0034740444 0.00074005837 0.00076060614 0.00043261188 0.00068418484
0.00068637874 0.00040951802 0.0029420485 0.0001026128 0.0033102983 0.00030252183 0.0034360369 0.0061866757
0.00022997375 0.0037352995 0.007401949 0.004648499 0.0003024153 0.0070000724 0.008113747 8.357802e-05
0.00027690438 0.0006882299 0.00067794445 0.0050837747 0.005747534 0.0026681283 0.0014955105 0.0049246475
0.0026984417 0.004709305 0.0003575616 0.0034925546 0.0035287007 0.005327113 0.0008199108 0.0037112723
0.0004421858 0.0009703192 0.00015628892 0.0016883523 0.0034990066 0.0016798794 0.0020655792 0.0054465653
0.0017743584 0.00015931703 0.00082875544 0.0036455796 0.00010502632 0.002975143 6.644733e-05 0.0017275707
0.00022483146 0.0002157899 0.006449278 0.0022176404 0.00137049 0.00023420525 0.0029893368 0.0034867607
0.008685243 0.0004985646 0.034026742 0.017394215 0.0042283605 0.0027223907 0.002722615 0.0023024278
0.0021336945 0.0011708424 0.01216413 0.0005496529 0.011292718 0.0016680805 0.017526213 0.030566439
0.0012765214 0.01991503 0.034719992 0.023344738 0.0021828867 0.032278165 0.039288178 0.00034334668
0.0016845351 0.0032126568 0.0044253687 0.024929384 0.02718087 0.010918897 0.0067561357 0.019193254
0.0165295 0.02437633 0.0011918477 0.020547515 0.018599324 0.02582906 0.002984276 0.018478543
0.00301793 0.0051735123 0.000624963 0.007948749 0.012856452 0.0052655768 0.010815357 0.021452881
0.009591178 0.00068213925 0.0037247706 0.012945798 0.0006068216 0.011900032 0.00026425382 0.011263988
0.0014113209 0.0011458377 0.035322066 0.0128864115 0.0056188814 0.0005834023 0.013096557 0.013391386
0.00079184305 7.860054e-05 0.0027984004 0.0013087306 0.00058349705 0.00042084642 0.00018555856 0.00030173748
0.00018093691 3.7389567e-05 0.0009359752 8.937902e-05 0.00070538296 0.0002096241 0.0013808907 0.0023858356
4.466097e-05 0.001531238 0.0027807844 0.0020285398 0.00037041344 0.0024026504 0.003305531 4.460307e-05
0.00023100618 0.00038095104 0.0002706091 0.0027299656 0.0026950021 0.000989637 0.00046762373 0.0013993641
0.0014614601 0.001781922 8.2446226e-05 0.0021678454 0.0015440529 0.0021928512 0.00018942963 0.0016371399
0.00036650043 0.0003834365 7.6446355e-05 0.00071833207 0.00077722926 0.00013561673 0.0007690099 0.0012048889
0.0006397969 6.962438e-05 0.00035349265 0.00055687333 4.4730965e-05 0.0009243718 1.8956374e-05 0.0014308043
5.9327722e-05 3.179819e-05 0.0037377814 0.0016369056 0.00015134418 0.00015415285 0.0008640628 0.001132882
0.004590569 0.00030202497 0.018557383 0.009663933 0.0020353678 0.0013402174 0.0015056166 0.00122263
0.0012035039 0.00075317774 0.0068131345 0.00030458134 0.006667855 0.0008545934 0.009639527 0.016807571
0.0008540714 0.010964286 0.019159902 0.012640077 0.0010019429 0.01801712 0.021445071 0.00021910676
0.00079330266 0.0016446247 0.0024708572 0.012947893 0.014447154 0.005971199 0.003850142 0.010970932
0.008723769 0.013585666 0.0007727797 0.010544224 0.0100934 0.014105277 0.0017469225 0.009969075
0.0014721618 0.0028617606 0.0003257731 0.0043508643 0.0075588594 0.003436153 0.0060345395 0.012731594
0.0053247693 0.00033382425 0.0019955942 0.008006333 0.00035282754 0.0067431587 0.00015701921 0.0054891263
0.0008600083 0.0007441494 0.018220905 0.006325551 0.0035913442 0.00028067557 0.0074390057 0.007484999
00000000: fe1c b63a cb14 dc38 59c0 df3b cbac 633b
00000010: 7a00 423a 6a63 473a 2fd0 e239 de5a 333a
00000020: 19ee 333a 94b4 d639 62cf 403b d431 d738
00000030: 97f1 583b cb9b 9e39 222f 613b 99b9 ca3b
00000040: 1c25 7139 edcb 743b 0c8c f23b 7052 983b
00000050: 7f8d 9e39 dd60 e53b 86ef 043c 9c46 af38
00000060: 7a2d 9139 546a 343a 15b8 313a cb95 a63b
00000070: cf55 bc3b c4db 2e3b 0105 c43a f05e a13b
00000080: 57d8 303b 8350 9a3b 1b77 bb39 58e3 643b
00000090: c641 673b 108f ae3b 48ef 563a d138 733b
000000a0: 2cd5 e739 055d 7e3a 7de1 2339 b44b dd3a
000000b0: 974f 653b 662f dc3a ab5e 073b 1a79 b23b
000000c0: 9791 e83a 570e 2739 d640 593a adea 6e3b
000000d0: 9441 dc38 9efa 423b a359 8b38 a76f e23a
000000e0: bcc0 6b39 a945 6239 7754 d33b d555 113b
000000f0: 03a2 b33a fe94 7539 c0e8 433b 2382 643b
00000100: 8d4c 0e3c 1bb2 023a a05f 0b3d 507e 8e3c
00000110: 0f8e 8a3b 236a 323b e66d 323b 54e4 163b
00000120: 74d5 0b3b f476 993a 0f4c 473c 9516 103a
00000130: 1805 393c 7ea3 da3a 2293 8f3c 7866 fa3c
00000140: f350 a73a d824 a33c 8d36 0e3d 773d bf3c
00000150: c30e 0f3b 1c36 043d a4ec 203d 3603 b439
00000160: 9ecb dc3a 708b 523b af02 913b b538 cc3c
00000170: 6aaa de3c 2ce5 323c 9362 dd3b 2c3b 9d3c
00000180: e068 873c dfb0 c73c c637 9c3a 4353 a83c
00000190: 9c5d 983c 7797 d33c d893 433b 5060 973c
000001a0: 77c8 453b 9186 a93b 8fd4 233a 783b 023c
000001b0: dea3 523c dc8a ac3b e532 313c f4bd af3c
000001c0: 5124 1d3c 97d1 323a 481b 743b 9d1a 543c
000001d0: 1c13 1f3a 5af8 423c 8c8b 8a39 978c 383c
000001e0: 12fc b83a ef2f 963a dfad 103d 8721 533c
000001f0: 981e b83b 77ef 183a f192 563c 8b67 5b3c
00000200: b093 4f3a 58d6 a438 5e65 373b b689 ab3a
00000210: d3f5 183a 0da5 dc39 7f92 4239 8532 9e39
00000220: e2b9 3d39 bed2 1c38 3b5c 753a ff70 bb38
00000230: 73e9 383a 8ace 5b39 01ff b43a ae5b 1c3b
00000240: 5a52 3b38 d2b3 c83a d23d 363b 40f1 043b
00000250: 0d34 c239 c975 1d3b 9ca1 583b 2f14 3b38
00000260: 403a 7239 62ba c739 8ae0 8d39 39e9 323b
00000270: a29e 303b b5b6 813a 652b f539 de6a b73a
00000280: 778e bf3a 618f e93a fbe6 ac38 6912 0e3b
00000290: d161 ca3a f0b5 0f3b a1a1 4639 4d95 d63a
000002a0: db26 c039 fa07 c939 d351 a038 734e 3c3a
000002b0: f9be 4b3a 5734 0e39 6197 493a 5ded 9d3a
000002c0: 0bb8 273a 4e03 9238 fb54 b939 23fb 113a
000002d0: 829d 3b38 8b51 723a 8104 9f37 d389 bb3a
000002e0: a8d6 7838 0c5f 0538 91f5 743b 708d d63a
000002f0: 25b2 1e39 17a4 2139 4682 623a 367d 943a
00000300: 7c6c 963b 1b59 9e39 a705 983c 7955 1e3c
00000310: ce63 053b 3caa af3a 1c58 c53a a840 a03a
00000320: e4be 9d3a e770 453a b740 df3b 37b0 9f39
00000330: 067e da3b cb06 603a 1bef 1d3c 08b0 893c
00000340: c3e3 5f3a 8ca3 333c 3af5 9c3c 5318 4f3c
00000350: a053 833a a498 933c 93ad af3c 06c0 6539
00000360: a4f5 4f3a 7390 d73a 1bee 213b 6623 543c
00000370: c1b3 6c3c 0caa c33b aa52 7c3b 6dbf 333c
00000380: 24ee 0e3c 6a96 5e3c 5e94 4a3a aec1 2c3c
00000390: ca5e 253c d219 673c fef8 e43a 5555 233c
000003a0: 8ef5 c03a 608c 3b3b 86cc aa39 b291 8e3b
000003b0: 4fb0 f73b 1531 613b 63bd c53b 2d98 503c
000003c0: 677b ae3b 2205 af39 84c8 023b ff2c 033c
000003d0: b6fb b839 b7f5 dc3b 86a5 2439 21de b33b
000003e0: 2e72 613a 0513 433a 0244 953c 9146 cf3b
000003f0: c25c 6b3b a327 9339 e7c2 f33b b944 f53b

exp_avg f4 [8]
-9.3878865e-05 0.0006173542 -0.00012865721 -0.00043212983 0.0003936233 -0.00010439275 -1.997435e-05 0.0001490572
00000000: d5e0 c4b8 f0d5 213a 28e8 06b9 7c8f e2b9
00000010: 3a5f ce39 6eed dab8 978e a7b7 3d4c 1c39

exp_avg_sq f4 [8]
0.01685158 0.09103659 0.0071680755 0.04992471 0.0641613 0.005234154 0.0012149063 0.0010636112
00000000: 530c 8a3c 6471 ba3d 2de2 ea3b da7d 4c3d
00000010: 0067 833d 4483 ab3b 7e3d 9f3a df68 8b3a

exp_avg f4 [2, 8]
-0.000699425 0.00055727223 -0.0005706394 -0.00041510683 0.0006830476 0.00094763085 -0.00050343625 5.6203124e-05
0.0006994238 -0.0005572757 0.0005706396 0.0004151094 -0.00068304787 -0.00094762683 0.00050343433 -5.6204022e-05
00000000: 9e59 37ba e815 123a f696 15ba b2a2 d9b9
00000010: 8c0e 333a 6e6a 783a 09f9 03ba a5bb 6b38
00000020: 8959 373a 2416 12ba fa96 153a 0aa3 d939
00000030: 910e 33ba 296a 78ba e8f8 033a 9cbc 6bb8

exp_avg_sq f4 [2, 8]
0.00027963502 0.0052108667 0.00027597355 0.0023316902 0.00046919656 0.003623771 0.00050775567 0.001347736
0.00027963505 0.005210867 0.0002759735 0.0023316902 0.00046919656 0.0036237715 0.0005077557 0.001347736
00000000: fa9b 9239 ebbf aa3b 8bb0 9039 45cf 183b
00000010: 7ffe f539 ca7c 6d3b e81a 053a 84a6 b03a
00000020: fb9b 9239 ecbf aa3b 89b0 9039 45cf 183b
00000030: 7ffe f539 cc7c 6d3b e91a 053a 84a6 b03a

exp_avg f4 [2]
-4.852395e-05 4.852187e-05
00000000: 3286 4bb8 f683 4b38

exp_avg_sq f4 [2]
0.00039943526 0.00039943523
00000000: 4b6b d139 4a6b d139

model.1.defunc.m.0.weight f4 [64, 8]
0.44923303 -0.16162494 0.3115353 0.08853384 0.044518333 -0.01726187 -0.14363876 0.031219505
0.1770986 0.012971783 0.13735916 0.2676366 0.032703213 0.32700318 0.20658778 -0.08018915
0.34723857 -0.3428631 -0.11408736 0.26139718 0.016198605 0.44991103 -0.5056276 -0.7218983
0.17168848 0.1277929 0.011670788 -0.26910982 0.06447312 0.28449813 -0.13696957 0.0327423
0.055974815 0.06611195 0.24568067 -0.38160545 0.45682934 0.36455798 0.21098347 -0.3156364
0.11779737 0.29764646 0.03844974 -0.42079815 0.24632615 -0.21315074 -0.08933532 0.28922915
-0.13004243 -0.13712284 -0.24473013 -0.02192672 0.030182071 0.20446365 0.17401204 0.2959203
-0.25192156 0.5291266 -0.03162407 -0.049090337 0.061486125 -0.25718004 -0.3015239 -0.3961805
-0.14055449 0.022183836 0.07277677 -0.029803012 -0.5483255 -0.30435213 0.1402879 -0.104101725
0.31554192 -0.21698952 0.11978706 0.13700289 0.11369976 -0.020212326 -0.36085433 0.015713295
0.2482013 0.578836 0.17665794 -0.10231236 0.13485311 -0.14244623 0.43137962 0.37072626
0.23000336 -0.0654611 -0.15847796 0.15289883 0.26249152 -0.28379646 -0.36829314 -0.14447625
-0.122193456 0.63275856 -0.47193947 -0.22265302 0.15263218 -0.47420588 0.44560057 -0.22803082
0.302825 -0.32022184 -0.007744708 -0.12619741 -0.3556557 -0.2502429 -0.25900823 -0.096816465
0.16417593 0.054684427 0.26703623 0.2705141 -0.14861123 -0.13066706 0.07696534 0.0085496195
0.018529281 -0.13022558 0.24815889 -0.028456258 -0.39001122 0.40186065 -0.51534724 -0.652642
0.047591444 0.19085746 -0.23492011 -0.4687438 0.3790944 0.030008348 -0.41325724 0.060009014
-0.10776133 0.034574106 -0.05362078 -0.28017613 0.39550105 0.16266544 -0.045064446 -0.024760041
0.037377078 -0.41489607 -0.09374265 0.1310768 -0.121725164 0.7011589 -0.49542135 -0.44029248
0.21507052 0.2947601 0.07447258 -0.24764891 -0.31626865 0.025493957 -0.063291036 0.051646546
-0.2715426 -0.3642982 0.10518627 -0.24392718 -0.018585797 -0.14476232 -0.33474916 0.1263119
0.097462706 0.5064053 -0.49055687 -0.54203814 0.123955116 -0.49903178 0.6269395 0.48911586
0.21150906 0.6324931 0.33635873 -0.09180299 0.24609557 -0.7587103 0.31834042 0.564732
0.2788462 -0.29760996 0.1252379 0.102830924 -0.31564316 -0.09406637 0.3180506 0.0054101204
-0.078192964 -0.09558721 0.3755539 0.26554275 -0.017149758 -0.11813876 0.017916827 0.38744745
-0.11468273 0.1344439 -0.111206084 -0.23154213 -0.13930243 0.32739523 0.07889296 -0.062785774
0.054562554 0.12378398 0.18371116 -0.2872396 0.4612874 -0.018895542 -0.21119763 -0.30878428
0.52165407 -0.5521599 -0.6051904 0.60807705 -0.31210947 0.6808107 0.52277744 0.19931546
0.0272241 -0.2685088 -0.46624008 0.2642659 -0.32708493 0.794498 0.35720384 0.27768922
-0.203444 -0.019154394 -0.19903255 -0.21834828 -0.098218635 0.31158027 -0.16862151 -0.17057519
0.028829923 0.40922648 -0.3137917 -0.22307323 -0.017899232 0.39575163 -0.2752725 0.07212883
-0.32372004 -0.64261574 0.12253124 0.39465845 -0.5973906 0.5053415 -0.33120996 0.26870722
00000000: df01 e63e 0281 25be 8e81 9f3e 3b51 b53d
00000010: db58 363d c468 8dbc 0a16 13be 0cc0 ff3c
00000020: 5659 353e 9a87 543c e1a7 0c3e aa07 893e
00000030: cef3 053d f66c a73e bf8b 533e 363a a4bd
00000040: 41c9 b13e c18b afbe a2a6 e9bd dad5 853e
00000050: f0b2 843c bd5a e63e cf70 01bf 54ce 38bf
00000060: 1bcf 2f3e 24dc 023e d536 3f3c c3c8 89be
00000070: 7c0a 843d bda9 913e c041 0cbe ca1c 063d
00000080: d945 653d b465 873d b793 7b3e ca61 c3be
00000090: 89e5 e93e 58a7 ba3e 0d0c 583e 189b a1be
000000a0: bf3f f13d 1e65 983e 797d 1d3d db72 d7be
000000b0: ec3c 7c3e 3044 5abe 70f5 b6bd d815 943e
000000c0: d829 05be ee69 0cbe 899a 7abe aa9f b3bc
000000d0: 6440 f73c eb5e 513e 3630 323e de82 973e
000000e0: ddfb 80be d774 073f 3e88 01bd f312 49bd
000000f0: e0d8 7b3d 1aad 83be 5761 9abe 2cd8 cabe
00000100: 84ed 0fbe e0ba b53c fd0b 953d 7225 f4bc
00000110: 0f5f 0cbf 0bd4 9bbe a2a7 0f3e 4933 d5bd
00000120: b68e a13e 8032 5ebe eb52 f53d 7c4a 0c3e
00000130: 6bdb e83d 5294 a5bc e6c1 b8be 2bb9 803c
00000140: 7b28 7e3e 992e 143f d2e5 343e 2589 d1bd
00000150: ef16 0a3e 6ddd 11be cadd dc3e d5cf bd3e
00000160: 0086 6b3e 7810 86bd 0c48 22be 8391 1c3e
00000170: 4a65 863e c54d 91be eb90 bcbe 95f1 13be
00000180: 9040 fabd 77fc 213f 0da2 f1be 27ff 63be
00000190: 9c4b 1c3e 1dcb f2be c225 e43e e980 69be
000001a0: e10b 9b3e 1ef4 a3be 52c7 fdbb e539 01be
000001b0: 8118 b6be d61f 80be ba9c 84be b647 c6bd
000001c0: bc1d 283e c7fc 5f3d f9b8 883e d380 8a3e
000001d0: 8b2d 18be 96cd 05be 01a0 9d3d b413 0c3c
000001e0: b8ca 973c db59 05be 5d1d 7e3e 191d e9bc
000001f0: 8daf c7be aec0 cd3e cced 03bf 8c13 27bf
00000200: 3fef 423d 2370 433e e68e 70be 30ff efbe
00000210: a918 c23e 11d4 f53c 7496 d3be 03cc 753d
00000220: f9b1 dcbd 949d 0d3d 77a1 5bbd 3f73 8fbe
00000230: 1d7f ca3e c591 263e 7f95 38bd 92d5 cabc
00000240: b518 193d 426d d4be 25fc bfbd ff38 063e
00000250: 0b4b f9bd 267f 333f dea7 fdbe 046e e1be
00000260: 723b 5c3e ccea 963e 1485 983d ad97 7dbe
00000270: f7ed a1be b4d8 d03c bb9e 81bd 548b 533d
00000280: a207 8bbe 4b85 babe e66b d73d 0cc8 79be
00000290: 3e41 98bc 933c 14be 3e64 abbe e857 013e
000002a0: 879a c73d c7a3 013f 452a fbbe 03c3 0abf
000002b0: 2edc fd3d 1881 ffbe 1b7f 203f 656d fa3e
000002c0: d595 583e 11eb 213f 3637 ac3e 3503 bcbd
000002d0: 7a00 7c3e d73a 42bf 84fd a23e 4792 103f
000002e0: eec4 8e3e 5560 98be 5d3e 003e 0599 d23d
000002f0: fb9b a1be dea5 c0bd 87d7 a23e 6147 b13b
00000300: a223 a0bd 3ac3 c3bd 9a48 c03e 38f5 873e
00000310: a67d 8cbc bcf2 f1bd 4fc6 923c 835f c63e
00000320: c7de eabd a9ab 093e 04c0 e3bd 6119 6dbe
00000330: 4ca5 0ebe 59a0 a73e a292 a13d d495 80bd
00000340: fc7c 5f3d 7582 fd3d c71e 3c3e 1211 93be
00000350: dd2d ec3e d3ca 9abc 3144 58be f918 9ebe
00000360: 1f8b 053f 5a5a 0dbf c2ed 1abf f0aa 1b3f
00000370: d0cc 9fbe 9c49 2e3f bed4 053f 5a19 4c3e
00000380: 1305 df3c fc79 89be 05b7 eebe dc4d 873e
00000390: ad77 a7be 3964 4b3f 6ce3 b63e 482d 8e3e
000003a0: a053 50be ade9 9cbc 30cf 4bbe b196 5fbe
000003b0: da26 c9bd 7387 9f3e 1eab 2cbe 43ab 2ebe
000003c0: bb2c ec3c 2286 d13e 4ea9 a0be 4f6d 64be
000003d0: 69a1 92bc f59f ca3e 84f0 8cbe 48b8 933d
000003e0: a2be a5be 7782 24bf a9f1 fa3d ac10 ca3e
000003f0: 97ee 18bf 0f5e 013f 5a94 a9be fe93 893e

model.1.defunc.m.0.bias f4 [64]
0.36228126 0.20555873 -0.32427457 -0.39816758 -0.020051982 -0.19776611 0.08772757 0.07769794
-0.05099949 0.05040042 -0.007862429 -0.060266893 0.07716521 0.102718666 0.38756222 -0.34227335
-0.13654663 -0.45306778 -0.27007878 0.40452102 0.112637065 0.2813454 0.30211803 -0.0161258
-0.03511165 -0.052502632 -0.15831703 -0.40084156 -0.42805684 0.045876857 -0.16575234 -0.20611365
-0.42107546 -0.5093459 0.07468735 -0.37955993 -0.4243063 -0.3854005 0.006487814 0.35779765
-0.09738294 -0.21782748 0.10592387 -0.42800137 0.08489086 -0.16220741 -0.30546764 0.45076084
0.24393325 -0.10658853 0.08304408 -0.337131 0.049834006 0.27069414 -0.0717884 -0.31712684
0.20586687 0.13914704 0.45704547 -0.19987923 0.24993609 0.13157415 -0.08711886 0.2680162
00000000: ee7c b93e fd7d 523e 5107 a6be 9fdc cbbe
00000010: 0e44 a4bc 3383 4abe 83aa b33d 1920 9f3d
00000020: d7e4 50bd ac70 4e3d 6bd1 00bc 6bda 76bd
00000030: cb08 9e3d 2a5e d23d 8e6e c63e 743e afbe
00000040: e1d2 0bbe 80f8 e7be c447 8abe 611d cf3e
00000050: 43ae e63d 810c 903e 37af 9a3e 411a 84bc
00000060: 3cd1 0fbd 000d 57bd dc1d 22be 1b3b cdbe
00000070: 442a dbbe 5fe9 3b3d fbba 29be 750f 53be
00000080: 3497 d7be 7e64 02bf aef5 983d ae55 c2be
00000090: ad3e d9be 3753 c5be ba97 d43b 4131 b73e
000000a0: b570 c7bd 2b0e 5fbe 9dee d83d ff22 dbbe
000000b0: 42db ad3d b319 26be 4166 9cbe 20ca e63e
000000c0: a3c9 793e 164b dabd 0413 aa3d 6f9c acbe
000000d0: be1e 4c3d 6c98 8a3e cc05 93bd 735e a2be
000000e0: c4ce 523e 907c 0e3e dd01 ea3e 24ad 4cbe
000000f0: 3fef 7f3e 60bb 063e 5f6b b2bd 6b39 893e

model.1.defunc.m.2.weight f4 [8, 64]
-0.112302266 0.013884754 -0.014531661 -0.30766955 -0.08273353 0.031298317 -0.014745797 -0.10152747
0.3159253 -0.20217709 -0.014822405 0.10291871 0.056208443 0.15743493 0.095207915 -0.03771822
-0.32767165 -0.29498294 -0.13631102 0.08947074 -0.11978806 -0.097868465 -0.035133686 0.2745448
-0.085985705 -0.21546572 0.0031354546 0.32600403 -0.037164126 -0.18588673 -0.21894376 -0.079294406
0.30541125 -0.20059608 -0.028157787 0.18501028 0.03462053 -0.015255049 0.18552203 0.026372503
0.09762945 -0.19377847 -0.27887756 0.07340562 -0.015031028 -0.15374999 -0.32138452 -0.11423394
-0.2658961 0.16141945 0.30009806 0.086229004 -0.17782837 0.23292455 0.013169989 0.2488555
0.23251256 0.14189091 -0.23364009 0.29804662 -0.007747137 0.11879015 0.11568654 -0.13800813
-0.10080566 0.05923084 -0.24150227 0.09126302 0.009509417 0.08478065 0.06310213 0.26692912
0.036443383 -0.057065334 0.14668907 0.063226834 0.2473167 -0.09998439 -0.08350659 -0.23099428
0.061577346 0.11424267 -0.16177964 -0.01626391 -0.14866765 0.293744 0.17011444 -0.15397099
-0.15950951 0.05461628 -0.009075351 -0.30369195 -0.2187008 -0.07657528 0.21226689 -0.22954582
-0.17974238 0.1201916 0.16943648 -0.012678086 0.05975361 -0.10584556 -0.019114 -0.10607734
0.045073077 0.06908836 0.30717027 -0.2965527 0.18341967 -0.13799132 0.051191043 0.28893948
0.26278523 0.15425211 -0.021462599 -0.19045526 0.22641379 0.20916131 0.035838168 -0.0934087
-0.22767048 -0.15992875 0.3549051 -0.22341947 0.15974785 -0.2001309 -0.24580352 0.30831262
0.21799426 0.026359437 0.1893803 -0.16959108 -0.25993595 0.1329422 -0.08689145 0.053221278
0.16708986 0.12611865 -0.15190671 0.18573664 -0.0561441 0.3725057 -0.017291697 0.07823514
0.053219087 -0.19534202 -0.061769184 0.035961818 0.10812057 -0.040744256 -0.01202699 0.09628202
0.16324352 -0.27886346 0.036134847 0.22681393 0.05729294 -0.032046665 -0.024833454 0.18024921
0.0687143 -0.0020722728 -0.27006322 -0.25046104 -0.2233325 -0.1741094 0.16984387 0.20682369
-0.0580637 0.06568696 -0.33028555 0.040940642 -0.16039719 0.14237955 -0.1188342 -0.18646003
-0.16479532 -0.2131471 0.2661471 0.2615009 -0.19647771 -0.11172722 0.02641329 -0.16046542
0.22536494 -0.03511101 -0.061340168 -0.103190444 -0.1183408 -0.105103895 0.21092351 -0.15445271
0.076032095 0.008995433 0.21748848 -0.11426553 -0.034137983 -0.10813855 0.14597669 -0.04901519
0.104090944 -0.029364288 -0.13123105 0.015851155 -0.104595356 0.27825516 0.053091116 0.06287234
-0.20619386 -0.022971882 0.14858022 -0.05476533 -0.038561847 -0.18439911 -0.21255659 0.18610816
-0.021267762 0.033089675 -0.123805344 0.16078094 0.22097373 0.016110675 0.019925872 0.13942574
0.12619492 -0.0661206 -0.13155201 0.08080515 -0.21264458 -0.039564848 0.17165883 -0.010286049
0.02171559 0.012901552 -0.04129936 0.2320979 -0.18167502 0.1473506 -0.07349913 -0.15112358
-0.09469592 -0.08590499 -0.06649281 0.1301234 -0.29484382 0.033795323 -0.016040936 0.21706821
0.17260915 0.20980507 -0.2453452 0.20742306 0.017670795 0.15803203 0.022149663 -0.285421
00000000: bbfe e5bd e17c 633c 3416 6ebc dd86 9dbe
00000010: 3270 a9bd aa32 003d 5b98 71bc a2ed cfbd
00000020: f6c0 a13e 8307 4fbe acd9 72bc 0bc7 d23d
00000030: d33a 663d 9f36 213e 5efc c23d 6c7e 1abd
00000040: 94c4 a7be 0108 97be 1e95 0bbe 6f3c b73d
00000050: 7153 f5bd 436f c8bd 57e8 0fbd 2391 8c3e
00000060: 4619 b0bd 0ca3 5cbe 337c 4d3b 00ea a63e
00000070: 6939 18bd 1759 3ebe cb32 60be 1b65 a2bd
00000080: dd5e 9c3e 0f69 4dbe 29ab e6bc 5673 3d3e
00000090: 42ce 0d3d 50f0 79bc 7df9 3d3e 260b d83c
000000a0: f3f1 c73d dd6d 46be 0ac9 8ebe b055 963d
000000b0: b344 76bc a370 1dbe 838c a4be 7cf3 e9bd
000000c0: 8923 88be 244b 253e 74a6 993e d598 b03d
000000d0: a418 36be c683 6e3e f0c6 573c fad3 7e3e
000000e0: c617 6e3e da4b 113e 593f 6fbe 9199 983e
000000f0: b2db fdbb 4048 f33d 11ed ec3d 0152 0dbe
00000100: 3373 cebd 0a9c 723d 5f4c 77be 1be8 ba3d
00000110: 63cd 1b3c 7aa1 ad3d b13b 813d efaa 883e
00000120: a845 153d 57bd 69bd a935 163e 127d 813d
00000130: 9740 7d3e 9ec4 ccbd 8105 abbd c489 6cbe
00000140: 8738 7c3d 10f8 e93d 90a9 25be e43b 85bc
00000150: 553c 18be 9d65 963e 7b32 2e3e 92aa 1dbe
00000160: 7656 23be 52b5 5f3d c8b0 14bc 837d 9bbe
00000170: 1af3 5fbe 80d3 9cbd 7e5c 593e 0f0e 6bbe
00000180: 630e 38be 0327 f63d c280 2d3e bfb7 4fbc
00000190: 34c0 743d 8fc5 d8bd f794 9cbc 143f d9bd
000001a0: 8c9e 383d 337e 8d3d 6c45 9d3e c1d5 97be
000001b0: 5ed2 3b3e 994d 0dbe b3ad 513d e0ef 933e
000001c0: c98b 863e 44f4 1d3e 55d2 afbc b406 43be
000001d0: 04d9 673e 622e 563e 0bcb 123d 0f4d bfbd
000001e0: 7322 69be 5dc4 23be 1fb6 b53e 13c8 64be
000001f0: f194 233e 1def 4cbe ebb3 7bbe 27db 9d3e
00000200: e339 5f3e bfef d73c e9ec 413e 49a9 2dbe
00000210: 5316 85be 0022 083e 25f4 b1bd 8efe 593d
00000220: 9b19 2b3e 3f25 013e 6f8d 1bbe bf31 3e3e
00000230: 5bf7 65bd 11b9 be3e 51a7 8dbc bf39 a03d
00000240: 42fc 593d bd07 48be af01 7dbd b34c 133d
00000250: 516e dd3d 73e3 26bd da0c 45bc 822f c53d
00000260: 4f29 273e 31c7 8ebe 2202 143d e941 683e
00000270: 00ac 6a3d 5d43 03bd 876f cbbc 4093 383e
00000280: 15ba 8c3d f8ce 07bb ba45 8abe 6e3c 80be
00000290: 46b1 64be bc49 32be 8deb 2d3e 97c9 533e
000002a0: 34d4 6dbd e386 863d 301b a9be 60b1 273d
000002b0: 293f 24be f2cb 113e 585f f3bd 61ef 3ebe
000002c0: 1bc0 28be 3c43 5abe 6f44 883e 72e3 853e
000002d0: 7431 49be 3ed1 e4bd af60 d83c 0c51 24be
000002e0: 11c6 663e 90d0 0fbd d43f 7bbd 8355 d3bd
000002f0: a95c f2bd b640 d7bd 55fc 573e da28 1ebe
00000300: b7b6 9b3d 9561 133c 4db5 5e3e 0c04 eabd
00000310: 45d4 0bbd be77 ddbd ea7a 153e 27c4 48bd
00000320: a22d d53d 608d f0bc 6f61 06be 48da 813c
00000330: 1736 d6bd 7677 8e3e 1276 593d 37c3 803d
00000340: 7c24 53be 872f bcbc 6a25 183e 9c51 60bd
00000350: 07f3 1dbd 1fd3 3cbe 6fa8 59be 2393 3e3e
00000360: bb39 aebc 0a89 073d a88d fdbd c2a3 243e
00000370: f046 623e 89fa 833c 953b a33c 9fc5 0e3e
00000380: 3e39 013e 3d6a 87bd 92b5 06be 2c7d a53d
00000390: 80bf 59be c00e 22bd 55c7 2f3e d186 28bc
000003a0: e5e4 b13c 0861 533c 8529 29bd 12ab 6d3e
000003b0: 0409 3abe 13e3 163e b686 96bd 24c0 1abe
000003c0: efef c1bd f5ee afbd 622d 88bd 123f 053e
000003d0: c5f5 96be f76c 0a3d 4868 83bc 2147 5e3e
000003e0: 74c0 303e 24d7 563e c63b 7bbe b666 543e
000003f0: 58c2 903c 26d3 213e 3673 b53c b422 92be

model.1.defunc.m.2.bias f4 [8]
0.24410616 -0.17775355 0.21015087 0.13749969 -0.19640586 -0.283991 0.17520139 0.12997687
00000000: f7f6 793e 0705 36be ca31 573e b8cc 0c3e
00000010: 9e1e 49be 4567 91be fe67 333e a818 053e

model.2.weight f4 [2, 8]
0.3254471 -0.25642076 0.14346573 0.013700643 -0.4774507 -0.33134118 0.31899998 0.14457537
-0.3788129 0.33611286 -0.32492286 -0.275467 0.5525167 0.5884448 -0.22194825 0.14081056
00000000: 01a1 a63e 9549 83be aee8 123e a978 603c
00000010: 6b74 f4be 8da5 a9be f753 a33e 910b 143e
00000020: c4f3 c1be fc16 ac3e 4a5c a6be 030a 8dbe
00000030: bc71 0d3f 52a4 163f 6746 63be a530 103e

model.2.bias f4 [2]
0.21745342 -0.4710626
00000000: 1cac 5e3e 1e2f f1be
