lightning_logs/version_3/checkpoints/epoch=199-step=199.ckpt (torch, 19857 bytes, 18 tensors)

exp_avg f4 [64, 8]
0	0xb7a08019	-1.9133136e-05
1	0x378b5f52	1.6614478e-05
2	0xb6a3a53b	-4.877014e-06
3	0x378f84ec	1.7108825e-05
4	0x371b04d5	9.239845e-06
5	0x379213b9	1.741374e-05
6	0xb80a634a	-3.2994234e-05
7	0x37f68f43	2.9392197e-05
8	0x38eba292	0.00011235954
9	0xb90823dc	-0.0001298333
10	0x3837debd	4.383804e-05
11	0xb8835b98	-6.2636274e-05
12	0xb8ae001a	-8.2969855e-05
13	0xb78a9ec1	-1.6524808e-05
14	0x365ac7be	3.2600797e-06
15	0x36b0b6fe	5.266512e-06
16	0x379081ca	1.7226575e-05
17	0xb8174ff6	-3.6075675e-05
18	0x37fd47f1	3.019345e-05
19	0xb72c88fc	-1.0283893e-05
20	0xb805f983	-3.1942047e-05
21	0x37203d7d	9.5510595e-06
22	0xb7b45f25	-2.1501977e-05
23	0x34f009ea	4.4710697e-07
24	0xb834d2cf	-4.3111675e-05
25	0x3834f604	4.3144464e-05
26	0xb794ccaf	-1.7738288e-05
27	0x383abccc	4.4521687e-05
28	0x37fbba9b	3.0008427e-05
29	0xb8658e87	-5.4730594e-05
30	0xb87433f4	-5.822252e-05
31	0x383452c7	4.2992437e-05
32	0x38ec0fe2	0.00011256315
33	0xb8d2471d	-0.00010026826
34	0x3621f41c	2.413296e-06
35	0xb86ed9ff	-5.6946647e-05
36	0xb83ac763	-4.453155e-05
37	0xb8a500b6	-7.8679455e-05
38	0x3899483c	7.309063e-05
39	0xb6e999e4	-6.9618563e-06
40	0xb8f6c40e	-0.00011766712
41	0x38edc4c8	0.00011337694
42	0xb5a837f8	-1.2533264e-06
43	0x38c30806	9.299819e-05
44	0x386dc67e	5.6690064e-05
45	0x38b2d1ea	8.526801e-05
46	0xb889562b	-6.548719e-05
47	0xb872f05e	-5.7921156e-05
48	0x389f6365	7.6002245e-05
49	0xb8ca70dc	-9.653132e-05
50	0x3821c148	3.85654e-05
51	0xb7f993ab	-2.9751876e-05
52	0xb886ca86	-6.427341e-05
53	0x35ab266c	1.2751675e-06
54	0xb7bec581	-2.2741735e-05
55	0x37951247	1.7770695e-05
56	0xb7da4cea	-2.6023441e-05
57	0x382356fd	3.8943243e-05
58	0xb8035e01	-3.1320382e-05
59	0x37aa879a	2.0328724e-05
60	0x380b995c	3.328301e-05
61	0xb801989a	-3.0898118e-05
62	0x3337298e	4.26458e-08
63	0x375a9401	1.3028272e-05
64	0x38ba9f46	8.898838e-05
65	0xb8f11b5f	-0.00011496874
66	0x381c1613	3.7213857e-05
67	0xb7a47fae	-1.9609779e-05
68	0xb8972eee	-7.2089824e-05
69	0xb6896a69	-4.095306e-06
70	0xb87c5fc1	-6.017066e-05
71	0x38658702	5.472359e-05
72	0x37aca6fb	2.0581754e-05
73	0xb79e8e60	-1.8901366e-05
74	0xb602db95	-1.9499323e-06
75	0xb75f7a68	-1.3320336e-05
76	0xb71931a8	-9.131072e-06
77	0xb6b9b36e	-5.534318e-06
78	0x373fb9d0	1.142775e-05
79	0x37808d6a	1.532464e-05
80	0x380478e9	3.158386e-05
81	0xb810294c	-3.4370736e-05
82	0x371db232	9.399419e-06
83	0xb7fbfd78	-3.0039562e-05
84	0xb7c68825	-2.3666837e-05
85	0x379c4cf5	1.8632485e-05
86	0x377815da	1.478704e-05
87	0x380a14b0	3.292103e-05
88	0xb8007709	-3.062844e-05
89	0x3811bbf3	3.4745735e-05
90	0xb768e1fd	-1.3880895e-05
91	0x37a47f0c	1.9609484e-05
92	0x37c13b5f	2.303504e-05
93	0x36824bb3	3.8831145e-06
94	0xb737e5b4	-1.0961132e-05
95	0x3716e94f	8.995018e-06
96	0x386f1a74	5.7006677e-05
97	0xb88d52ac	-6.738803e-05
98	0x379eafe9	1.8916982e-05
99	0xb7bfb6cb	-2.2854094e-05
100	0xb82cf2f4	-4.1234263e-05
101	0xb76d1077	-1.4130134e-05
102	0xb6a5bd1e	-4.9393993e-06
103	0x378a1388	1.6459977e-05
104	0xb9010a93	-0.00012306338
105	0x3911f933	0.00013921112
106	0xb820e273	-3.835787e-05
107	0x388895ae	6.5128654e-05
108	0x38b3db48	8.5762294e-05
109	0x3733123c	1.0673477e-05
110	0x37223d50	9.670228e-06
111	0xb82c81e4	-4.1128966e-05
112	0xb8b04cec	-8.406662e-05
113	0x38e6c6ea	0.00011004305
114	0xb8366dab	-4.3494318e-05
115	0x38043db7	3.152873e-05
116	0x389a2cc3	7.35163e-05
117	0x36bd6972	5.6449144e-06
118	0x381b3792	3.7006634e-05
119	0xb81a84bf	-3.684009e-05
120	0xb8986903	-7.267485e-05
121	0x38c55fde	9.411549e-05
122	0xb8356b83	-4.325389e-05
123	0x37f2df4a	2.8952625e-05
124	0x3887371f	6.447569e-05
125	0xb7b471d2	-2.1510674e-05
126	0x38016483	3.0849606e-05
127	0xb63f503c	-2.850792e-06
128	0xb82d602d	-4.1335985e-05
129	0x386f1c83	5.7008594e-05
130	0xb7e4820b	-2.7240274e-05
131	0x3755fc9c	1.27546045e-05
132	0x3828d78d	4.025507e-05
133	0xb71ca2ce	-9.3362305e-06
134	0x37d2c438	2.5125322e-05
135	0xb725b1ce	-9.876165e-06
136	0x383a4252	4.440762e-05
137	0xb8963bca	-7.163694e-05
138	0x38035172	3.1308686e-05
139	0xb705d799	-7.9776155e-06
140	0xb858e4bd	-5.1711442e-05
141	0xb7ce624c	-2.4602887e-05
142	0xb8e092a9	-0.0001070847
143	0x391a0293	0.00014687543
144	0xb9054b1f	-0.00012711853
145	0x392f73ea	0.00016732482
146	0xb88e819c	-6.795229e-05
147	0x3801a557	3.090998e-05
148	0x38e844c7	0.00011075433
149	0xb82f6b89	-4.18234e-05
150	0x38da23d2	0.00010401722
151	0xb86c1dac	-5.629442e-05
152	0xb801adef	-3.0917985e-05
153	0x383e97f7	4.544106e-05
154	0xb77300f4	-1.4484151e-05
155	0xb5cec3ae	-1.5405146e-06
156	0x37fffc65	3.05159e-05
157	0xb81ba1d2	-3.7105587e-05
158	0x38a13a90	7.687986e-05
159	0xb8757f27	-5.853097e-05
160	0x38df5177	0.00010648643
161	0xb8e749de	-0.00011028697
162	0x381d2358	3.7464633e-05
163	0xb8901638	-6.870594e-05
164	0xb89216c5	-6.966064e-05
165	0x37867585	1.602877e-05
166	0x37e276a1	2.699654e-05
167	0x3792e3db	1.751066e-05
168	0x37476b05	1.1886242e-05
169	0xb75243db	-1.2532774e-05
170	0x365bf5ad	3.2776545e-06
171	0xb6cf8cb0	-6.185459e-06
172	0xb70096bd	-7.664491e-06
173	0xb6b3ad15	-5.354765e-06
174	0x3727c8f4	1.0000764e-05
175	0xb629849f	-2.5260158e-06
176	0xb7d66f0d	-2.55625e-05
177	0x3820844a	3.8270176e-05
178	0xb80d5c6a	-3.3703087e-05
179	0x37fcfefe	3.0159481e-05
180	0x381ee7ff	3.78862e-05
181	0xb8da51bd	-0.00010410275
182	0xb751ea73	-1.2511958e-05
183	0x3782ef14	1.5608537e-05
184	0x38be76ab	9.08201e-05
185	0xb8afe529	-8.387335e-05
186	0xb66b4e05	-3.5063142e-06
187	0xb8414d60	-4.6086847e-05
188	0xb822b2ff	-3.8790513e-05
189	0xb8d97ee7	-0.00010371004
190	0x3890839e	6.890971e-05
191	0x388569b7	6.361625e-05
192	0x38199fe8	3.6626967e-05
193	0xb83c8218	-4.4943852e-05
194	0x377cc6d4	1.5066664e-05
195	0xb7867769	-1.602965e-05
196	0xb7f3b6c5	-2.9052966e-05
197	0x379c1ce5	1.8610104e-05
198	0xb54ad661	-7.5562826e-07
199	0xb66724e6	-3.444316e-06
200	0xb8c2d1a7	-9.289692e-05
201	0x38ee7ee0	0.00011372357
202	0xb809df99	-3.2871587e-05
203	0x38001c8a	3.0544157e-05
204	0x3894898a	7.0828086e-05
205	0x36400db1	2.86182e-06
206	0x38103292	3.4379373e-05
207	0xb8824f4e	-6.213655e-05
208	0x37bc7678	2.2466513e-05
209	0xb83d2319	-4.50938e-05
210	0x382fd1cb	4.1918636e-05
211	0xb7c9eac1	-2.4070383e-05
212	0xb83260ea	-4.2528765e-05
213	0xb635b7db	-2.707812e-06
214	0x378e1bd6	1.6940681e-05
215	0xb662f6ea	-3.3820347e-06
216	0x38753909	5.846567e-05
217	0xb899534f	-7.311126e-05
218	0x37202325	9.544926e-06
219	0x341cd28b	1.4605227e-07
220	0xb82b0e5a	-4.0782943e-05
221	0x35a327ec	1.2156065e-06
222	0xb8f7448b	-0.00011790645
223	0x38f58cfd	0.000117087715
224	0x37b7fb60	2.1932356e-05
225	0xb81f80a8	-3.8028375e-05
226	0x3802c920	3.1181728e-05
227	0xb7a8a8c0	-2.0105741e-05
228	0xb80e5604	-3.3935547e-05
229	0x367028a3	3.578644e-06
230	0x36fd9c3f	7.558177e-06
231	0x365f2833	3.3252988e-06
232	0xb7bc8822	-2.2474738e-05
233	0x3803265d	3.1268562e-05
234	0xb76532f7	-1.366133e-05
235	0x373207f8	1.0611482e-05
236	0x37c2cafa	2.322112e-05
237	0xb7e49902	-2.7250968e-05
238	0x37bfa524	2.2845874e-05
239	0xb7fefc54	-3.0396659e-05
240	0x38bd1d55	9.017686e-05
241	0xb8e66225	-0.000109855355
242	0x3830dc1c	4.2166663e-05
243	0xb85c6fd3	-5.2556232e-05
244	0xb89a144d	-7.3470736e-05
245	0xb6e65ccd	-6.8653376e-06
246	0xb71b111e	-9.242705e-06
247	0x37d68b2a	2.5575591e-05
248	0xb70a6836	-8.2497045e-06
249	0x374ab847	1.2083044e-05
250	0xb713fe09	-8.82103e-06
251	0x36856a84	3.976109e-06
252	0x3719aa22	9.159123e-06
253	0x360d58b2	2.1062265e-06
254	0xb4cb46f1	-3.7863313e-07
255	0x37355920	1.0809192e-05

exp_avg_sq f4 [64, 8]
0	0x351ae48b	5.7702044e-07
1	0x3680b014	3.8351955e-06
2	0x36bf325b	5.6981057e-06
3	0x364799b8	2.9742787e-06
4	0x36a05644	4.778414e-06
5	0x36227cda	2.4212554e-06
6	0x37d7c348	2.5720932e-05
7	0x3789a3d9	1.640797e-05
8	0x373d7804	1.1293221e-05
9	0x3a47b5dc	0.0007618347
10	0x3a8fbfd0	0.0010967199
11	0x39e351da	0.00043357798
12	0x3a7a6559	0.0009551845
13	0x3977b1e3	0.00023622024
14	0x3b99f037	0.0046978253
15	0x3aa68ff3	0.0012707695
16	0x3655d0dd	3.1861048e-06
17	0x37256a44	9.859508e-06
18	0x386a7cf8	5.5906334e-05
19	0x369bc645	4.6424416e-06
20	0x37f3d62b	2.9067587e-05
21	0x38fe4bd1	0.00012125786
22	0x39078e61	0.00012927644
23	0x37b83f0c	2.1963868e-05
24	0x36dd946b	6.6035914e-06
25	0x3a04ec04	0.00050705695
26	0x3a3ca3ca	0.00071960373
27	0x39ce3258	0.0003932889
28	0x3a24a722	0.0006281008
29	0x388edd37	6.812292e-05
30	0x3b986566	0.0046507595
31	0x3abaf18e	0.0014262663
32	0x3797c5df	1.8092744e-05
33	0x3ab0dd77	0.0013493736
34	0x3b0d27c9	0.0021538606
35	0x3a82e717	0.0009987083
36	0x3ae44a5a	0.0017417178
37	0x3a22187b	0.00061834574
38	0x3c32c806	0.010911947
39	0x3b12327c	0.0022307923
40	0x37ecd40e	2.8232138e-05
41	0x3b07b192	0.0020705205
42	0x3b54f13a	0.0032492415
43	0x3ac9312a	0.0015349735
44	0x3b30eba4	0.0026995922
45	0x3a809b65	0.0009811936
46	0x3c8c53d0	0.017129809
47	0x3b90f601	0.004423857
48	0x36f8c134	7.4134678e-06
49	0x3a060bf8	0.0005113478
50	0x3a4c7cd9	0.0007800586
51	0x39992a09	0.00029213753
52	0x3a2cd34c	0.0006592765
53	0x39621d94	0.00021564058
54	0x3b5f2d43	0.0034054078
55	0x3a6f7a63	0.00091353635
56	0x369ce10b	4.6753607e-06
57	0x3837b9f8	4.3803797e-05
58	0x3918bee1	0.00014566958
59	0x37e30ddc	2.7066963e-05
60	0x38bab899	8.903555e-05
61	0x394878a2	0.00019118426
62	0x3a0b923a	0.00053242187
63	0x38f5145b	0.00011686302
64	0x3781b854	1.5463833e-05
65	0x3aa1ede3	0.0012354221
66	0x3afd72df	0.0019336602
67	0x3a427ba6	0.0007418938
68	0x3ad48d20	0.0016216375
69	0x3a255d69	0.00063081697
70	0x3c09c883	0.008409622
71	0x3b1b3fd6	0.0023689172
72	0x34eba371	4.389108e-07
73	0x3882d71a	6.238949e-05
74	0x38a8065a	8.012047e-05
75	0x38491a00	4.794635e-05
76	0x38993108	7.304741e-05
77	0x36d65344	6.3873904e-06
78	0x3a0992c4	0.0005248005
79	0x392d4397	0.00016523745
80	0x36e16abb	6.7179476e-06
81	0x38cbb4f2	9.713498e-05
82	0x39321558	0.00016983354
83	0x389e9a7b	7.562801e-05
84	0x3917b03f	0.00014466139
85	0x3812ba8e	3.4982855e-05
86	0x3a9b2a64	0.0011838195
87	0x3a2cb0de	0.00065876346
88	0x34915fd9	2.7078093e-07
89	0x37849b24	1.580787e-05
90	0x37bd9517	2.2599981e-05
91	0x371821e9	9.067801e-06
92	0x37a661b6	1.9834242e-05
93	0x36bf92e8	5.7093457e-06
94	0x38ce4300	9.835325e-05
95	0x37ec7ff5	2.8192977e-05
96	0x36a2bf15	4.850221e-06
97	0x39bb1493	0.00035682748
98	0x3a0a0e82	0.0005266444
99	0x3955b887	0.00020382005
100	0x39ed6444	0.00045278866
101	0x391950bf	0.00014621297
102	0x3b14db14	0.0022713589
103	0x3a258bcd	0.00063150824
104	0x37c30245	2.3246868e-05
105	0x3ae62763	0.0017559346
106	0x3b2501fb	0.0025178182
107	0x3a862f34	0.0010237456
108	0x3b0fe75b	0.0021957967
109	0x3a125bbe	0.00055831287
110	0x3c2fc9b6	0.010729244
111	0x3b3a49ea	0.0028425404
112	0x372b777b	1.0220213e-05
113	0x3a43fae9	0.0007476048
114	0x3a91fd0f	0.0011138039
115	0x39e72414	0.00044086634
116	0x3a789381	0.0009482429
117	0x398a6df9	0.00026403347
118	0x3ba63f07	0.0050734314
119	0x3aa8f38e	0.0012889968
120	0x37172de5	9.010987e-06
121	0x3a34a24b	0.00068906386
122	0x3a8438c9	0.0010087724
123	0x39d029fd	0.00039704135
124	0x3a6595c1	0.0008757972
125	0x397d7ccd	0.00024174452
126	0x3b8d6c4d	0.004315889
127	0x3aa643f4	0.0012685047
128	0x35882bea	1.014557e-06
129	0x37cc2927	2.4337858e-05
130	0x383cee1a	4.5044442e-05
131	0x376f1a56	1.4251642e-05
132	0x381910ba	3.649362e-05
133	0x37a86d6f	2.007812e-05
134	0x3963cd2a	0.00021724837
135	0x38ce1629	9.826973e-05
136	0x37347c0d	1.0757719e-05
137	0x3877d5c0	5.908846e-05
138	0x39859249	0.00025476728
139	0x37cc0b89	2.4324067e-05
140	0x39230308	0.0001554602
141	0x3a381e67	0.0007023573
142	0x3a358904	0.0006925019
143	0x3a1b923d	0.0005934572
144	0x38131cab	3.507423e-05
145	0x3b463adb	0.0030247483
146	0x3b961b45	0.0045808875
147	0x3af5fc09	0.0018767129
148	0x3b7f897d	0.0038991862
149	0x3aa19209	0.0012326847
150	0x3ca2e1b6	0.019883018
151	0x3bb44aa6	0.005502063
152	0x3659823f	3.2411333e-06
153	0x37a2e35f	1.9417783e-05
154	0x387df9b4	6.0552455e-05
155	0x3718227b	9.067934e-06
156	0x383943a0	4.4170418e-05
157	0x38f994eb	0.000119009834
158	0x398950be	0.00026190834
159	0x399d2162	0.00029970246
160	0x37771b77	1.4728742e-05
161	0x3aa6f09c	0.0012736502
162	0x3afc02f5	0.0019226955
163	0x3a56e14f	0.0008197026
164	0x3ad5fa17	0.0016325143
165	0x3a02a748	0.00049840333
166	0x3c103d70	0.00880371
167	0x3b2081d1	0.002449144
168	0x346f33f7	2.2277514e-07
169	0x372151b6	9.615373e-06
170	0x37442e26	1.1693255e-05
171	0x36bc3de3	5.610041e-06
172	0x3730e5c4	1.0543914e-05
173	0x369f9c7c	4.7567864e-06
174	0x3862780a	5.3994394e-05
175	0x371e2138	9.425268e-06
176	0x36ba2b8d	5.548302e-06
177	0x38b7b9ed	8.7607514e-05
178	0x390a704e	0.00013202542
179	0x3883cbd1	6.2845305e-05
180	0x3904490f	0.00012615717
181	0x38147147	3.5391447e-05
182	0x3a8099b9	0.0009811438
183	0x3a6812e1	0.0008852911
184	0x375e9928	1.3267891e-05
185	0x3a9a2a1f	0.0011761821
186	0x3aee5c2a	0.0018185426
187	0x3a59371e	0.0008286106
188	0x3ac4b310	0.0015006978
189	0x3a0c6715	0.00053559366
190	0x3c139163	0.009006831
191	0x3afa4b85	0.0019095993
192	0x36055b49	1.987168e-06
193	0x38c3829e	9.322654e-05
194	0x391ff485	0.00015254512
195	0x388768fa	6.456855e-05
196	0x3904860f	0.00012638442
197	0x37d348b8	2.5187022e-05
198	0x3a658ea9	0.0008756915
199	0x39a67cf7	0.00031755093
200	0x3771326f	1.4376462e-05
201	0x3aa4695a	0.0012543604
202	0x3af14345	0.0018406889
203	0x3a4f3894	0.0007904854
204	0x3acf50d3	0.0015816934
205	0x39cf0265	0.000394839
206	0x3c113b8e	0.008864297
207	0x3b22f1cf	0.0024863367
208	0x36f03627	7.1588615e-06
209	0x37c6be31	2.3692004e-05
210	0x390f64d6	0.00013675107
211	0x376a5fb4	1.39697695e-05
212	0x388f2217	6.825121e-05
213	0x39c00a36	0.00036628701
214	0x39d966de	0.00041466107
215	0x38177cb0	3.611733e-05
216	0x37428740	1.1594791e-05
217	0x38f49abd	0.00011663649
218	0x39b612ce	0.00034727756
219	0x3881d386	6.190599e-05
220	0x397b8fff	0.00023990868
221	0x3a1c9697	0.00059733674
222	0x3aade4f2	0.0013267084
223	0x3a7ef155	0.00097252923
224	0x3670223d	3.5782716e-06
225	0x378e2aab	1.6947588e-05
226	0x38b7a20a	8.756302e-05
227	0x36fd4eb2	7.549149e-06
228	0x38436db8	4.6593806e-05
229	0x39739aa3	0.00023231893
230	0x39552621	0.00020327467
231	0x3818cfa6	3.643301e-05
232	0x365ef405	3.3222616e-06
233	0x37e5bca4	2.738677e-05
234	0x38827e2f	6.2223866e-05
235	0x379d6096	1.8760835e-05
236	0x384cdafe	4.8841343e-05
237	0x3821276b	3.8422102e-05
238	0x39c913f1	0.00038352565
239	0x39808061	0.00024509712
240	0x3748c92f	1.1967771e-05
241	0x3a73c43e	0.0009298957
242	0x3aa86f4d	0.0012850553
243	0x3a0e3082	0.00054240983
244	0x3a9509eb	0.0011370754
245	0x3987961c	0.00025861047
246	0x3bb7b533	0.0056063174
247	0x3ac25efa	0.0014829331
248	0x351e938d	5.90743e-07
249	0x3621778f	2.4060462e-06
250	0x37499605	1.2015463e-05
251	0x35e10dce	1.6767824e-06
252	0x36cedc7a	6.1649453e-06
253	0x37cd97a2	2.4508514e-05
254	0x38218db4	3.8517363e-05
255	0x3621a90d	2.408927e-06

exp_avg f4 [64]
0	0x372cd392	1.0301259e-05
1	0xb88da99d	-6.754997e-05
2	0x390138e7	0.00012323596
3	0xb7f2389e	-2.8875013e-05
4	0xb8faedf9	-0.00011965255
5	0x377bccb1	1.5008424e-05
6	0xb845edf7	-4.7190082e-05
7	0xb897932f	-7.227656e-05
8	0xb8a43d08	-7.831497e-05
9	0xb816df45	-3.5970723e-05
10	0x3893e205	7.051606e-05
11	0x37517a85	1.2485897e-05
12	0xb840b1a4	-4.5941808e-05
13	0x38d4d58e	0.000101487254
14	0x3880705c	6.124444e-05
15	0x38261e3c	3.9605642e-05
16	0x37acff29	2.0622816e-05
17	0x3839f1e7	4.4332726e-05
18	0x38d47c4b	0.00010132099
19	0x37622faa	1.3481747e-05
20	0xb88dab5c	-6.755322e-05
21	0xb7789ae4	-1.4818015e-05
22	0xb9185321	-0.00014526818
23	0xb8952ac2	-7.112838e-05
24	0xb61f9846	-2.378148e-06
25	0x38c3a7f0	9.3296054e-05
26	0x395d1384	0.00021083473
27	0xb8932cb0	-7.01783e-05
28	0x390ab13b	0.00013226729
29	0xb812cf17	-3.500198e-05
30	0xb872115e	-5.771347e-05
31	0xb7e66b2c	-2.7468042e-05
32	0xb82292c6	-3.8760503e-05
33	0xb80eb18b	-3.4020788e-05
34	0xb7912898	-1.730425e-05
35	0xb90b11e8	-0.00013262744
36	0xb87871d9	-5.9233837e-05
37	0x391b3712	0.00014802467
38	0xb76c9a2e	-1.4102594e-05
39	0x37e51555	2.730886e-05
40	0xb8ae40d8	-8.309045e-05
41	0xb8022f4c	-3.1038464e-05
42	0xb84a6394	-4.8253292e-05
43	0x38a1ec45	7.721087e-05
44	0xb86cfe8e	-5.6503857e-05
45	0x36d034de	6.2050376e-06
46	0x384d3378	4.8923743e-05
47	0xb6bb2799	-5.577644e-06
48	0xb84b5bcc	-4.8484464e-05
49	0x3767268c	1.3777648e-05
50	0xb7664abb	-1.3726468e-05
51	0x372513da	9.839388e-06
52	0xb802dd4f	-3.1200525e-05
53	0x3777d5a0	1.4772086e-05
54	0xb852e752	-5.0283335e-05
55	0x3780e15a	1.5363727e-05
56	0x3838edf4	4.409063e-05
57	0x380db37b	3.3784174e-05
58	0x37bf1b86	2.278179e-05
59	0xb88cc1a6	-6.71179e-05
60	0xb755f387	-1.275249e-05
61	0xb79b044d	-1.8479443e-05
62	0xb89bd7fb	-7.4312054e-05
63	0xb84d5aab	-4.896025e-05

exp_avg_sq f4 [64]
0	0x39860dc7	0.00025568737
1	0x3bd3dda3	0.00646563
2	0x3af11710	0.0018393714
3	0x3bf0ad30	0.0073448643
4	0x3c6c3e73	0.014419186
5	0x3cd10a89	0.025517719
6	0x3bb17603	0.0054156794
7	0x3b314da1	0.0027054327
8	0x3c4cefec	0.012508374
9	0x3a0e0a31	0.0005418389
10	0x3ba3d709	0.0049999994
11	0x38fc5d5b	0.00012033685
12	0x3b3db113	0.0028944656
13	0x3c555f8f	0.013023271
14	0x3bef1630	0.007296346
15	0x3bcbe9b1	0.0062229265
16	0x3a4f43bf	0.00079065183
17	0x3bce6def	0.006299726
18	0x3cdabb21	0.026700558
19	0x3b108453	0.0022051528
20	0x3c46b157	0.012127242
21	0x3753891e	1.2608505e-05
22	0x3b9c07b2	0.0047616595
23	0x3c23ae37	0.0099902665
24	0x3b10c378	0.0022089165
25	0x3c46d395	0.012135406
26	0x3b60b237	0.0034285912
27	0x3be3651d	0.006939544
28	0x3aee8d29	0.0018200028
29	0x3b16eccc	0.0023029326
30	0x3bcd2a7f	0.0062611694
31	0x399d4f7e	0.000300046
32	0x3b24f83a	0.0025172369
33	0x3ac5d1ac	0.0015092394
34	0x38718278	5.7580386e-05
35	0x3d16fce7	0.03686228
36	0x3c324b4d	0.010882211
37	0x3b8893bc	0.004168002
38	0x39775a27	0.0002358934
39	0x37b23b57	2.1246886e-05
40	0x3b3037ed	0.0026888803
41	0x38d8a587	0.000103305145
42	0x3b2aaaaa	0.0026041665
43	0x3b21e38e	0.0024702284
44	0x3a8dbd38	0.0010813838
45	0x374d265e	1.2227885e-05
46	0x3b43fcdf	0.0029905362
47	0x3a80880f	0.0009806174
48	0x3afe318c	0.0019393428
49	0x3a5c9756	0.0008414885
50	0x3b3ae82f	0.002851974
51	0x3a09bda9	0.0005254397
52	0x3bbf3b78	0.0058359466
53	0x37e1f275	2.6934993e-05
54	0x3bd0cc2f	0.006371997
55	0x3977d14c	0.00023633725
56	0x3aecd3ad	0.0018068455
57	0x39ae5f36	0.00033258804
58	0x38bd57dc	9.0285874e-05
59	0x3ac64fd6	0.0015129994
60	0x3b45ba96	0.0030171028
61	0x3a8fdb46	0.0010975383
62	0x3b3a8643	0.0028461374
63	0x3c316bae	0.0108288955

exp_avg f4 [8, 64]
0	0x3882544b	6.214584e-05
1	0x38dc62e7	0.000105088395
2	0x38cdaeba	9.807707e-05
3	0xb965388a	-0.00021860204
4	0x393d5185	0.00018054813
5	0xb9336ab2	-0.00017110517
6	0x391c0dc5	0.00014882449
7	0xb8fc5c6a	-0.0001203351
8	0x39628ca9	0.0002160544
9	0x38ab2298	8.160359e-05
10	0x393bbaa4	0.00017903239
11	0xb82cdd20	-4.1213934e-05
12	0x391f70a3	0.00015205382
13	0xb92dc2ad	-0.00016571088
14	0xb92d5f21	-0.00016534004
15	0xb94a712c	-0.00019306381
16	0xb89b470b	-7.404209e-05
17	0x393ba50c	0.00017895194
18	0xb95cee45	-0.00021069597
19	0xb8b230dd	-8.496803e-05
20	0x3923200f	0.00015556834
21	0x38b24759	8.500991e-05
22	0xb96436c0	-0.0002176417
23	0x393a4c40	0.00017766748
24	0x39159b11	0.00014267514
25	0xb9292238	-0.00016129843
26	0x396a2b84	0.0002233219
27	0x389eb1e8	7.567165e-05
28	0x391520b0	0.00014221924
29	0xb90c577d	-0.00013384032
30	0x392e3444	0.00016613404
31	0xb8e0c610	-0.00010718044
32	0x3957bfe0	0.00020575477
33	0x3892bb69	6.9967304e-05
34	0xb8561a00	-5.104579e-05
35	0x39381270	0.00017554476
36	0x3942d634	0.00018581079
37	0x3979da8e	0.00023827908
38	0x3936fb07	0.00017450388
39	0xb823f3df	-3.908935e-05
40	0xb957b39b	-0.00020570906
41	0x3851c496	5.0012568e-05
42	0xb91b3491	-0.00014801534
43	0xb902a3af	-0.00012458743
44	0x38205aa5	3.8231392e-05
45	0xb68db750	-4.223468e-06
46	0xb8db64da	-0.00010461519
47	0x3915d134	0.00014287682
48	0x38e25c30	0.00010793691
49	0x390b1785	0.00013264835
50	0x3989f5d8	0.00026313844
51	0x38d96a82	0.00010367205
52	0x39574bd3	0.00020532245
53	0xb7e95558	-2.7815506e-05
54	0x39194146	0.00014615533
55	0x38cbb204	9.712952e-05
56	0x395447d2	0.0002024465
57	0x3926a590	0.0001589267
58	0xb8a4ad50	-7.852411e-05
59	0xb934f3ee	-0.00017257009
60	0x39696e89	0.00022261789
61	0xb88b8358	-6.652501e-05
62	0x38e58611	0.00010944543
63	0x397e4cd3	0.00024251947
64	0xb83be970	-4.480168e-05
65	0xb8999241	-7.3228504e-05
66	0xb8cc5ec6	-9.745131e-05
67	0x39220114	0.00015449926
68	0xb902595b	-0.00012431054
69	0x38e6d10b	0.00011006192
70	0xb8db23a4	-0.00010449372
71	0x38d91eab	0.00010353079
72	0xb9215eb2	-0.00015389433
73	0xb82c6fdc	-4.1112173e-05
74	0xb90989ae	-0.00013116628
75	0x38069fed	3.2097032e-05
76	0xb8dc6050	-0.00010508357
77	0x38f1f94a	0.00011538209
78	0x38f4fcea	0.000116819356
79	0x391271ba	0.00013966011
80	0x3860b05a	5.3570002e-05
81	0xb91c8e7e	-0.00014930402
82	0x39197f28	0.00014638586
83	0x38824d88	6.2133244e-05
84	0xb8d844ea	-0.00010312519
85	0xb855e73a	-5.0998504e-05
86	0x3936845d	0.00017406182
87	0xb8fa452b	-0.000119338125
88	0xb8be37fa	-9.0703325e-05
89	0x38db2a6b	0.00010450635
90	0xb94e488d	-0.00019672718
91	0xb863a282	-5.4272365e-05
92	0xb902e648	-0.00012483553
93	0x38d1e76e	0.00010009004
94	0xb8fb3a78	-0.00011979503
95	0x38c64904	9.454976e-05
96	0xb938f096	-0.00017637233
97	0xb850499d	-4.9659622e-05
98	0x381fc396	3.8090708e-05
99	0xb8f36f5e	-0.00011607887
100	0xb90c93c4	-0.00013406487
101	0xb95753fb	-0.00020535283
102	0xb8fcff2b	-0.00012063825
103	0x38184254	3.6301397e-05
104	0x393eb7ac	0.00018188235
105	0xb7b5ffbb	-2.1695965e-05
106	0x38eca294	0.000112836395
107	0x389a2c73	7.3515715e-05
108	0xb80af717	-3.3131884e-05
109	0x36d612bd	6.3798784e-06
110	0x389254d0	6.97762e-05
111	0xb8e3aea6	-0.00010856734
112	0xb892da46	-7.002479e-05
113	0xb8dda3a3	-0.00010568581
114	0xb950a409	-0.00019897534
115	0xb8b82b9e	-8.781928e-05
116	0xb91dbbb2	-0.00015042609
117	0x360d71a6	2.107679e-06
118	0xb8d5d83a	-0.00010196907
119	0xb8a55332	-7.8833094e-05
120	0xb92c546d	-0.0001643465
121	0xb9100706	-0.00013735527
122	0x383f99a5	4.568104e-05
123	0x390dc7ae	0.00013521194
124	0xb93c29cc	-0.00017944648
125	0x385f37fd	5.3219486e-05
126	0xb8c46a67	-9.365827e-05
127	0xb93a2b3d	-0.0001775445
128	0x361e34a7	2.3574482e-06
129	0x3778a441	1.4820195e-05
130	0x383d41fd	4.5122568e-05
131	0xb68ea442	-4.251052e-06
132	0x37546369	1.265933e-05
133	0xb56a9732	-8.739181e-07
134	0x37828d0c	1.5562888e-05
135	0xb80f1fed	-3.412359e-05
136	0x37cf4952	2.4710465e-05
137	0xb792060c	-1.7407372e-05
138	0x36d0d12e	6.223235e-06
139	0xb7812025	-1.5392967e-05
140	0x373ab93f	1.1129595e-05
141	0xb7984435	-1.8151573e-05
142	0xb7a3ccf6	-1.9526557e-05
143	0xb7efce2d	-2.8587028e-05
144	0xb788657a	-1.6259717e-05
145	0x380b2728	3.317665e-05
146	0xb7c15ac1	-2.3049653e-05
147	0x371fe417	9.530245e-06
148	0x37375e68	1.0929631e-05
149	0xb6f34f48	-7.251194e-06
150	0xb74bd98e	-1.2150396e-05
151	0x3658719a	3.2252633e-06
152	0xb6df70de	-6.6590574e-06
153	0xb698d361	-4.5545607e-06
154	0x388d96bd	6.751481e-05
155	0xb701b2c3	-7.73062e-06
156	0x382e869b	4.1610194e-05
157	0x34e20dc3	4.2105793e-07
158	0x37d85acc	2.5791487e-05
159	0xb8128e9c	-3.4941928e-05
160	0x382049b0	3.82156e-05
161	0x3740344b	1.1456267e-05
162	0x347740a1	2.302718e-07
163	0x36e12ab8	6.7104957e-06
164	0x37e5b6f7	2.7384127e-05
165	0x38865828	6.406038e-05
166	0x3782c742	1.5589994e-05
167	0xb7647eb3	-1.36193585e-05
168	0xb88241cb	-6.211138e-05
169	0xb7729481	-1.44589e-05
170	0xb709e1a3	-8.2183715e-06
171	0x37506b2b	1.2422718e-05
172	0x37afb517	2.0945952e-05
173	0xb6c5f5fd	-5.8996943e-06
174	0xb71fb075	-9.518223e-06
175	0x370ecfb6	8.512221e-06
176	0x36dea2e1	6.635077e-06
177	0x36d0cc39	6.2226577e-06
178	0x381b2ded	3.699765e-05
179	0x37ba931c	2.2241431e-05
180	0x38059a12	3.185316e-05
181	0x37ba3296	2.2196484e-05
182	0x3787072f	1.60966e-05
183	0x379813d7	1.812905e-05
184	0x37caf3b9	2.4193769e-05
185	0x382bbd3d	4.094582e-05
186	0x36eeace5	7.1130803e-06
187	0xb745e822	-1.1796163e-05
188	0x38009ede	3.0665535e-05
189	0xb50ad479	-5.1718195e-07
190	0x37cb8691	2.4262148e-05
191	0x38129703	3.4949753e-05
192	0xb7095fc5	-8.188134e-06
193	0xb7d6b68a	-2.559579e-05
194	0x3702f310	7.805196e-06
195	0x3714419c	8.836763e-06
196	0xb73274d1	-1.0636825e-05
197	0x37919906	1.7356604e-05
198	0xb7eadcd8	-2.7997812e-05
199	0x371f6671	9.50099e-06
200	0xb7f79591	-2.9514342e-05
201	0xb7a4643d	-1.9597e-05
202	0xb68ac607	-4.135774e-06
203	0x375d6616	1.3196395e-05
204	0xb7be0847	-2.265362e-05
205	0x3808702b	3.252939e-05
206	0x38022ce6	3.103623e-05
207	0x38071a05	3.221074e-05
208	0x37c0bbc9	2.2975628e-05
209	0xb78d4051	-1.683846e-05
210	0x38121cbd	3.4835877e-05
211	0x37352bf2	1.07986725e-05
212	0xb80a27dc	-3.2938886e-05
213	0xb7897e76	-1.639056e-05
214	0xb64ad475	-3.0224012e-06
215	0xb79d9e11	-1.8789464e-05
216	0xb78155a2	-1.5417874e-05
217	0x3804a1fa	3.1622105e-05
218	0xb4de2898	-4.1380258e-07
219	0xb7904a16	-1.7200637e-05
220	0xb6f2c970	-7.2356124e-06
221	0x365ad48a	3.2608245e-06
222	0xb80d1359	-3.363504e-05
223	0xb6806a89	-3.8270996e-06
224	0x37d8da40	2.5850837e-05
225	0xb7b326aa	-2.1356467e-05
226	0x36e6935a	6.871688e-06
227	0xb7e68eee	-2.7484693e-05
228	0xb8091102	-3.2679185e-05
229	0xb6733a43	-3.6243734e-06
230	0xb7ab92c3	-2.045313e-05
231	0x37a0ab59	1.9153276e-05
232	0xb6f6d3af	-7.3560145e-06
233	0xb7519707	-1.2492535e-05
234	0xb626c87a	-2.485262e-06
235	0x37cd63ea	2.448443e-05
236	0xb76861cc	-1.3851048e-05
237	0xb691cf31	-4.345457e-06
238	0x37d77ff7	2.5689586e-05
239	0xb5a9f1b9	-1.2661832e-06
240	0xb7c674c0	-2.3657805e-05
241	0xb52c4f35	-6.4190255e-07
242	0xb7bb83e0	-2.2353546e-05
243	0xb734e353	-1.0781764e-05
244	0xb80c1b81	-3.3404216e-05
245	0x37043ac0	7.881492e-06
246	0xb7f3d209	-2.9065663e-05
247	0xb713be14	-8.806139e-06
248	0x36dbf0de	6.5547492e-06
249	0xb699d574	-4.5846045e-06
250	0x372052b1	9.555996e-06
251	0xb71775fb	-9.027771e-06
252	0x37998c22	1.8304276e-05
253	0xb69131fb	-4.3271552e-06
254	0x37f0b5e1	2.8694923e-05
255	0xb811394f	-3.4624067e-05

exp_avg_sq f4 [8, 64]
0	0x393993cc	0.00017698033
1	0x3bb79148	0.0056020357
2	0x3c258d9e	0.010104565
3	0x3af71148	0.0018849755
4	0x3a551994	0.00081291166
5	0x39f755fd	0.00047175577
6	0x3b3a8cf8	0.0028465372
7	0x3b5acae2	0.0033385088
8	0x3b60ba20	0.0034290627
9	0x39167408	0.0001434834
10	0x3b925ea5	0.004466849
11	0x3be4108d	0.006959981
12	0x3aab27c7	0.0013058119
13	0x3ba28915	0.004960189
14	0x3ba4426c	0.005012801
15	0x3bb1259e	0.0054060956
16	0x3c18fe9c	0.009338047
17	0x3c506af0	0.012720808
18	0x3b80bc31	0.003928684
19	0x3c23c6c0	0.009996116
20	0x3a24294a	0.0006262256
21	0x3ab90339	0.001411534
22	0x3c2c4dba	0.010516578
23	0x3b20cf00	0.0024537444
24	0x39a495f0	0.0003139223
25	0x3a4acd27	0.00077362586
26	0x3c39976d	0.011327607
27	0x3c0a5ac3	0.008444491
28	0x3be105c2	0.0068671415
29	0x3bde0d41	0.0067764823
30	0x3bf3a4ac	0.007435402
31	0x3b988a70	0.004655175
32	0x3ca2a08b	0.019851943
33	0x3b96fc34	0.0046077017
34	0x3b4e0411	0.003143553
35	0x39cef755	0.0003947566
36	0x3b9a092c	0.0047008004
37	0x3bb0577b	0.0053815222
38	0x3aad4e63	0.0013222214
39	0x3a360de6	0.000694482
40	0x3c4b66f6	0.0124146845
41	0x385ffa5a	5.34005e-05
42	0x3bbceb05	0.005765321
43	0x3a3183b5	0.000677164
44	0x3c2d2344	0.01056749
45	0x3b092cdd	0.0020931282
46	0x3b286ac8	0.0025698412
47	0x3bfae684	0.007656874
48	0x3b3e7345	0.0029060405
49	0x3c518755	0.012788613
50	0x3950990a	0.00019893437
51	0x3b2caaa0	0.0026346818
52	0x3bc80b40	0.0061048567
53	0x39b854cc	0.00035158393
54	0x3a9ab9cc	0.0011804639
55	0x3b91b62c	0.0044467654
56	0x3c683d5d	0.014174786
57	0x3c10af9c	0.008830931
58	0x39b0be9b	0.00033711348
59	0x3c229578	0.009923331
60	0x3c6d0b0c	0.014467966
61	0x3bb47452	0.0055070305
62	0x3c50e191	0.012749092
63	0x3b9914b7	0.004671659
64	0x391aef27	0.00014775676
65	0x3b9402bc	0.0045169275
66	0x3bf46269	0.0074580205
67	0x3ae00aa0	0.001709301
68	0x3a33257b	0.0006833893
69	0x39bc6340	0.000359321
70	0x3b142da2	0.0022610207
71	0x3b16b72c	0.0022997363
72	0x3b351bcd	0.0027634979
73	0x390b4aee	0.00013283986
74	0x3b660d76	0.0035103238
75	0x3bb25f5f	0.005443498
76	0x3a84bd07	0.0010127135
77	0x3b854443	0.0040669753
78	0x3b831d55	0.0040012994
79	0x3b909827	0.004412669
80	0x3bef061d	0.00729443
81	0x3c196f66	0.009364938
82	0x3b533180	0.003222555
83	0x3bf316db	0.007418496
84	0x3a0b97fd	0.0005325077
85	0x3a8c2fc2	0.0010695385
86	0x3c091471	0.00836669
87	0x3b0431fa	0.002017139
88	0x39b33309	0.00034179565
89	0x3a18bf53	0.00058268494
90	0x3c086fbf	0.008327424
91	0x3bc8d9ba	0.0061294707
92	0x3ba04223	0.0048906966
93	0x3ba8802e	0.0051422333
94	0x3bc5a358	0.006031435
95	0x3b5ffd0f	0.0034177934
96	0x3c80580d	0.015666986
97	0x3b6c2ad5	0.0036036272
98	0x3b1ec8d7	0.0024228597
99	0x3997dc67	0.00028965177
100	0x3b7b35a9	0.0038331544
101	0x3b82da8b	0.0039933375
102	0x3a868360	0.0010262541
103	0x39f3913a	0.00046456774
104	0x3c18e24c	0.009331297
105	0x38443766	4.6781635e-05
106	0x3b92ae9d	0.004476382
107	0x3a1c25cb	0.00059565593
108	0x3c075a52	0.00826128
109	0x3ad7d5fe	0.0016466973
110	0x3b02c510	0.0019953884
111	0x3bc043d0	0.005867459
112	0x3b1b1b48	0.0023667384
113	0x3c1ff4a3	0.009762916
114	0x391c25d0	0.00014891406
115	0x3af2aecb	0.0018515227
116	0x3ba2dce7	0.0049701813
117	0x39c4bb4f	0.0003752359
118	0x3a835a1f	0.0010021365
119	0x3b524ce0	0.0032089278
120	0x3c33f3c5	0.010983412
121	0x3bd2e5cb	0.006436085
122	0x396ef63f	0.00022789183
123	0x3c025d51	0.007956819
124	0x3c3bbc92	0.011458533
125	0x3b8a77ee	0.0042257225
126	0x3c25c8ba	0.010118658
127	0x3b788d7d	0.003792613
128	0x3759b976	1.2977389e-05
129	0x3a065040	0.00051236525
130	0x3a7b63db	0.000958977
131	0x38d4553b	0.00010124823
132	0x388a2ad7	6.588332e-05
133	0x38ad4106	8.2613944e-05
134	0x3982fe71	0.00024985106
135	0x39a9da63	0.00032396903
136	0x39b04770	0.0003362256
137	0x36d0bf0a	6.221123e-06
138	0x398eaf5a	0.00027214998
139	0x3a16b4fb	0.0005749014
140	0x3901c66e	0.0001237632
141	0x39fd3be7	0.0004830055
142	0x39ef11b0	0.0004559881
143	0x3a039981	0.0005020127
144	0x3a49f222	0.0007703622
145	0x3a997dc7	0.0011710458
146	0x39ca9546	0.0003863966
147	0x3a5109e5	0.00079741917
148	0x38775403	5.896763e-05
149	0x38cbf015	9.724513e-05
150	0x3a4271ff	0.00074174994
151	0x39750e70	0.00023370399
152	0x3791d951	1.7386543e-05
153	0x389b9a7e	7.4197524e-05
154	0x3a90796e	0.0011022517
155	0x3a3c40a6	0.0007181264
156	0x3a30495e	0.00067248
157	0x39f72b04	0.0004714356
158	0x3a360b2e	0.0006944415
159	0x39decb47	0.00042494593
160	0x3adc4e2d	0.0016807966
161	0x39c40a60	0.00037391763
162	0x3988344f	0.00025978914
163	0x3850378c	4.9642797e-05
164	0x39e5d1ef	0.00043834696
165	0x3a1a42ad	0.0005884569
166	0x3907504a	0.00012904513
167	0x38740765	5.818102e-05
168	0x3a95ed24	0.0011438471
169	0x369dc4fa	4.7018957e-06
170	0x39d1ed35	0.0004004032
171	0x3839482b	4.417465e-05
172	0x3a6c0a8b	0.00090042566
173	0x391cd36d	0.00014956082
174	0x39691a32	0.0002223037
175	0x3a16849c	0.0005741806
176	0x399525b5	0.0002844759
177	0x3a877ce4	0.0010336903
178	0x373f615f	1.1407158e-05
179	0x39605d11	0.00021396975
180	0x3a13ea84	0.00056425505
181	0x381bc446	3.7137674e-05
182	0x38df6e47	0.000106540094
183	0x39c4ea75	0.00037558717
184	0x3a954c66	0.0011390566
185	0x3a58a53a	0.0008264367
186	0x37be41fa	2.2680488e-05
187	0x3a413f4e	0.0007371799
188	0x3a992648	0.0011684382
189	0x39ccb4c1	0.00039044584
190	0x3a8db72c	0.0010812036
191	0x39e1bf5b	0.00043057915
192	0x3600655a	1.913248e-06
193	0x37bd0c3b	2.2536251e-05
194	0x38bb1417	8.920597e-05
195	0x35fc36a8	1.879137e-06
196	0x35d6ec45	1.6013006e-06
197	0x36a07da5	4.7829985e-06
198	0x3767a155	1.3806236e-05
199	0x384f0c35	4.9364015e-05
200	0x377b591f	1.4981516e-05
201	0x350343b3	4.889982e-07
202	0x37e09b7c	2.6775284e-05
203	0x381c8171	3.731385e-05
204	0x370d1380	8.408795e-06
205	0x378f22a9	1.7063068e-05
206	0x37be4e09	2.2686103e-05
207	0x37a74fe6	1.9945157e-05
208	0x385115b9	4.9849714e-05
209	0x38fd5977	0.00012080644
210	0x377540a2	1.46181865e-05
211	0x38c08745	9.180469e-05
212	0x360cb826	2.0968814e-06
213	0x3746dcef	1.185316e-05
214	0x38668d98	5.4968143e-05
215	0x36ca4df9	6.0291463e-06
216	0x3654abf8	3.169056e-06
217	0x36e3b472	6.786134e-06
218	0x38d71ada	0.000102570004
219	0x38c1c573	9.239735e-05
220	0x38a6ab2b	7.947379e-05
221	0x385df0f0	5.2914897e-05
222	0x37eb812d	2.8074335e-05
223	0x382dbc6a	4.142189e-05
224	0x38c77bd3	9.5121235e-05
225	0x37cc4bb9	2.4353956e-05
226	0x37ae4df3	2.0778714e-05
227	0x3698e439	4.5565216e-06
228	0x37907fdb	1.7225675e-05
229	0x3840d69d	4.597624e-05
230	0x372d16ff	1.0316958e-05
231	0x381bfcfb	3.7190486e-05
232	0x38c165e0	9.221933e-05
233	0x35241b37	6.1134364e-07
234	0x3817746b	3.6109628e-05
235	0x3587497c	1.0079671e-06
236	0x3867d63a	5.5274206e-05
237	0x373a2a0e	1.1096256e-05
238	0x3782a8ab	1.557575e-05
239	0x385599db	5.0926446e-05
240	0x373d998d	1.1301029e-05
241	0x38bbd87a	8.957177e-05
242	0x36de35f0	6.6223947e-06
243	0x3813a6f8	3.5203033e-05
244	0x37bca4e9	2.2488139e-05
245	0x370ae38a	8.278419e-06
246	0x364fc485	3.0959793e-06
247	0x3842df97	4.646144e-05
248	0x38b14edd	8.454707e-05
249	0x38b2fbb1	8.5345826e-05
250	0x37071183	8.050704e-06
251	0x3836da1e	4.359532e-05
252	0x388c447c	6.6884764e-05
253	0x38227a38	3.8737635e-05
254	0x386f68d1	5.707966e-05
255	0x37993008	1.8261388e-05

exp_avg f4 [8]
0	0x3926f826	0.00015923436
1	0xb90ec29a	-0.0001361467
2	0x388674bd	6.411362e-05
3	0xb7f37ba0	-2.9025425e-05
4	0xb86440ee	-5.4419907e-05
5	0xb6e4595f	-6.8053337e-06
6	0x38f8b00e	0.00011858354
7	0xb8931ed2	-7.015247e-05

exp_avg_sq f4 [8]
0	0x3d2870be	0.041123144
1	0x3d07f78d	0.033195067
2	0x3b6f7b12	0.0036541861
3	0x39252591	0.00015749621
4	0x3bc2a50d	0.0059400857
5	0x3a5532c6	0.0008132871
6	0x3b87bd38	0.0041424297
7	0x39b46bda	0.0003441263

exp_avg f4 [2, 8]
0	0x39f9f478	0.00047675124
1	0xb9f6ffce	-0.00047111366
2	0x39115253	0.00013858946
3	0xb9cad4e4	-0.00038687058
4	0xb99296d6	-0.00027959672
5	0xb99657f4	-0.0002867576
6	0x39d23546	0.00040094013
7	0xb9cadda6	-0.00038693583
8	0xb9f9f45a	-0.00047675037
9	0x39f6ffe5	0.00047111433
10	0xb91152b3	-0.00013859085
11	0x39cad4e3	0.00038687055
12	0x399296fa	0.00027959776
13	0x39965818	0.00028675864
14	0xb9d23508	-0.00040093833
15	0x39cadd78	0.0003869345

exp_avg_sq f4 [2, 8]
0	0x39a9effc	0.00032412994
1	0x3b268e6b	0.0025414478
2	0x3af410ed	0.0018620767
3	0x3a1c240b	0.00059562986
4	0x3b234e17	0.0024918371
5	0x385bb04e	5.2377865e-05
6	0x3b8b9fe3	0.0042610033
7	0x3a2e4413	0.0006647717
8	0x39a9effa	0.00032412988
9	0x3b268e6b	0.0025414478
10	0x3af410ef	0.0018620769
11	0x3a1c240c	0.0005956299
12	0x3b234e17	0.0024918371
13	0x385bb04d	5.237786e-05
14	0x3b8b9fe3	0.0042610033
15	0x3a2e4414	0.00066477177

exp_avg f4 [2]
0	0xb7d29a71	-2.5105868e-05
1	0x37d2959b	2.5103616e-05

exp_avg_sq f4 [2]
0	0x398b3137	0.00026548814
1	0x398b3138	0.00026548817

model.1.defunc.m.0.weight f4 [64, 8]
0	0x3e1bd110	0.1521647
1	0x3d7b789e	0.061394326
2	0xbd124fad	-0.035720516
3	0x3ef78c2d	0.48349133
4	0x3cfadbe6	0.030622434
5	0xbd3721ae	-0.044709854
6	0x3e80c07d	0.25146857
7	0x3e343d5c	0.17601532
8	0x3bee9e24	0.0072820354
9	0x3e627147	0.22113524
10	0xbe85532f	-0.26040027
11	0xbdf37bf0	-0.118888736
12	0xbe1acc92	-0.151171
13	0x3df44a1b	0.11928197
14	0xbe4d396d	-0.20041437
15	0x3d420500	0.04736805
16	0xbd72bdcd	-0.05926304
17	0x3e25c3b2	0.16187933
18	0x3d6f0711	0.05835635
19	0xbd084141	-0.033265356
20	0x3d411a8f	0.04714447
21	0x3ec344a5	0.3813831
22	0x3eedf9f1	0.46479753
23	0xbf251fb5	-0.64501506
24	0x3e6622d7	0.22474228
25	0xbcb81259	-0.022469686
26	0x3de7cbee	0.113181934
27	0xbec8bcfb	-0.3920668
28	0xbeff01cf	-0.49806067
29	0x3f065df2	0.524871
30	0x3de1e844	0.11030629
31	0xbeeb7cf6	-0.45993775
32	0xbe1a98cb	-0.15097348
33	0x3e57d643	0.21077828
34	0xbda69cde	-0.08135389
35	0x3ee6f013	0.45105037
36	0x3ec9b8f2	0.39398915
37	0xbd2c0d1b	-0.042004686
38	0xbeacc74a	-0.33745795
39	0xbebb805e	-0.36621374
40	0x3e94d654	0.2906977
41	0xbebf16e1	-0.37322143
42	0x3ed82bcc	0.42220914
43	0x3da0d9a0	0.07854009
44	0xbe18b0fa	-0.14911261
45	0x3ec21fc9	0.37914875
46	0x3ec2ba63	0.38032827
47	0xbe0d13b4	-0.13777047
48	0xbef5e587	-0.48026678
49	0x3c3c11d6	0.011478862
50	0xbe56e740	-0.20986652
51	0x3da47c4a	0.08031519
52	0xbe2bf834	-0.167939
53	0x3de64085	0.11242775
54	0xbdabf9dd	-0.08397267
55	0x3d18ec5d	0.03733479
56	0x3f072d29	0.52803284
57	0xbeba23ff	-0.36355588
58	0xbec25ba5	-0.37960544
59	0x3d9c276c	0.076247066
60	0xbe80b4b0	-0.25137854
61	0xbed7c03c	-0.4213885
62	0xbe980c08	-0.2969668
63	0x3eaecdfd	0.34141532
64	0xbe41f708	-0.18941891
65	0x3e687cdc	0.2270388
66	0xbe12534b	-0.14289586
67	0x3ef86a2b	0.485185
68	0x3e0dfc8b	0.13865869
69	0x3d46183b	0.04836295
70	0xbd8ae398	-0.06781691
71	0x3cdef978	0.027218565
72	0xbe8a2e7c	-0.2698859
73	0xbe4b979e	-0.19882056
74	0xbf0abe13	-0.5419628
75	0x3da275cb	0.079326235
76	0x3daaa141	0.08331538
77	0x3dcf0779	0.10108847
78	0xbe35ffca	-0.17773357
79	0x3e4c14cd	0.1992981
80	0xbf36114c	-0.7112014
81	0x3eb62d96	0.35581654
82	0xbeabe2c4	-0.33571446
83	0x3e331124	0.17487007
84	0x3e297611	0.16548945
85	0xbef5a648	-0.47978425
86	0x3e77201e	0.24133345
87	0x3ee19a52	0.4406305
88	0x3e8167cd	0.25274506
89	0x3e321672	0.17391375
90	0x3b7bf700	0.0038446784
91	0x3e4b3b6e	0.1984689
92	0xbc8b228e	-0.01698425
93	0xbd720c5e	-0.059093826
94	0x3e047df0	0.12938666
95	0x3a9f128d	0.0012136266
96	0xbef3e70d	-0.47637215
97	0xbd87a4ce	-0.06623231
98	0xbeb5fe14	-0.3554541
99	0x3e6e2ade	0.2325854
100	0xbe0d7383	-0.13813595
101	0x3cb02ee4	0.021506734
102	0xbd97da78	-0.074147165
103	0x3b9faa0e	0.004872567
104	0x3dc5ccb1	0.096581824
105	0xbe951944	-0.2912084
106	0x3eacbad4	0.3373629
107	0x3a7f2d8f	0.0009734267
108	0x3dc9bc58	0.09850377
109	0xbe182a85	-0.1485997
110	0x3e3eee81	0.1864567
111	0xbda145fe	-0.07874678
112	0x3eb11b63	0.34591207
113	0xbdb56dea	-0.08858855
114	0xbd86bde7	-0.0657919
115	0xbd0f46df	-0.034979697
116	0xbe19edc6	-0.1503211
117	0xbd8c674e	-0.06855641
118	0x3de56a80	0.11201954
119	0xbdd3e9a5	-0.103472985
120	0x3eba69cb	0.3640884
121	0xbe39f278	-0.181589
122	0x3e5c218f	0.21497177
123	0xbdc012d7	-0.093785934
124	0x3d8f479c	0.0699608
125	0xbdf60e33	-0.12014427
126	0x3e14d305	0.14533623
127	0x3d561097	0.052261915
128	0x3e490a19	0.19632758
129	0x3d9aa139	0.07550282
130	0xbe48289c	-0.19546741
131	0xbdf5216c	-0.11969265
132	0xbd31ba46	-0.043390535
133	0xbe17a520	-0.14809084
134	0x3d6c4620	0.057684064
135	0xbdf125a4	-0.117747575
136	0xbeacb363	-0.3373061
137	0x3f3438b2	0.7039901
138	0x3e1409b0	0.1445682
139	0xbee8bc46	-0.4545614
140	0x3e48e1a2	0.19617322
141	0x3f675f46	0.9037975
142	0x3f2f25bf	0.6841697
143	0x3e8f1b9a	0.27950746
144	0x3e2a2539	0.16615762
145	0xbec45e03	-0.38352975
146	0x3e7446cd	0.23855133
147	0xbe346f1a	-0.17620507
148	0xbdd59ca6	-0.10430269
149	0xbe3968c2	-0.18106368
150	0x3e84cd96	0.259381
151	0x3c1a3778	0.009412639
152	0x3e49e630	0.19716716
153	0xbeef3f1d	-0.4672784
154	0x3f0a0c54	0.5392506
155	0x3f089c82	0.5336381
156	0xbe4fbc44	-0.20286661
157	0xbeb8a7bd	-0.36065474
158	0xbf03507f	-0.512947
159	0xbf374190	-0.71584415
160	0xbebdfb50	-0.371058
161	0x3e93f034	0.28894198
162	0x3dd45871	0.10368431
163	0xbebe4b58	-0.37166858
164	0x3e896ab1	0.26839212
165	0x3e88efe9	0.26745537
166	0xbebcef15	-0.36901155
167	0xbb69b04f	-0.0035658067
168	0xbe9c2c60	-0.30502605
169	0xbe08884c	-0.13333243
170	0xbde5eb7c	-0.11226556
171	0x3eb621f9	0.35572794
172	0x3c70daa4	0.0147005655
173	0x3e3aea8a	0.18253532
174	0xbceb231f	-0.02870327
175	0x3d081dd9	0.03323159
176	0x3eb4567e	0.35222238
177	0xbe3ce2ed	-0.1844594
178	0x3e960409	0.29299954
179	0xbd62f986	-0.055413745
180	0xbf05ef11	-0.5231791
181	0x3f06f513	0.52717704
182	0xbedb98b6	-0.42889947
183	0xbf55c736	-0.83507097
184	0xbdc6b751	-0.097029336
185	0x3e7257fb	0.23666374
186	0xbedc9a97	-0.43086693
187	0x3e8d30cc	0.27576292
188	0x3da4cb07	0.08046537
189	0x3ecb13f2	0.39663655
190	0xbeedf8e6	-0.46478957
191	0xbe52ea0e	-0.20597097
192	0xbe1cd02b	-0.15313785
193	0x3eeb92bc	0.46010387
194	0x3e5c1b11	0.214947
195	0x3e5c74ee	0.2152898
196	0xbd53308e	-0.051559977
197	0xbea7be1f	-0.32762238
198	0xbe321233	-0.17389755
199	0x3e8e6fd2	0.27819687
200	0x3f17227d	0.59037
201	0xbd3ec5a9	-0.046575222
202	0xbe75976f	-0.23983549
203	0x3e3fc410	0.18727136
204	0xbed4d21d	-0.41566554
205	0xbdbe4dff	-0.0929222
206	0x3e8559bb	0.2604502
207	0xbe25564d	-0.16146202
208	0xbe7dda29	-0.24790253
209	0x3f25ecdd	0.6481455
210	0x3c9e15dd	0.019297535
211	0xbe939dba	-0.28831273
212	0x3ed1f164	0.4100448
213	0x3f27c534	0.65535283
214	0x3e91d488	0.2848246
215	0xbf720704	-0.94541955
216	0xbd33f930	-0.043938816
217	0x3f0911c4	0.53542733
218	0x3cd062d9	0.02543776
219	0x3b10caa9	0.002209345
220	0x3eda9016	0.42688054
221	0x3f3ebfab	0.7451121
222	0x3f293676	0.66098726
223	0x3f3daa56	0.74088037
224	0xbe89ad8e	-0.26890224
225	0x3e30a76c	0.17251366
226	0xbdd9c3e6	-0.10633068
227	0xbe2eb43b	-0.1706094
228	0x3ebb3c82	0.365696
229	0x3f3b623e	0.7319678
230	0x3e8b373c	0.27190578
231	0xbef72b3c	-0.48275173
232	0x3ef3a6c0	0.47588158
233	0xbe3a99b3	-0.18222694
234	0x3ef8f1ad	0.48621884
235	0x3d4bffd5	0.049804527
236	0xbedef231	-0.43544152
237	0x3e415904	0.18881613
238	0xbebc5321	-0.36782172
239	0xbf09a254	-0.5376332
240	0xbf0bc7e1	-0.54601866
241	0x3e27f3a2	0.16401532
242	0xbe06db60	-0.13169622
243	0xbebfe397	-0.37478325
244	0xbdd23492	-0.10263933
245	0x3d974bee	0.07387529
246	0xbe78088b	-0.24222009
247	0x3d31f846	0.043449663
248	0x3f0cd3cf	0.55010694
249	0xbe75f342	-0.24018577
250	0x3e89e3a1	0.2693148
251	0x3e1a1839	0.15048303
252	0x3ea90eec	0.33019197
253	0xbdd240d8	-0.10266274
254	0x3d1bf8c8	0.038079053
255	0x3f2c3d3b	0.6728093

model.1.defunc.m.0.bias f4 [64]
0	0x3e143265	0.14472349
1	0x3eacb0a6	0.33728522
2	0xbe53682e	-0.2064521
3	0x3e888a56	0.26668042
4	0xbe203124	-0.15643746
5	0xbdecb46c	-0.1155785
6	0x3e374260	0.17896414
7	0x3d4c915e	0.04994332
8	0x3e940493	0.2890974
9	0xbdbb5ee6	-0.0914896
10	0xbdd2e85e	-0.10298227
11	0xbe83c136	-0.25733346
12	0x3df7ab30	0.12093198
13	0xbeadb81a	-0.3392952
14	0xbe8a34f2	-0.2699352
15	0xbeb6e301	-0.35720065
16	0xbea19f5c	-0.31566894
17	0xbef5d328	-0.48012662
18	0xbe929821	-0.2863169
19	0x3e9b4673	0.30327186
20	0x3b86e815	0.004117022
21	0xbe3ab701	-0.18233873
22	0x3ec08f3b	0.37609276
23	0xbecbd455	-0.39810434
24	0xbe516567	-0.20448838
25	0x3d38c418	0.045108885
26	0xbe88ea0d	-0.26741067
27	0xbecfe16d	-0.40601674
28	0xbe20140f	-0.15632652
29	0x3e04811f	0.12939881
30	0x3ec0211b	0.37525257
31	0x3dc11f0a	0.09429748
32	0xbec87cbd	-0.39157668
33	0x3e3c28e6	0.18374977
34	0x3d839466	0.06424789
35	0xbcb9b77c	-0.0226705
36	0x3e96b4c3	0.29434785
37	0xbeafb290	-0.3431592
38	0x3d9a009d	0.07519648
39	0xbe4eb8ff	-0.20187758
40	0x3e6d9756	0.23202261
41	0xbda66bb9	-0.08126015
42	0x3dddafef	0.10824572
43	0x3e82e210	0.25563097
44	0x3ec27cb8	0.37985778
45	0xbd17ee1b	-0.03709231
46	0xbdc87497	-0.09787863
47	0xbdf920e1	-0.12164474
48	0x3e739db8	0.23790634
49	0xbe82bfcc	-0.25536954
50	0x3e5891fb	0.21149437
51	0x3b9468d7	0.0045290994
52	0x3eb997a8	0.36248517
53	0x3ec1128f	0.37709472
54	0x3defb4bf	0.117043965
55	0xbd054865	-0.032539744
56	0xbe646e53	-0.2230771
57	0xbe24ccb1	-0.16093709
58	0x3e1b321e	0.15155837
59	0x3ea65d80	0.3249321
60	0xbe931480	-0.28726578
61	0x3d8cd0a8	0.068757355
62	0xbed2a8b1	-0.41144326
63	0x3e948f25	0.2901546

model.1.defunc.m.2.weight f4 [8, 64]
0	0x3c2a7949	0.010404893
1	0xbe5fbc25	-0.21849115
2	0xbe1ba3f9	-0.1519927
3	0x3e135004	0.14385992
4	0xbe912651	-0.28349546
5	0x3ea4b62a	0.3217023
6	0xbe4dec13	-0.20109586
7	0x3e12ab4d	0.14323159
8	0xbe4c2268	-0.19935
9	0xbd3ace2d	-0.04560678
10	0xbddf4aaa	-0.10902913
11	0x3e0e5353	0.13898973
12	0xbddea7a4	-0.10871819
13	0x3e8f3142	0.27967268
14	0x3e86a944	0.26301014
15	0x3e6914bc	0.22761816
16	0x3d4b07f3	0.049568128
17	0xbe8915ab	-0.26774344
18	0x3ea1642f	0.31521747
19	0x3dc73ce2	0.09728409
20	0xbe7765e3	-0.2415996
21	0x3d94185e	0.0723121
22	0x3e3c3a0b	0.18381517
23	0xbe8edb29	-0.2790158
24	0xbe1b75aa	-0.15181604
25	0x3e267b4c	0.16257972
26	0xbe2ab7cc	-0.16671675
27	0xbe6b6a5b	-0.2298979
28	0xbe454481	-0.19264413
29	0x3dde678b	0.10859593
30	0xbe6eca69	-0.23319401
31	0x3d60ba88	0.05486539
32	0xbe5bd49b	-0.21467821
33	0xbd901e67	-0.07037049
34	0xbd95f763	-0.07322576
35	0xbee3a0e6	-0.44458693
36	0xbe6a45e8	-0.2287823
37	0xbd84ccda	-0.06484385
38	0xbe23ffcc	-0.16015548
39	0xbdc4c696	-0.0960819
40	0x3e1d309a	0.15350571
41	0x3cba9889	0.022777813
42	0x3df39de3	0.11895349
43	0x3c67a19e	0.014137654
44	0xbe04ac6c	-0.12956399
45	0xbbac1ff3	-0.005252832
46	0x3e6702a7	0.22559606
47	0xbda23906	-0.079210326
48	0xbe120898	-0.14261091
49	0xbd0dfb17	-0.034663286
50	0xbdadd080	-0.08487034
51	0x3c0422b1	0.008064912
52	0xbe6f62b7	-0.233775
53	0xbd6dd9de	-0.058069102
54	0xbe5b63f1	-0.21424843
55	0xbc190c3a	-0.009341294
56	0xbdb1398f	-0.086535566
57	0xbc2ad6b5	-0.010427167
58	0x3ceee5bb	0.029162278
59	0x3e0f2633	0.13979416
60	0xbdfebd0e	-0.12438403
61	0xbcd73c27	-0.0262738
62	0xbe31a3c7	-0.17347632
63	0xbe89b864	-0.2689849
64	0x3db39869	0.08769304
65	0x3e467d03	0.19383626
66	0x3e79bcaf	0.24388383
67	0xbe4c1774	-0.19930822
68	0x3e39cbcb	0.18144147
69	0xbe7ffe1b	-0.24999277
70	0x3e0f3e3c	0.13988584
71	0xbe41c806	-0.18923959
72	0x3e89e15f	0.26929757
73	0x3ce8406c	0.028351031
74	0x3e845833	0.2584854
75	0xbb64454f	-0.003483135
76	0x3dfbfdd8	0.12304276
77	0xbe7e1fa1	-0.24816753
78	0xbe058b60	-0.13041449
79	0xbe440e32	-0.1914604
80	0xbdc17608	-0.09446341
81	0x3ea79ea4	0.3273822
82	0xbeb6dc0a	-0.3571475
83	0xbe846f9e	-0.25866407
84	0x3e773cff	0.24144362
85	0x3ca8667d	0.020556683
86	0xbe9df5d4	-0.30851614
87	0x3e116a4d	0.14200707
88	0x3dcab63c	0.0989804
89	0xbe814a8d	-0.2525219
90	0x3e86ca79	0.2632635
91	0x3e979903	0.29608926
92	0x3df7f721	0.12107683
93	0xbe375cec	-0.1790654
94	0x3d2f0ebe	0.04273867
95	0x3cf6a45a	0.030107666
96	0x3e924118	0.28565288
97	0x3e00ba0a	0.12570968
98	0xbdada71a	-0.08479138
99	0x3e84ff15	0.25975862
100	0x3e7fbe06	0.24974832
101	0x3ea39906	0.31952685
102	0xbd2cde91	-0.042204443
103	0xbd4f19f2	-0.050561853
104	0xbe4e9679	-0.20174588
105	0xbd5638a3	-0.052300107
106	0xbe22f4d7	-0.15913711
107	0xbd8cd10c	-0.0687581
108	0x3d896a4f	0.0670973
109	0x3da47735	0.080305494
110	0xbd0c7155	-0.03428777
111	0x3dc86734	0.097853094
112	0x3dcbd207	0.09952169
113	0x3e3c2e97	0.18377148
114	0x3de8115a	0.113314345
115	0x3def571b	0.11686536
116	0x3e57631f	0.21033905
117	0xbd1a971e	-0.037741773
118	0x3e2665f9	0.16249837
119	0x3dc5473f	0.0963273
120	0x3e925d8c	0.28586996
121	0x3e027601	0.12740327
122	0xbbb96458	-0.005657714
123	0xbd935217	-0.07193392
124	0x3e9a39a4	0.301221
125	0xbe29c2ea	-0.1657826
126	0x3eb69018	0.3565681
127	0x3e66f1a3	0.22553115
128	0xbe116941	-0.14200307
129	0x3e15c887	0.14627276
130	0x3d1bf31b	0.03807364
131	0x3e722f9d	0.23650976
132	0xbd31c081	-0.043396477
133	0x3e2597f4	0.16171247
134	0x3db5a9c3	0.0887027
135	0xbdc6b1e6	-0.097019
136	0xbdf86ffe	-0.12130736
137	0xbdda95f9	-0.10673136
138	0xbe9ec75a	-0.31011468
139	0xbe22a68d	-0.15883847
140	0x3dd00b92	0.10158457
141	0xbd03cf24	-0.032179967
142	0x3c35b08e	0.011089457
143	0xbdde6890	-0.108597875
144	0xbd55f82b	-0.052238625
145	0xbe6e61db	-0.23279516
146	0x3ca4c6c2	0.020114306
147	0x3e3b6108	0.18298733
148	0x3dde7a6d	0.108631946
149	0x3cb07b4e	0.021543171
150	0x3dc916c3	0.098187946
151	0xbc2e61b2	-0.01064341
152	0xbdd2a100	-0.102846146
153	0x3e3307fc	0.17483515
154	0xbe3a8cb3	-0.18217735
155	0xbea121ad	-0.31471005
156	0x3db464bf	0.08808278
157	0x3e3374a5	0.17524965
158	0xbde7d504	-0.113199264
159	0x3d05c564	0.03265895
160	0xbe338833	-0.17532425
161	0x3e0a6227	0.13514005
162	0x3e6dcd7a	0.23222914
163	0xbec40958	-0.3828838
164	0x3b8fa209	0.00438333
165	0xbe0615e4	-0.13094288
166	0x3de8dbb2	0.113700286
167	0xbdc4d76b	-0.096114
168	0x3dc6be38	0.0970425
169	0xbd4d463f	-0.05011582
170	0x3df65242	0.12027408
171	0xbb0d93d5	-0.0021603007
172	0xbd0b6be8	-0.034038454
173	0x3e9abc13	0.30221614
174	0xbd5f158c	-0.054463908
175	0xbe13d63b	-0.14437191
176	0x3df5bc4d	0.11998806
177	0xbe3f8b53	-0.18705492
178	0xbe59ad96	-0.21257624
179	0xbbe0a093	-0.0068550794
180	0x3d8ce6f2	0.06879987
181	0x3d8cd9ab	0.06877454
182	0x3d7c1d61	0.061551455
183	0x3cad8964	0.021183677
184	0xbd326fde	-0.043563716
185	0xbb4d2088	-0.0031299908
186	0xbddd82ce	-0.10815965
187	0x3dc72e7b	0.09725662
188	0xbcb47463	-0.022028154
189	0x3e0946ea	0.13405958
190	0xbe4ff84a	-0.20309559
191	0xbdb0a40e	-0.08625041
192	0xbe5c125b	-0.21491377
193	0x3d9c2f61	0.07626224
194	0xbe61ddf8	-0.2205733
195	0xbeb06f4b	-0.3445991
196	0x3f10b3f7	0.56524605
197	0xbe8bbaad	-0.2729086
198	0x3e0c7088	0.13714802
199	0x3e0ae110	0.13562417
200	0x3e0797fb	0.1324157
201	0xbcd865bd	-0.0264157
202	0xbdeb3d84	-0.114863425
203	0x3c3acbb6	0.011401108
204	0x3e1b3024	0.15155083
205	0xbe88d3aa	-0.26723987
206	0xbc8a4be5	-0.016881892
207	0xbe379d04	-0.1793099
208	0xbd28bef5	-0.041197736
209	0x3b6e148f	0.0036328172
210	0xbe8d561b	-0.27604756
211	0x3d3c949a	0.046040155
212	0x3ee8fc29	0.45504883
213	0x3db48473	0.08814325
214	0xbdb111b2	-0.08645953
215	0x3efd94bf	0.49527547
216	0x3e2abb78	0.16673076
217	0xbef79b26	-0.48360556
218	0xbd1f1adf	-0.038843986
219	0xbdc6ec50	-0.09713042
220	0x3cbd8cd3	0.02313844
221	0x3e65375e	0.22384402
222	0x3e3b1361	0.18269111
223	0xbdca798b	-0.09886464
224	0x3dae16e9	0.085004635
225	0xbc5447db	-0.012956585
226	0xbc9d85c3	-0.019228822
227	0x3eb40189	0.3515742
228	0xbd00ba22	-0.03142751
229	0x3e08fd42	0.1337786
230	0x3e9b5a74	0.30342448
231	0x3dbf44c2	0.093392864
232	0xbca7e7b1	-0.020496221
233	0x3d9d3b52	0.0767733
234	0x3e14aa65	0.14518125
235	0xbe7b54cd	-0.24544068
236	0x3d57db2d	0.052699257
237	0xbd83b02c	-0.064300865
238	0xbe97abfc	-0.296234
239	0xbd9a2f13	-0.0752851
240	0x3db4d01a	0.08828755
241	0x3d11f37c	0.035632595
242	0xbe1b7fa7	-0.15185414
243	0xbe1a53d0	-0.15071034
244	0x3c44c67f	0.012010216
245	0xbe846367	-0.25857088
246	0x3d743c46	0.059627794
247	0x3cdfad86	0.027304422
248	0xbc7b4dfd	-0.015338418
249	0xbdb52de4	-0.088466436
250	0x3d9dcd23	0.07705142
251	0x3cbc722d	0.023003662
252	0x3e262b78	0.1622752
253	0x3e316861	0.17324974
254	0x3e7bd2e4	0.24592167
255	0x3e4377c4	0.19088656

model.1.defunc.m.2.bias f4 [8]
0	0xbe268022	-0.16259816
1	0x3e31580b	0.17318742
2	0xbd28e1d5	-0.041230995
3	0xbd1613a1	-0.036639813
4	0xbd283c8d	-0.04107337
5	0x3b32f8a0	0.0027308837
6	0xbe78799d	-0.24265142
7	0x3d7125dd	0.058874

model.2.weight f4 [2, 8]
0	0xbf0a6880	-0.54065704
1	0x3ed671e5	0.4188377
2	0x3e781c79	0.24229611
3	0x3eac4004	0.3364259
4	0x3e5c17e1	0.21493484
5	0x3e90fc9e	0.28317732
6	0x3e090fec	0.1338498
7	0x3eb3da0e	0.351273
8	0x3f0cba43	0.5497171
9	0xbe725d83	-0.23668484
10	0x3d70cda5	0.058789868
11	0xbd5d42cf	-0.05401879
12	0x3d746699	0.059668157
13	0xbef65023	-0.48108014
14	0x3ef9aea9	0.48766068
15	0xbe7cf3d5	-0.2470239

model.2.bias f4 [2]
0	0x3ed189aa	0.40925342
1	0xbe015d1d	-0.12633176
