lightning_logs/version_2/checkpoints/epoch=199-step=199.ckpt (torch, 19857 bytes, 18 tensors)

exp_avg f4 [64, 8]
-1.0374355e-06 7.790932e-07 -9.159536e-06 -2.1289486e-07 -3.4905304e-06 -7.644862e-06 3.983446e-06 3.112273e-05
-1.98364e-05 -8.327661e-06 1.0742236e-05 -1.570502e-05 1.3704805e-05 -1.0907614e-05 -4.2150978e-06 2.7740252e-06
-1.7575136e-06 -3.3642266e-06 4.002041e-06 -2.6408293e-06 1.655694e-06 2.893316e-06 -5.419674e-06 -4.9513174e-06
6.3837765e-06 7.0100796e-06 -1.0193256e-05 7.190051e-06 -6.5266795e-06 -5.1135316e-06 8.743055e-06 1.2268882e-05
-1.6215772e-05 -2.7417962e-06 1.086852e-05 -1.0813499e-05 1.219837e-05 -1.4929908e-05 -2.237407e-06 -2.6602074e-05
-1.3486231e-05 -4.571065e-06 1.0314804e-05 -1.0132491e-05 1.0497405e-05 -7.730637e-06 -4.1894523e-06 -1.7474395e-05
1.009814e-06 -1.148151e-06 5.8305227e-06 6.70201e-08 1.9866438e-06 6.203166e-06 -2.6431183e-06 -1.6589498e-05
1.2864821e-05 6.9727494e-06 -9.882812e-06 1.0961239e-05 -9.802021e-06 4.186374e-06 5.2451537e-06 3.3098463e-06
1.7294897e-05 2.168838e-06 -8.463287e-06 1.1297116e-05 -1.2485118e-05 1.5815926e-05 -2.1247088e-06 2.0360589e-05
1.3499604e-05 3.860564e-06 -1.1744309e-05 9.699303e-06 -1.0966044e-05 9.237724e-06 5.2711107e-06 2.2055736e-05
1.8279264e-06 4.0844e-06 -1.069009e-05 2.8255192e-06 -4.279514e-06 -5.9667177e-06 9.490337e-06 3.1186115e-05
-1.8274954e-05 -4.0757377e-06 1.3076283e-05 -1.2625953e-05 1.3786711e-05 -1.3903359e-05 -5.6957165e-06 -2.9008443e-05
-6.631858e-06 -4.4777926e-06 6.7112014e-06 -5.9241065e-06 4.5289758e-06 -3.4686354e-06 -7.5516277e-06 -7.4563864e-06
-1.7146845e-06 1.2374322e-06 -2.6279276e-06 -4.82763e-07 4.8408845e-07 -4.168679e-06 5.029764e-06 6.172617e-06
2.3591242e-06 9.533768e-07 -3.6782424e-06 1.8408883e-06 -3.1097047e-06 -1.9154593e-06 1.3597573e-06 7.950646e-06
-1.1482973e-06 -4.027369e-06 2.6120783e-06 -2.4547298e-06 4.7755165e-08 2.2722083e-06 -8.988899e-06 1.7354296e-06
1.0518024e-05 7.5649136e-06 -7.707546e-06 9.714025e-06 -6.1839833e-06 5.9945733e-06 9.479726e-06 2.438693e-06
-3.1413404e-06 -8.494955e-07 1.1969177e-06 -2.2619615e-06 2.1582655e-06 -2.646971e-06 5.149785e-07 1.222551e-07
1.9936547e-06 1.0155253e-05 -1.38252e-05 5.896439e-06 -4.2652077e-06 -1.3584293e-05 1.8349776e-05 1.40838565e-05
1.2100811e-05 5.123364e-06 -9.517791e-06 9.618969e-06 -9.430945e-06 5.5513797e-06 4.154246e-06 1.1574903e-05
3.881634e-06 3.3651734e-06 -5.225023e-06 3.86984e-06 -3.3450171e-06 -5.1297405e-07 5.0086223e-06 6.779146e-06
4.4721606e-08 4.2256456e-06 -7.479368e-06 1.8619573e-06 -1.6983112e-06 -5.5496835e-06 1.0454877e-05 7.499687e-06
9.247457e-06 8.183616e-06 -1.1499831e-05 9.29977e-06 -7.839703e-06 -1.2251026e-06 1.0762318e-05 4.8715206e-06
2.66124e-06 -1.318526e-07 1.1884847e-06 1.4757793e-06 -9.969201e-07 5.5645596e-06 -2.07997e-06 -6.179566e-06
-4.326291e-06 -4.5562658e-07 3.5130515e-06 -2.7290507e-06 4.177824e-06 -2.5083655e-06 5.235364e-07 -8.657722e-06
1.7746534e-06 2.0319726e-06 -3.2954258e-06 2.0333614e-06 -1.8108467e-06 -2.0321438e-06 3.2681235e-06 8.581584e-06
3.0945355e-06 6.3104626e-06 -3.955953e-06 4.6122514e-06 -1.5935233e-06 -5.672428e-06 1.210117e-05 -5.146074e-06
8.131416e-06 2.4549838e-06 -3.873977e-06 6.0422617e-06 -5.7973652e-06 4.4238136e-06 -1.1613988e-07 2.2518145e-06
3.6828246e-06 9.0846163e-07 -5.097189e-06 2.5029747e-06 -3.979486e-06 2.4338337e-06 1.8570125e-06 1.0751754e-05
8.402962e-06 5.52002e-06 -7.86362e-06 7.560353e-06 -6.552408e-06 1.309305e-06 6.4189758e-06 2.7214085e-06
5.700573e-06 2.0576142e-06 -5.88447e-06 4.17185e-06 -5.4329143e-06 3.2181902e-06 2.9272946e-06 1.0096868e-05
-4.0031928e-06 -4.4099456e-06 6.0657176e-06 -4.409202e-06 3.6085166e-06 1.7261686e-06 -6.5358977e-06 -8.4106605e-06
00000000: 033e 8bb5 e122 5135 e8ab 19b7 1898 64b4
00000010: db3e 6ab6 6f42 00b7 8aa9 8536 c789 0238
00000020: 5866 a6b7 08b7 0bb7 8d39 3437 46be 83b7
00000030: b0ed 6537 d8ff 36b7 6a6f 8db6 6429 3a36
00000040: b5e3 ebb5 f9c4 61b6 4549 8636 1a39 31b6
00000050: 3639 de35 ca2a 4236 a5da b5b6 7e23 a6b6
00000060: 3934 d636 2038 eb36 b303 2bb7 1142 f136
00000070: c0ff dab6 e794 abb6 23af 1237 72d6 4d37
00000080: 1b07 88b7 b3ff 37b6 f057 3637 a06b 35b7
00000090: 9aa7 4c37 777b 7ab7 5c26 16b6 8527 dfb7
000000a0: ec42 62b7 2661 99b6 bf0d 2d37 b8fe 29b7
000000b0: 031e 3037 d5b2 01b7 1f93 8cb6 fa95 92b7
000000c0: f288 8735 2b1a 9ab5 cfa3 c336 b1ec 8f33
000000d0: 4852 0536 ca24 d036 6d60 31b6 ad29 8bb7
000000e0: fcd5 5737 76f7 e936 5bce 25b7 2ae6 3737
000000f0: 5c73 24b7 ae78 8c36 87ff af36 ba1e 5e36
00000100: 8214 9137 5a8c 1136 8afd 0db7 be88 3d37
00000110: 2c77 51b7 71ac 8437 3896 0eb6 08cc aa37
00000120: 5c7c 6237 fe89 8136 6c09 45b7 30ba 2237
00000130: cdfa 37b7 b9fb 1a37 7fde b036 5504 b937
00000140: 1357 f535 bb0c 8936 9659 33b7 0d9e 3d36
00000150: bf98 8fb6 b735 c8b6 b038 1f37 d6cd 0238
00000160: 2a4d 99b7 52c2 88b6 3562 5b37 0ed4 53b7
00000170: 794d 6737 7942 69b7 d51d bfb6 2857 f3b7
00000180: 3a87 deb6 f23f 96b6 c830 e136 b0c7 c6b6
00000190: 9bf7 9736 b4c6 68b6 fd63 fdb6 df31 fab6
000001a0: 1c24 e6b5 d915 a635 745b 30b6 3997 01b5
000001b0: 4ef2 0135 aee0 8bb6 58c5 a836 601e cf36
000001c0: 7251 1e36 8eeb 7f35 b9d7 76b6 7114 f735
000001d0: 52b0 50b6 578b 00b6 e880 b635 c463 0537
000001e0: 321f 9ab5 d622 87b6 2a4b 2f36 f0bb 24b6
000001f0: 5c1b 4d33 3e7c 1836 07cf 16b7 e8ec e835
00000200: 9276 3037 1dd6 fd36 a84f 01b7 6bf9 2237
00000210: 0380 cfb6 fe24 c936 1d0b 1f37 6da8 2336
00000220: d1cf 52b6 e308 64b5 c7a5 a035 34cc 17b6
00000230: b8d6 1036 9ea2 31b6 0e3d 0a35 3a45 0334
00000240: baca 0536 7b60 2a37 c8f2 67b7 06da c536
00000250: db1d 8fb6 18e8 63b7 d8ed 9937 b449 6c37
00000260: 9604 4b37 5de9 ab36 9aae 1fb7 2861 2137
00000270: 9a39 1eb7 fd45 ba36 b464 8b36 d431 4237
00000280: fb3e 8236 3dd5 6136 9b52 afb6 acd9 8136
00000290: f57a 60b6 4fb3 09b5 bd0f a836 6c78 e336
000002a0: ed13 4033 05ca 8d36 48f7 fab6 5ee8 f935
000002b0: 87f1 e3b5 6b37 bab6 5b67 2f37 d2a5 fb36
000002c0: 8625 1b37 5d4c 0937 66ef 40b7 3506 1c37
000002d0: 4587 03b7 346e a4b5 ce8f 3437 0b76 a336
000002e0: c197 3236 5e93 0db4 0684 9f35 6413 c635
000002f0: eacd 85b5 34b7 ba36 9d95 0bb6 115a cfb6
00000300: 8f2a 91b6 d79c f4b4 c4c1 6b36 bc24 37b6
00000310: 3c2f 8c36 6455 28b6 2689 0c35 a240 11b7
00000320: a030 ee35 065d 0836 fc26 5db6 e274 0836
00000330: 380c f3b5 f75f 08b6 ef51 5b36 9ff9 0f37
00000340: b7ab 4f36 76be d336 61bd 84b6 f0c2 9a36
00000350: 0be1 d5b5 c955 beb6 2106 4b37 70ac acb6
00000360: 2a6c 0837 4dc0 2436 36fd 81b6 a2be ca36
00000370: fd86 c2b6 4570 9436 9368 f9b3 e11d 1736
00000380: 7226 7736 02dd 7335 8508 abb6 c7f8 2736
00000390: 8687 85b6 f254 2336 773e f935 6f62 3437
000003a0: 72fa 0c37 9c38 b936 feed 03b7 f0ae fd36
000003b0: c2dc dbb6 61bb af35 9562 d736 71a1 3636
000003c0: 8d47 bf36 8b15 0a36 3673 c5b6 ebfb 8b36
000003d0: 614c b6b6 16f8 5736 8a72 4436 b865 2937
000003e0: 2a53 86b6 25f9 93b6 1e88 cb36 c2f2 93b6
000003f0: d829 7236 b4ae e735 ef4e dbb6 831b 0db7

exp_avg_sq f4 [64, 8]
3.8795053e-05 4.857034e-06 1.31367515e-05 1.3207341e-05 5.1630836e-06 0.00021353636 0.0002922453 0.00014247416
8.316997e-05 3.0843983e-06 3.297866e-06 3.1022348e-05 3.7848138e-05 0.00013122398 4.3313208e-05 1.6840993e-05
3.1510917e-05 2.8641718e-06 4.921679e-06 1.3848523e-05 7.2990442e-06 7.1913884e-05 6.539315e-05 6.600441e-05
0.00018346454 8.821812e-06 1.0490027e-05 7.382959e-05 5.9872844e-05 0.00032023824 0.00019850569 0.00015242127
0.00042725625 1.520486e-05 2.2062864e-05 0.00015737317 0.00016067897 0.0007586985 0.00046640975 0.00026730294
0.00034205685 1.1936922e-05 1.2820118e-05 0.00013259459 0.00013264964 0.00049567444 0.00025172764 0.00014941236
1.8940356e-05 1.8218252e-06 4.367954e-06 8.170848e-06 3.2250862e-06 5.1374638e-05 6.810562e-05 4.7544865e-05
0.00014617169 7.909491e-06 4.8882753e-06 6.123487e-05 5.5339133e-05 0.00016301453 6.39825e-05 6.940758e-05
0.00039434346 1.2202262e-05 1.5703934e-05 0.00014715095 0.0001546921 0.0006202731 0.00031058706 0.00017744399
0.00028786864 9.077663e-06 1.4136448e-05 9.726041e-05 0.00011229432 0.00054951955 0.00029200912 0.00014870612
0.00015066736 1.4021532e-05 3.4292916e-05 6.293364e-05 2.5776584e-05 0.0004484594 0.0005175017 0.0003780905
0.00074149197 2.7077176e-05 3.6563364e-05 0.00028244144 0.00027925227 0.0012703316 0.000825345 0.00045144014
0.00011392171 7.4104455e-06 9.77308e-06 4.6941565e-05 3.4499397e-05 0.00020965684 0.00016558061 0.0001422157
2.2499946e-06 2.2915776e-07 9.758933e-07 5.507403e-07 3.979494e-07 2.4222023e-05 3.188918e-05 8.83001e-06
8.231694e-06 3.283697e-07 7.72744e-07 2.7147992e-06 3.4213901e-06 3.6052268e-05 2.7409787e-05 1.0149477e-05
1.5995478e-05 2.9338628e-06 5.8280693e-06 2.9019106e-06 4.6374103e-06 0.00018523587 0.00027985254 8.5870735e-05
0.00032986898 1.8245933e-05 1.8871971e-05 0.00014420254 0.000103292004 0.00045946802 0.00024722048 0.0003027164
1.6392439e-06 8.3409965e-08 1.7539797e-07 4.6808475e-07 7.20443e-07 1.2188285e-05 1.5131906e-05 1.149249e-06
0.00018587236 1.41545015e-05 2.3754614e-05 7.95759e-05 4.436202e-05 0.00037889302 0.00032568263 0.0003062156
0.00035446906 1.5903326e-05 1.3877337e-05 0.00014664621 0.00012966477 0.0004140707 0.00017759104 0.00019642588
3.029155e-05 2.530047e-06 3.6479903e-06 1.3013977e-05 8.244924e-06 4.8029222e-05 2.9841325e-05 5.9633203e-05
1.2295991e-05 1.2697787e-06 1.6048476e-06 2.3584118e-06 5.416441e-06 8.587416e-05 9.887882e-05 3.2178694e-05
0.0001848123 9.562119e-06 7.5728803e-06 7.672732e-05 6.5476306e-05 0.0002345111 0.00011273162 0.00011421696
1.1211858e-05 1.6745821e-07 3.8439987e-07 4.189235e-06 4.8903935e-06 2.8230199e-05 2.040328e-05 2.5916156e-06
3.1065552e-05 7.473246e-07 1.7944022e-06 1.0082872e-05 1.364714e-05 9.5350326e-05 5.8214242e-05 1.9677262e-05
2.2108821e-05 3.9965853e-06 7.961134e-06 4.6745563e-06 5.007336e-06 0.00023016409 0.00031703513 0.0001161939
1.7392747e-05 2.2424003e-06 4.2492384e-06 3.5659475e-06 7.862945e-06 0.00017119695 0.00020703959 5.4122815e-05
2.3654697e-05 1.5868563e-06 8.35833e-07 9.686478e-06 9.441023e-06 3.425786e-05 1.4048276e-05 1.1148773e-05
3.3334323e-05 1.2602941e-06 2.2317538e-06 9.266385e-06 1.5067821e-05 0.000116556774 8.1275866e-05 2.536872e-05
9.5160955e-05 4.0892132e-06 3.940229e-06 3.670586e-05 3.9779152e-05 0.0001377137 6.48675e-05 3.7828642e-05
5.4290645e-05 3.2243913e-06 5.1135567e-06 1.2972312e-05 2.5787334e-05 0.00027435817 0.00022734566 7.174089e-05
7.372637e-05 4.883537e-06 8.4606245e-06 3.134623e-05 1.8304496e-05 0.00016081342 0.00013790425 0.000106365565
00000000: dfb7 2238 9bf9 a236 eb65 5c37 1995 5d37
00000010: 8d3e ad36 bbe8 5f39 8038 9939 1e65 1539
00000020: 8a6b ae38 8ffd 4e36 e850 5d36 fe1d 0238
00000030: 21bf 1e38 2b99 0939 34ab 3538 c245 8d37
00000040: 972a 0438 1936 4036 e724 a536 f456 6837
00000050: 50ea f436 79d0 9638 ae23 8938 d96b 8a38
00000060: 6360 4039 6501 1437 53fe 2f37 f6d4 9a38
00000070: fa1f 7b38 a6e5 a739 f725 5039 46d3 1f39
00000080: 5d01 e039 6018 7f37 a413 b937 8a04 2539
00000090: ef7b 2839 65e3 463a 7588 f439 cb24 8c39
000000a0: 1856 b339 b144 4837 fd15 5737 1709 0b39
000000b0: de17 0b39 26f0 013a 50fa 8339 93ab 1c39
000000c0: 1be2 9e37 7085 f435 7090 9236 8615 0937
000000d0: 8f6e 5836 197b 5738 edd3 8e38 e96a 4738
000000e0: aa45 1939 01b3 0437 f705 a436 386b 8038
000000f0: f11b 6838 e1ee 2a39 582e 8638 e98e 9138
00000100: e2bf ce39 51b8 4c37 f1bb 8337 884c 1a39
00000110: d834 2239 d399 223a 4ad6 a239 4210 3a39
00000120: 13ed 9639 444c 1837 952b 6d37 49f8 cb38
00000130: 8e7f eb38 a20d 103a cd18 9939 ffed 1b39
00000140: 76fc 1d39 053e 6b37 bdd5 0f38 3efb 8338
00000150: cb3a d837 341f eb39 f4a8 073a 733a c639
00000160: af60 423a cb23 e337 9d5b 1938 a614 9439
00000170: 9b68 9239 4181 a63a f75b 583a 45af ec39
00000180: 41e9 ee38 3ea7 f836 0ff7 2337 1fe3 4438
00000190: 72b3 1038 54d7 5b39 b59f 2d39 bc1f 1539
000001a0: 9dfe 1636 680e 7634 70fb 8235 96d6 1335
000001b0: c0a5 d534 6630 cb37 bfc0 0538 9b24 1437
000001c0: db1a 0a37 ca4a b034 906e 4f35 e52f 3636
000001d0: 099b 6536 d436 1738 12ee e537 ac47 2a37
000001e0: 072e 8637 61e3 4436 bc8e c336 72be 4236
000001f0: 0d9b 9b36 e03b 4239 2cb9 9239 8015 b438
00000200: 44f2 ac39 d80e 9937 404f 9e37 1335 1739
00000210: 799e d838 c1e4 f039 5f9d 8139 e8b5 9e39
00000220: fe03 dc35 1d1f b333 0755 3c34 144d fb34
00000230: 7764 4135 497c 4c37 0bdf 7d37 e53f 9a35
00000240: bbe6 4239 1f79 6d37 a544 c737 fce1 a638
00000250: 5b11 3a38 29a6 c639 62c0 aa39 908b a039
00000260: 08d8 b939 2268 8537 b5d2 6837 0bc5 1939
00000270: 9ff6 0739 a117 d939 bb37 3a39 acf7 4d39
00000280: 9c1a fe37 e0c9 2936 ffcf 7436 9b56 5a37
00000290: ae53 0a37 fc72 4938 c253 fa37 aa1e 7a38
000002a0: e14a 4e37 446d aa35 2566 d735 3545 1e36
000002b0: e0be b536 5717 b438 2a5d cf38 9cf7 0638
000002c0: 2dca 4139 fd6c 2037 8c1a fe36 abe8 a038
000002d0: 5350 8938 18e7 7539 546a ec38 c387 ef38
000002e0: 901a 3c37 90ce 3334 845f ce34 4191 8c36
000002f0: 2918 a436 e4cf ec37 b627 ab37 9eeb 2d36
00000300: 624c 0238 c19b 4835 31d7 f035 9b29 2937
00000310: 05f6 6437 d1f6 c738 112b 7438 9910 a537
00000320: 5576 b937 681a 8636 cf90 0537 22da 9c36
00000330: b004 a836 3458 7139 bc37 a639 20ad f338
00000340: a4e6 9137 257c 1636 ae94 8e36 834e 6f36
00000350: 17eb 0337 5583 3339 c418 5939 ee01 6338
00000360: 136e c637 f8fb d435 025e 6035 1b83 2237
00000370: e364 1e37 19b0 0f38 e3b0 6b37 9e0b 3b37
00000380: 75d0 0b38 6027 a935 3dc5 1536 d276 1b37
00000390: cccb 7c37 f16f f438 a672 aa38 e9ce d437
000003a0: 2691 c738 1336 8936 4f36 8436 9ef4 1938
000003b0: 8ad8 2638 3d67 1039 7909 8838 32aa 1e38
000003c0: 23b6 6338 9f62 5836 1e95 ab36 a8a3 5937
000003d0: e151 d837 bbd7 8f39 a363 6e39 9973 9638
000003e0: 8b9d 9a38 43dd a336 1bf2 0d37 c279 0338
000003f0: 9b8c 9937 06a0 2839 649a 1039 9410 df38

exp_avg f4 [64]
-1.1265733e-05 1.9395486e-05 6.7899987e-06 -1.6788654e-05 3.5355784e-05 2.2773367e-05 4.0909754e-06 -1.3983187e-05
-3.4343837e-05 -2.812399e-05 -2.5884501e-05 3.8059476e-05 1.7729817e-05 5.7515257e-07 -1.4180387e-05 1.5625536e-05
-2.6708703e-05 5.282955e-06 -1.26030045e-05 -2.0394862e-05 -6.321268e-06 -1.0155016e-05 -1.2030809e-05 -4.824124e-06
2.4305165e-05 -1.4270721e-05 -3.3818327e-05 -1.0156859e-05 -1.8315599e-05 -1.04886385e-05 -3.6800855e-05 1.6157293e-05
3.70611e-05 -4.965245e-07 6.789218e-07 1.4998756e-05 -7.8773555e-06 4.1680983e-06 1.2854306e-05 3.4430045e-06
3.5585344e-05 -8.138326e-06 4.6588317e-05 -7.41434e-06 3.640572e-05 1.1387876e-05 -1.0908951e-05 -5.4651546e-06
2.0295789e-05 -2.5943866e-05 3.4021694e-05 -2.884895e-05 7.906862e-06 -2.1861108e-05 -8.343175e-06 -2.3819308e-05
-9.126226e-06 -3.3500095e-05 -7.149892e-07 -1.7408482e-05 2.3360264e-05 -1.8942344e-05 5.6465847e-06 1.2454354e-06
00000000: f401 3db7 7db3 a237 a5d5 e336 5cd5 8cb7
00000010: fc4a 1438 6f09 bf37 3645 8936 5599 6ab7
00000020: 6a0c 10b8 cfeb ebb7 8b22 d9b7 0da2 1f38
00000030: 7eba 9437 2f64 1a35 4ce8 6db7 9513 8337
00000040: 810c e0b7 3d44 b136 7e71 53b7 a215 abb7
00000050: 471b d4b6 765f 2ab7 eed7 49b7 e9de a1b6
00000060: f2e2 cb37 486c 6fb7 27d8 0db8 6167 2ab7
00000070: 73a4 99b7 5cf8 2fb7 9e5a 1ab8 8689 8737
00000080: 0e72 1b38 e748 05b5 273f 3635 2ba3 7b37
00000090: fc28 04b7 b1db 8b36 d3a8 5737 5e0e 6736
000000a0: 7941 1538 d889 08b7 d367 4338 b2c8 f8b6
000000b0: 58b2 1838 8e0e 3f37 9605 37b7 5261 b7b6
000000c0: e040 aa37 07a2 d9b7 84b2 0e38 a600 f2b7
000000d0: b7a7 0437 5f62 b7b7 aaf9 0bb7 93cf c7b7
000000e0: d81c 19b7 7482 0cb8 afed 3fb5 6e08 92b7
000000f0: c9f5 c337 60e6 9eb7 cb77 bd36 d628 a735

exp_avg_sq f4 [64]
0.0032732936 0.00013370605 0.00065606687 0.001436095 0.0031656781 0.0015275801 0.0007349204 0.00024340376
0.0018908997 0.0016966352 0.005550278 0.005862301 0.001389449 0.0003215929 0.0002711251 0.0025882295
0.0015255996 0.00012628763 0.0029941383 0.000924468 0.00023655793 0.0007535111 0.0006652351 0.00014985276
0.0004375072 0.003209521 0.0015735601 6.026564e-05 0.0005981481 0.00035309716 0.0018120181 0.0012473774
0.0020728013 0.00014934268 2.479129e-05 0.0021093898 0.00031563884 0.005129307 0.0008385385 6.202234e-05
0.0032115872 0.002698607 0.0069861123 0.00017099665 0.0033289455 0.0001357436 0.0016078916 0.0022116231
0.0052235792 0.0012783204 0.006692244 0.009434554 7.556269e-05 0.001497184 5.4801727e-05 0.0027830077
0.0051868944 0.0024726158 1.7565839e-05 0.008753331 0.0010745209 0.0064553767 0.0002947677 0.0007675055
00000000: c184 563b 7233 0c39 e7fb 2b3a 5a3b bc3a
00000010: 4477 4f3b 1539 c83a aca7 403a 333a 7f39
00000020: 11d8 f73a a161 de3a 1bdf b53b 8c18 c03b
00000030: 2c1e b63a 789b a839 cc25 8e39 499f 293b
00000040: a1f6 c73a 146c 0439 4e39 443b ff57 723a
00000050: 890c 7839 4687 453a 2c63 2e3a cb21 1d39
00000060: 3961 e539 d456 523b ea3f ce3a bdc5 7c38
00000070: 0acd 1c3a e61f b939 3d81 ed3a 0a7f a33a
00000080: d6d7 073b df98 1c39 e4f6 cf37 b03d 0a3b
00000090: 547c a539 bf13 a83b 5ed1 5b3a fe11 8238
000000a0: 7e79 523b 1ddb 303b c2eb e43b 904d 3339
000000b0: 702a 5a3b 6556 0e39 e4bf d23a e1f0 103b
000000c0: 8f2a ab3b 518d a73a 9d4a db3b 6393 1a3c
000000d0: 6977 9e38 293d c43a e8da 6538 1f63 363b
000000e0: d3f6 a93b 9c0b 223b 5a5a 9337 226a 0f3c
000000f0: f0d6 8c3a a087 d33b 0d8b 9a39 6c32 493a

exp_avg f4 [8, 64]
3.2764422e-06 -4.0967443e-06 -1.6021522e-05 8.502915e-06 -8.309716e-06 -3.528966e-06 -1.7012517e-05 6.425784e-06
8.839346e-06 5.0854496e-06 1.9948011e-05 -8.252432e-06 -1.7108507e-05 2.333576e-06 6.4488327e-06 8.572556e-06
1.6242888e-05 -6.1227192e-06 8.699068e-06 8.9399655e-06 6.4971027e-06 1.2284052e-06 6.2912404e-06 -4.440678e-06
-6.785666e-06 -1.0196569e-05 3.8380235e-06 8.0167065e-06 -2.129376e-06 5.5709625e-06 5.506753e-07 -1.4619595e-05
-1.7258147e-06 1.2499052e-05 4.3226732e-06 1.5119826e-06 1.5451675e-05 -8.861163e-06 -1.6915928e-05 -7.4806326e-06
-1.186478e-05 3.2327634e-06 -1.5196492e-05 5.486604e-06 -1.2786633e-05 -8.600697e-06 8.86701e-06 1.7834642e-06
7.3865044e-06 4.04392e-06 -1.22101565e-05 -1.0043758e-05 -4.9116834e-06 2.2927247e-06 -6.551716e-06 4.201071e-06
2.5152374e-05 4.3253444e-06 -7.622752e-07 1.10498295e-05 2.8719994e-06 -9.947911e-06 5.2134296e-06 3.7055552e-06
7.736144e-06 -4.4886524e-06 -2.0398813e-05 1.4536212e-05 -1.3009382e-05 -7.55717e-06 -1.9608611e-05 8.346215e-06
1.305521e-05 1.0199585e-05 2.2987797e-05 -1.2620903e-05 -2.001887e-05 5.93595e-07 1.7130209e-05 -8.638231e-07
1.9471287e-05 -6.570669e-07 1.2491258e-05 1.2576923e-05 1.0025338e-06 9.04395e-06 7.761165e-06 -1.0053385e-05
-1.8038321e-05 -1.859665e-06 1.40262655e-05 1.0572972e-05 8.734606e-06 8.134642e-06 1.2240385e-05 -1.7787894e-05
-1.2659428e-05 1.3822253e-05 2.371637e-06 -4.521438e-06 2.1050471e-05 -1.5483987e-05 -2.16561e-05 -1.14360355e-05
-1.3956852e-05 -1.1677145e-06 -1.8527293e-05 2.2190949e-07 -1.6439972e-05 -1.5033045e-05 1.7129913e-05 7.022929e-06
-2.1103554e-06 1.1901492e-05 -1.5950842e-05 -6.613212e-07 -2.0408615e-06 1.2108022e-05 -4.755103e-06 8.77189e-06
2.5945452e-05 9.549848e-06 -5.9232048e-06 1.3949069e-05 -7.654833e-06 -7.2243313e-07 4.0620616e-06 -3.6010479e-06
-2.2013495e-05 5.3734607e-06 4.4582695e-05 -2.7123453e-05 2.2344904e-05 1.0318709e-05 4.9440332e-05 -1.4472567e-05
-2.2776689e-05 -1.6273863e-05 -5.666833e-05 2.2211412e-05 4.4500528e-05 -8.591257e-07 -2.2391574e-05 -3.144279e-06
-4.29057e-05 6.28884e-07 -2.7613978e-05 -2.3289507e-05 -4.48498e-06 -1.4018775e-05 -1.5292137e-05 2.2079033e-05
2.3074172e-05 5.8945307e-06 -1.9228291e-05 -1.735202e-05 -6.437773e-06 -1.3437477e-05 -1.2811161e-05 4.2507178e-05
1.548639e-05 -3.6919355e-05 -8.394113e-06 1.0583391e-05 -4.0063736e-05 3.5693396e-05 4.5071796e-05 1.1971739e-05
3.6972844e-05 2.7877875e-06 4.1254818e-05 -6.586301e-07 3.5434823e-05 2.5664467e-05 -3.2103555e-05 -1.8368604e-05
2.2355207e-06 -1.661761e-05 3.741027e-05 3.6623055e-06 3.5079543e-06 -1.5145999e-05 1.5773687e-05 -1.2863089e-05
-6.6144436e-05 -1.3367934e-05 1.4214765e-05 -3.8246693e-05 5.4618645e-06 4.574096e-06 -4.9512364e-06 9.707273e-06
7.6632505e-06 -6.344926e-06 -2.5842755e-05 1.636317e-05 -1.5621748e-05 -8.466789e-06 -2.5268884e-05 1.0718834e-05
1.5993279e-05 1.1333835e-05 3.0208075e-05 -1.5279667e-05 -2.650599e-05 2.0056982e-06 1.5916448e-05 5.954086e-06
2.5686626e-05 -4.6323876e-06 1.5412841e-05 1.5560941e-05 5.2220043e-06 7.561464e-06 1.02516215e-05 -1.0407252e-05
-1.6760921e-05 -8.530975e-06 1.0909953e-05 1.3164451e-05 4.7213575e-06 9.990801e-06 8.329833e-06 -2.3206638e-05
-9.888912e-06 1.8068498e-05 4.958166e-06 -2.5729764e-06 2.5430047e-05 -1.6388578e-05 -2.7254155e-05 -1.240181e-05
-1.8742234e-05 1.4145135e-06 -2.4412457e-05 4.0050318e-06 -2.1112124e-05 -1.6830527e-05 1.756913e-05 6.1883675e-06
4.1577514e-06 1.1546661e-05 -2.0558507e-05 -7.76534e-06 -4.736643e-06 1.016086e-05 -7.4315835e-06 9.631292e-06
3.490733e-05 1.0443109e-05 -4.3119076e-06 1.7102375e-05 -3.3464162e-06 -7.765463e-06 5.9025942e-06 4.5086304e-07
00000000: d9e0 5b36 c476 89b6 f565 86b7 bea7 0e37
00000010: f569 0bb7 2dd3 6cb6 1ab6 8eb7 109d d736
00000020: b44c 1437 aea3 aa36 0756 a737 ed73 0ab7
00000030: 3d84 8fb7 889a 1c36 0d63 d836 d9d2 0f37
00000040: 5641 8837 c271 cdb6 36f2 1137 dcfc 1537
00000050: b001 da36 aedf a435 5819 d336 2201 95b6
00000060: 6db0 e3b6 ee11 2bb7 5fc8 8036 7e7f 0637
00000070: 67e6 0eb6 34ee ba36 1ed2 1335 af46 75b7
00000080: 8ba2 e7b5 05b3 5137 7b0b 9136 54ef ca35
00000090: 389e 8137 68aa 14b7 aee6 8db7 2502 fbb6
000000a0: d80e 47b7 74f2 5836 70f4 7eb7 9219 b836
000000b0: 2c86 56b7 b64b 10b7 85c3 1437 5d5f ef35
000000c0: 97d9 f736 02b1 8736 39da 4cb7 9d81 28b7
000000d0: 0acf a4b6 b6dc 1936 d0d6 dbb6 edf6 8c36
000000e0: 50fe d237 6d22 9136 279f 4cb5 a862 3937
000000f0: 93bc 4036 f4e5 26b7 05ef ae36 f4ac 7836
00000100: 7cca 0137 3b9d 96b6 1e1e abb7 8ee0 7337
00000110: df42 5ab7 9993 fdb6 2c7d a4b7 b806 0c37
00000120: b307 5b37 e21e 2b37 ebd5 c037 5ebe 53b7
00000130: 32ee a7b7 8a57 1f35 d8b2 8f37 79e1 67b5
00000140: 4556 a337 4b61 30b5 8b91 5137 7901 5337
00000150: cd8e 8635 78bb 1737 f335 0237 f6aa 28b7
00000160: 0051 97b7 9a99 f9b5 5a52 6b37 9262 3137
00000170: d98a 1237 057a 0837 0e5c 4d37 3637 95b7
00000180: d463 54b7 20e6 6737 6a28 1f36 dbb6 97b6
00000190: 8b95 b037 9ce3 81b7 1faa b5b7 66dd 3fb7
000001a0: 3928 6ab7 5dba 9cb5 0f6b 9bb7 0446 6e34
000001b0: 92e8 89b7 7036 7cb7 35b2 8f37 80a6 eb36
000001c0: a19f 0db6 85ac 4737 2cce 85b7 a685 31b5
000001d0: bcf5 08b6 8f23 4b37 068e 9fb6 fb2a 1337
000001e0: 6fa5 d937 4938 2037 f1bf c6b6 cc06 6a37
000001f0: 426d 00b7 3aed 41b5 d84c 8836 88a9 71b6
00000200: 9fa9 b8b7 ad4d b436 4efe 3a38 2c87 e3b7
00000210: 5171 bb37 851e 2d37 275e 4f38 34cf 72b7
00000220: 9110 bfb7 db83 88b7 28af 6db8 a552 ba37
00000230: 14a6 3a38 ab9e 66b5 8ad5 bbb7 4d02 53b6
00000240: a5f5 33b8 94d0 2835 91a4 e7b7 d65d c3b7
00000250: af7d 96b6 2e32 6bb7 9d47 80b7 5d36 b937
00000260: 688f c137 a2c9 c536 714c a1b7 2e8f 91b7
00000270: 0d04 d8b6 8671 61b7 84ef 56b7 bc49 3238
00000280: c5e8 8137 dbd9 1ab8 71d4 0cb7 518f 3137
00000290: 1c0a 28b8 7eb5 1538 790b 3d38 3ada 4837
000002a0: 4a13 1b38 d315 3b36 0609 2d38 b7cc 30b5
000002b0: da9f 1438 064a d737 eea6 06b8 4716 9ab7
000002c0: f405 1636 0c66 8bb7 f9e8 1c38 eec5 7536
000002d0: 326a 6b36 921b 7eb7 bc51 8437 8cce 57b7
000002e0: 06b7 8ab8 d746 60b7 f37b 6e37 136b 20b8
000002f0: 0f45 b736 2f7b 9936 cc22 a6b6 6cdc 2237
00000300: 6991 0037 80e6 d4b6 e5c8 d8b7 a443 8937
00000310: 730b 83b7 950c 0eb7 84f8 d3b7 0bd5 3337
00000320: 4e29 8637 7326 3e37 5967 fd37 d62c 80b7
00000330: 2e59 deb7 a299 0636 5084 8537 36c9 c736
00000340: 9c79 d737 e86f 9bb6 d34a 8137 de88 8237
00000350: ad38 af36 7bb8 fd36 61fe 2b37 cf9a 2eb7
00000360: ce99 8cb7 4220 0fb7 e409 3737 e3dc 5c37
00000370: 276c 9e36 2a9e 2737 5cc0 0b37 e0ab c2b7
00000380: 8ee8 25b7 ce91 9737 525e a636 66ab 2cb6
00000390: 9c52 d537 347a 89b7 da9f e4b7 5e11 50b7
000003a0: a438 9db7 50da bd35 5ac9 ccb7 f662 8636
000003b0: f119 b1b7 482f 8db7 6b61 9337 aca5 cf36
000003c0: d082 8b36 88b8 4137 0f75 acb7 e247 02b7
000003d0: 74ef 9eb6 9078 2a37 d15c f9b6 1696 2137
000003e0: 7669 1238 d034 2f37 01af 90b6 1277 8f37
000003f0: fe92 60b6 6948 02b7 e60e c636 250e f234

exp_avg_sq f4 [8, 64]
0.00022362721 0.00017277169 0.00010751876 3.6321308e-05 6.272633e-05 0.00037048184 0.00020733372 9.668035e-05
0.000121394645 0.00017001838 0.00010847036 9.7372606e-05 0.00011365898 5.1770323e-05 0.0008376711 0.00021101895
7.2531024e-05 0.00016057213 3.8782437e-05 9.9656376e-05 0.00016378712 0.00051084923 0.00020466749 0.00042379205
0.0011928644 0.00023787693 0.00056219177 6.356887e-05 0.000247752 5.2150797e-05 0.00058254105 4.3093296e-05
0.0006293459 0.00020577476 1.609128e-05 0.0004209387 0.0002988531 0.00048591095 0.00016609806 0.0010784622
3.8933656e-05 0.00014275395 3.592522e-05 0.00014689566 3.1249154e-05 4.304976e-05 9.171385e-05 0.00015118551
0.0004188962 6.020336e-05 1.6733578e-05 0.0003260573 0.00010856078 0.00063842407 0.0004395605 0.00011071426
0.00033002702 0.00019938739 0.00025978888 0.00021063151 9.499696e-05 0.00026243288 0.00027949258 0.00030547252
0.00014579215 0.00010230705 5.4722383e-05 9.576102e-06 2.9022625e-05 0.00014349034 0.00014737959 5.7960176e-05
5.084292e-05 5.7388133e-05 9.314634e-05 3.8186925e-05 4.493485e-05 2.5408452e-05 0.00030644465 0.00013773532
2.8700255e-05 0.00011362297 1.836835e-05 4.5445537e-05 8.4214655e-05 0.00019352094 8.068118e-05 0.00018993905
0.00042228354 0.00014810257 0.00024278958 5.5344342e-05 9.733167e-05 3.998098e-05 0.00021615521 3.7995662e-05
0.00022914192 0.00015114421 8.096731e-06 0.00018840161 0.00011382907 0.00027557896 6.4743675e-05 0.00038805205
4.5293742e-05 8.507429e-05 1.3157155e-05 9.312478e-05 8.4995945e-06 1.933546e-05 4.6099372e-05 0.00011040443
0.00023718752 2.7162043e-05 1.6527105e-05 0.00019749833 6.814828e-05 0.00023249739 0.00018197592 4.739633e-05
0.00022605399 7.8019686e-05 0.00016203418 0.00016183562 4.4891785e-05 0.0001670487 0.00010321188 0.00020976552
0.0009285044 0.00071009726 0.00021531229 8.0603226e-05 0.00019905716 0.00087752653 0.0007931628 0.00047435192
0.0003853837 0.0002951085 0.0004957854 0.0002570933 0.00019847682 0.00014398484 0.001802695 0.0011363862
0.00014432291 0.00092618144 0.00011110348 0.00039985485 0.0006702276 0.001389354 0.0006094021 0.0012245857
0.0025803945 0.0011179345 0.0018420704 0.00041284226 0.0007801813 0.00028565343 0.0015818883 0.00017549645
0.0016695949 0.0009032799 5.8854057e-05 0.0015603107 0.0005499356 0.0014939279 0.00027997242 0.0020875498
0.00026226012 0.00055671 9.92594e-05 0.00074217364 7.440393e-05 0.00012275913 0.00020430873 0.0006970485
0.0020646106 0.00017491262 8.581457e-05 0.0015691867 0.0005125205 0.0016093347 0.00094959885 0.0002967096
0.0013910587 0.00045829162 0.0010648982 0.0010814953 0.00040094275 0.0013935494 0.00052890694 0.0015682643
0.00039195013 0.00028971452 0.00018686899 3.659963e-05 8.919563e-05 0.0005224355 0.00041338056 0.00015450155
0.00016639194 0.00023135326 0.00023640368 0.00013486088 0.00016831083 7.955375e-05 0.001122389 0.00035282772
0.00010334304 0.00028416383 5.0606104e-05 0.00013619948 0.00024417444 0.00067393587 0.00027473675 0.0006286839
0.0015682866 0.00039777442 0.00078368484 0.00012735637 0.00031786028 9.919336e-05 0.00075301045 9.644836e-05
0.0008065073 0.00040623968 2.3028404e-05 0.00058503274 0.00042884517 0.0008570197 0.00024718515 0.0014524694
0.00010122 0.00024542294 3.816047e-05 0.00024655653 3.201358e-05 6.130071e-05 0.000155926 0.0002829056
0.00064465817 8.50034e-05 3.5467776e-05 0.000532613 0.0001827309 0.0008289607 0.0006623844 0.00016316668
0.00062572834 0.00028549292 0.00046071605 0.00041011636 0.00012903466 0.00043297923 0.0003794859 0.0005497238
00000000: 797d 6a39 0c2a 3539 b27b e138 b557 1838
00000010: f18b 8338 3b3d c239 b967 5939 dec0 ca38
00000020: 4195 fe38 f646 3239 957a e338 8534 cc38
00000030: 335c ee38 f623 5938 2897 5b3a f844 5d39
00000040: cc1b 9838 415f 2839 53aa 2238 9cfe d038
00000050: 45be 2b39 83ea 053a 039c 5639 6830 de39
00000060: e359 9c3a 9a6e 7939 0d60 133a 4750 8538
00000070: b6e4 8139 7ebc 5a38 abb5 183a 13bf 3438
00000080: b0fa 243a 3ec5 5739 c3fb 8637 70b1 dc39
00000090: 62af 9c39 ddc1 fe39 9c2a 2e39 305b 8d3a
000000a0: b24c 2338 39b0 1539 69ae 1638 0108 1a39
000000b0: 8611 0338 5490 3438 8056 c038 8d87 1e39
000000c0: 4c9f db39 de82 7c38 165f 8c37 acf2 aa39
000000d0: 20ab e338 ea5b 273a d074 e639 442f e838
000000e0: 7a07 ad39 a512 5139 4634 8839 f7dc 5c39
000000f0: 1b39 c738 2597 8939 dc88 9239 d427 a039
00000100: c8df 1839 ae8d d638 b685 6538 0ba9 2037
00000110: 9d75 f337 e575 1639 e889 1a39 441a 7338
00000120: 2b40 5538 0ab4 7038 8f57 c338 e62a 2038
00000130: 6e78 3c38 3c24 d537 4eaa a039 0b6d 1039
00000140: 54c1 f037 de48 ee38 bb15 9a37 c69c 3e38
00000150: 669c b038 e2eb 4a39 6133 a938 602a 4739
00000160: f065 dd39 fb4b 1b39 5595 7e39 8921 6838
00000170: 8b1e cc38 40b1 2738 b9a7 6239 885d 1f38
00000180: d145 7039 777c 1e39 32d7 0737 ac8d 4539
00000190: 84b7 ee38 957b 9039 ffc6 8738 7773 cb39
000001a0: c9f9 3d38 e969 b238 8dbd 5c37 fc4b c338
000001b0: 7b99 0e37 9632 a237 d35a 4138 ed88 e738
000001c0: 8ab5 7839 0bda e337 b0a3 8a37 8e17 4f39
000001d0: d4ea 8e38 8bca 7339 cad0 3e39 6ccb 4638
000001e0: e808 6d39 809e a338 b8e7 2939 6bb2 2939
000001f0: 304a 3c38 cb29 2f39 7573 d838 81f4 5b39
00000200: e066 733a d225 3a3a 74c5 6139 8709 a938
00000210: 00ba 5039 cf09 663a 41ec 4f3a 70b2 f839
00000220: 530d ca39 cbb8 9a39 98f7 013a 7bca 8639
00000230: 371e 5039 a3fa 1639 6848 ec3a cbf2 943a
00000240: 6355 1739 fcca 723a 3a00 e938 9ca3 d139
00000250: 36b2 2f3a fc1a b63a 48c0 1f3a 4782 a03a
00000260: d61b 293b a887 923a a071 f13a c072 d839
00000270: 1585 4c3a c1c3 9539 5d57 cf3a 7805 3839
00000280: 4fd6 da3a 17ca 6c3a 10da 7638 5783 cc3a
00000290: 8e29 103a e7cf c33a 43c9 9239 46cf 083b
000002a0: f57f 8939 2df0 113a 7c29 d038 6e8e 423a
000002b0: 4e09 9c38 e7b8 0039 b53b 5639 22ba 363a
000002c0: 6b4e 073b c068 3739 59f7 b338 2bad cd3a
000002d0: ab5a 063a 50f0 d23a 80ee 783a b08f 9b39
000002e0: 2f54 b63a dc46 f039 0e94 8b3a f6c0 8d3a
000002f0: a035 d239 c2a7 b63a 58a6 0a3a 388e cd3a
00000300: a87e cd39 d3e4 9739 43f2 4339 8e82 1938
00000310: 8a0e bb38 0ef4 083a 00bb d839 b201 2239
00000320: 7f79 2e39 6b97 7239 21e3 7739 7169 0d39
00000330: 987c 3039 18d6 a638 201d 933a bcfb b839
00000340: dfb9 d838 d3fb 9439 e441 5438 c5d0 0e39
00000350: 8a04 8039 12ab 303a 8b0a 9039 43ce 243a
00000360: f78e cd3a 618c d039 3370 4d3a f78a 0539
00000370: 7ca6 a639 0806 d038 ad65 453a 5244 ca38
00000380: ca6b 533a 91fc d439 1f2d c137 e25c 193a
00000390: a0d6 e039 9ea9 603a a198 8139 c960 be3a
000003a0: 1346 d438 1cac 8039 7e0e 2038 4244 8139
000003b0: 5246 0638 918e 8038 1180 2339 f252 9439
000003c0: 47fe 283a da43 b238 3cc3 1438 0e9f 0b3a
000003d0: 749b 3f39 9c4e 593a dda3 2d3a b917 2b39
000003e0: eb07 243a 36ae 9539 438c f139 e304 d739
000003f0: 7a4d 0739 7d01 e339 bcf5 c639 571b 103a

exp_avg f4 [8]
1.7807431e-06 1.0757718e-05 -2.2919103e-05 7.910931e-06 -8.01655e-06 -2.0589592e-05 9.300277e-06 -1.3870954e-05
00000000: de01 ef35 0c7c 3437 6642 c0b7 31b9 0437
00000010: d27e 06b7 d0b7 acb7 6308 1c37 4bb7 68b7

exp_avg_sq f4 [8]
0.0040946705 0.0015562446 0.00925336 0.0057514072 0.0038751622 0.00050201634 0.00051089394 0.0001313572
00000000: 962c 863b e7fa cb3a 689b 173c 4d76 bc3b
00000010: 6ff6 7d3b bf99 033a 83ed 053a eebc 0939

exp_avg f4 [2, 8]
-7.956628e-05 -0.000101381185 0.00011316375 -9.426254e-05 7.196697e-05 4.97823e-05 -0.00011013861 5.6007688e-05
7.957788e-05 0.00010138713 -0.00011317052 9.427245e-05 -7.1975024e-05 -4.9777474e-05 0.000110141475 -5.6013898e-05
00000000: d2dc a6b8 9c9c d4b8 5352 ed38 d1ae c5b8
00000010: f9ec 9638 56cd 5038 37fa e6b8 cce9 6a38
00000020: 0de3 a638 cd9f d438 f655 edb8 23b4 c538
00000030: 4cf1 96b8 28c8 50b8 c1fb e638 77f0 6ab8

exp_avg_sq f4 [2, 8]
0.005388198 0.00042323253 0.0005064148 0.0028373676 0.0023996925 0.002095138 0.0004520508 0.0006901531
0.005388198 0.0004232325 0.0005064149 0.0028373683 0.0023996925 0.002095138 0.0004520508 0.0006901532
00000000: 7b8f b03b 4fe5 dd39 ecc0 043a 21f3 393b
00000010: 2944 1d3b 954e 093b 3b01 ed39 64eb 343a
00000020: 7b8f b03b 4ee5 dd39 eec0 043a 24f3 393b
00000030: 2944 1d3b 954e 093b 3b01 ed39 66eb 343a

exp_avg f4 [2]
9.3236076e-07 -9.3315094e-07
00000000: 5847 7a35 a57d 7ab5

exp_avg_sq f4 [2]
0.00032038798 0.00032038798
00000000: bff9 a739 bff9 a739

model.1.defunc.m.0.weight f4 [64, 8]
-0.42144486 -0.017686507 0.58249617 0.0188374 0.48494387 -0.35798684 0.3558693 -0.19747384
-0.3111113 -0.2558906 -0.2461532 0.13066581 -0.41236317 -0.13805035 0.19353144 -0.09169239
0.4989017 0.005650834 -0.6167941 -0.03081486 0.03977409 -0.10231804 0.25328612 0.3122
-0.011456001 0.021174552 0.38829702 -0.2095285 0.2459253 -0.111554496 -0.31444165 -0.04654886
0.32177895 -0.0046378765 -0.604915 0.16811486 -0.11170717 -0.42488697 0.11136394 -0.1228995
-0.054231513 -0.06898532 -0.56718606 0.20111851 -0.17923974 -0.14683543 0.031801242 -0.1720099
0.09770591 -0.15584685 -0.6681413 0.41319442 0.22098595 0.4929912 0.01302679 0.57473224
-0.2676326 0.065491445 -0.0029254982 0.04164838 0.0839301 0.12555154 -0.3311276 -0.09432343
-0.053631723 -0.3729927 0.4233714 -0.06251318 0.4146711 0.19844897 -0.22801276 0.03169173
0.11890629 -0.3204506 0.37755406 -0.33400995 0.27626303 0.1426568 0.0010875574 0.11229916
-0.24717219 -0.488722 0.74054176 -0.09163265 0.20685247 -0.2336671 0.07885937 -0.60729384
0.29487365 0.3648286 -0.7575362 0.011459722 0.045858204 -0.34200862 -0.08620749 -0.096151836
0.33162296 0.3836084 -0.22774856 0.3205014 0.03708606 -0.31658798 0.14093755 0.42714995
0.29557878 -0.15637648 0.41697317 -0.07435072 -0.18524078 0.09215408 0.28190434 0.056759182
-0.13926283 -0.32372907 0.33517486 -0.26717556 -0.15696369 -0.069404885 -0.772104 0.538722
0.21801373 0.39559415 -0.0032946444 0.53835094 0.18767104 0.68954134 -0.16157432 -0.4234677
-0.389565 -0.111549236 0.30615854 -0.11442734 0.35854244 0.24443066 -0.32428023 -0.38348538
-0.13955088 0.050275225 -0.08723148 -0.3476147 0.022788662 -0.06630149 0.3507381 0.08068454
-0.20059192 0.2766321 0.27716884 -0.17119682 0.34966007 -0.049979758 -0.27533624 -0.22605222
-0.23255436 -0.12714355 0.15409033 -0.22216615 -0.0087233335 0.114878476 -0.2930842 -0.12970425
0.4839432 -0.27680403 -0.11974003 -0.23946103 0.07422082 -0.013239489 -0.102027416 -0.25345793
-0.42606074 -0.066613376 -0.045441568 -0.4096446 0.2656855 0.63500494 0.2431031 0.29004663
-0.113466755 -0.09645984 -0.05710676 -0.33674568 -0.12780435 0.010708618 -0.21016355 -0.23027542
0.39661896 0.19818337 -0.23794682 0.22601718 0.15071397 -0.34223607 -0.37771726 0.052714914
0.22163658 0.27970383 -0.43224505 -0.067183726 -0.3675087 -0.15668394 0.6619955 -0.8484917
-0.28636396 -0.017299248 0.28036612 -0.6457776 -0.019857056 -0.44915628 0.42222318 0.31640813
-0.10685372 0.21495539 0.08527109 -0.26374647 0.013023774 -0.75165385 -0.7142265 0.74023575
0.30828342 -0.044833817 0.63052744 -0.2068487 0.0032694894 0.09595739 -0.13905232 0.05785076
-0.14390306 -0.4973187 0.36527514 -0.20724314 0.30278265 0.27729145 0.009658837 0.6035796
-0.21366644 0.22834608 0.3413906 -0.07674211 -0.08836309 0.27667397 -0.06887877 0.048366945
-0.3221541 -0.30145302 0.27614328 -0.61303467 -0.19034237 0.10545598 -0.25040776 0.7264539
0.3871704 -0.10404544 -0.63537997 0.016181845 -0.14365534 0.042950604 0.15251072 0.42489004
00000000: 9fc7 d7be 4be3 90bc 781e 153f e450 9a3c
00000010: 904a f83e 0d4a b7be 8034 b63e 9536 4abe
00000020: fb49 9fbe 1804 83be 960f 7cbe 42cd 053e
00000030: 4421 d3be 125d 0dbe 1b2d 463e 38c9 bbbd
00000040: 0b70 ff3e a22a b93b 38e6 1dbf 726f fcbc
00000050: 28ea 223d 1f8c d1bd b8ae 813e aed8 9f3e
00000060: f3b1 3bbc 4176 ad3c dece c63e a48e 56be
00000070: d8d3 7b3e af76 e4bd 7ffe a0be 04aa 3ebd
00000080: 36c0 a43e 54f9 97bb b6db 1abf 4d26 2c3e
00000090: bbc6 e4bd c98a d9be c712 e43d bcb2 fbbd
000000a0: dd21 5ebd 2d48 8dbd 1b33 11bf 03f2 4d3e
000000b0: 9f8a 37be 075c 16be 0542 023d 5d23 30be
000000c0: 091a c83d 5196 1fbe 4f0b 2bbf 388e d33e
000000d0: 244a 623e 5869 fc3e 516e 553c a721 133f
000000e0: 2407 89be 6120 863d b7b9 3fbb 7e97 2a3d
000000f0: 8be3 ab3d 9590 003e 8f89 a9be a42c c1bd
00000100: f0ac 5bbd e6f8 bebe 23c4 d83e e906 80bd
00000110: c54f d43e 3536 4b3e 2d7c 69be 30cf 013d
00000120: 2485 f33d 1a12 a4be c44e c13e 5a03 abbe
00000130: 5972 8d3e a014 123e 5f8c 8e3a 1afd e53d
00000140: b51a 7dbe c539 fabe 2594 3d3f e6a9 bbbd
00000150: 22d1 533e 6e46 6fbe 0581 a13d 9c77 1bbf
00000160: aef9 963e d0ca ba3e e4ed 41bf 8fc1 3b3c
00000170: d0d5 3b3d c11b afbe 8d8d b0bd 41eb c4bd
00000180: 7cca a93e 5268 c43e eb36 69be c218 a43e
00000190: 8de7 173d d217 a2be ef51 103e 66b3 da3e
000001a0: 1a56 973e 2821 20be 827d d53e 3145 98bd
000001b0: c2af 3dbe 47bb bc3d c455 903e 517c 683d
000001c0: ea9a 0ebe d1bf a5be 0a9c ab3e 3ccb 88be
000001d0: 17bb 20be 2624 8ebd 9ca8 45bf afe9 093f
000001e0: fe3e 5f3e 518b ca3e f6ea 57bb 5ed1 093f
000001f0: d62c 403e c885 303f bd73 25be c2d0 d8be
00000200: 1075 c7be ed73 e4bd d0c0 9c3e e258 eabd
00000210: e092 b73e 084c 7a3e 0f08 a6be 3258 c4be
00000220: 6de6 0ebe 65ed 4d3d 6ba6 b2bd 8efa b1be
00000230: 4aaf ba3c 13c9 87bd f293 b33e f03d a53d
00000240: f867 4dbe b9a2 8d3e 13e9 8d3e 384e 2fbe
00000250: a506 b33e 93b7 4cbd dff8 8cbe 3c7a 67be
00000260: bb22 6ebe eb31 02be dbc9 1d3e 867f 63be
00000270: 50ec 0ebc 6845 eb3d 220f 96be 31d1 04be
00000280: 67c7 f73e 42b9 8dbe 433a f5bd 4635 75be
00000290: 1601 983d 71ea 58bc c0f3 d0bd 3dc5 81be
000002a0: a224 dabe 986c 88bd f020 3abd f0bc d1be
000002b0: ee07 883e af8f 223f 05f0 783e fe80 943e
000002c0: 4261 e8bd bd8c c5bd c7e8 69bd ee69 acbe
000002d0: 25df 02be 3373 2f3c 1d35 57be 52cd 6bbe
000002e0: a411 cb3e 95f0 4a3e 55a8 73be 0c71 673e
000002f0: c354 1a3e 9139 afbe 2864 c1be 98eb 573d
00000300: b3f4 623e 5735 8f3e 394f ddbe 9f97 89bd
00000310: 1a2a bcbe c171 20be 8978 293f c136 59bf
00000320: 4c9e 92be 27b7 8dbc 268c 8f3e ae51 25bf
00000330: 44ab a2bc d0f7 e5be a32d d83e 3f00 a23e
00000340: 20d6 dabd 441d 5c3e 9ca2 ae3d c709 87be
00000350: ab61 553c 636c 40bf 8cd7 36bf 1780 3d3f
00000360: 53d7 9d3e aaa3 37bd 3f6a 213f 25d0 53be
00000370: ee44 563b 4f85 c43d bb63 0ebe ebf4 6c3d
00000380: 535b 13be 8fa0 febe 5805 bb3e 8c37 54be
00000390: 5406 9b3e 25f9 8d3e 1940 1e3c 3184 1a3f
000003a0: 60cb 5abe 8ed3 693e c0ca ae3e f82a 9dbd
000003b0: b5f7 b4bd 36a8 8d3e 5010 8dbd 6b1c 463d
000003c0: 62f1 a4be 0d58 9abe a762 8d3e d7ef 1cbf
000003d0: 1ce9 42be 4ef9 d73d 7235 80be e2f8 393f
000003e0: 333b c63e c715 d5bd 43a8 22bf ca8f 843c
000003f0: 631a 13be f9ec 2f3d c52b 1c3e 308b d93e

model.1.defunc.m.0.bias f4 [64]
0.029113615 0.2771024 -0.060221367 -0.13002658 0.15193179 0.34941828 -0.2680433 -0.25748864
-0.24420245 -0.254696 0.12345894 0.16196652 -0.048212323 0.0018069341 0.31090862 -0.10657726
-0.0643757 0.19134086 -0.14115302 -0.24705274 -0.19087079 0.2468021 -0.30407643 -0.348356
-0.4059639 0.043536335 0.37072068 -0.08931326 0.08271037 -0.13565643 0.22830755 -0.005970086
-0.25605658 0.28264073 -0.059762057 -0.3003459 0.1473416 -0.41809243 -0.049194593 -0.4095481
-0.13663374 -0.13510655 0.14913484 -0.2069324 0.0793291 0.035433974 0.106772505 0.0020521632
-0.31801745 -0.11514744 -0.048548177 0.12436237 0.17289294 0.26413688 -0.41551268 -0.19706267
0.38455284 -0.21427812 -0.37591094 0.13239883 0.035669938 0.13512968 0.2419633 -0.2583957
00000000: ad7f ee3c 5ee0 8d3e aeaa 76bd b025 05be
00000010: 0294 1b3e f4e6 b23e f93c 89be 8dd5 83be
00000020: 3510 7abe 8467 82be 0ad8 fc3d 8dda 253e
00000030: 497a 45bd a6d6 ec3a 6a2f 9f3e 2e45 dabd
00000040: 68d7 83bd dcee 433e 6b8a 10be 65fb 7cbe
00000050: a273 43be b1b9 7c3e e8af 9bbe b85b b2be
00000060: 80da cfbe 2853 323d 1acf bd3e dfe9 b6bd
00000070: 0e64 a93d 85e9 0abe 74c9 693e b6a0 c3bb
00000080: d919 83be 49b6 903e 0fc9 74bd f0c6 99be
00000090: b7e0 163e 3610 d6be 4580 49bd 4ab0 d1be
000000a0: b7e9 0bbe 5f59 0abe ceb6 183e 16e6 53be
000000b0: 4c77 a23d 3723 113d 8bab da3d 967d 063b
000000c0: 2fd3 a2be 6cd2 ebbd 74da 46bd b3b1 fe3d
000000d0: d90a 313e f33c 873e 14be d4be ccca 49be
000000e0: 1ce4 c43e b96b 5bbe 6677 c0be 8f93 073e
000000f0: a41a 123d 6f5f 0a3e 3ac5 773e 714c 84be

model.1.defunc.m.2.weight f4 [8, 64]
-0.17749088 -0.044587884 0.19652888 -0.060583077 0.11648896 0.040200908 0.05608534 0.10742493
0.02330053 -0.13792677 -0.21873383 0.20386969 0.027553178 -0.148773 -0.1284896 0.22213142
0.03559513 -0.22584242 -0.13308437 -0.044196624 0.18186967 -0.29371324 0.07507599 0.27234626
0.13268387 -0.26671907 -0.29329082 -0.07747161 -0.12119582 -0.00050172623 -0.24688895 0.056930337
0.1400867 -0.07379589 0.05921751 0.38527477 -0.055909704 0.2781114 -0.042660575 0.15875365
0.4122044 -0.06874737 0.17161909 0.015673852 0.05845263 0.004212713 -0.25119615 -0.30074063
0.24326065 -0.07893769 0.31549448 -0.41370505 -0.16232248 -0.29865697 0.042383626 -0.2400024
-0.32398188 -0.18389486 0.13542981 -0.46249706 0.061475195 -0.3888672 0.06313643 0.20962913
0.030124974 0.2741003 0.115205534 -0.061711613 0.36164826 0.2581475 -0.09088147 -0.19405004
-0.26261455 -0.23645143 -0.13366696 0.3966618 -0.0013943594 -0.0014649115 -0.20512478 0.17779769
-0.024384663 -0.062547006 -0.09773993 -0.099232435 0.074903965 -0.23423013 0.002029196 -0.0151902875
0.047818493 0.056052443 -0.108959034 -0.027144015 -0.113285415 -0.16066553 -0.3040767 0.10810696
0.12823898 -0.038170937 0.14028421 0.14685494 -0.081458464 0.19796948 0.027102662 0.18262288
0.25219277 -0.2797421 0.28923562 -0.1429669 0.19254479 0.08909893 -0.09782676 -0.00969834
0.29260337 -0.25105324 0.16337723 -0.32886934 -0.09748608 -0.28233984 -0.1656354 -0.23623952
-0.071743295 -0.41207504 -0.11101807 -0.228521 0.21198995 -0.06086089 -0.012052697 -0.000539941
0.1940452 -0.12461619 -0.1411474 0.36110705 -0.24086595 -0.15172338 -0.13311654 0.2878578
0.40593 0.2547037 0.28411987 -0.19114755 -0.2443329 -0.07507282 0.010601601 -0.14002892
0.45282957 -0.19886091 0.3875331 0.3576815 0.38887727 -0.006635089 0.22097649 0.17400104
-0.087625526 0.11318741 0.26124904 0.09033629 -0.03389117 -0.09942324 0.083063334 -0.17187025
-0.13075203 -0.015521274 0.20835483 -0.1403952 0.13102046 -0.48747244 -0.2551968 0.091811925
-0.22773659 0.09820728 -0.4305082 0.25031787 -0.26531315 -0.1260587 0.40800974 0.17283244
-0.22471705 0.19553652 -0.21181898 0.17934208 -0.2518332 0.011815998 0.12170646 0.058365796
0.31707835 0.07256711 0.050586194 0.121492475 -0.07640124 0.14876719 -0.1991726 0.038336296
-0.14773284 0.046041813 -0.08459334 0.030445872 0.25947624 0.24885693 0.06322225 0.12782404
-0.13380305 -0.17797504 -0.22176106 0.36515105 0.122782916 -0.13155153 -0.17518574 0.18242054
0.02449519 -0.015720198 -0.09243791 0.016853763 0.11738366 -0.10708234 -0.15461482 0.18075144
0.2177486 -0.18556285 -0.26983917 0.06814163 -0.2010891 -0.20396316 -0.15588573 -0.020970449
0.28905055 0.0017591282 0.15824975 0.2453785 -0.051433522 0.4057806 -0.02976301 -0.011033077
0.29023242 -0.124872774 0.18875594 0.04960312 0.32057142 0.069852896 0.0072000152 -0.03589527
0.36741787 -0.18106984 0.4280121 -0.42338386 0.052148182 -0.14752327 0.02289322 -0.33042607
-0.32591513 -0.28985134 -0.028471578 -0.34795985 0.2627456 -0.31551054 0.062043726 0.057954904
00000000: 2bc0 35be c9a1 36bd de3e 493e f625 78bd
00000010: c491 ee3d b5a9 243d beb9 653d 9a01 dc3d
00000020: c1e0 be3c ad3c 0dbe c3fb 5fbe 37c3 503e
00000030: 34b7 e13c f357 18be c792 03be 6b76 633e
00000040: 33cc 113d 3c43 67be 4547 08be 8507 35bd
00000050: 0b3c 3a3e 9561 96be 71c1 993d f870 8b3e
00000060: 48de 073e 678f 88be 372a 96be 6fa9 9ebd
00000070: 8435 f8bd 4786 03ba 75d0 7cbe c92f 693d
00000080: e372 0f3e 4d22 97bd 0f8e 723d bc42 c53e
00000090: 9301 65bd 9e64 8e3e dbbc 2ebd 5190 223e
000000a0: 750c d33e 6ccb 8cbd eabc 2f3e 7366 803c
000000b0: 066c 6f3d cc0a 8a3b c89c 80be adfa 99be
000000c0: 5219 793e 15aa a1bd 7e88 a13e 26d1 d3be
000000d0: dd37 26be 91e9 98be 749a 2d3d 30c3 75be
000000e0: f4e0 a5be ef4e 3cbe 1dae 0a3e 6acc ecbe
000000f0: 6acd 7b3d 9a19 c7be ac4d 813d 05a9 563e
00000100: a6c8 f63c e056 8c3e e1f0 eb3d 51c5 7cbd
00000110: f629 b93e e92b 843e 1020 babd 0eb5 46be
00000120: 6a75 86be 5320 72be fedf 08be 4117 cb3e
00000130: f0c2 b6ba 4602 c0ba 3b0c 52be 9910 363e
00000140: 58c2 c7bc a518 80bd df2b c8bd 603a cbbd
00000150: 4067 993d 06da 6fbe 42fc 043b afe0 78bc
00000160: 53dd 433d 3f97 653d ea25 dfbd 205d debc
00000170: 2f02 e8bd 8185 24be f1af 9bbe 2f67 dd3d
00000180: 1451 033e 2159 1cbd aaa6 0f3e 2461 163e
00000190: b2d3 a6bd 83b8 4a3e 6706 de3c 7e01 3b3e
000001a0: 691f 813e 5b3a 8fbe b116 943e ea65 12be
000001b0: 762a 453e 8079 b63d 6559 c8bd c9e5 1ebc
000001c0: 1cd0 953e 0d8a 80be 5c4c 273e 9061 a8be
000001d0: c8a6 c7bd d98e 90be 549c 29be c6e8 71be
000001e0: 26ee 92bd 80fb d2be 715d e3bd 6901 6abe
000001f0: e513 593e 4549 79bd ad78 45bc d48a 0dba
00000200: c9b3 463e c636 ffbd f288 10be 06e3 b83e
00000210: 90a5 76be 605d 1bbe b44f 08be 1962 933e
00000220: 0fd6 cf3e 8668 823e 2978 913e 2fbc 43be
00000230: 6732 7abe c7bf 99bd 56b2 2d3c be63 0fbe
00000240: 47d9 e73e 32a2 4bbe bd6a c63e 0822 b73e
00000250: ec1a c73e 296b d9bb a947 623e 542d 323e
00000260: 0375 b3bd cdce e73d 6fc2 853e 3c02 b93d
00000270: 78d1 0abd 699e cbbd 1c1d aa3d c1fe 2fbe
00000280: dce3 05be f14c 7ebc f85a 553e c2c3 0fbe
00000290: 3a2a 063e fd95 f9be 28a9 82be e407 bc3d
000002a0: c833 69be e620 c93d 926b dcbe aa29 803e
000002b0: 20d7 87be 8815 01be a7e6 d03e fdfa 303e
000002c0: 3a1c 66be ba3a 483e 13e7 58be 73a5 373e
000002d0: 48f0 80be e397 413c 3d41 f93d f910 6f3d
000002e0: 1858 a23e 119e 943d 7833 4f3d 0cd1 f83d
000002f0: 4178 9cbd 6d56 183e e7f3 4bbe 8506 1d3d
00000300: 4747 17be 5796 3c3d 463f adbd 9f69 f93c
00000310: 12da 843e 5ad4 7e3e ab7a 813d 4ee4 023e
00000320: ab03 09be 173f 36be 5515 63be 14f5 ba3e
00000330: 9c75 fb3d 72b5 06be e463 33be 73cc 3a3e
00000340: 23aa c83c a5c7 80bc 1650 bdbd e710 8a3c
00000350: d866 f03d fc4d dbbd 5953 1ebe e816 393e
00000360: 7df9 5e3e 3004 3ebe 5c28 8abe d78d 8b3d
00000370: 4dea 4dbe b8db 50be 82a0 1fbe 38ca abbc
00000380: 6ffe 933e 8c92 e63a 390c 223e 8044 7b3e
00000390: f5ab 52bd 7ac2 cf3e 8ed1 f3bc 14c4 34bc
000003a0: 5899 943e 4cbd ffbd 3d49 413e a42c 4b3d
000003b0: f021 a43e 090f 8f3d 1bee eb3b eb06 13bd
000003c0: 321e bc3e 5f6a 39be 6724 db3e c5c5 d8be
000003d0: 5599 553d 5710 17be 908a bb3c 9b2d a9be
000003e0: 59de a6be 6567 94be 3a3d e9bc cb27 b2be
000003f0: 9786 863e 998a a1be 9021 7e3d 1f62 6d3d

model.1.defunc.m.2.bias f4 [8]
0.12536679 0.12192476 -0.3289529 0.110552385 -0.209587 -0.20720308 0.088922605 -0.049366575
00000000: 2760 003e b0b3 f93d 846c a8be 4a69 e23d
00000010: f99d 56be 0b2d 54be 0e1d b63d 9b34 4abd

model.2.weight f4 [2, 8]
-0.040945213 0.25624925 -0.36826077 0.08960248 0.1049348 -0.04251602 0.22539106 0.0068414626
-0.08432301 -0.346698 0.4486688 -0.34083232 0.29228026 0.16797219 -0.41223064 0.262123
00000000: 2bb6 27bd 1a33 833e ad8c bcbe 8181 b73d
00000010: 0ee8 d63d 4725 2ebd eacc 663e 592e e03b
00000020: 8bb1 acbd 6682 b1be ebb7 e53e 9381 aebe
00000030: c2a5 953e e700 2c3e e50f d3be fc34 863e

model.2.bias f4 [2]
0.5615992 -0.43035185
00000000: f7c4 0f3f 1457 dcbe
