lightning_logs/version_11/checkpoints/epoch=49-step=49.ckpt (torch, 19857 bytes, 18 tensors)

exp_avg f4 [64, 8]
00000000: 5d1f 48bb 6831 a43a 54f6 523b 484d daba
00000010: 9778 803a 4e07 4abb 535c a53b 6ed0 973a
00000020: 0578 003c 8294 30bb c483 00bc 9629 983b
00000030: fc11 03bb 324e 5d3b 200f e1bb 4ac3 95bb
00000040: 18c1 f0bb ee66 6d3b d73a e03b e02a 81bb
00000050: ac46 3f3b ead6 0dbc b890 3e3c 948f 2f3b
00000060: bc5a f83b 8043 ccbb ce1c 44bb ba24 9e3b
00000070: 2956 aabb a34e 783c 2032 3dbc 1af7 8ebb
00000080: 2fa2 fabb 633e 7e3a dbca 163c 9c64 8bbb
00000090: b596 3e3a 8b3d 71bb 38ce a43b a629 a23a
000000a0: 4ee1 043c 0cae 85bb cc8a b7bb 24a6 a73b
000000b0: dd58 59bb 05ea 533c d592 eebb 89cf c0bb
000000c0: 43dc b53b 380e 28bc 1c52 3d3b e038 843b
000000d0: ccb6 06bc 6f54 d93c fe77 b3bc e868 29bc
000000e0: 346c 743b 6fd5 38ba b40c 82bb e15f 153b
000000f0: 8c43 fab9 c431 153a c826 edba 3306 13bb
00000100: 9972 f53b 7366 dbbb b079 1cbb f3f3 983b
00000110: a690 b9bb e5ef c73c 6ee6 6ebc ef49 d9bb
00000120: 0a73 223c d51a 0cbc d4e3 2fbb ee04 d93b
00000130: 2bad e9bb 30a7 c63c 00fa 5ebc 6c59 f3bb
00000140: 4131 b23a 271e 1dbb c0c1 ce39 c998 753a
00000150: 4112 f1ba f495 b23b 993b 7fbb cea5 edbb
00000160: 712d 5dbb cbe3 383b 1cf4 9b3a 6d7e fcba
00000170: 9322 2a3b 54a9 72bc bf12 ae3b 7cd6 b93b
00000180: 865a 89bb 2623 6f3b f95c 1dbb 7d2d 8bbb
00000190: 9074 2e3b b8a8 6fba 2326 c0bb 4dfb 2cbc
000001a0: aab8 ccba e060 9e3b a864 8cbb b8e4 c1ba
000001b0: ccb2 873b aa80 a5bc 38f0 9b3b 4f87 c73b
000001c0: 443c 6f3a 5694 99bb ae52 893b 451a 873a
000001d0: 0a9e 7bbb a33e 843c 4e4a d1bb 5bcc 39bc
000001e0: 2065 0a3b c53d 44bb 008f 313a eca0 d63a
000001f0: 7f50 1bbb e8a7 053c 40f4 a9bb 3228 66bb
00000200: 6688 deba 9f3b fd3a 26cb 863a da53 41ba
00000210: 60d2 db3a 9515 10bc 38e8 ce3b ec92 043c
00000220: 9a75 49bb aaeb c63a 1069 8339 7424 25bb
00000230: 6796 9c3a e3db 1abb 8ac5 38bb d96a e3bb
00000240: 4041 0336 9b3d b2b9 3f7a 8339 4c10 58b8
00000250: 770e b8b9 d366 533b e6da 99ba ae65 c3ba
00000260: 04cb 60bb 74d8 5f39 2e62 bf3b 9cf9 cdba
00000270: a0f5 41b9 4564 f03b caba 873b af0b 293c
00000280: 298d 2b3b 72ae 21bb 1633 a6ba 28f5 c63a
00000290: ccd4 01bb 1c02 033c 247b d8bb 3a28 1ebb
000002a0: c2ca 9d3b 1c66 e5bb c033 3539 f60b 603b
000002b0: bd80 a8bb 0a58 433c b94f 6dbc 22a6 01bc
000002c0: 802d 2438 18e4 bb3a d057 2fbb 3838 1aba
000002d0: 1ad6 8f3a 33a8 a2ba 7437 07bb ab3f 0abb
000002e0: 9d87 e9b8 d10b 2d39 c190 eb39 f0c4 e5b8
000002f0: d442 03b8 f8ef 903b 3884 e63a 374a 04bb
00000300: b27b 60bb cd6a 093b 0746 143b 3839 16bb
00000310: 5d5d c43a 20d5 4cbb 14e2 c73b 1003 703b
00000320: 6b75 e5bb df5b 103c 306d 7c3a 74f8 8ebb
00000330: 86f4 e53b 8a49 acbc 145c a23c 6718 fd3b
00000340: 2fa4 a5ba 2037 373b 889c 91b9 4ca8 3cba
00000350: ccfd 093b a6b7 fbbb 1596 003c 8ac5 2b3c
00000360: 1227 eebb cc25 e43b 58d8 193b 3aff 9abb
00000370: fe4b b33b 7ab4 97bc ca1d 9b3c 5633 76bb
00000380: 2296 adbb 65a9 1c3b e56c 7d3b fef2 5fbb
00000390: 64fd fb3a c6d5 06bc 7239 993b 8142 8d3a
000003a0: 984b 85bb e3ff 483a f9e2 b43b ac2f 11bb
000003b0: 0416 8d39 6510 a33b df14 153b 3883 0d3c
000003c0: d460 933a 4624 a5bb 60e6 693b 3095 e839
000003d0: 583a 94bb 928b e33c 6b26 1dbc b16a 31bc
000003e0: 6eaf 603a 44d2 203a d241 29bb 5e25 d937
000003f0: 5d38 d239 e826 223b 830f 8cbb 5ad4 c5b9
-0.0030536272 0.0012526931 0.003219028 -0.0016655112 0.0009801564 -0.0030827108 0.0050464063 0.0011582503
0.007841115 -0.0026943986 -0.007843915 0.0046436293 -0.0019999733 0.0033768532 -0.006868258 -0.0045703994
-0.0073472373 0.003622468 0.0068429518 -0.0039418787 0.002918641 -0.008657197 0.011631183 0.002678846
0.0075791758 -0.0062336326 -0.0029924395 0.0048261555 -0.0051982594 0.015155467 -0.011547595 -0.004362953
-0.0076487283 0.00096986274 0.009203638 -0.004253937 0.0007270382 -0.0036810364 0.005029466 0.0012372031
0.008110357 -0.004079586 -0.0056012627 0.005116241 -0.003316454 0.012934213 -0.0072806873 -0.005884115
0.005549939 -0.010257296 0.0028888052 0.0040351003 -0.008222293 0.026529519 -0.021907803 -0.010339953
0.003729594 -0.0007050847 -0.0039687995 0.0022792744 -0.00047734042 0.00056913146 -0.0018093223 -0.0022434115
0.0074904677 -0.0066955625 -0.0023876242 0.004667753 -0.0056629954 0.024406383 -0.014581306 -0.006631128
0.009915123 -0.008551319 -0.0026838677 0.006622902 -0.007131239 0.024249643 -0.013609409 -0.0074264314
0.0013595001 -0.002397427 0.00039435737 0.0009368775 -0.0018392281 0.0054500047 -0.0038945435 -0.0072524315
-0.003374901 0.0028211947 0.0011898312 -0.0019263752 0.002596055 -0.014810879 0.0053122933 0.0056713205
-0.0041916994 0.0036489456 -0.0024011715 -0.004247366 0.002661977 -0.00091422675 -0.0058639213 -0.010557962
-0.0015618999 0.0048333257 -0.00428446 -0.0014792895 0.0041411873 -0.020202953 0.004758861 0.006089128
0.0009126107 -0.0046868725 0.0041907644 0.0010307512 -0.003839376 0.016143149 -0.0063870316 -0.011340226
0.0021117404 -0.0029944044 0.0006773323 0.0016374863 -0.0023699102 0.008157708 -0.0051865876 -0.0035119173
-0.0016977906 0.0019320137 0.0010283932 -0.00073748606 0.0016771071 -0.008794208 0.0063143037 0.0080916695
-0.0030740262 0.0015176435 0.00025064545 -0.002519873 0.0011946679 -0.0023629598 -0.0028193914 -0.0069402275
1.9558502e-06 -0.00033996705 0.00025077348 -5.151359e-05 -0.00035105992 0.0032257333 -0.001173821 -0.0014907622
-0.0034300694 0.00021347572 0.0058405614 -0.0015714648 -0.00018497417 0.007336172 0.00414214 0.010317727
0.0026176667 -0.0024670628 -0.001268002 0.0015179263 -0.0019810675 0.007996108 -0.0066064764 -0.0024132864
0.0048154304 -0.007000698 0.00017280784 0.0034186817 -0.0051423 0.011922846 -0.014484339 -0.007913144
3.9143022e-05 0.0014334945 -0.0026755221 -0.0005883011 0.0010973841 -0.0012409746 -0.0020632418 -0.0021095078
-0.00011135566 0.00016502968 0.00044930543 -0.000109562534 -3.1295072e-05 0.0044231378 0.0017587012 -0.0020185837
-0.0034253416 0.00209682 0.0022624747 -0.0022922289 0.0014981438 -0.0031254962 0.0060999487 0.003662292
-0.0070025227 0.008810966 0.00096293073 -0.004363114 0.007017675 -0.02103116 0.019819297 0.0077238563
-0.0012637432 0.002795644 -0.0002777318 -0.0007196709 0.0021055816 -0.0076818047 0.007848282 0.010484109
-0.007267841 0.0069625136 0.0023474898 -0.0047301324 0.0054717055 -0.018518675 0.018935103 -0.003756722
-0.0052974382 0.0023904678 0.0038669643 -0.0034171934 0.0019225297 -0.0082296785 0.0046760375 0.0010777266
-0.0040678494 0.00076675246 0.0055202213 -0.0022153659 0.0002691002 0.0049763196 0.0022748036 0.008637242
0.0011244067 -0.0050397245 0.0035690293 0.00044361642 -0.0045235567 0.027776513 -0.009591679 -0.01082866
0.0008571063 0.00061348476 -0.0025826585 2.5885816e-05 0.00040096315 0.0024742428 -0.00427431 -0.00037732982

exp_avg_sq f4 [64, 8]
00000000: 4d85 c436 45b3 9035 14f3 9537 9b2d da35
00000010: 62bf 6f35 b44f b237 70cf de36 e1c0 4937
00000020: 1d6e 2738 1739 0037 56cf 0639 3a15 2937
00000030: 53ee cf36 ba6a f438 c3ae 1338 a16e 9e38
00000040: f98c 7338 f3c4 c736 0c44 2b39 e598 8e37
00000050: bbed ad36 f2ea 1239 806d 5138 d545 8a38
00000060: 64d9 a738 5717 1537 c175 6b39 8be0 c537
00000070: 8cf6 ff36 f76d 4a39 1923 8138 929d ce38
00000080: 2845 c537 56a8 5f36 7abd 9138 8c6e d736
00000090: cb04 3936 ee4a 8138 9683 8037 b123 ed37
000000a0: 2c73 8538 b011 4737 f298 5939 f3f1 8637
000000b0: e588 2337 92d0 4e39 40a5 3138 3de9 d338
000000c0: 9e0d bc38 6de4 d337 3963 a339 d61b b637
000000d0: a956 a537 29ba bf39 feeb aa38 0b78 4f39
000000e0: 650f c436 d732 b735 7bb5 a437 68a2 ba35
000000f0: 2907 9135 8c45 9a37 2583 bb36 8c58 7237
00000100: c6de bf38 c660 8d37 f206 9439 8c7d ce37
00000110: 7ffe 6837 9147 9a39 eed7 7838 80bb 2039
00000120: ea94 1739 0afb b037 f3c2 e639 7f79 2638
00000130: 09e5 9437 abd4 d339 eacc e138 c470 4a39
00000140: e0d0 1137 0b11 8236 672d 1338 1c9f e335
00000150: 0c97 4136 978a 1a38 0e33 ee36 f160 0238
00000160: c6c4 9d37 46b3 b536 5465 7638 3ffd ac36
00000170: 1596 8936 c7d1 9038 878f ed36 2b5b 0738
00000180: 401b 1437 037e 7f37 0f74 7138 7e46 a635
00000190: 49c9 1d37 3b0b 3338 e3f1 4338 4c6b 1537
000001a0: d165 a937 ea23 3a37 24a4 ae38 46c7 8d36
000001b0: 1abd 0337 98dc c938 56d0 8237 d354 ea37
000001c0: 4b8a a437 94e9 4f37 378f af38 8209 7c36
000001d0: a8d8 1037 a040 bb38 1000 9d37 2b1f 5738
000001e0: ffab 3937 5242 4136 f06d 3338 d92c 1d36
000001f0: fef6 1c36 29d6 3638 5c72 5837 0aa1 bc37
00000200: b0a9 0637 9676 3536 7639 d937 cbed 0b36
00000210: cef0 0836 2a18 0638 9637 be36 b94e f737
00000220: 2689 9d36 f366 4136 f00c d237 2798 4c35
00000230: 2cdd 0a36 92b9 a537 d1ec 5d36 56a8 7036
00000240: 6a8f c433 7161 2633 c06c 6434 afaf 1633
00000250: b200 dc32 ca7c 3235 6cdf 1535 ea21 6534
00000260: 5bf4 e636 a827 d935 4d42 c337 8c47 d235
00000270: 6e1d b335 a24a c637 ac5f 4137 59b1 7738
00000280: e6f3 7237 66f8 5236 d0b7 5438 ac51 6536
00000290: 58a2 2d36 9c56 5538 d324 6637 7eb5 bf37
000002a0: 627e 8d38 a414 8737 1e29 8639 90a5 7037
000002b0: 651e 5f37 106c 8c39 0b04 de38 4406 3339
000002c0: 6a51 b334 7764 4835 7f93 5436 166f 0a33
000002d0: b71f fb34 61dd 2536 c86a df35 e090 c934
000002e0: 610e 1334 684c cf34 8343 0935 ee93 0f33
000002f0: 6487 4434 e7ca d735 2c15 6237 f2b0 8235
00000300: e6f2 fa36 1828 6736 ef47 0238 8985 c235
00000310: 7409 2e36 59e9 1d38 066f 1937 6aa5 e637
00000320: 6e7e f238 1493 ad37 7f1d c439 0c84 f937
00000330: d0ff 8e37 e730 c039 a395 e638 79f6 4039
00000340: c148 0237 8811 1b37 4e15 1b38 6d89 a035
00000350: 2fd1 c336 938a 2138 b5e6 1838 bdc4 ee37
00000360: 9586 8338 0ad7 9437 7775 7d39 6b3b 6737
00000370: 6cc4 6f37 f850 8e39 544e 6338 ff22 a638
00000380: 0255 a837 efb3 9e36 360a 8f38 bcf8 a236
00000390: 7b3e 7c36 8718 9638 e228 8837 7c3e 0838
000003a0: 96d4 3337 0856 0d36 95e3 1938 7fe8 2036
000003b0: 7bb0 eb35 edea 0938 bb05 6c37 f56b 4238
000003c0: cb73 e537 2e75 8737 45be d938 543b d536
000003d0: 04f1 3c37 c691 1539 800b 0e38 76d9 5b38
000003e0: cd68 5933 8a9c 1035 ff41 2b35 2f84 a833
000003f0: fdd5 9134 e18e 2936 c858 d336 ed39 3335
5.8567734e-06 1.078101e-06 1.7875376e-05 1.6255539e-06 8.9312937e-07 2.1256368e-05 6.6402645e-06 1.2025442e-05
3.9918454e-05 7.642687e-06 0.00012856474 1.0078127e-05 6.1968253e-06 0.00011654706 3.521029e-05 7.554633e-05
5.8067006e-05 5.95359e-06 0.0001633318 1.6998916e-05 5.1834772e-06 0.00014011169 4.9931463e-05 6.59336e-05
8.003673e-05 8.886526e-06 0.00022455213 2.3588791e-05 7.628294e-06 0.00019305186 6.157737e-05 9.852195e-05
2.3516433e-05 3.3327574e-06 6.9494316e-05 6.4203687e-06 2.7569938e-06 6.165156e-05 1.5320064e-05 2.8269222e-05
6.363387e-05 1.18654425e-05 0.00020751709 1.6086711e-05 9.74743e-06 0.0001972339 4.235399e-05 0.00010104708
8.967075e-05 2.525953e-05 0.0003116371 2.1709053e-05 1.9709887e-05 0.0003656906 8.150189e-05 0.00019785778
5.8430473e-06 1.3649359e-06 1.9634832e-05 1.3905346e-06 1.0805426e-06 1.8390616e-05 5.5883015e-06 1.44449405e-05
9.1490845e-05 1.6853573e-05 0.00028233934 2.4615576e-05 1.3887532e-05 0.0002942649 5.9328908e-05 0.00015328638
0.00014455957 2.1097734e-05 0.00044014267 3.9690636e-05 1.7749628e-05 0.00040403506 0.00010767004 0.0001930623
8.691306e-06 3.876286e-06 3.5089815e-05 1.6959125e-06 2.8847162e-06 3.6845533e-05 7.0988963e-06 3.10847e-05
1.8807488e-05 5.4150905e-06 5.874534e-05 5.155481e-06 4.10039e-06 6.905529e-05 7.079859e-06 3.2271415e-05
8.827832e-06 1.5228524e-05 5.7566966e-05 1.238848e-06 9.404795e-06 4.2687385e-05 4.6716897e-05 8.906074e-06
2.0193782e-05 1.1094826e-05 8.32754e-05 4.225326e-06 7.852237e-06 9.625516e-05 1.5594222e-05 2.7934473e-05
1.9614721e-05 1.2392546e-05 8.371326e-05 3.755646e-06 8.633513e-06 8.928892e-05 1.8715888e-05 5.1289022e-05
1.1066905e-05 2.8797845e-06 4.2779313e-05 2.3420928e-06 2.338958e-06 4.3591634e-05 1.290123e-05 2.2486336e-05
8.026531e-06 2.7040128e-06 2.5895173e-05 2.0851028e-06 2.0405746e-06 3.1970594e-05 5.6689123e-06 2.9481353e-05
4.694931e-06 2.8819165e-06 2.5039975e-05 7.6217333e-07 2.0692341e-06 1.9755946e-05 3.3069412e-06 3.5860771e-06
9.153048e-08 3.873851e-08 2.1273718e-07 3.508438e-08 2.5611687e-08 6.649176e-07 5.5831947e-07 2.1339625e-07
6.882981e-06 1.6179301e-06 2.3276685e-05 1.5667042e-06 1.3345104e-06 2.3638193e-05 1.1525972e-05 5.9054557e-05
1.4481111e-05 3.1437025e-06 5.0715928e-05 3.4171198e-06 2.5873505e-06 5.086382e-05 1.3717642e-05 2.2853488e-05
6.7469446e-05 1.6102866e-05 0.00025589106 1.4343663e-05 1.3298913e-05 0.00026783394 0.00010586538 0.00017073104
3.3400585e-07 7.4652e-07 3.1676316e-06 3.223166e-08 4.677547e-07 2.4715775e-06 1.6645872e-06 3.7544578e-07
1.3695673e-07 3.8612347e-07 5.113472e-07 3.3429323e-08 1.8303177e-07 1.6077801e-06 1.3475579e-05 9.737253e-07
7.4788577e-06 3.444502e-06 3.106141e-05 1.449299e-06 2.5933523e-06 3.764904e-05 9.14536e-06 2.7495164e-05
0.000115630086 2.0691696e-05 0.0003740601 2.9744602e-05 1.7046841e-05 0.0003665753 0.00010995127 0.00018402365
7.765543e-06 9.242802e-06 3.697472e-05 1.1960925e-06 5.835805e-06 3.851445e-05 3.6454487e-05 2.8463424e-05
6.2716346e-05 1.774311e-05 0.00024171719 1.3782507e-05 1.4291243e-05 0.00027144677 5.4193966e-05 7.922015e-05
2.0066745e-05 4.729714e-06 6.820673e-05 4.8569327e-06 3.7587295e-06 7.157126e-05 1.6231501e-05 3.248312e-05
1.0718728e-05 2.1060714e-06 3.6689995e-05 2.3977188e-06 1.7560227e-06 3.2882137e-05 1.406803e-05 4.6353747e-05
2.7352848e-05 1.614782e-05 0.00010382807 6.3548014e-06 1.1261789e-05 0.00014264052 3.386615e-05 5.2416195e-05
5.0619565e-08 5.3871975e-07 6.37985e-07 7.847154e-08 2.7164052e-07 2.526613e-06 6.2986255e-06 6.676699e-07

exp_avg f4 [64]
00000000: 6538 493b e042 9aba 8d5f ed3b d44a 12bb
00000010: 8728 f23b a0ea 443a a42f 093c fc48 feba
00000020: d82a 99ba c02a 37ba 3fa9 bf3b 6853 fe3a
00000030: 5df1 87bb 2824 a0bb 58cd 293c 98cc 523b
00000040: 7810 b6ba 7354 893b 66a0 f439 f828 4e3a
00000050: d047 163a b953 113c 62c5 a5bb a0cc dab8
00000060: 80b8 51b9 40a5 b9b9 172c 13bc 207d 0a3b
00000070: 00b0 d0b9 b579 10bb 708e aa3a 2199 01bc
00000080: f0ab ba3a 71e7 dc3b 3094 28ba 420a 9c3c
00000090: b091 473b df52 9e3b f000 6c3a cca4 4e3b
000000a0: c6fd 8a3b e8b5 0f3a 3035 beba dd45 2dbb
000000b0: 7c3d c03b ac85 76bb 286c 693b 9f33 f03b
000000c0: 6355 8b3b c0ca 64bb 3da5 d7bb 90a0 853b
000000d0: fcb0 91bb 9c04 f4ba 2cd0 f93b 6807 7bbb
000000e0: 47e0 92bb 7c23 2fbc 5dd3 92bb 7bd8 c4bb
000000f0: eeb7 ac3b 4cd3 f83b d218 93bb be14 e7bb
0.003070378 -0.0011769198 0.0072440566 -0.0022322433 0.007390085 0.00075117685 0.008373175 -0.0019400413
-0.0011685742 -0.0006987266 0.005849033 0.0019403519 -0.004148646 -0.0048871227 0.010363899 0.0032165404
-0.0013890406 0.0041909753 0.00046658813 0.0007864381 0.0005732747 0.008870059 -0.0050589303 -0.000104331644
-0.00020000525 -0.0003540907 -0.00898268 0.002113171 -0.00039803982 -0.00220452 0.001301242 -0.007910044
0.0014241915 0.006741457 -0.0006430773 0.01904786 0.0030451827 0.0048316563 0.0009002825 0.0031531332
0.004241678 0.0005482123 -0.0014511701 -0.0026439347 0.0058667045 -0.0037616296 0.0035617445 0.0073303725
0.0042521222 -0.0034910887 -0.0065809772 0.0040779784 -0.004446147 -0.0018617096 0.007623693 -0.0038303975
-0.0044823023 -0.0106896125 -0.004480763 -0.006007252 0.0052709496 0.007593548 -0.004489043 -0.007052033

exp_avg_sq f4 [64]
00000000: 401b 6138 a0a8 0c3a 71c7 6939 03b1 b139
00000010: e495 3839 a130 403a 1319 a93a 9bb8 d438
00000020: 04ad 553a c296 6d3a 3f8a 9e39 b105 6839
00000030: db78 5b3a 4ab2 e939 9cb5 363a deb9 2f39
00000040: c83d 2b39 3ffc 0a39 2060 c534 d7ad 8139
00000050: da52 3939 ab76 9e3a 6edc 5c38 6001 1937
00000060: d68f 7d39 8626 803a f89a 1c3a 9b50 603a
00000070: 01a9 ac39 c1d6 9239 ffd8 223a cd00 6f38
00000080: c258 873a bd0b 153a 02a9 cf39 eb0c 213a
00000090: 5973 353a de54 413a 162d b239 f1a3 123a
000000a0: 2de8 2139 b364 5039 10dc 753a 6cc7 fc37
000000b0: b937 9638 836c 3d3a 4a9e ad3a e245 643a
000000c0: 4f5f 4239 b264 fa39 1208 b039 5bb2 403a
000000d0: 3515 d138 a299 ab39 05c2 b23a 34ab f739
000000e0: cb33 143a 5f8b 643a 8513 0b37 34ac e039
000000f0: f7bc 8839 bf73 d138 e661 2439 8abf 433a
5.366956e-05 0.0005365703 0.0002229491 0.00033891955 0.00017603446 0.0007331465 0.001290115 0.00010143333
0.00081510865 0.0009063297 0.0003023911 0.00022127364 0.0008372196 0.0004457406 0.0006969811 0.00016758541
0.00016330846 0.00013254675 3.676405e-07 0.00024734318 0.0001767384 0.0012089809 5.265738e-05 9.119831e-06
0.00024181543 0.0009777106 0.000597402 0.0008556933 0.00032932314 0.00028007294 0.00062121445 5.6982786e-05
0.0010326135 0.0005685648 0.00039608037 0.00061435875 0.000692179 0.0007375012 0.00033984397 0.0005593887
0.00015440649 0.00019873939 0.00093788 3.0133604e-05 7.1629365e-05 0.00072259473 0.0013246026 0.0008707923
0.00018536787 0.0004775874 0.0003357535 0.0007350796 9.969847e-05 0.00032730127 0.0013638145 0.00047239067
0.00056534697 0.00087182777 8.28959e-06 0.0004285291 0.0002608073 9.987456e-05 0.00015676729 0.0007467201

exp_avg f4 [8, 64]
00000000: 6353 e7bb e47e 533c 7a6c 51bc c930 583c
00000010: 12ad 26bc fa65 5e3c 73c4 3d3c 4a56 0c3c
00000020: bfed f13b 90fd 033c 543b 703b 5f43 21bc
00000030: b873 bb3b 794e 43bc 57c4 143c 8caf 883b
00000040: d09c eabb 7882 33bc 2cf2 893b 8ced d8bb
00000050: 8506 b03b 529c c43b 30a7 b1ba ac5a 473b
00000060: 44f9 d9bb cc7b 3abc 4e4f 823b aa72 c5bb
00000070: c6fd 60bc e4fa 3b3b 4837 1c3c ed2c 0a3c
00000080: cc37 523c 8f80 573c a01e 13bc 6b96 10bd
00000090: 2e45 0bbc fe7f 71bc b03e 63bc ed05 233b
000000a0: 14f6 b53b 6dac df3b 4839 353b 185d 98b9
000000b0: 13ef 1abc 4069 423c ad56 913c 640d a1bb
000000c0: 8822 a8bb b0f2 0cbc 0083 cdba 2061 b4ba
000000d0: c886 6bbb 54d2 293c 03f0 64bc bc5d 603c
000000e0: e291 0b3c cdb6 5e3c 9029 073c a42d 2cbb
000000f0: 32a1 803c ba24 00bc 3ee1 aebb c0c9 753c
00000100: 3e53 713b f662 23bc c719 3e3c 06e6 ccbb
00000110: 81c0 263c 525b 1dbc a5ce 29bc 38a0 e4bb
00000120: 4d47 52bb f6a7 4bbb 9e65 40bb e461 0d3c
00000130: f8b6 f1ba d08e 4c3c 44fd 3abc 5cf0 daba
00000140: a8d6 0b3c 9e77 f53b 206e 5a38 a0cc 7d3b
00000150: b9f4 3dbb c289 eebb e88c 663b f003 b9ba
00000160: a7e0 193c 750c 543c 2094 563a 8a0e 443c
00000170: 9ca6 9b3b 802f 2dba 7eca 61bc 846b 70bb
00000180: 225e b1bb f2c1 92bc 189e 193b 0e8b ac3c
00000190: 9e49 ba3b 301b 463c 6eb9 cb3b e472 cfba
000001a0: 38de a7ba 6ea3 f8ba 7af1 8cbb 1689 a63a
000001b0: 99ce 103c cea9 67bc 31e4 6abc 98a4 4a3b
000001c0: 68b8 18bb 065d 183c 5880 173a 402d d93a
000001d0: 17c7 553b 7783 b2bb 324e 3d3c a173 42bc
000001e0: 304e bcbb 1c41 6abc 9041 78bb b132 723b
000001f0: ffe0 b9bc 1013 3b3c 6276 2d3c abbe 07bc
00000200: dc69 7d3b b8ce e7bb b4b8 8d3b f20c 03bc
00000210: da1f 623b e221 03bc ace6 f3bb 709d a7bb
00000220: 6883 d6bb b6c2 b0bb 8e1c 87bb c0fa 013c
00000230: 465d b2bb c3fd ae3b 16e8 afbb c0e2 01b8
00000240: f2d9 e23b d450 093b b8fe 4bbb 3d6c 0a3c
00000250: 9be8 acba 8dfc 50bb 549d 44bb e1d8 58bb
00000260: e343 af3b a228 a33b 06fc 21bb 71d6 c6ba
00000270: 69da 1b3c 407f 113a 2e8f afbb ba70 c7bb
00000280: 8717 04bc 031f 82bb dede d13b 8496 a43c
00000290: 390f 033c c27e c13b ce37 0c3c 4e03 5dbb
000002a0: e07a a6bb bd3a 8fbb bcdd 10bb 71dc 9b3a
000002b0: 809b 2a3b 9e34 4fbb 7455 14bc 94c4 1f3b
000002c0: 0099 cc3b 2e02 803b d804 223a 6076 b9b9
000002d0: 9698 243b c7f4 e1bb d160 133c 524a c1bb
000002e0: b625 e2bb 9e90 06bc 8eed 86bb 0012 11b7
000002f0: 80a7 bbbb 1c7b 1d3b dcd8 93ba af1e 6dbc
00000300: 46c8 e1bb f015 4d3c 84b3 61bc 5cd9 3c3c
00000310: 629d 4abc 40a0 473c ad80 053c a96a 173c
00000320: c4e9 7f3b be20 f93b 0001 e337 8638 fabb
00000330: f0e7 c13b 8ebd 41bc 75d8 f83b 62d3 443b
00000340: 9b46 81bb 4f1b 15bc f936 d13a 4012 cb3a
00000350: 313f a23b 5051 4a3b d41f 1cbb 195b 873b
00000360: b3d1 b1bb 40c1 2cbc 3742 a53b ed22 00bc
00000370: 8ae3 45bc 8ae2 f83b 222d 123c d824 063c
00000380: e329 343c a457 5d3c e0d2 00bc da6e c3bc
00000390: 78d1 a6bb 5c05 1bbc 3cb3 49bc d469 70ba
000003a0: b06d 7bba efbd 7c3b dc83 43bb 2c72 61ba
000003b0: eac5 3ebc a634 513c b69e 833c 634f dcbb
000003c0: 0444 8abb 0058 06bc d055 b93a cc39 a4bb
000003d0: dcb9 5cbb 176d 0e3c 44c4 49bc 28f0 653c
000003e0: 009c b039 6002 5a3c 4d11 1c3c 0ff7 22bb
000003f0: 44ce 6e3c 65b8 26bc 4c86 e0bb 9efc 893b
-0.007059501 0.012908671 -0.0127822105 0.013195225 -0.010173099 0.013574118 0.011582482 0.008565495
0.007383078 0.0080560595 0.0036656456 -0.009842723 0.005720582 -0.011920565 0.009080014 0.0041713174
-0.007159807 -0.010956399 0.0042097773 -0.0066201147 0.005371871 0.00600008 -0.0013553854 0.0030419035
-0.006652029 -0.011382055 0.003976739 -0.006025632 -0.013732379 0.0028683478 0.009534664 0.008433563
0.012830686 0.013153209 -0.00897947 -0.0352997 -0.00850038 -0.014739988 -0.013869926 0.0024875358
0.0055530164 0.0068259747 0.002765255 -0.0002906106 -0.009456414 0.011865914 0.017741526 -0.0049149264
-0.0051310696 -0.008602783 -0.00156793 -0.0013761856 -0.003593849 0.010365088 -0.013973239 0.013694223
0.008518668 0.013593388 0.008249655 -0.002627232 0.015701864 -0.007821256 -0.0053369096 0.015001714
0.0036823298 -0.009972325 0.0116028255 -0.006253007 0.010177732 -0.009604292 -0.010364209 -0.0069771074
-0.0032085956 -0.0031075454 -0.0029357444 0.008629296 -0.001844137 0.012485221 -0.011412922 -0.0016703713
0.008535065 0.007491066 5.2077812e-05 0.0038726702 -0.0028984977 -0.0072796056 0.0035179202 -0.0014115553
0.00939194 0.012942423 0.00081855245 0.011966357 0.004750086 -0.00066065043 -0.013781188 -0.0036685178
-0.005412833 -0.017914746 0.0023440178 0.0210624 0.0056850454 0.012091443 0.0062171733 -0.0015827087
-0.0012807315 -0.0018969604 -0.004301247 0.001270565 0.008838319 -0.014139606 -0.014336632 0.003092086
-0.0023303274 0.009299522 0.00057793176 0.0016569272 0.0032619887 -0.0054478007 0.011554288 -0.011868388
-0.0057466254 -0.01429775 -0.0037880875 0.0036956484 -0.022690294 0.011418119 0.010587307 -0.008285205
0.0038667833 -0.0070742033 0.004324997 -0.007998692 0.0034503848 -0.008003684 -0.0074432697 -0.0051152036
-0.0065464266 -0.005394305 -0.004123277 0.007933319 -0.005443248 0.0053403093 -0.005368243 -3.0967174e-05
0.0069229538 0.0020952718 -0.0031127166 0.008448658 -0.001319188 -0.0031888813 -0.0030001001 -0.0033088254
0.005348669 0.004979209 -0.0024716868 -0.001517011 0.009512522 0.0005550273 -0.0053576445 -0.006086436
-0.00806225 -0.003970982 0.0064047417 0.020091303 0.007999235 0.0059050033 0.008558227 -0.0033723894
-0.005080566 -0.004371016 -0.002210482 0.0011891258 0.0026032627 -0.0031617056 -0.009053577 0.0024378644
0.006243825 0.00390651 0.00061805313 -0.00035374146 0.0025115362 -0.006895635 0.008995251 -0.0058987522
-0.006901468 -0.00821319 -0.004117674 -8.646864e-06 -0.0057267547 0.0024029678 -0.0011279839 -0.014472648
-0.0068903295 0.012517437 -0.01377571 0.011526432 -0.012366625 0.012184203 0.0081483545 0.009241738
0.0039049247 0.00760278 2.7060974e-05 -0.0076361327 0.0059175417 -0.0118249785 0.007594163 0.003003322
-0.0039451844 -0.009100749 0.0015961818 0.001549311 0.0049513807 0.003087122 -0.0023822682 0.0041307327
-0.0054266094 -0.010544121 0.005043294 -0.007820827 -0.012078175 0.007595365 0.008921893 0.008187495
0.010996315 0.013509665 -0.0078627765 -0.02385657 -0.0050908886 -0.009461727 -0.012310799 -0.0009171043
-0.0009591235 0.0038565358 -0.0029833233 -0.0008600082 -0.011643866 0.0127689 0.01606689 -0.006723331
-0.004219534 -0.008199692 0.0014139954 -0.0050117727 -0.0033680117 0.008693001 -0.01231486 0.0140343085
0.00033685565 0.01330623 0.009525609 -0.0024866497 0.014575545 -0.010175799 -0.006851947 0.0042110225

exp_avg_sq f4 [8, 64]
00000000: 834d e939 1d96 e439 67be fd39 2e49 613a
00000010: d81b cd39 f760 2f39 f505 c336 e332 003a
00000020: 1069 5738 1d96 243a 67e3 3539 59b2 3638
00000030: eedb e03a 80ea 7938 bb5b d639 014f df37
00000040: d81f d938 9488 3d3a ff97 ec38 6a5b 333a
00000050: 0bd0 6537 18aa c838 6f03 333a b36e 0239
00000060: 270d 0638 5b9f 5e38 0445 a03a 4544 8638
00000070: 3a0e a23a d8ab 463a e998 8439 c48c 863a
00000080: 1f55 2c3a d9f1 9239 f501 2b3a 3d89 b43a
00000090: 4310 4538 0616 ad3a bb27 623a b450 e337
000000a0: efd5 4b3a 2e5d a938 606c 843a 72ef 5838
000000b0: 153c f039 0029 8d38 5e92 4539 2e1e 8e3a
000000c0: c924 213a aabb 0538 6223 1639 5561 a23a
000000d0: 631c d838 90ab 033a 2a27 fd39 3b95 a039
000000e0: d36c 913a 991d 5739 b01d 963a c1fb b339
000000f0: e4c1 983a 93ef 4c39 dd44 aa39 fee8 843a
00000100: eca8 8239 edaa 8439 321c 7739 dba2 ca39
00000110: 970f 7b39 e370 cd38 f7e1 9136 4a80 a139
00000120: 7bc9 6d37 5bc6 a439 43c8 f738 f01b cc37
00000130: c7cb 703a 1901 0b38 ca6d 4839 d2fe fa37
00000140: cbbd 7338 fd56 d439 52c1 b538 f80c d939
00000150: 667c da36 f130 8838 8d8c ba39 afa6 b338
00000160: 6d77 0038 fca7 c337 f3d0 2c3a 1024 1538
00000170: 21fa 2a3a e767 ec39 edbb 0739 97ee 163a
00000180: 99b5 9939 5fa0 1739 6e91 a039 9e99 5a3a
00000190: 3ff6 a637 2591 4a3a 9667 e339 396a cf37
000001a0: d395 013a 5922 c037 443f 253a 2ec1 b137
000001b0: a6fe 8339 7568 2038 53ae 9238 6edc 203a
000001c0: 89fa b839 2132 8337 4ee2 0239 acc4 3c3a
000001d0: 2789 3638 a463 8539 804d 8b39 4828 2f39
000001e0: 6932 393a f642 0b39 ef43 263a 8ebd 5039
000001f0: 5e31 193a 7b58 1039 a6ce 3039 7d5b 263a
00000200: 33ce 3339 c47a 3c39 6c08 6239 59d5 db39
00000210: a367 2039 603b a138 832b 5336 2ca0 4839
00000220: c9b9 3438 7936 9539 70fb 4e38 8e7a d837
00000230: 76b8 443a ddc2 9737 34c8 2839 da45 fd36
00000240: e9c1 f737 a54d b739 1ce6 0a38 4cae 8539
00000250: 5b59 9636 3826 1838 7a79 a339 fed1 5c38
00000260: fd1d 2937 d087 e537 36da 023a 6a9a 2e38
00000270: 17d2 0e3a 8ed1 a039 1ac2 b938 973f de39
00000280: 1a23 ad39 5e32 f838 2a89 a639 a04a 213a
00000290: 3c5b 2338 77e2 203a 9180 cc39 2b91 ce36
000002a0: c1e9 9839 c26e 4738 eaa1 d739 c214 c437
000002b0: 9cbd 4539 ec2f cb37 b594 ea38 e61f e239
000002c0: 9954 9339 9925 8637 b866 3238 e135 013a
000002d0: 0d42 2938 d746 6b39 385d 6739 fecd 0939
000002e0: 7c03 e739 5f28 cf38 787d f339 10f3 0639
000002f0: 217f 0a3a c106 8e38 5cdb 1d39 07f4 c139
00000300: b800 8939 42c9 8239 0cce 8b39 ef4b e839
00000310: 8e03 7339 61a0 bf38 3bd3 5b36 20b5 9639
00000320: e8b9 9a37 c0d5 b039 9e42 f338 34cc c937
00000330: c4bd 793a 6ecf 2638 7b0a 7539 91db 9837
00000340: d7f5 9038 41ad c739 f024 a038 d621 d739
00000350: adac 1537 a4df 6638 aff9 c039 f244 9538
00000360: 80ff b837 625d eb37 7c11 383a e4ba f337
00000370: addd 303a 4825 e439 5ebd 2139 8809 193a
00000380: 6eb7 ae39 28d6 2239 0075 b039 a7b7 443a
00000390: 4785 9b37 421a 383a 4aa4 f339 bfd9 ab37
000003a0: d14e f339 e3e2 1838 33a4 163a 4668 ea37
000003b0: aefb 8939 856e 3638 110a bd38 9b3f 263a
000003c0: d383 ab39 5421 9137 77e4 c538 ac3d 3e3a
000003d0: a114 7a38 a3ff 8e39 eb75 8939 e7d1 3539
000003e0: 6f6f 283a 3201 ea38 5412 2c3a 24c0 5639
000003f0: 82fd 223a 6350 0239 64cc 3339 fcb0 223a
0.00044498974 0.00043599392 0.0004839778 0.00085939735 0.00039121392 0.00016725423 5.8121464e-06 0.0004890395
5.135784e-05 0.0006278472 0.00017346219 4.355828e-05 0.0017155388 5.958462e-05 0.00040885605 2.662046e-05
0.00010353298 0.00072301296 0.000112816684 0.000684193 1.3697902e-05 9.5684256e-05 0.000682882 0.00012439005
3.196034e-05 5.3077336e-05 0.00122276 6.402334e-05 0.0012363859 0.00075787073 0.0002529093 0.001026534
0.00065739633 0.0002802748 0.0006523424 0.001377381 4.6983605e-05 0.0013205416 0.0008627136 2.7098089e-05
0.0007775714 8.075904e-05 0.0010103099 5.1721414e-05 0.00045821132 6.731041e-05 0.0001884191 0.0010842734
0.0006147144 3.1884447e-05 0.00014318296 0.0012388626 0.0001030497 0.0005022818 0.000482851 0.00030628763
0.0011095054 0.00020515024 0.0011452939 0.00034329112 0.0011654464 0.00019544204 0.00032476234 0.0010140238
0.0002492139 0.00025304352 0.00023566259 0.0003864978 0.00023943033 9.7961885e-05 4.3476425e-06 0.00030803896
1.4173212e-05 0.00031428304 0.000118151795 2.4331704e-05 0.00091856386 3.3141205e-05 0.00019114386 2.9920982e-05
5.8112473e-05 0.00040500602 8.666761e-05 0.00041399128 6.511388e-06 6.4941014e-05 0.00035581403 8.5664324e-05
3.0628802e-05 2.3324035e-05 0.0006592415 3.5557954e-05 0.00065222575 0.0004509084 0.00012944611 0.00057575986
0.00029317735 0.00014460225 0.00030625932 0.0008338931 1.990341e-05 0.00077273167 0.00043373992 2.4725787e-05
0.0004943285 2.2904178e-05 0.0006303678 2.119e-05 0.00025175995 3.8244256e-05 6.994293e-05 0.0006136362
0.00035281878 1.563976e-05 0.00012482071 0.0007200937 4.3519914e-05 0.00025441975 0.00026569888 0.00016704306
0.00070647016 0.00013281018 0.00063425204 0.0001990704 0.0005843843 0.00013765872 0.0001686165 0.000634603
0.00017147585 0.00017974811 0.00021556177 0.0004192989 0.00015297397 7.688138e-05 3.1466777e-06 0.00019133155
4.308837e-05 0.0002846008 4.9348397e-05 2.5806276e-05 0.00075042935 1.8091343e-05 0.0001609631 7.5481194e-06
2.9534991e-05 0.0003496233 3.311607e-05 0.00025497598 4.4807507e-06 3.6275218e-05 0.0003118029 5.2647658e-05
1.0080167e-05 2.736217e-05 0.00049916224 4.1628642e-05 0.0005448176 0.00030673709 8.857642e-05 0.00042390518
0.00033023284 0.00011834943 0.00031764182 0.00061527826 3.8947197e-05 0.00061372615 0.00039005702 6.156178e-06
0.0002916586 4.754845e-05 0.0004112863 2.3374687e-05 0.00018858019 2.4221801e-05 0.00011185688 0.00043129845
0.00028101055 1.5991553e-05 4.253417e-05 0.0004928988 4.0354254e-05 0.00022437736 0.00022064603 0.00013142076
0.0004406235 9.878049e-05 0.00046442053 0.00012869784 0.0005283226 6.772346e-05 0.00015054405 0.00036993643
0.00026131212 0.0002494548 0.00026665663 0.00044307063 0.0002317561 9.1374626e-05 3.2756495e-06 0.00028745178
1.84448e-05 0.00033728592 0.00011599551 2.4056157e-05 0.00095268735 3.9770668e-05 0.00023368925 1.8222056e-05
6.912246e-05 0.00038085322 7.636275e-05 0.00041033205 8.921296e-06 5.5044555e-05 0.00036807123 7.117716e-05
2.2053486e-05 2.8057668e-05 0.00070216483 2.9054885e-05 0.00067468995 0.00043515326 0.00015424701 0.0005837907
0.00033324532 0.00015529303 0.00033656508 0.0007504173 1.8539502e-05 0.00070229557 0.00046470977 2.0486184e-05
0.00046407295 3.645093e-05 0.00057465135 2.794353e-05 0.00026318192 4.349511e-05 9.014097e-05 0.00063418754
0.00032713878 1.7300867e-05 9.436247e-05 0.00072571146 5.9623857e-05 0.00027274815 0.00026218532 0.000173397
0.00064252963 0.00011158212 0.00065640104 0.00020480208 0.0006217585 0.00012427712 0.00017146912 0.00062061823

exp_avg f4 [8]
00000000: 0c53 b3bc e866 973b 6c84 713c 0e7b a0bc
00000010: 3495 933b 48b1 e13b ac78 bb3b 4b41 75bb
-0.021890186 0.0046204217 0.0147410445 -0.019589927 0.0045038704 0.0068875886 0.0057211723 -0.003742295

exp_avg_sq f4 [8]
00000000: 5fb8 953b 6bb9 123b d15f 083b d4eb 1f3b
00000010: ff46 683a ef9e b539 59a0 2638 7b7e 0839
0.004569098 0.002238835 0.0020809064 0.002440204 0.0008860677 0.00034641425 3.972682e-05 0.00013017088

exp_avg f4 [2, 8]
00000000: b21d d3bc a7fc b63c 9ae7 6c3b facb 98bc
00000010: d2ca a03c 39eb e7bc 6eb6 1e3b 5bd6 a83c
00000020: b31d d33c a7fc b6bc 74e7 6cbb f9cb 983c
00000030: d3ca a0bc 3beb e73c 76b6 1ebb 5ad6 a8bc
-0.025770996 0.02233727 0.0036148787 -0.018651951 0.019627962 -0.028310405 0.0024217623 0.020610025
0.025770998 -0.02233727 -0.00361487 0.01865195 -0.019627964 0.028310409 -0.0024217642 -0.020610023

exp_avg_sq f4 [2, 8]
00000000: d532 5e3a 2249 f737 2ee9 b33a 0767 b439
00000010: 4ea1 8d37 7267 0b3a 7f93 1e3a 6c8e a639
00000020: d532 5e3a 2049 f737 2de9 b33a 0767 b439
00000030: 4da1 8d37 7267 0b3a 8093 1e3a 6c8e a639
0.00084762025 2.947875e-05 0.0013726109 0.00034409037 1.6883623e-05 0.0005317844 0.00060492003 0.000317681
0.00084762025 2.9478746e-05 0.0013726108 0.00034409037 1.6883621e-05 0.0005317844 0.0006049201 0.000317681

exp_avg f4 [2]
00000000: c236 b8bb c336 b83b
-0.005621762 0.0056217625

exp_avg_sq f4 [2]
00000000: f555 5639 f555 5639
0.00020440652 0.00020440652

model.1.defunc.m.0.weight f4 [64, 8]
00000000: 6c08 70bd 3219 e4bd a8fb 4e3e 46b4 9a3e
00000010: 89a8 5cbe 7b27 f33d 72df 653e 3511 49be
00000020: 16ca 36be c519 e63e 0ece 75be 35a9 afbe
00000030: 17ff 90be 995f 20be 58cd ae3c ed6c 0b3e
00000040: 5467 3f3e 712d 68be 6b48 b9be 8bc2 bfbd
00000050: f0f7 a7be 2ff5 ba3e ef7f 283e 41a5 453e
00000060: 4082 7bbe c06a 083e 148d 8f3e 4436 3b3e
00000070: 5e04 c43a 2c43 1fbe 20ff 91bd 363a b7bc
00000080: bef3 ab3e d8aa 59be bcab 403e c35a 5e3d
00000090: 6d3a 2ebe 538c 8b3e c61b 9ebd 9181 003e
000000a0: 53fa a3be 9bb0 003f ee8c 00be 6353 b63d
000000b0: f0be ad3e 0985 fc3c 984e b53d 5632 043e
000000c0: 1ac3 bebe 2daa b33e 4f1d 223e 07fe 653d
000000d0: 7537 ba3e 216a 4cbd bf79 00be 0231 9e3e
000000e0: 57d4 3cbe b1ad 663e 99dd 7cbe 6924 bd3d
000000f0: e048 8b3d fd9d 29be c51e 5d3d 58a1 0d3e
00000100: e61c 06be 9188 cc3d 0df9 ba3e 1c45 8a3d
00000110: 4476 b53e c821 8e3d 675e 0b3d ff9d 613e
00000120: 2187 44be 0f53 dcbd f265 3a3d b45e 823e
00000130: 3f6a d13d 8419 e4bd 3ae6 bd3c 9b58 0cbc
00000140: 1c93 f6be 5f9c 8c3d f49a 5a3e 0b00 283e
00000150: 81db 163e da2f 0a3e 0eeb 903d 5be2 6c3e
00000160: 1701 23bd 455e 013e 9464 81be 31f8 8b3e
00000170: 69e3 a5be 5471 c93c 517e ccbe f520 0abe
00000180: 8693 4b3e c50b a8be d062 a6be 7214 a33e
00000190: 959d 92bd 60db 03bf 74d3 00bf 7713 4e3f
000001a0: 5e9a b63e 48b7 6abe a69b f33d a588 053f
000001b0: 411c a13d 192a ce3d cc71 aabe 146d 263e
000001c0: 6b7e 8abe 5c1a bb3e 0fac d3bd 7b4a a4be
000001d0: a029 f93e 2b2d e53d 30f9 d63e 660b a73d
000001e0: d410 e3be c49f 8f3e d03e 9c3d bfac 5ebe
000001f0: eb0e 4f3e 1420 6f3d 2687 7bbe a97c 44bd
00000200: 77cf 053e 46a0 1c3d b2e1 59be 9d6b b13d
00000210: 99de 613e fd25 653d 789d 9ebe 6b93 89be
00000220: 6e2a bc3e c7aa d4be 8c6c a13e fbcb 983e
00000230: dcab cbbe 2b96 8cbe f913 b23e 396d 343f
00000240: f3ab 95be e84c 043f 00d7 a23e fea6 343e
00000250: 8efd 123d 9fe3 023e 2c19 d3bb 4e70 ae3d
00000260: 5cc6 aabc 7625 763e 84ac d2be b666 023d
00000270: 9397 c8bc d5df debe 7bf3 263d 2292 19bf
00000280: 850c 0b3e beb4 143f 8c23 523d d97b bfbe
00000290: a87f dc3e 2a1a 793d 4115 57be 7520 703d
000002a0: f328 30be 16d6 a63e ef63 223e b195 09bf
000002b0: e87b d9bc a0b7 fdbd 108a 9ebe 58c3 9f3e
000002c0: 7449 8d3e da35 83be 0705 9c3e 3f40 e13e
000002d0: 37fa 0abe 7fbe 2bbe 3bba a9bd 42c1 133f
000002e0: ef80 463c 8b60 8ebe 9322 75be f342 733e
000002f0: 9ad4 a03e 55bb bebc 2a5d c43e 1245 033c
00000300: 10c3 983e 2fed 2e3e 9e04 a33e be4b a93c
00000310: 3e9d 0abd b147 483e 0cf6 5abc 1aa0 d0be
00000320: 136b 1b3d 76ed 333d 60e4 92be 35d2 063f
00000330: 22db c63b 46da c23e 2832 013e ead6 c1bc
00000340: 067f e03e 848b cdbe 86a3 03bf a218 833c
00000350: 2136 ae3d c13a 9abe 9b32 19bf 72e4 4f3e
00000360: 0c56 123f db79 7c3e 7e89 f73d eb2d 313e
00000370: 18da 5ebe 2e46 f23e c458 af3e ab05 713e
00000380: 4d7d 8b3e 7500 bcbe 548f ae3e aad6 f03c
00000390: e574 0bbe 460e 3bbd c839 c4bb 10e8 81be
000003a0: 6261 cebd 093e 8b3e bf40 04bf 9921 7b3b
000003b0: cd1b 173e 7def 26be 9a2f 9e3e 6877 d1be
000003c0: eabe 0dbe 64f9 5a3e 3c58 dc3e 501e 83be
000003d0: b8da 6cbd 64f5 34be e3ce 1e3f 3b88 60be
000003e0: 20db d83e 50bb 363e 8961 9abc bb9d 47bd
000003f0: 0d0c 333d f1b3 6dbe a443 0ebe 707b 823e
-0.05860178 -0.11137618 0.20213187 0.30215663 -0.21548666 0.11872765 0.22448519 -0.1963547
-0.17850527 0.44941536 -0.24004385 -0.34308782 -0.28319618 -0.15661468 0.02133815 0.1361577
0.1869176 -0.22673585 -0.36188063 -0.09363278 -0.3280635 0.36515185 0.16455053 0.1930132
-0.24561405 0.13321972 0.28037322 0.1828242 0.0014954915 -0.15552968 -0.07128739 -0.022366624
0.33584398 -0.21256578 0.18815511 0.054285776 -0.17014475 0.27255496 -0.07720141 0.12549426
-0.3202692 0.5026948 -0.1255376 0.089026235 0.33934736 0.030825155 0.08852881 0.12909827
-0.37258226 0.3509077 0.15831493 0.056150462 0.36370435 -0.0499059 -0.12546442 0.30896765
-0.18440376 0.22527196 -0.24693908 0.0923546 0.06801009 -0.16564174 0.053984422 0.13831079
-0.13096961 0.099869855 0.36518136 0.06751463 0.35441792 0.06940037 0.034025576 0.22032927
-0.19192173 -0.1075803 0.04550738 0.25462878 0.10225343 -0.11137679 0.02318107 -0.008566047
-0.4815911 0.06865763 0.21348172 0.16406266 0.14732172 0.13494816 0.07076083 0.23133223
-0.03979596 0.12633617 -0.25272048 0.27337793 -0.32400063 0.024590172 -0.39940122 -0.13489135
0.19880494 -0.3282148 -0.32497263 0.31851536 -0.07158963 -0.51506615 -0.5032265 0.8049845
0.35664648 -0.22921479 0.11894922 0.5216163 0.07866717 0.10066623 -0.33289945 0.16252548
-0.27049574 0.36543548 -0.10335552 -0.32088074 0.4866457 0.11190256 0.4198699 0.08156471
-0.44348776 0.2805158 0.07629168 -0.21745585 0.20220535 0.0583802 -0.24563274 -0.047970448
0.13067423 0.038238786 -0.21277502 0.08663104 0.2205757 0.05594443 -0.30979514 -0.26870283
0.3675112 -0.41536543 0.31528127 0.29843125 -0.39779556 -0.2745832 0.34780863 0.7047916
-0.2923275 0.5167985 0.31804657 0.17641827 0.03588634 0.12782143 -0.0064422097 0.08517514
-0.020846538 0.24037728 -0.41147244 0.031836234 -0.024486339 -0.43530145 0.040759545 -0.59988606
0.13578995 0.5808829 0.05130343 -0.37399176 0.43066144 0.060815968 -0.21004201 0.058624703
-0.17203121 0.3258521 0.15858434 -0.53744036 -0.02654834 -0.12388539 -0.30964708 0.31203723
0.27595103 -0.25627023 0.30472586 0.43994328 -0.13572012 -0.16771887 -0.08287474 0.57716763
0.012115701 -0.2780803 -0.2393897 0.23756008 0.31412202 -0.023282686 0.3835233 0.008012073
0.2983632 0.17082666 0.3183946 0.020666 -0.033841364 0.19558598 -0.013364326 -0.40747148
0.03794391 0.043927632 -0.2868986 0.526645 0.006068603 0.38057154 0.1261679 -0.02366205
0.4384691 -0.40145504 -0.5142139 0.016002957 0.08506418 -0.3012295 -0.5984284 0.20301989
0.5716255 0.24655859 0.120867714 0.17302673 -0.21762884 0.47319168 0.3424741 0.23537318
0.27244034 -0.367191 0.34093726 0.029399235 -0.1361881 -0.04566791 -0.0059883334 -0.25372362
-0.10077168 0.27195767 -0.51661295 0.0038319586 0.14756699 -0.16302295 0.30895692 -0.40911412
-0.13842359 0.21384197 0.43036067 -0.25609064 -0.057825774 -0.17671734 0.62034434 -0.21926968
0.4235468 0.17844892 -0.018845337 -0.048734408 0.043712664 -0.23213173 -0.1389299 0.254848

model.1.defunc.m.0.bias f4 [64]
00000000: e215 a13d ee3a 15be eef0 b63e 6a6b 10bf
00000010: f8a5 1d3e ba98 b0bd ce54 653d 56dd d6bd
00000020: e03b 52be e11a ccbe 939d 083d afd6 1a3e
00000030: 2a29 dfbe e32a 693d 1e41 943e 7ec2 7ebd
00000040: ce92 3bbd 7ccf b8be 202d 24be 3631 a7be
00000050: bfca 843d 3423 433e 2b7f 8ebe 15cb 02be
00000060: 446b 70be aa12 063e c77d 8dbe 96e8 40be
00000070: f76d c33e aae2 b0be ed9d c1bb 770a 56be
00000080: 0104 f8be 8454 203e a3b8 f13e fb62 cebe
00000090: ecc4 1b3e f7cf e8be 3fbf c93e c290 1c3d
000000a0: 9a5f 853e 770e 03be a8ad ab3e 094d 20be
000000b0: 7b1a 813e bd96 4ebd d029 d2be 6590 623e
000000c0: ef58 803e 18be ce3d 21b1 343d 0539 743e
000000d0: 5ec1 21be 44a6 76be 6a3a 523e 8d5f 57be
000000e0: fcf2 853e 46bd 07be 925f 82be 614d eebc
000000f0: 8fb5 d53e ffe3 243d 423a 42be 2fcf 383e
0.07865502 -0.14573261 0.3573069 -0.564139 0.15395343 -0.0862288 0.05598908 -0.10491435
-0.20530653 -0.39864257 0.0333534 0.15120958 -0.43586093 0.056925666 0.2895593 -0.0621972
-0.0457943 -0.36095798 -0.16032839 -0.32654732 0.06483983 0.19056398 -0.27831396 -0.12772782
-0.23478419 0.13093057 -0.27635023 -0.18838724 0.38169834 -0.3454793 -0.005908719 -0.2090243
-0.48440555 0.1565724 0.4721118 -0.4030989 0.15211838 -0.45471165 0.39403722 0.03822399
0.260495 -0.12798487 0.33530927 -0.15654387 0.25215515 -0.050436724 -0.41047525 0.22125395
0.2506785 0.10094851 0.044114236 0.23849876 -0.1579642 -0.24086863 0.20530096 -0.21032543
0.26161945 -0.13255796 -0.2546354 -0.029089632 0.4174008 0.040256497 -0.18967536 0.18047784

model.1.defunc.m.2.weight f4 [8, 64]
00000000: 245f 503d 6b5d 37be 7547 be3d eff7 21be
00000010: fddd 1c3e 9b8e 7cbe 9b89 6dbe eaa5 213d
00000020: 382b fdbd 012d 9fbc d602 60bd 285c 013e
00000030: 8428 6c3e a2dd f83d 13d0 37be dcc6 debd
00000040: 9f8f 88bc e6a9 073e c38c 9cbd 249d 1b3e
00000050: 6491 00be 6784 5cbe e635 d73d 4a65 0b3d
00000060: 7914 803d 7035 713e 1f9f 593e 956d 823d
00000070: 35eb c03d 95b3 343e 089a d2bd 35ea b93d
00000080: 3482 0fbd 71db 2bbe 6192 143e 68f8 c73e
00000090: 70bf 5d3e ce95 803e a319 1b3d 1ff8 2bbe
000000a0: ffb6 febd b57a 38be 9181 a0be 0cab 20bd
000000b0: 2c0d 8d3d 52eb 82be adff 11be 3140 9bbe
000000c0: 78ff c6bd a235 c23d cccb 773e e47c 41be
000000d0: 8203 923d ab24 30be 946d 6d3e 06d5 54be
000000e0: af7f 82be 3d11 d1bd f1bd 91bd cc76 3c3e
000000f0: ef35 3bbe cc3a 1b3e 3b08 0a3e 193b 78be
00000100: 39d9 fdbd 2553 873d 2df8 6dbe 116a 043e
00000110: 0cd1 6dbe c8d3 603d 8c30 1e3e 20af 1d3e
00000120: cbca 243e c062 823e 2c2a ac3d 6edc f3bd
00000130: 36ec 92be e53a 57be 81d3 5b3d 480a e9b8
00000140: 219e 1d3b af19 1cbe a854 09bd 0afd b7bc
00000150: 3e80 2e3e 55eb 8bbc 83bb 7c3d b4d2 403e
00000160: 4a3c 68bd ca48 59be 8a12 20be 7734 a9be
00000170: 0659 0abe 1c00 8a3c 06f4 6a3e a573 0b3d
00000180: f2d0 513e d4ea 0b3e 7048 22be 60bd 12be
00000190: 7fc0 d9bd 9d82 47be 4c4b 0abe acb6 423d
000001a0: bdbb c3bd 6d8e ca3c 3416 6c3d b7dd 9abd
000001b0: df8b febd fdb7 223e 9a24 9c3e 7c70 023e
000001c0: 7b78 a83d d235 17be 406e 953d f1a6 703e
000001d0: 6031 71bd 2fc7 1f3e 207a 61be 4edc da3d
000001e0: 1172 963b d34c 413e f0b9 ec3d 5d2b d0bd
000001f0: 79fb 133e 96a5 22be 9d97 55bd e343 0e3e
00000200: abe1 8f3d a664 3d3d d62c 9b3e 44ac 2fbe
00000210: 23b2 693e 5e74 713d 60f0 d13e b165 503d
00000220: 9a3c 4c3d ad5e 72bd cbb6 603e c7e8 d5bd
00000230: 5432 fabd 55ca 7cbb 05fa 983e 417d 063c
00000240: 6a3e acbe e12e fd3b 3694 75bc 3f05 c7be
00000250: 2bf1 df3c 5563 bf3e 3fee e4bc c87a d83c
00000260: 18c5 c1be e398 bf3d 300b 10be 15a1 803d
00000270: 68ef 4abd f553 25be 2a98 52bb c5ae 1dbe
00000280: b675 ebbb ee8a 323e 63c0 f43d 978e 39be
00000290: 314c 77be cccb 3bbe 2f96 413d c3e6 cd3e
000002a0: 761a 893e 5819 8abc 6bbd 1b3e 23d1 5bbe
000002b0: c5ae 663e fe2e 76be 9c9f a03d fa64 193e
000002c0: 92f5 143d 5c64 f5bb 01e4 08bd 7c49 683e
000002d0: d47d 70bd 43cd 833d 2b78 1cbd d777 40be
000002e0: 2cc8 1e3e a52d 8d3d 9591 79be 5328 db3d
000002f0: df3f 5b3e ca07 9a3e 4ef8 95bb d8dd a13e
00000300: 3010 8e3b b86a 9fbd 3edb c63d e209 04be
00000310: 8d86 933c 0751 3cbd 1117 57be 7943 b3bd
00000320: d5f7 68be c8af 76be 4ba2 e3bd 830b 5cbd
00000330: da3d 963e 378d 023e 9f8d a2bd ee0c 2abe
00000340: 1a3f 41bd 7d60 913d 5af1 033d 5cc2 31bd
00000350: ac3b a5bc 47f1 4bbe 91a9 1a3e fd63 843d
00000360: 315b 48bd 3045 323e 40c8 293e 6b64 ad3e
00000370: 893d 4d3e 2a06 b13d 216f e5bd ef49 413d
00000380: 021c 8bbe 402d 23be fb4b 923d b40f 853e
00000390: 34c6 7bbd eab4 543e d463 893e 06cc c23d
000003a0: 0cf1 22be f07c 00be f1ac 07be 6f46 9cbd
000003b0: eac4 ef3d 81e3 78be be85 65be e0cd 2cbe
000003c0: 40c0 e6bd 4cd4 4f3e 5976 683e 60a3 30be
000003d0: 1879 6939 b764 983d 8273 ad3d 8547 17be
000003e0: d7f5 41be ab32 01be c877 a13c d21b 0d3e
000003f0: 4d15 c6bc 8647 063d 7c25 4f3d febd 20be
0.050871983 -0.1790673 0.09290973 -0.15817235 0.15319057 -0.24663775 -0.23197024 0.03946487
-0.12361759 -0.01943064 -0.054690205 0.12632811 0.2306233 0.12151648 -0.17950468 -0.10877773
-0.016670046 0.13248405 -0.07644036 0.15196663 -0.12555462 -0.21534882 0.10508327 0.034032144
0.06253905 0.23555541 0.21252106 0.06368557 0.09419862 0.1764663 -0.102832854 0.090778746
-0.03503628 -0.16782929 0.14508964 0.39056706 0.21655059 0.25114292 0.037866246 -0.1679387
-0.124372475 -0.18015559 -0.3134885 -0.039225623 0.06887278 -0.2557016 -0.14257689 -0.30322412
-0.097166955 0.09482886 0.24198836 -0.18895298 0.07129575 -0.17201488 0.23186332 -0.20784387
-0.2548804 -0.10208366 -0.071163066 0.18404692 -0.18282293 0.15159148 0.13479702 -0.24241294
-0.123949476 0.066076554 -0.23239203 0.12931086 -0.23224276 0.05488947 0.15448207 0.15398836
0.16092984 0.25465965 0.08406481 -0.11907278 -0.2869584 -0.2101856 0.053668503 -0.00011112221
0.002405055 -0.15244173 -0.033528 -0.022459526 0.17041108 -0.017079988 0.061702263 0.18830377
-0.05669812 -0.21219173 -0.15632072 -0.3304784 -0.13510522 0.016845755 0.2294465 0.034045834
0.20489863 0.13663799 -0.15847945 -0.14330053 -0.10632419 -0.19483419 -0.13505286 0.04753749
-0.095572926 0.024726117 0.057638362 -0.0756182 -0.12429022 0.15890498 0.30496675 0.12738222
0.08226105 -0.14766625 0.07296419 0.23501183 -0.05888498 0.15603326 -0.22019243 0.10686551
0.0045912345 0.18876962 0.11558902 -0.10164521 0.14451398 -0.15883479 -0.052146543 0.13893084
0.070254646 0.046238564 0.30307645 -0.17155558 0.2282186 0.058948867 0.41003704 0.05087823
0.04986248 -0.05917232 0.2194473 -0.104447894 -0.122166306 -0.0038572748 0.2987825 0.008208574
-0.33641368 0.0077265357 -0.0149889495 -0.3887119 0.027336678 0.37380472 -0.027945636 0.026425734
-0.37845683 0.09355333 -0.14066768 0.06280724 -0.04954472 -0.16145308 -0.0032134154 -0.153987
-0.007185663 0.1743581 0.11950757 -0.181208 -0.24150158 -0.18339461 0.047262367 0.4021512
0.26778 -0.016857788 0.15208976 -0.21466498 0.22527607 -0.24041364 0.07842943 0.14979926
0.036367007 -0.0074887704 -0.033420566 0.22684282 -0.05871375 0.06435635 -0.03820054 -0.18795715
0.15506047 0.06893472 -0.24371941 0.107010506 0.21411084 0.30084068 -0.0045767194 0.31614566
0.004335426 -0.07784027 0.09709786 -0.12894395 0.018008495 -0.04597571 -0.21004893 -0.08753104
-0.2275079 -0.24090493 -0.11114939 -0.053721916 0.29344064 0.12749182 -0.07937168 -0.16606495
-0.04717932 0.07098482 0.032212593 -0.043398246 -0.020170055 -0.19916259 0.15103747 0.06464384
-0.048915092 0.17409205 0.16580296 0.33865675 0.20043005 0.08643754 -0.11202837 0.04718965
-0.27169806 -0.1593523 0.071433984 0.25988543 -0.061468318 0.20772138 0.26833975 0.09511571
-0.15912265 -0.1254766 -0.13249566 -0.07630622 0.1170748 -0.24305536 -0.224143 -0.1687541
-0.112671375 0.20295829 0.22701396 -0.17249823 0.00022265723 0.07441085 0.08469297 -0.14773376
-0.18941437 -0.12616985 0.019710436 0.13780144 -0.024180079 0.032783054 0.050572857 -0.15697476

model.1.defunc.m.2.bias f4 [8]
00000000: 2285 913d 592b 78be 874a f6bd ad66 ba3d
00000010: dcf3 7ebe 7f13 813d adf0 8d3d aa6f 6abe
0.07105471 -0.24235286 -0.12025934 0.09101615 -0.24897712 0.06302547 0.06930671 -0.22894159

model.2.weight f4 [2, 8]
00000000: 9361 c83e 6390 d8be 82af c4bd 405d d23e
00000010: 849a babe 862c 773e a19e 3b3e b1b2 d1be
00000020: f008 a0be e7a0 df3e 0249 a3bd 0de8 c4be
00000030: a28e b63e 5630 d1be c4f3 913e 7dbf a23e
0.39136943 -0.42297658 -0.09603788 0.4108677 -0.3644601 0.24138078 0.18322231 -0.40956643
-0.3125682 0.43677446 -0.079729095 -0.3845829 0.35655695 -0.4085719 0.2850629 0.3178672

model.2.bias f4 [2]
00000000: e035 343d d526 bebe
0.04399669 -0.37139
