lightning_logs/version_6/checkpoints/epoch=49-step=49.ckpt (torch, 19857 bytes, 18 tensors)

exp_avg f4 [64, 8]
-0.002968446 -0.003868042 -0.0021156864 0.0016982555 5.1086186e-05 -0.0008983448 -0.00022593327 1.055561e-05
0.007034192 0.0069847517 0.004076315 -0.004001758 0.0017440899 -0.001866278 0.004820601 0.0027021626
-0.0025665225 -0.0031593135 -0.0025078491 0.0019106285 -0.00083182787 0.0035924527 -0.005610848 0.0017972612
0.006654264 0.0068275994 0.0050988467 -0.005231561 0.0023078215 -0.007287545 0.005205326 -0.0024507316
0.0026491466 0.003121795 0.0024246795 -0.0018452583 0.001083619 -0.0030832365 0.005277938 -0.002919803
-0.00055194926 -0.0023961884 -0.0021962891 0.0010307487 0.00023740041 0.002867281 -0.004257828 -5.7754572e-05
-0.0032083327 -0.003945205 -0.0027614327 0.002122266 -0.00085569953 0.0018669588 -0.0040032146 0.0025855005
0.008492712 0.009251133 0.0054859077 -0.0051682196 0.0017893419 -0.002049933 0.0030042832 0.0034249788
0.004024278 0.0025813822 0.0008976476 -0.0017191634 0.001423099 0.0008205018 4.172977e-05 0.005117953
0.007922078 0.005849965 0.0016137462 -0.003868706 0.0011686916 0.00513152 -0.0067010066 0.0052095596
-0.0013894788 -0.001058038 -0.00097639195 0.001197564 -0.0007191745 0.002506351 -0.00255482 0.0029136175
-0.0050478317 -0.0040502483 -0.0017366757 0.0030452118 -0.0011896701 -0.0011579299 0.0024135504 -0.00019235909
0.006483179 0.0033473126 -2.617207e-05 -0.003154079 0.001559712 0.0037039854 -0.009840646 0.010798805
0.0060922303 0.005488571 0.002865553 -0.0031861346 0.0015452036 -6.664905e-05 0.0021277627 0.0060407016
-0.010034213 -0.0075922296 -0.0045474023 0.0061449306 -0.003974045 0.004726298 -0.0064736577 -0.0022979453
0.0035278776 0.002422493 0.0010260041 -0.0021404622 0.00094602385 -0.00016356097 -0.0020847095 0.0018963963
-0.0012648236 -0.00019753589 -6.709539e-06 0.0005583551 -0.0009209349 0.000537488 0.0006573255 -0.00034271867
0.0011348543 -3.660562e-05 -0.00059210864 -0.00026433027 0.0004259128 0.0015583218 -0.0026999016 0.0038680676
0.013383957 0.015142737 0.008785279 -0.0078838635 0.0024369606 -0.0016508641 0.0076040216 0.0014619343
0.008109469 0.005827285 0.003268076 -0.0044887997 0.0030631903 -0.0037936845 0.0043311426 0.006232431
-0.0050603165 -0.0036453244 -0.0010970766 0.002802695 -0.0010402233 -0.0020135506 0.004553754 -0.0046328558
0.00095188286 0.0013374492 0.0006209244 -0.00047058632 -9.9315075e-05 0.0006359119 -0.00029458493 0.0057927202
-0.006765655 -0.00887429 -0.005524231 0.0045097503 -0.00080435444 0.0012232763 -0.004215871 0.0036859773
0.0017321977 0.0017772124 0.001081116 -0.00120954 0.00025069225 -0.0005147818 -0.00034520868 0.0020145443
-0.011995483 -0.01226568 -0.005441935 0.0045602573 -0.0018494462 -0.0065979874 -0.006801573 -0.014088236
0.0025312044 0.0019079079 0.00094615703 -0.0013164306 0.0008540857 -8.949086e-05 0.0016695106 -0.0006343003
0.014878499 0.012453953 0.0052299676 -0.007252125 0.0032420063 0.0033339197 -0.0013256669 0.00922902
-0.00026316894 -0.00090672716 -0.0013063644 0.0009053741 -0.00031291228 0.0031171152 -0.00265361 0.002735681
-0.002597841 -0.004404863 -0.002729819 0.0013210714 -6.088405e-05 -0.00054313213 -0.0034743075 0.0024357606
0.024451673 0.010462934 0.002351237 -0.012594985 0.009898042 0.0013391329 -0.01535917 0.032798488
0.0035384865 0.0060853185 0.0047072805 -0.003605756 0.0003994 -0.0030475014 0.0022226907 -0.0069829635
0.010892619 0.008899866 0.004107143 -0.005152279 0.0029545773 0.0005719096 0.005879248 0.009759168
00000000: 428a 42bb fa7e 7dbb 54a7 0abb 0098 de3a
00000010: 6045 5638 e67e 6bba 80e8 6cb9 0018 3137
00000020: 147f e63b 58e0 e43b 9c92 853b 2e21 83bb
00000030: f299 e43a e69d f4ba 22f6 9d3b c416 313b
00000040: 1a33 28bb 7c0c 4fbb ba5a 24bb 0e6e fa3a
00000050: 060f 5aba 5b6f 6b3b 34db b7bb 1492 eb3a
00000060: 030c da3b 0eba df3b 3a14 a73b 846d abbb
00000070: d23e 173b 5ccc eebb 7091 aa3b 749c 20bb
00000080: 4e9d 2d3b 0797 4c3b 5fe7 1e3b 98dc f1ba
00000090: 3808 8e3a 2010 4abb 8ef2 ac3b 2a5a 3fbb
000000a0: b0b0 10ba 5f09 1dbb 9eef 0fbb 301a 873a
000000b0: b0ee 7839 fee8 3b3b 4085 8bbb 803d 72b8
000000c0: e442 52bb c746 81bb 27f9 34bb b715 0b3b
000000d0: 0651 60ba beb4 f43a 662d 83bb 8071 293b
000000e0: 0425 0b3c 1092 173c 21c3 b33b 2b5a a9bb
000000f0: 5a88 ea3a 2b58 06bb 82e3 443b 9c75 603b
00000100: 17de 833b 682c 293b 1c50 6b3a 8d55 e1ba
00000110: 4787 ba3a f216 573a 0007 2f38 80b4 a73b
00000120: 9acb 013c 10b1 bf3b 5684 d33a 1e8a 7dbb
00000130: c82e 993a 4f26 a83b 1e94 dbbb f4b4 aa3b
00000140: 2c1f b6ba ddad 8aba 8ef4 7fba 94f7 9c3a
00000150: fc86 3cba 9841 243b c46e 27bb 64f2 3e3b
00000160: 4868 a5bb f2b7 84bb 2ba1 e3ba 2d92 473b
00000170: b4ee 9bba aec5 97ba a82c 1e3b 00b4 49b9
00000180: d970 d43b 965e 5b3b 188c dbb7 aab4 4ebb
00000190: 406f cc3a 90be 723b a93a 21bc 79ed 303c
000001a0: 55a1 c73b 78d9 b33b 00cc 3b3b 78ce 50bb
000001b0: 6e88 ca3a f0c5 8bb8 ef71 0b3b 14f1 c53b
000001c0: 8a66 24bc 3dc8 f8bb 6002 95bb 6a5b c93b
000001d0: b538 82bb 10df 9a3b fa20 d4bb 2099 16bb
000001e0: f733 673b b0c2 1e3b fc7a 863a ff46 0cbb
000001f0: 96fe 773a 9081 2bb9 9f9f 08bb 8090 f83a
00000200: 70c8 a5ba a321 4fb9 8022 e1b6 945e 123a
00000210: e56a 71ba 36e6 0c3a 5e50 2c3a ecae b3b9
00000220: 64bf 943a fc88 19b8 bd37 1bba cf95 8ab9
00000230: 0c4d df39 9a40 cc3a d5f0 30bb 687f 7d3b
00000240: 6248 5b3c 3e19 783c 21f0 0f3c 522b 01bc
00000250: 6ab5 1f3b cf61 d8ba 282b f93b 609e bf3a
00000260: 94dd 043c cff2 be3b 382d 563b c816 93bb
00000270: cebf 483b 779f 78bb 42ec 8d3b 6c39 cc3b
00000280: 03d1 a5bb 65e6 6ebb c8cb 8fba 6bad 373b
00000290: 1a58 88ba c6f5 03bb a837 953b 36cf 97bb
000002a0: c787 793a 594d af3a 88c5 223a 07b9 f6b9
000002b0: 6047 d0b8 53b3 263a 8572 9ab9 dcd0 bd3b
000002c0: 6db2 ddbb 7865 11bc 9c04 b5bb 87c6 933b
000002d0: 50db 52ba 5756 a03a 4a25 8abb 7090 713b
000002e0: e90a e33a 5af1 e83a 3cb4 8d3a 6d89 9eba
000002f0: 586f 8339 6cf2 06ba 20fd b4b9 7206 043b
00000300: b488 44bc fef5 48bc 4252 b2bb 366e 953b
00000310: 1e69 f2ba ee33 d8bb bbdf debb 58d2 66bc
00000320: 90e2 253b c412 fa3a 8607 783a 158c acba
00000330: b9e4 5f3a 0aad bbb8 7bd3 da3a 2c47 26ba
00000340: f3c4 733c aa0b 4c3c 2660 ab3b 3ca3 edbb
00000350: d777 543b e47d 5a3b 00c2 adba 5135 173c
00000360: f0f9 89b9 6eb1 6dba 513a abba a156 6d3a
00000370: 600e a4b9 8448 4c3b 30e8 2dbb 1c49 333b
00000380: 8a40 2abb ab56 90bb c3e6 32bb cd27 ad3a
00000390: c05d 7fb8 fb60 0eba 35b1 63bb 48a1 1f3b
000003a0: e04e c83c ba6c 2b3c 3617 1a3b 325b 4ebc
000003b0: 662b 223c d885 af3a 07a5 7bbc b557 063d
000003c0: f4e5 673b 5a67 c73b 883f 9a3b 8c4e 6cbb
000003d0: 9066 d139 97b8 47bb 90aa 113b 58d1 e4bb
000003e0: f576 323c bed0 113c 3695 863b 73d4 a8bb
000003f0: 95a1 413b 34ec 153a b5a6 c03b ebe4 1f3c

exp_avg_sq f4 [64, 8]
1.7413939e-05 1.157449e-05 1.8493652e-06 1.155383e-06 1.5897398e-06 5.7316165e-06 4.0151226e-05 6.3215644e-05
6.458833e-05 2.6333742e-05 7.4293503e-06 1.2123253e-05 1.016598e-05 6.044221e-06 6.2924126e-05 0.00010845386
1.4327761e-05 3.7643395e-06 1.4406247e-06 4.1026383e-06 3.1840389e-06 9.387575e-06 5.4016136e-06 1.2795774e-05
0.00018752759 4.599396e-05 1.4633063e-05 4.4988745e-05 4.172504e-05 7.0839174e-05 0.00012101102 0.00021918054
2.184122e-05 8.273506e-06 2.4884532e-06 4.488351e-06 3.7077805e-06 5.7476177e-06 1.9708112e-05 3.886166e-05
1.3145241e-05 1.0369586e-06 2.7591904e-07 2.3586765e-06 4.1576595e-06 3.4041561e-06 7.956461e-06 1.5373727e-05
3.186089e-05 1.5212342e-05 4.4883263e-06 5.7857114e-06 4.3514765e-06 2.5760567e-06 3.3929482e-05 6.1026523e-05
0.00017260882 6.676643e-05 1.8567092e-05 3.197569e-05 2.7983508e-05 1.553185e-05 0.00017462194 0.00028768438
3.923477e-06 1.3907913e-06 2.43926e-07 5.2755536e-07 7.469183e-07 3.3353527e-07 9.466845e-06 1.1846343e-05
5.253373e-05 3.1569212e-05 4.9780324e-06 3.91179e-06 5.832165e-06 1.3498466e-05 0.00014522308 0.00019304156
4.05192e-06 6.9554875e-07 2.2008152e-07 1.0565132e-06 1.1241868e-06 4.6412893e-06 2.5045447e-06 6.269468e-06
6.8566565e-05 1.4061457e-05 3.3121114e-06 1.3998136e-05 1.728256e-05 1.967699e-05 7.0845876e-05 0.00010694823
6.271207e-05 5.116367e-06 1.0350058e-06 1.4528494e-05 2.1301828e-05 3.3541877e-05 5.5845278e-05 6.7551795e-05
2.0743337e-05 8.253211e-06 1.7413264e-06 2.9853593e-06 3.4163206e-06 9.259721e-07 3.3263448e-05 4.9468603e-05
0.00013672606 3.636118e-05 8.845995e-06 2.6767091e-05 2.9530001e-05 2.8802766e-05 0.00014049246 0.00022977902
2.367913e-05 3.7333828e-06 1.1528281e-06 5.9437552e-06 6.6709363e-06 1.3754352e-05 1.6837173e-05 2.4757173e-05
3.1721035e-07 1.0865975e-07 4.9168246e-08 1.8423695e-07 1.2985356e-07 5.0480426e-06 2.5404222e-07 2.9399718e-07
3.818305e-06 2.2106324e-06 6.985415e-07 6.414806e-07 3.999351e-07 1.6598314e-07 3.8520348e-06 7.2090365e-06
0.00044982677 0.00018076706 4.7908212e-05 7.886745e-05 7.362886e-05 2.9935325e-05 0.00050571177 0.0008265442
2.4331786e-05 6.3129974e-06 1.6169754e-06 5.2481155e-06 5.487264e-06 1.1553973e-05 2.2957858e-05 3.8990253e-05
5.29429e-05 8.545529e-06 1.8062428e-06 1.0691099e-05 1.4473855e-05 1.4363182e-05 5.630569e-05 7.630672e-05
2.0907312e-06 4.4258246e-07 3.7493958e-08 1.3185178e-07 4.1118847e-07 1.9705535e-06 3.384202e-06 4.143101e-06
0.00020759688 8.16728e-05 2.1161677e-05 3.5587556e-05 3.325385e-05 1.2285062e-05 0.00022879361 0.0003864023
4.116805e-06 2.1028861e-06 2.2666845e-07 2.3596442e-07 4.6058068e-07 2.6582866e-06 9.976054e-06 1.425307e-05
3.8003258e-05 2.6114645e-05 5.6604076e-06 4.371431e-06 4.450285e-06 1.0724011e-05 9.0799556e-05 0.00012363058
3.7708817e-06 1.7123932e-06 3.9859916e-07 5.483023e-07 5.7373893e-07 1.8890782e-07 7.096606e-06 1.1651968e-05
0.00015899811 6.3728716e-05 1.7614442e-05 2.9233064e-05 2.8215567e-05 2.8177163e-05 0.00021423094 0.00031169681
1.4339765e-05 5.999079e-07 1.6401127e-07 3.7926575e-06 5.0754584e-06 8.883936e-06 3.671568e-06 9.245042e-06
2.5041441e-05 1.6373246e-05 5.181291e-06 4.2145325e-06 2.5687389e-06 5.715474e-07 3.5899786e-05 5.9174567e-05
0.0002318586 5.1705232e-05 1.3282552e-05 4.7047954e-05 5.586935e-05 4.9450486e-05 0.0002920413 0.00034113217
0.00020710278 4.6771755e-05 1.0879998e-05 4.0843646e-05 4.660531e-05 3.490666e-05 0.00017608728 0.00031321065
4.6257377e-05 1.7509046e-05 4.0174227e-06 7.5384132e-06 8.0233995e-06 2.321834e-06 6.140995e-05 9.247188e-05
00000000: 2614 9237 0e30 4237 b437 f835 a812 9b35
00000010: 0b5f d535 3652 c036 0d68 2838 a492 8438
00000020: 9873 8738 48e7 dc37 a249 f936 fa64 4b37
00000030: 8d8e 2a37 77cf ca36 22f6 8338 b971 e338
00000040: 4461 7037 dc9e 7c36 7d5b c135 65a9 8936
00000050: 5fad 5536 547f 1d37 823f b536 6ead 5637
00000060: 0ea3 4439 a3e9 4038 8780 7537 4cb2 3c38
00000070: ec01 2f38 7e8f 9438 4cc7 fd38 d4d3 6539
00000080: aa37 b737 70ce 0a37 4dff 2636 a49a 9636
00000090: 2fd3 7836 a9db c036 d952 a537 64ff 2238
000000a0: 618a 5c37 a02d 8b35 0622 9434 c149 1e36
000000b0: 0682 8b36 f572 6436 bd7c 0537 d4f6 8037
000000c0: 5fa2 0538 8338 7f37 6e9a 9636 e222 c236
000000d0: e602 9236 51e0 2c36 814f 0e38 bbf6 7f38
000000e0: 54fe 3439 f404 8c38 87c0 9b37 a31d 0638
000000f0: 20be ea37 654a 8237 b81a 3739 58d4 9639
00000100: 69a6 8336 3aab ba35 eff4 8234 549d 0d35
00000110: d67f 4835 bd10 b334 cad3 1e37 a8bf 4637
00000120: aa57 5c38 2f69 0438 f908 a736 0542 8336
00000130: eab1 c336 7877 6237 0647 1839 336b 4a39
00000140: baf5 8736 bfb5 3a35 8c4f 6c34 84cd 8d35
00000150: c4e2 9635 5fbc 9b36 c013 2836 525e d236
00000160: 65cb 8f38 7fe9 6b37 a445 5e36 89d9 6a37
00000170: 04fa 9037 0410 a537 1793 9438 6549 e038
00000180: 4984 8338 42ad ab36 87ea 8a35 68bf 7337
00000190: 54b1 b237 51af 0c38 693b 6a38 98aa 8d38
000001a0: fa01 ae37 4577 0a37 85b7 e935 1558 4836
000001b0: f143 6536 5190 7835 5b84 0b38 827c 4f38
000001c0: 1f5e 0f39 8582 1838 4269 1437 e489 e037
000001d0: 32b7 f737 789d f137 2851 1339 d6f0 7039
000001e0: 8ba2 c637 078b 7a36 dfba 9a35 7870 c736
000001f0: e8d6 df36 7ec2 6637 8e3d 8d37 a0ad cf37
00000200: 0f4d aa34 5458 e933 0f2d 5333 abd2 4534
00000210: e06d 0b34 5b62 a936 4c63 8834 aad6 9d34
00000220: fd1e 8036 605a 1436 6883 3b35 3632 2c35
00000230: a9b6 d634 1939 3234 ba40 8136 27e5 f136
00000240: bad6 eb39 4a8c 3d39 0df1 4838 a465 a538
00000250: 3169 9a38 9f1d fb37 be91 043a 71ac 583a
00000260: 1d1c cc37 3cd4 d336 da06 d935 f818 b036
00000270: 3d1f b836 f0d7 4137 a095 c037 7789 2338
00000280: 020f 5e38 c55e 0f37 086e f235 ec5d 3337
00000290: bcd4 7237 66f9 7037 c629 6c38 dc06 a038
000002a0: 7d4e 0c36 129c ed34 0b09 2133 2493 0d34
000002b0: 50c1 dc34 da3d 0436 261c 6336 f704 8b36
000002c0: 5dae 5939 c047 ab38 5b84 b137 d943 1538
000002d0: 0d7a 0b38 f11b 4e37 51e8 6f39 0a96 ca39
000002e0: 1623 8a36 4f1f 0d36 2662 7334 685d 7d34
000002f0: ba45 f734 0465 3236 d35e 2737 7820 6f37
00000300: b065 1f38 c610 db37 88ee bd36 4eae 9236
00000310: a853 9536 47eb 3337 a46b be38 d5a2 0139
00000320: 410f 7d36 62d5 e535 0dff d534 0c2f 1335
00000330: 0a03 1a35 96d6 4a34 621f ee36 d27c 4337
00000340: bbb8 2639 18a6 8538 bac2 9337 8739 f537
00000350: 78b0 ec37 ff5d ec37 2ea3 6039 3d6b a339
00000360: d294 7037 5b09 2135 131b 3034 5c85 7e36
00000370: db4d aa36 370c 1537 0f65 7636 271b 1b37
00000380: 1610 d237 4759 8937 f3da ad36 8f6a 8d36
00000390: 9962 2c36 706c 1935 1a93 1638 3532 7838
000003a0: 121f 7339 12de 5838 20d8 5e37 5b55 4538
000003b0: 4255 6a38 0e69 4f38 1f1d 9939 fcd9 b239
000003c0: bb29 5939 ca2c 4438 3c89 3637 884f 2b38
000003d0: 127a 4338 be68 1238 12a4 3839 6c36 a439
000003e0: 7b04 4238 64e0 9237 66cd 8636 7af2 fc36
000003f0: 3d9c 0637 ced0 1b36 37c9 8038 76ed c138

exp_avg f4 [64]
0.006110491 -0.007814576 0.0027297533 -0.0075770104 -0.00530007 0.0028142221 0.0053603575 -0.0101774465
-0.008473691 -0.014336162 0.0025805826 0.0065109394 -0.013451763 -0.010161781 0.0144840665 -0.002563043
0.002356937 -0.00072433165 -0.019451447 -0.0107995765 0.0075764433 -0.00096713845 0.010407991 -0.003422407
0.019893685 -0.0053248857 -0.015235 0.0012958026 0.0067535974 -0.032312043 -0.012455854 -0.014502372
0.0067054597 0.01733551 -0.009105386 -0.02463249 -0.0015656967 0.0009293641 0.021609409 -0.0017078612
-0.012127905 0.0101998225 0.015809938 -0.012697445 -0.019812744 0.021288097 0.0015720341 0.0049954727
0.0024920232 0.01481253 0.0064741885 -0.0074694287 -0.0044293953 -0.011833627 -0.0014390806 0.0072525907
0.0155964885 -0.0021395842 0.004598608 -0.0073136594 0.018035915 0.0014452413 0.0037030785 0.0021281631
00000000: 843a c83b b508 00bc a9e5 323b 9248 f8bb
00000010: 36ac adbb d06e 383b f0a5 af3b 4ebf 26bc
00000020: 3cd5 0abc 39e2 6abc fe1e 293b b859 d53b
00000030: c964 5cbc 997d 26bc 944e 6d3c baf8 27bb
00000040: d776 1a3b 13e1 3dba a458 9fbc b5f0 30bc
00000050: d043 f83b 9087 7dba 4786 2a3c 764a 60bb
00000060: 15f8 a23c 617c aebb 399c 79bc ecd7 a93a
00000070: 484d dd3b a259 04bd a313 4cbc 5b9b 6dbc
00000080: 79b9 db3b 3303 8e3c c22e 15bc 13ca c9bc
00000090: 1038 cdba 92a0 733a 3706 b13c 50da dfba
000000a0: 1fb4 46bc 281d 273c d883 813c f208 50bc
000000b0: 564e a2bc 6064 ae3c b60c ce3a 10b1 a33b
000000c0: 3651 233b 41b0 723c 6e25 d43b 1cc2 f4bb
000000d0: 7624 91bb d4e1 41bc 889f bcba 24a7 ed3b
000000e0: 6a88 7f3c 4438 0cbb ebaf 963b 6ca7 efbb
000000f0: 0ec0 933c 406e bd3a 59af 723b a778 0b3b

exp_avg_sq f4 [64]
0.000118363314 7.298538e-05 1.7813095e-06 0.00014635685 1.4435306e-05 0.00010503575 2.5332973e-05 0.00023945776
2.542419e-05 0.0004328209 2.8800607e-06 0.00022442415 0.00027203394 7.6743316e-05 0.0003617053 3.914395e-05
1.1292288e-05 3.2613962e-06 0.0006762261 3.6657795e-05 0.00021273691 6.338926e-05 0.0003859131 6.0316972e-05
0.00015440396 9.797001e-06 0.00030809463 3.135833e-05 9.259897e-06 0.00069740147 0.00044964018 0.00013083252
2.4943856e-05 0.00033144047 0.00014192468 0.0010293693 9.9572e-06 2.076738e-06 0.00014683433 4.7463807e-05
0.00026709345 6.182735e-05 0.0004261095 0.0001865232 0.0007493762 0.0005883148 8.209197e-06 0.00023647796
5.0442985e-05 0.00018491455 0.00013249522 0.00021704423 0.00015451758 0.00022990353 6.0464085e-05 0.00022368437
0.0005628755 1.632025e-05 0.000105566236 4.53977e-05 0.00038947517 6.607014e-05 4.473968e-05 4.684259e-06
00000000: d239 f838 ba0f 9938 5415 ef35 5e77 1939
00000010: 2b2f 7237 a446 dc38 2582 d437 f416 7b39
00000020: 0846 d537 3dec e239 1147 4136 6653 6b39
00000030: c79f 8e39 41f1 a038 43a3 bd39 7f2e 2438
00000040: 0274 3d37 5cde 5a36 c444 313a 02c1 1938
00000050: 2112 5f39 daef 8438 6154 ca39 dbfc 7c38
00000060: 7fe7 2139 cd5d 2437 c387 a139 c086 0338
00000070: f45a 1b37 d2d1 363a afbd eb39 1630 0939
00000080: 863e d137 30c5 ad39 9ed1 1439 e7eb 863a
00000090: d90d 2737 165e 0b36 8af7 1939 e013 4738
000000a0: ad08 8c39 4ea9 8138 7367 df39 7195 4339
000000b0: c971 443a 2339 1a3a 3cba 0937 12f7 7739
000000c0: be92 5338 9fe5 4139 6aee 0a39 5e96 6339
000000d0: ff05 2239 4212 7139 d19a 7d38 d18c 6a39
000000e0: ef8d 133a 78e7 8837 7163 dd38 6969 3e38
000000f0: 7932 cc39 238f 8a38 dea6 3b38 7a2d 9d36

exp_avg f4 [8, 64]
-0.0005156421 -0.001987969 0.0013087668 0.0016421867 0.00024753017 -0.0026551965 0.0004920969 -0.0020239633
-0.00021952228 0.0048119333 0.004861995 -0.0077173095 0.014724147 -0.0041411975 -0.0041692127 0.0066893026
0.0015527606 0.0038997647 0.0011832383 -0.0005643987 -0.008235462 0.0043020933 -0.000104932114 0.0026653053
-0.0041749505 -0.0033266852 0.006379797 -0.0046943063 0.002456958 0.019425884 -0.00025909313 -0.0023311058
0.0031577828 -0.0008966689 -0.0014023103 0.0018211463 -0.0045005125 0.00260006 0.004707188 0.0011204757
0.0006360117 0.001769376 -0.004327934 -0.0029300712 -0.0016645468 -1.3775192e-05 0.006447347 -0.009104763
-0.009248643 -0.012913479 -0.0040228413 0.010265114 0.013672768 0.009856448 -0.004550595 -0.0077428073
-0.008450001 0.00056849257 -0.0038267386 -0.0024715625 0.00094914157 0.0075423894 -0.0045346986 0.0034955014
-0.010282034 -0.003319675 -0.0013962671 0.0044933474 -0.0068874033 -0.012071694 0.006017275 -0.0029055383
-0.0078148125 0.014002749 0.01294325 -0.016004631 0.025365083 -0.011086656 -0.01061189 0.0083751455
0.013860088 0.0008470244 0.0049315942 -0.004469718 -0.01352878 0.013801823 0.0003461484 0.014733528
-0.0041615847 -0.01031247 0.012372855 -0.016759733 0.007858744 0.030421901 0.008064166 0.0006812634
0.010427097 -0.0061157024 0.0055116857 0.00513852 -0.013788922 0.010216476 -0.00018866826 0.0022478495
0.010614049 0.0056009274 -0.020875404 -0.0069322493 -1.5255995e-05 -0.0038175732 0.012246046 -0.021230847
-0.017430723 -0.028765768 -0.0201393 0.021284858 0.02575804 0.029087946 -0.0116727315 -0.026171604
-0.018006895 0.0047840476 -0.011792115 -0.0015182893 0.0016987957 0.01588922 -0.0049602115 0.011857552
-0.009194093 0.0014089867 -0.0037142572 0.00396576 -0.0061952937 -0.009064984 0.003976416 0.0015312284
-0.0068009337 0.008461166 0.006190746 -0.0077546523 0.011704756 -0.0042394605 -0.00849252 0.0010125986
0.012016625 -0.004113406 0.0069283117 -0.001969819 -0.005068487 0.008431409 -0.0011880454 0.011009661
0.0015053037 -0.004456021 0.0047167283 -0.013930856 0.003856576 0.013177458 0.0101725515 0.004938547
0.005378779 -0.0042919437 0.0061103175 0.006095338 -0.008003021 0.0062651187 -0.007829226 0.00048975134
0.009986615 0.0017879382 -0.015202744 -0.001195496 0.0035311878 -0.0075892927 0.0063033146 -0.013520532
-0.009449068 -0.014114406 -0.014701586 0.0129582565 0.013748483 0.0212955 -0.0060044257 -0.017633956
-0.010072983 0.0029860453 -0.0067237103 -0.0006533875 -0.0026787706 0.008275225 0.0013723588 0.0063729836
0.008573067 0.0060489513 0.0012636587 -0.004557329 0.007660574 0.011322919 -0.007992034 0.0052639954
0.006038388 -0.012330662 -0.014448565 0.016622841 -0.025972852 0.013530891 0.011170436 -0.009203295
-0.013503241 -0.0029190956 -0.0010519102 0.004119755 0.0135634765 -0.013462383 -0.0025024004 -0.012573421
0.0036757928 0.012984424 -0.013462244 0.016694529 -0.009744449 -0.031368226 -0.0065464294 -6.924383e-05
-0.011813497 0.005011527 -0.0052769543 -0.0023668436 0.013690192 -0.009803623 -0.0022999886 -0.002953032
-0.009079983 -0.0067964643 0.019314643 0.009497634 0.0020055333 -0.0006758496 -0.014237454 0.02205092
0.019171467 0.026942888 0.018383041 -0.023404812 -0.027927862 -0.028381892 0.012217546 0.024466477
0.01688563 -0.0030963544 0.010334134 0.0018838404 -0.0052720867 -0.01695105 0.0052881744 -0.013921985
00000000: 282c 07ba 9648 02bb ed8a ab3a a43e d73a
00000010: f0c6 8139 ce02 2ebb 1000 013a 78a4 04bb
00000020: 902f 66b9 6cad 9d3b 5f51 9f3b 7ce1 fcbb
00000030: 8c3d 713c e2b2 87bb e49d 88bb f031 db3b
00000040: 0086 cb3a 3293 7f3b e416 9b3a 28f4 13ba
00000050: 08ee 06bc 93f8 8c3b 000f dcb8 67ac 2e3b
00000060: 06ce 88bb 8404 5abb 9e0d d13b b2d2 99bb
00000070: ea04 213b 0823 9f3c e4d6 87b9 77c5 18bb
00000080: cef2 4e3b 6e0e 6bba bacd b7ba 88b3 ee3a
00000090: 0979 93bb c565 2a3b c13e 9a3b eddc 923a
000000a0: 06ba 263a 68ea e73a 57d1 8dbb 7006 40bb
000000b0: ec2c daba 001c 67b7 4444 d33b 252c 15bc
000000c0: 9f87 17bc 0e93 53bc 0ad2 83bb 022f 283c
000000d0: bf03 603c f07c 213c 281d 95bb 60b7 fdbb
000000e0: df71 0abc e406 153a 05ca 7abb f0f9 21bb
000000f0: d0cf 783a 2626 f73b cf97 94bb c814 653b
00000100: fa75 28bc e88e 59bb f302 b7ba ee3c 933b
00000110: baaf e1bb 5bc8 45bc 902c c53b d86a 3ebb
00000120: b309 00bc c96b 653c ed0f 543c 251c 83bc
00000130: 6fca cf3c cea4 35bc 7edd 2dbc e837 093c
00000140: 6c15 633c d80a 5e3a 3699 a13b b676 92bb
00000150: d1a7 5dbc 0b21 623c 407b b539 e564 713c
00000160: e75d 88bb a2f5 28bc 84b7 4a3c b54b 89bc
00000170: f6c1 003c 5a37 f93c 901f 043c d096 323a
00000180: 6ad6 2a3c 3b66 c8bb 5f9b b43b 0861 a83b
00000190: eeea 61bc 0263 273c 40d5 45b9 a850 133b
000001a0: 8ce6 2d3c fc87 b73b e502 abbc ec27 e3bb
000001b0: 00f4 7fb7 4030 7abb a4a3 483c 50ec adbc
000001c0: e0ca 8ebc 30a6 ebbc 2cfb a4bc 955d ae3c
000001d0: 8602 d33c d849 ee3c fc3e 3fbc d565 d6bc
000001e0: 3283 93bc 80c3 9c3b b733 41bc 5601 c7ba
000001f0: 20aa de3a 1c2a 823c 4589 a2bb 2e46 423c
00000200: d2a2 16bc c0ad b83a e56a 73bb 35f3 813b
00000210: e401 cbbb 4c85 14bc 984c 823b 80b3 c83a
00000220: 5eda debb b4a0 0a3c bedb ca3b bd1a febb
00000230: 4ec5 3f3c 2ceb 8abb 3624 0bbc 2cb9 843a
00000240: 61e1 443c c0c9 86bb e406 e33b 1418 01bb
00000250: 8d15 a6bb e423 0a3c 30b8 9bba dd61 343c
00000260: 9c4d c53a d003 92bb c98e 9a3b 3f3e 64bc
00000270: 9cbe 7c3b 44e6 573c c6aa 263c 89d3 a13b
00000280: 7840 b03b 6fa3 8cbb 0f39 c83b 67bb c73b
00000290: 1a1f 03bc a04b cd3b 2746 00bc a862 003a
000002a0: e69e 233c 4059 ea3a ee14 79bc 30b2 9cba
000002b0: 806b 673b 9aaf f8bb 098c ce3b 3985 5dbc
000002c0: 44d0 1abc 1c40 67bc ecde 70bc de4e 543c
000002d0: 5141 613c e773 ae3c c6c0 c4bb 1675 90bc
000002e0: 2709 25bc 87b1 433b 9252 dcbb 1848 2bba
000002f0: 508e 2fbb cf94 073c b8e0 b33a 76d4 d03b
00000300: 0d76 0c3c 4836 c63b 5aa1 a53a a655 95bb
00000310: 8d05 fb3b c483 393c 05f1 02bc 987d ac3b
00000320: abdd c53b 8c06 4abc adb9 6cbc a02c 883c
00000330: 05c5 d4bc acb0 5d3c 3404 373c 6bc9 16bc
00000340: b33c 5dbc 4c4e 3fbb 40e0 89ba 02ff 863b
00000350: 5839 5e3c 5491 5cbc 50ff 23bb c000 4ebc
00000360: 92e5 703b 9fbc 543c be90 5cbc f7c2 883c
00000370: 2ea7 1fbc f87b 00bd 6e83 d6bb 0037 91b8
00000380: 668d 41bc bc37 a43b 4dea acbb 0c1d 1bbb
00000390: d44c 603c 609f 20bc 68bb 16bb a887 41bb
000003a0: 36c4 14bc e0b4 debb be39 9e3c f79b 1b3c
000003b0: 446f 033b 802b 31ba 3644 69bc 22a4 b43c
000003c0: 7b0d 9d3c 55b7 dc3c 0898 963c 73bb bfbc
000003d0: f9c8 e4bc 2481 e8bc 1a2c 483c ec6d c83c
000003e0: bc53 8a3c 35ec 4abb 8050 293c 32eb f63a
000003f0: 78c1 acbb eedc 8abc 6c48 ad3b 0a19 64bc

exp_avg_sq f4 [8, 64]
8.804964e-06 7.533796e-05 2.39779e-07 4.4342905e-06 4.2704745e-05 4.4530756e-05 6.2353734e-05 4.8888705e-05
2.5437485e-05 6.533809e-06 9.4654686e-05 6.8356145e-05 9.169095e-05 0.00016435925 2.4897425e-05 2.0465504e-05
6.9554975e-05 1.0807783e-05 5.247871e-05 3.624978e-05 3.3173706e-05 7.08424e-05 2.2237153e-05 3.670643e-05
3.1365562e-06 0.00014405123 2.3878958e-05 7.116972e-05 9.8977645e-05 6.605375e-05 3.6687632e-06 7.412658e-06
9.058195e-05 8.2156413e-07 8.4924595e-06 2.325549e-05 8.3460414e-05 4.8299342e-05 2.3111892e-05 1.1682223e-05
2.7934936e-06 6.015967e-05 0.00010681277 0.000117098265 2.1392163e-05 8.145105e-05 9.6857795e-05 0.00014200745
0.00012810178 7.4321324e-05 0.000105474224 0.00015922256 0.00018791141 0.00015351143 6.316724e-05 0.00015351397
1.4434268e-05 7.1184064e-07 2.314508e-05 3.3935698e-06 0.000102944156 0.00011469117 1.374489e-05 0.00012462746
0.00026168706 0.0004876704 6.771065e-06 5.6804156e-06 0.0003402942 0.00043174066 0.00039393821 0.0003293631
0.00032931883 0.00023681634 0.000765643 0.00029824662 0.0005212389 0.0011136999 3.3687265e-05 9.59746e-05
0.0006033651 2.268465e-05 0.00024173093 0.0004157209 0.00021908146 0.0006452156 0.00011697339 0.00055712275
9.088978e-06 0.0009601978 0.00013869531 0.00041387414 0.0005227785 0.00029229178 3.5795405e-05 8.6386346e-05
0.0007047447 7.500175e-05 0.00013066435 0.00015139925 0.0007298666 0.00051850744 0.0001826219 8.5276624e-05
0.00015354056 0.000490615 0.0011057251 0.0007871411 9.90078e-05 0.00039299595 0.00048462153 0.0007403439
0.0006500675 0.0007836018 0.0010699959 0.00083061244 0.0010736191 0.00096981693 0.0005070833 0.0013119457
0.00018367975 7.94864e-05 0.00037990106 1.1016859e-05 0.00062974804 0.00066173973 0.0001762285 0.0008585052
0.00019949015 0.0002691575 4.2340343e-06 3.6158333e-06 0.00018927158 0.00028464315 0.00020242778 0.00017778995
0.00022630948 0.00019129548 0.00045691355 0.00016235549 0.00031786863 0.0006278881 1.2294048e-05 6.451767e-05
0.00035254305 6.9331327e-06 0.000101437836 0.0002707958 0.00014906938 0.00040101723 5.6168046e-05 0.00037109663
7.4978107e-06 0.00055094453 8.320091e-05 0.0002463147 0.00027113134 0.00016250012 3.180746e-05 6.90084e-05
0.00042339598 6.460827e-05 7.382985e-05 7.4366864e-05 0.0004401066 0.00033534103 0.00011995564 4.2210137e-05
0.00012747686 0.00029608217 0.0006497711 0.00044688187 4.2963708e-05 0.00017387433 0.00028261536 0.00041396273
0.00036571326 0.00045847934 0.0006311509 0.00045653788 0.00059812126 0.0005390102 0.00031405993 0.0007484752
0.00012673116 8.319523e-05 0.00026944536 8.874201e-06 0.00033168565 0.00038146775 0.00012527629 0.000492777
0.00011792602 0.0003879657 2.3028483e-06 1.1029317e-05 0.00023549097 0.00033564732 0.00030191694 0.00025337585
0.00022223766 0.000104035105 0.00054673885 0.0002838973 0.00049161597 0.0008771622 6.8363224e-05 9.8864475e-05
0.0004101534 2.9752118e-05 0.00022469378 0.00028013365 0.0001919164 0.00047704796 9.974728e-05 0.00033306744
9.5633595e-06 0.00077060284 0.000106563035 0.0004042665 0.00046036052 0.00029392852 2.7295311e-05 6.792393e-05
0.0005348937 1.3595712e-05 5.2079693e-05 0.00012130337 0.0005286454 0.00034546127 0.00015123177 5.600286e-05
5.130412e-05 0.00036425045 0.0007129638 0.00062102295 9.389202e-05 0.00035943722 0.000513601 0.00073536765
0.00067033427 0.00048344734 0.0007068226 0.0008291339 0.0010051435 0.0008524528 0.00037178412 0.00095792353
9.363815e-05 2.240762e-05 0.00022559059 8.2217675e-06 0.0005150594 0.0006120845 0.000106947526 0.0006621121
00000000: 08b9 1337 c2fe 9d38 faba 8034 44ca 9436
00000010: df1d 3338 89c6 3a38 e8c3 8238 d90d 4d38
00000020: 9562 d537 fe3c db36 5981 c638 6d5a 8f38
00000030: 344a c038 da57 2c39 d0da d037 56ad ab37
00000040: 0bde 9138 1353 3537 961c 5c38 e80a 1838
00000050: ff23 0b38 3991 9438 ec89 ba37 3bf5 1938
00000060: a07d 5236 750c 1739 ac4f c837 f440 9538
00000070: 3892 cf38 5686 8a38 df34 7636 3fba f836
00000080: d0f6 bd38 7589 5c35 d67a 0e37 c914 c337
00000090: 7807 af38 0695 4a38 69e0 c137 c4fe 4337
000000a0: db77 3b36 f453 7c38 ab00 e038 a792 f538
000000b0: 5273 b337 b3d0 aa38 2220 cb38 d6e7 1439
000000c0: 0f53 0639 f5dc 9b38 0b32 dd38 fbf4 2639
000000d0: 160a 4539 e9f7 2039 a778 8438 98f8 2039
000000e0: b62a 7237 5115 3f35 ae27 c237 16bd 6336
000000f0: b9e3 d738 5a86 f038 da99 6637 6eae 0239
00000100: 0b33 8939 03ae ff39 0133 e336 669a be36
00000110: 8469 b239 405b e239 7e89 ce39 5eae ac39
00000120: 6da8 ac39 e751 7839 6fb5 483a fc5d 9c39
00000130: c0a3 083a 91f9 913a 6d4b 0d38 f945 c938
00000140: 252b 1e3a ea4a be37 2779 7d39 1df5 d939
00000150: 3bb9 6539 b023 293a 9c4f f538 e00b 123a
00000160: dd7c 1837 c9b5 7b3a bd6e 1139 3ffd d839
00000170: 120b 093a bd3e 9939 0623 1638 512a b538
00000180: 9ebe 383a 424a 9d38 f202 0939 edc0 1e39
00000190: 8554 3f3a 72ec 073a 317e 3f39 8ad6 b238
000001a0: bbff 2039 9e9c 003a faed 903a 2558 4e3a
000001b0: 68a2 cf38 060b ce39 cd14 fe39 a313 423a
000001c0: 4b69 2a3a a06a 4d3a 1b3f 8c3a 75bd 593a
000001d0: aeb8 8c3a 503b 7e3a c9ed 043a 98f5 ab3a
000001e0: 289a 4039 f0b1 a638 752d c739 0dd5 3837
000001f0: ad15 253a 9a78 2d3a fac9 3839 4f0d 613a
00000200: 3b2e 5139 b51d 8d39 1412 8e36 8ba7 7236
00000210: 3477 4639 283c 9539 cb42 5439 206d 3a39
00000220: 7d4d 6d39 7d96 4839 e68d ef39 f83d 2a39
00000230: 9ba7 a639 db98 243a 8942 4e37 a94d 8738
00000240: 87d5 b839 28a3 e836 06bb d438 99f9 8d39
00000250: 824f 1c39 9f3f d239 fb95 6b38 bf8f c239
00000260: b495 fb36 436d 103a 267c ae38 cd23 8139
00000270: a226 8e39 cb64 2a39 0069 0538 9ab8 9038
00000280: 3ffb dd39 4d7e 8738 19d5 9a38 68f5 9b38
00000290: 1cbe e639 b6d0 af39 b290 fb38 ca0a 3138
000002a0: 4fab 0539 7a3b 9b39 6655 2a3a 784b ea39
000002b0: ee33 3438 0952 3639 fe2b 9439 2309 d939
000002c0: 34bd bf39 0e60 f039 d273 253a 7a5b ef39
000002d0: 3dcb 1c3a 5d4c 0d3a 69a8 a439 5235 443a
000002e0: 23e3 0439 1979 ae38 5844 8d39 67e2 1437
000002f0: 18e6 ad39 bcff c739 995c 0339 b42d 013a
00000300: 0d4f f738 e067 cb39 a28a 1a36 8e0a 3937
00000310: 20ee 7639 d2f9 af39 9b4a 9e39 88d7 8439
00000320: 7808 6939 6c2d da38 0653 0f3a 0dd8 9439
00000330: cadf 003a 5cf1 653a 3a5e 8f38 7655 cf38
00000340: dc09 d739 3094 f937 c79b 6b39 e7de 9239
00000350: 2b3d 4939 4b1c fa39 6a2f d138 8e9f ae39
00000360: 5172 2037 4802 4a3a 987a df38 bbf3 d339
00000370: 8b5c f139 6b1a 9a39 3cf8 e437 6272 8e38
00000380: 1c38 0c3a 2319 6437 2570 5a38 4064 fe38
00000390: cb94 0a3a 071f b539 f893 1e39 9de4 6a38
000003a0: 612f 5738 def8 be39 31e6 3a3a 25cc 223a
000003b0: e5e7 c438 d972 bc39 2ea3 063a b0c5 403a
000003c0: 5fb9 2f3a 3477 fd39 104a 393a 3c5a 593a
000003d0: 05bf 833a 2477 5f3a 05ec c239 291d 7b3a
000003e0: 995f c438 fff7 bb37 838c 6c39 39f0 0937
000003f0: 0d05 073a 4c74 203a 0449 e038 9791 2d3a

exp_avg f4 [8]
0.0063099153 0.01586496 0.005012203 -0.02132857 -0.0020672348 0.005919198 -0.014547774 -0.016847238
00000000: 68c3 ce3b 3cf7 813c 683d a43b 41b9 aebc
00000010: 727a 07bb d5f5 c13b c959 6ebc 3803 8abc

exp_avg_sq f4 [8]
0.00044596606 0.002599007 0.0013690612 0.0021049718 0.000107914 3.9394534e-05 0.00020458722 0.00027664626
00000000: 8dd0 e939 1a54 2a3b 1272 b33a 91f3 093b
00000010: e34f e238 8f3b 2538 7786 5639 d50a 9139

exp_avg f4 [2, 8]
-0.005450556 -0.027847031 -0.022466633 0.010537195 0.010671518 0.007868514 0.0058662277 0.019914562
0.005450554 0.027847033 0.022466637 -0.010537189 -0.010671515 -0.007868511 -0.0058662184 -0.019914571
00000000: 949a b2bb 751f e4bc f20b b8bc 33a4 2c3c
00000010: 97d7 2e3c f1ea 003c 7c39 c03b dd23 a33c
00000020: 909a b23b 761f e43c f40b b83c 2da4 2cbc
00000030: 94d7 2ebc edea 00bc 6839 c0bb e223 a3bc

exp_avg_sq f4 [2, 8]
0.0021473665 0.0013694698 0.00050929625 0.00046980308 0.00019298047 0.00013607323 0.0014122324 0.002561744
0.0021473663 0.0013694698 0.00050929625 0.0004698031 0.00019298049 0.00013607323 0.0014122325 0.002561744
00000000: d5ba 0c3b c87f b33a 4b82 053a e74f f639
00000010: cd5a 4a39 e1ae 0e39 a81a b93a efe2 273b
00000020: d4ba 0c3b c87f b33a 4b82 053a e84f f639
00000030: ce5a 4a39 e1ae 0e39 a91a b93a efe2 273b

exp_avg f4 [2]
-0.0027757008 0.0027757008
00000000: 88e8 35bb 88e8 353b

exp_avg_sq f4 [2]
0.0002545463 0.0002545463
00000000: a074 8539 a074 8539

model.1.defunc.m.0.weight f4 [64, 8]
0.4402672 0.28976724 -0.018208658 -0.5282733 0.25608945 -0.30969265 0.10588345 -0.103002235
0.18653265 -0.32071537 0.013741175 0.16706154 -0.03479288 0.016357515 0.06291943 0.14998333
-0.041096296 0.24377921 -0.016229432 0.04790339 0.28454772 0.18906769 0.19562389 -0.21539508
-0.20227979 0.12581702 -0.29260847 0.36916098 0.29055214 -0.47859713 -0.15610255 0.20207708
0.07441096 -0.05979536 -0.100051545 0.1739217 0.14418525 -0.19636971 0.1924696 -0.0408736
0.26755738 0.61246526 0.21061793 -0.12126556 -0.038080662 -0.1082386 0.37890387 0.19844045
0.0014471815 0.18990745 -0.14396088 -0.3057597 -0.43623558 0.05724919 -0.125807 0.04755806
0.02967197 -0.08148638 0.09327454 0.5534159 0.33688068 -0.12584698 -0.06923753 0.1572375
-0.2527283 0.3741995 -0.21369298 -0.2889772 0.2777258 -0.25197855 0.31700042 0.264951
-0.49350566 -0.2911863 -0.1284373 0.64252114 -0.33125192 0.15301444 0.19228458 -0.0350659
-0.27830842 -0.29117054 -0.20451485 -0.3875039 -0.2858962 0.1620402 0.1086087 -0.09132371
0.38580418 0.12537152 -0.0048751812 -0.28059784 -0.25310892 0.52877796 -0.09290616 -0.21188548
-0.3499433 -0.54713994 -0.22811013 0.07053725 0.2469661 -0.47097176 0.21018432 -0.35742056
0.09188648 -0.12320768 0.023242291 -0.03592472 0.14538097 0.003924759 0.18191454 0.21094322
-0.14900784 0.17753504 0.6118167 -0.0037975786 -0.17725614 0.38095087 0.05450222 -0.19685169
-0.35397464 -0.12245199 0.099113114 0.10423341 0.1509591 -0.42397317 0.12399999 -0.069374874
-0.0829137 0.18875526 -0.1974042 0.3478499 0.41281033 0.3220619 -0.3014373 0.017213931
-0.19167967 0.37121972 -0.24137123 -0.35820624 0.15136266 -0.13530956 0.2423243 -0.10547284
0.018611351 -0.50500876 -0.118159056 0.3800322 -0.024882022 -0.07232939 0.123485595 0.17438498
0.27150285 -0.14853334 -0.15755159 0.31036222 -0.021326523 -0.25827378 0.20189218 0.3219321
0.2750981 0.48282498 -0.032629795 -0.088828124 -0.19533911 0.2676131 -0.18076065 0.14201649
-0.26556903 -0.34489387 -0.55691856 -0.27885732 -0.18250665 0.23604687 -0.13264401 -0.31266356
-0.28965408 0.38266394 -0.09199766 -0.38260767 -0.05635595 -0.048600532 -0.09801199 0.004818426
-0.49760163 -0.20035982 -0.1650344 0.65626544 -0.32284337 0.38739428 -0.190252 -0.13575153
0.44602558 0.1599483 -0.3294923 -0.07912018 0.053277254 -0.035288688 -0.39739922 0.00012820004
0.35948563 -0.10743483 -0.15478618 -0.23814605 0.09710471 0.21566355 0.31549695 0.06698785
-0.508101 0.08845027 0.32261446 0.45422184 -0.35595843 -0.5605909 0.10422183 0.24639
-0.24028426 0.42369378 0.57345766 -0.2614271 -0.2193896 0.12674549 0.5585068 0.1668572
-0.058443982 0.18692872 -0.12487804 -0.013745969 0.23922256 -0.042269092 -0.15163186 -0.0613731
0.015696786 -0.46660393 0.007385772 0.20035402 0.18469284 -0.36465752 0.5005928 -0.35218355
-0.27904013 -0.1853568 -0.35984153 0.03508724 0.36203492 -0.06184717 -0.2320934 0.22506474
0.010803885 -0.029153533 -0.18877526 0.0033692103 0.068326086 0.075853355 -0.011994503 0.37071228
00000000: b46a e13e 5f5c 943e 532a 95bc eb3c 07bf
00000010: 281e 833e 0990 9ebe 6cd9 d83d d6f2 d2bd
00000020: 6a02 3f3e ce34 a4be aa22 613c 2e12 2b3e
00000030: fb82 0ebd 3200 863c e7db 803d 3b95 193e
00000040: 9754 28bd 42a1 793e 96f3 84bc 5836 443d
00000050: 3db0 913e f69a 413e a151 483e 8790 5cbe
00000060: 6f22 4fbe 2dd6 003e c7d0 95be ab02 bd3e
00000070: 40c3 943e af0a f5be 59d9 1fbe 4bed 4e3e
00000080: c664 983d fbeb 74bd d3e7 ccbd 8818 323e
00000090: 4ca5 133e 2415 49be c016 453e 136b 27bd
000000a0: 48fd 883e 86ca 1c3f 3aac 573e 145a f8bd
000000b0: 78fa 1bbd 33ac ddbd b0ff c13e f933 4b3e
000000c0: 5aaf bd3a 1977 423e 7b6a 13be 898c 9cbe
000000d0: 455a dfbe 207e 6a3d 8dd3 00be 3ecc 423d
000000e0: a212 f33c 55e2 a6bd b906 bf3d aaac 0d3f
000000f0: a07b ac3e 08de 00be 68cc 8dbd de02 213e
00000100: 9b65 81be 1497 bf3e 55d2 5abe d2f4 93be
00000110: 1332 8e3e 5503 81be e14d a23e a8a7 873e
00000120: c6ac fcbe 5f16 95be 1185 03be 447c 243f
00000130: da99 a9be d1af 1c3e 40e6 443e 43a1 0fbd
00000140: 717e 8ebe 4e14 95be 576c 51be e966 c6be
00000150: fd60 92be deed 253e 3d6e de3d ed07 bbbd
00000160: 2088 c53e 6461 003e fcbf 9fbb 85aa 8fbe
00000170: 7e97 81be fe5d 073f 9645 bebd 82f8 58be
00000180: c52b b3be 5d11 0cbf b495 69be d575 903d
00000190: aee4 7c3e 3623 f1be 8f3a 573e d4ff b6be
000001a0: fb2e bc3d 4f54 fcbd 9e66 be3c cd25 13bd
000001b0: c0de 143e 449b 803b ce47 3a3e 8001 583e
000001c0: 8395 18be bfcb 353e 05a0 1c3f cce0 78bb
000001d0: a282 35be fe0b c33e b83d 5f3d 7d93 49be
000001e0: 2a3c b5be 1cc8 fabd d1fb ca3d 5378 d53d
000001f0: 0695 1a3e 0313 d9be b5f3 fd3d 6a14 8ebd
00000200: a8ce a9bd 0f49 413e 5424 4abe 6219 b23e
00000210: e05b d33e 4ce5 a43e fd55 9abe 3b04 8d3c
00000220: ad47 44be 8310 be3e 052a 77be cf66 b7be
00000230: d0fe 1a3e 978e 0abe dc23 783e 2502 d8bd
00000240: d576 983c 4148 01bf 60fd f1bd 9593 c23e
00000250: 62d5 cbbc 6e21 94bd 04e6 fc3d fa91 323e
00000260: 6c02 8b3e 2019 18be 3455 21be cce7 9e3e
00000270: f6b4 aebc 763c 84be d3bc 4e3e 49d4 a43e
00000280: a8d9 8c3e d634 f73e d2a6 05bd 85eb b5bd
00000290: fa06 48be 9604 893e 5219 39be c56c 113e
000002a0: aaf8 87be ee95 b0be 3792 0ebf 63c6 8ebe
000002b0: 06e3 3abe 45b6 713e d5d3 07be 7015 a0be
000002c0: 8a4d 94be 87ec c33e 4569 bcbd 27e5 c3be
000002d0: 7fd5 66bd 5a11 47bd 83ba c8bd e3e3 9d3b
000002e0: a4c5 febe 202b 4dbe c7fe 28be 0301 283f
000002f0: ba4b a5be 8b58 c63e 6cd1 42be 7302 0bbe
00000300: 775d e43e 7dc9 233e 37b3 a8be c309 a2bd
00000310: 4039 5a3d df8a 10bd e977 cbbe 706d 0639
00000320: 800e b83e cb06 dcbd 4580 1ebe 8fdc 73be
00000330: d6de c63d e8d6 5c3e d188 a13e ed30 893d
00000340: e812 02bf 6a25 b53d b92d a53e c48f e83e
00000350: 2f40 b6be e382 0fbf 4172 d53d a94d 7c3e
00000360: 140d 76be 64ee d83e 1fce 123f c6d9 85be
00000370: aba7 60be 92c9 013e 4dfa 0e3f 9ddc 2a3e
00000380: f562 6fbd 3e6a 3f3e 0fc0 ffbd c636 61bc
00000390: c2f6 743e 5b22 2dbd 6245 1bbe 5c62 7bbd
000003a0: 8c96 803c b6e6 eebe 5904 f23b 9b29 4d3e
000003b0: 1f20 3d3e 64b4 babe da26 003f 6751 b4be
000003c0: 59de 8ebe 2cce 3dbe 263d b8be a3b7 0f3d
000003d0: a45c b93e 7553 7dbd e4a9 6dbe 5f77 663e
000003e0: c702 313c 64d3 eebc 4d4e 41be f8cd 5c3b
000003f0: 8cee 8b3d 0159 9b3d 9884 44bc 00ce bd3e

model.1.defunc.m.0.bias f4 [64]
0.11994916 -0.33811638 0.05661496 -0.012023117 -0.2502495 0.12178712 0.3757742 -0.32395008
0.12780221 -0.13889994 0.33969438 -0.36081308 0.19225243 -0.46200457 -0.27498975 0.04424725
0.3081189 0.27454618 -0.3926895 0.014003114 -0.06786362 0.08978224 0.20682313 -0.08265583
0.004054981 -0.3073913 0.14447027 -0.07529788 0.41194853 0.36690494 -0.07071971 0.122019544
0.19850409 -0.009856958 0.25505805 -0.183276 -0.22263438 0.07376691 0.026595987 0.27071422
-0.06681469 0.177041 -0.33231455 -0.38600525 -0.25524515 0.4853695 0.05895958 -0.26923618
-0.19271994 -0.5078293 -0.26431942 0.26589587 0.2682126 0.3221318 -0.23472486 -0.2793132
-0.22893988 -0.29303423 0.07772713 0.05263358 0.41194987 0.2452364 -0.07968421 0.38070247
00000000: e8a7 f53d 971d adbe 17e5 673d 9cfc 44bc
00000010: b420 80be 876b f93d 7a65 c03e c9dc a5be
00000020: 95de 023e c93b 0ebe 6cec ad3e 7ebc b8be
00000030: d2dd 443e dd8b ecbe 75cb 8cbe 9b3c 353d
00000040: c3c1 9d3e 5191 8c3e 990e c9be 516d 653c
00000050: 15fc 8abd c0df b73d 71c9 533e 7647 a9bd
00000060: a5df 843b 6462 9dbe 04f0 133e c635 9abd
00000070: ebea d23e f7da bb3e 7fd5 90bd 62e5 f93d
00000080: a844 4b3e 147f 21bc f896 823e b4ac 3bbe
00000090: 44fa 63be 1b13 973d d4df d93c 0e9b 8a3e
000000a0: 24d6 88bd 3c4a 353e 2225 aabe 7ba2 c5be
000000b0: 7eaf 82be 5a82 f83e 9a7f 713d 53d9 89be
000000c0: 6058 45be 1a01 02bf e054 87be 8123 883e
000000d0: 2953 893e 76ee a43e b75b 70be 2402 8fbe
000000e0: 376f 6abe 9508 96be 672f 9f3d 4f96 573d
000000f0: 18eb d23e 401f 7b3e 7a31 a3bd 6feb c23e

model.1.defunc.m.2.weight f4 [8, 64]
0.0016538473 0.1968435 -0.31719756 0.2529984 0.16339807 -0.11318592 0.053258564 0.0045242663
-0.17834848 -0.26609692 -0.10962375 0.038806092 -0.044960815 -0.02980493 0.06187429 -0.06036528
-0.23822466 -0.15497743 -0.124429636 0.056766592 0.1441824 -0.1965579 0.02506201 -0.05651514
0.30014962 0.11726157 -0.1122658 -0.1464777 -0.17249057 -0.2410768 0.041348986 0.00015963835
-0.034384977 0.1698469 -0.16128695 -0.021228798 0.035645224 0.0054735113 -0.22798477 -0.14500687
-0.0756396 -0.07667352 0.24103837 -0.06827492 0.13678984 0.08734995 0.23923327 0.11725061
0.10917904 0.2124143 0.2950818 -0.09348314 -0.1460016 -0.047538295 0.22215864 0.29647574
0.38455856 -0.057557974 0.3168402 -0.16576724 0.052794673 -0.15498912 0.32133383 -0.111605756
0.21998084 -0.20089824 0.18543334 -0.30003 0.013419303 0.19990163 0.050485887 -0.21164948
0.06735977 -0.106773265 -0.015330503 0.17428741 -0.20699498 -0.11709162 0.22780114 -0.21127602
0.06491438 2.3815985e-05 -0.23952116 -0.13687836 0.10214363 -0.054790553 0.19434348 -0.046831656
0.026448477 -0.017431235 -0.29553744 0.2074251 -0.10491582 -0.33360553 -0.30004314 -0.0056828693
-0.001831016 -0.018594772 -0.031525243 -0.21377969 0.07183809 -0.030659545 0.06085113 0.04970385
-0.12928078 0.07574062 0.24306452 -0.14138795 -0.20066538 0.12418686 -0.21147594 0.31026605
0.19324464 0.18039314 0.07328985 -0.3235135 -0.21097444 -0.24249157 0.15625615 0.27776423
0.06958929 0.0728667 0.07442853 0.18912745 0.23754533 -0.17704429 0.0044600395 0.0011188051
0.068856776 -0.11497208 0.07698091 -0.25470826 -0.0692036 0.15426435 0.059965488 -0.19741222
0.07089423 -0.12787053 0.113895245 0.095777035 -0.18594956 0.005932375 0.09090296 0.012255844
-0.13878945 0.1349533 -0.15874003 -0.020964198 0.12049525 -0.031864822 0.14310049 -0.105785154
-0.17540352 -0.05875383 -0.06363981 0.20944947 0.067281514 -0.07853843 -0.2276143 -0.12085207
0.059613742 0.1075041 -0.0062001524 -0.252505 -0.11621675 0.015663082 0.16511188 0.04546707
-0.14381976 0.050308626 0.22006701 -0.08850195 -0.21953908 0.20920156 -0.16170272 0.23587258
0.089490995 0.07879678 0.23418897 -0.17308444 -0.2528223 -0.25899234 -0.046834238 0.16231944
0.1514164 -0.09177752 -0.06898979 -0.015337397 0.20846435 -0.05782609 -0.10762043 0.0018660985
-0.009388042 -0.034685332 0.1317656 -0.19653393 0.042105585 -0.075937286 0.09029744 -0.063635245
0.101797484 0.21966958 0.044597764 -0.16345775 0.09953838 0.08385314 -0.12585257 -0.13864006
0.029955 0.019014275 0.08718802 -0.12211455 -0.10603913 0.15162934 -0.098727494 0.11205162
-0.23503037 0.045695063 -0.08591914 0.13095328 -0.09670182 0.22413523 0.009742255 0.17530207
-0.050405618 -0.26326457 0.20192686 0.1684887 -0.1445018 0.045585398 -0.1376562 0.21704352
0.09097383 -0.027732775 -0.30335876 0.060105316 0.16810113 -0.12970386 -0.17462365 -0.01781756
0.10576241 -0.19917376 -0.08132585 0.09268657 0.12470299 0.2307019 -0.054051183 -0.21770306
-0.2627547 0.072410025 -0.15115686 0.26834467 0.024301013 0.018840991 -0.11363289 0.08070235
00000000: e8c5 d83a 5891 493e b867 a2be 0289 813e
00000010: d351 273e 05ce e7bd a725 5a3d 4c40 943b
00000020: fca0 36be db3d 88be 6b82 e0bd 23f3 1e3d
00000030: d528 38bd 7829 f4bc e56f 7d3d 9541 77bd
00000040: 2af1 73be 67b2 1ebe f7d4 febd 1684 683d
00000050: 8da4 133e 7946 49be d84e cd3c 6b7c 67bd
00000060: 36ad 993e d626 f03d 9deb e5bd 40fe 15be
00000070: 5ea1 30be d6dc 76be 8e5d 293d 9864 2739
00000080: 43d7 0cbd 59ec 2d3e 6828 25be 04e8 adbc
00000090: ba00 123d 245b b33b d774 69be ae7c 14be
000000a0: efe8 9abd 0207 9dbd c3d2 763e b9d3 8bbd
000000b0: a312 0c3e 88e4 b23d 91f9 743e 1621 f03d
000000c0: 4399 df3d 2283 593e f614 973e 1774 bfbd
000000d0: 7281 15be 84b7 42bd 8e7d 633e abcb 973e
000000e0: dce4 c43e e9c1 6bbd e138 a23e e3be 29be
000000f0: 3a3f 583d 78b5 1ebe de85 a43e 8f91 e4bd
00000100: a842 613e 45b8 4dbe 3de2 3d3e 889d 99be
00000110: a3dc 5b3c 03b3 4c3e 4aca 4e3d a4ba 58be
00000120: ebf3 893d f1ab dabd ca2c 7bbc 6678 323e
00000130: 7ef6 53be bbcd efbd b444 693e be58 58be
00000140: d5f1 843d 70c8 c737 0945 75be d729 0cbe
00000150: ae30 d13d 0f6c 60bd fa01 473e 8dd2 3fbd
00000160: 7aaa d83c f3cb 8ebc af50 97be 3f67 543e
00000170: 1bde d6bd 58ce aabe 419f 99be 5d37 babb
00000180: b4fe efba 1054 98bc 9d20 01bd 10e9 5abe
00000190: d91f 933d ba29 fbbc 093f 793d 4496 4b3d
000001a0: 2e62 04be e61d 9b3d e8e5 783e 01c8 10be
000001b0: 3a7b 4dbe ae55 fe3d 268d 58be 31db 9e3e
000001c0: ece1 453e fbb8 383e fd18 963d 90a3 a5be
000001d0: af09 58be b64f 78be 9d01 203e 1d37 8e3e
000001e0: d484 8e3d 233b 953d fc6d 983d a0aa 413e
000001f0: 153f 733e 194b 35be 8625 923b dfa4 923a
00000200: c804 8d3d 7b76 ebbd 2ba8 9d3d 1f69 82be
00000210: 9eba 8dbd 79f7 1d3e 5f9e 753d 6e26 4abe
00000220: fe30 913d 7ef0 02be e941 e93d c026 c43d
00000230: 9069 3ebe 5e64 c23b 552b ba3d bccc 483c
00000240: d21e 0ebe 3331 0a3e bf8c 22be 1cbd abbc
00000250: 37c6 f63d b084 02bd ef88 123e e3a5 d8bd
00000260: fb9c 33be dba7 70bd 9755 82bd ec79 563e
00000270: e4ca 893d c2d8 a0bd b913 69be 4a81 f7bd
00000280: 8a2d 743d 1c2b dc3d a62a cbbb 5648 81be
00000290: 0c03 eebd dd4f 803c 1713 293e ae3b 3a3d
000002a0: 7d45 13be 6b10 4e3d 3f59 613e 8340 b5bd
000002b0: dace 60be ef38 563e 6695 25be 9588 713e
000002c0: 0e47 b73d 3560 a13d 3ccf 6f3e 0c3d 31be
000002d0: ed71 81be a59a 84be 42d5 3fbd 1137 263e
000002e0: e70c 1b3e daf5 bbbd 854a 8dbd b549 7bbc
000002f0: ae77 553e 0ddb 6cbd 1a68 dcbd e097 f43a
00000300: 4dd0 19bc 3512 0ebd 90ed 063e 3140 49be
00000310: e876 2c3d 0285 9bbd dded b83d 3253 82bd
00000320: 337b d03d 10f1 603e 25ac 363d 7861 27be
00000330: c7da cb3d 32bb ab3d 7fdf 00be a9f7 0dbe
00000340: 3064 f53c d3c3 9b3c a28f b23d 3117 fabd
00000350: 0b2b d9bd b944 1b3e a431 cabd 527b e53d
00000360: cdab 70be bf2a 3b3d 60f6 afbd 9e18 063e
00000370: 9b0b c6bd b583 653e fb9d 1f3c 6382 333e
00000380: 1f76 4ebd 9dca 86be eac5 4e3e 4d88 2c3e
00000390: 48f8 13be c1b7 3a3d bff5 0cbe a840 5e3e
000003a0: 7d50 ba3d d82f e3bc d751 9bbe fe30 763d
000003b0: b422 2c3e 17d1 04be 8bd0 32be 22f6 91bc
000003c0: f699 d83d 35f4 4bbe 2b8e a6bd 75d2 bd3d
000003d0: 4864 ff3d 1e3d 6c3e c664 5dbd 8ded 5ebe
000003e0: c987 86be b54b 943d ddc8 1abe 7964 893e
000003f0: eb12 c73c 6c58 9a3c 5cb8 e8bd 4647 a53d

model.1.defunc.m.2.bias f4 [8]
-0.13204215 0.13211615 0.17909493 -0.13701305 -0.041800603 -0.027990595 -0.06979043 -0.16766517
00000000: 0f36 07be 7549 073e a964 373e 264d 0cbe
00000010: 1c37 2bbd 884c e5bc 49ee 8ebd 6bb0 2bbe

model.2.weight f4 [2, 8]
0.17930982 0.5376888 0.50790334 -0.2696336 -0.339856 -0.30284408 -0.3304507 -0.42855582
0.06029922 -0.2368939 -0.46879965 -0.0155182835 0.17986947 -0.035993148 0.32830063 0.12636851
00000000: fe9c 373e f9a5 093f f405 023f 6a0d 8abe
00000010: 9b01 aebe 610e 9bbe d630 a9be ab6b dbbe
00000020: 51fc 763d 5194 72be 8206 f0be 6640 7ebc
00000030: b42f 383e 8d6d 13bd 0517 a83e bf66 013e

model.2.bias f4 [2]
0.012456202 -0.040619228
00000000: 1915 4c3c 5960 26bd
