lightning_logs/version_9/checkpoints/epoch=199-step=199.ckpt (torch, 19857 bytes, 18 tensors)

exp_avg f4 [64, 8]
6.022819e-06 3.990125e-06 -6.4845635e-06 6.5750814e-06 -5.1663246e-06 2.7254455e-06 -2.7566844e-06 1.45794365e-05
7.4316586e-07 2.6373743e-06 -1.7924641e-06 1.2107126e-06 -2.7266958e-06 6.799303e-06 -3.3638716e-07 -2.0133712e-06
-5.4783677e-06 -2.2146796e-05 1.3444507e-05 -1.4848578e-05 1.6308415e-05 -4.913433e-06 4.570508e-06 1.0237129e-06
-9.739046e-06 -8.238866e-06 1.1065217e-05 -7.963906e-06 1.2362967e-05 -1.532888e-05 5.6078566e-06 3.5051676e-06
-2.2589593e-06 -5.0693343e-06 3.5770117e-06 -4.1739e-06 3.8810513e-06 -1.0490265e-06 -4.1080517e-07 7.636084e-08
-1.15258814e-07 1.5990076e-05 -6.195388e-06 8.580767e-06 -8.667909e-06 2.3694831e-06 7.0221467e-06 -6.8418576e-06
-1.3214769e-06 -7.863161e-06 4.8242746e-06 -3.2848804e-06 7.1669165e-06 -1.3635456e-05 -7.278414e-07 5.9426848e-06
-2.3994824e-07 9.9583585e-06 -4.130112e-06 5.596849e-06 -5.4523366e-06 -1.105862e-06 -5.6590494e-08 2.9106488e-06
5.1613465e-06 6.9086404e-06 -6.40643e-06 6.7572155e-06 -6.7094243e-06 7.796905e-06 -2.4519202e-06 3.3199717e-06
9.3748315e-07 1.1641678e-06 -1.2050874e-06 8.3555716e-07 -1.473518e-06 2.943122e-06 4.694312e-07 -1.136943e-06
2.1646977e-06 8.9371815e-07 -1.9706945e-06 1.7272014e-06 -1.733089e-06 2.7325466e-08 -7.345742e-07 2.5059753e-06
8.065795e-07 -5.7107754e-06 2.109718e-06 -2.505671e-06 3.2054725e-06 -9.592988e-06 -3.3070928e-06 -3.5909352e-06
4.1703764e-08 1.2493595e-06 -3.8190376e-07 5.6966485e-07 -6.3190805e-07 2.1287187e-06 4.534355e-06 -3.056641e-06
7.250632e-06 6.0131642e-06 -8.2433135e-06 8.7643e-06 -6.725476e-06 3.286058e-07 -2.37536e-06 2.1063983e-05
5.951505e-06 2.2012646e-06 -5.8794194e-06 3.758117e-06 -6.072649e-06 7.133385e-06 -1.0102808e-05 5.588403e-06
2.9401704e-06 1.0367705e-05 -6.5610643e-06 6.6348416e-06 -8.329332e-06 1.15439725e-05 -2.766477e-06 6.906251e-07
-9.018269e-06 -6.5145373e-06 9.428199e-06 -8.21958e-06 9.239474e-06 -6.223549e-06 4.8844304e-06 -2.8689237e-06
6.1445962e-06 6.6984585e-06 -7.5551498e-06 5.407006e-06 -8.964904e-06 1.102673e-05 -2.4495375e-06 -3.5771995e-06
-9.5689416e-08 -1.3467979e-05 5.5344412e-06 -6.664109e-06 8.07162e-06 -5.9759727e-06 -5.998162e-06 7.753196e-06
7.1045733e-06 -1.7197856e-06 -5.3511294e-06 1.8190783e-06 -5.0908698e-06 8.9295145e-06 -9.929837e-06 -5.1080498e-08
1.2270357e-06 -6.994403e-06 1.975191e-06 -2.78063e-06 3.2197338e-06 -8.499126e-06 -1.8394558e-05 4.323869e-06
3.5588444e-06 1.7819439e-05 -9.1665925e-06 1.1839813e-05 -1.1132723e-05 8.2319075e-06 7.685772e-06 -3.2022951e-06
-8.3507877e-07 -9.111798e-06 4.6913024e-06 -5.2083415e-06 6.0909324e-06 -4.387886e-06 -9.794101e-07 -1.1036806e-06
1.5417404e-06 1.1111303e-05 -5.5215364e-06 8.094492e-06 -6.0574594e-06 -3.3812212e-06 1.0970127e-06 6.0281886e-06
1.1856737e-06 4.982537e-06 -3.2549665e-06 3.3862866e-06 -3.7956222e-06 1.6790196e-06 -9.443289e-07 2.9965038e-06
3.2494145e-06 -1.3530372e-05 2.0487223e-06 -6.4193423e-06 4.0777295e-06 5.816551e-07 -1.821381e-05 3.2914404e-06
1.7558506e-07 -6.2871645e-06 2.2674144e-06 -3.3692997e-06 3.227967e-06 -4.4770673e-06 -6.640728e-06 1.0208623e-06
-4.367331e-06 -5.461155e-06 5.2641603e-06 -6.342513e-06 4.655152e-06 -3.59656e-07 -1.3748421e-06 -8.955234e-06
2.0830685e-06 1.0217404e-05 -5.627501e-06 6.7997835e-06 -6.7673313e-06 1.2095256e-06 1.4501096e-06 -1.1207138e-06
-1.538867e-06 1.388723e-05 -4.2991896e-06 6.1858623e-06 -6.968123e-06 5.572703e-06 1.0167432e-05 -1.012185e-05
3.076474e-06 3.2582666e-06 -3.572601e-06 3.808787e-06 -3.3174033e-06 1.178748e-06 -3.682197e-07 4.4204185e-06
-6.447472e-07 -5.3613976e-06 3.2566547e-06 -2.0523344e-06 4.9187024e-06 -1.2321796e-05 -3.1125278e-06 1.1962622e-06
00000000: 9f17 ca36 eae2 8536 fa95 d9b6 859f dc36
00000010: 645a adb6 cce6 3636 7aff 38b6 349a 7437
00000020: f87d 4735 bffd 3036 9994 f0b5 c57f a235
00000030: 47fc 36b6 9125 e436 b398 b4b4 741d 07b6
00000040: d2d2 b7b6 e2c7 b9b7 b88f 6137 281e 79b7
00000050: 0ece 8837 11de a4b6 5d5c 9936 8266 8935
00000060: e264 23b7 a939 0ab7 bfa4 3937 b79c 05b7
00000070: 8a6a 4f37 8596 80b7 1f2b bc36 523a 6b36
00000080: a098 17b6 4019 aab6 980c 7036 870d 8cb6
00000090: fa39 8236 47cc 8cb5 a28c dcb4 d1fb a333
000000a0: 3484 f7b3 6d22 8637 fae1 cfb6 1df6 0f37
000000b0: 636c 11b7 6903 1f36 c89f eb36 1c93 e5b6
000000c0: 9a5d b1b5 05ec 03b7 34e0 a136 d171 5cb6
000000d0: 587b f036 d6c3 64b7 e160 43b5 4667 c736
000000e0: 3cd2 80b4 d312 2737 6495 8ab6 91cc bb36
000000f0: 37f3 b6b6 216d 94b5 e80d 73b3 9154 4336
00000100: a12f ad36 c5d0 e736 d1f6 d6b6 0abc e236
00000110: 8421 e1b6 74cf 0237 ab8b 24b6 aecc 5e36
00000120: 5aa7 7b35 8040 9c35 7dbe a1b5 0d4b 6035
00000130: b1c5 c5b5 7382 4536 2206 fc34 1099 98b5
00000140: 3945 1136 d8e7 6f35 4640 04b6 30d2 e735
00000150: 7c9c e8b5 56b9 ea32 8e2f 45b5 542c 2836
00000160: b983 5835 309f bfb6 ae94 0d36 1a27 28b6
00000170: 991d 5736 92f1 20b7 6cef 5db6 ccfb 70b6
00000180: c61d 3333 aaaf a735 7408 cdb4 12eb 1835
00000190: 64a0 29b5 1cdb 0e36 d025 9836 b120 4db6
000001a0: 744a f336 b0c4 c936 c34c 0ab7 620a 1337
000001b0: 66ab e1b6 3d6b b034 6068 1fb6 8fb2 b037
000001c0: 0ab3 c736 70b9 1336 d447 c5b6 f533 7c36
000001d0: a8c3 cbb6 505b ef36 3b7f 29b7 0484 bb36
000001e0: be4f 4536 f4f0 2d37 1d27 dcb6 dba0 de36
000001f0: 35be 0bb7 fcac 4137 b7a7 39b6 6563 3935
00000200: 2c4d 17b7 7397 dab6 ce2d 1e37 d4e6 09b7
00000210: 3d03 1b37 e1d3 d0b6 f0e4 a336 bc87 40b6
00000220: ae2d ce36 52c3 e036 3e82 fdb6 d46d b536
00000230: f867 16b7 72ff 3837 bc62 24b6 d20f 70b6
00000240: d07d cdb3 88f4 61b7 7db4 b936 439c dfb6
00000250: 586b 0737 3785 c8b6 d243 c9b6 b913 0237
00000260: d263 ee36 62d3 e6b5 da8d b3b6 0e27 f435
00000270: 3dd2 aab6 f9cf 1537 5398 26b7 9a63 5bb3
00000280: a0b0 a435 77b1 eab6 868d 0436 dc9a 3ab6
00000290: 9b12 5836 7897 0eb7 034e 9ab7 c015 9136
000002a0: 7bd4 6e36 f47a 9537 37ca 19b7 9ca3 4637
000002b0: aec6 3ab7 c61b 0a37 24f2 0037 03e7 56b6
000002c0: 2d2a 60b5 e0de 18b7 fb69 9d36 50c3 aeb6
000002d0: b660 cc36 a73b 93b6 4674 83b5 2d22 94b5
000002e0: cced ce35 af6a 3a37 a345 b9b6 94cd 0737
000002f0: 2e41 cbb6 f0e8 62b6 123d 9335 bf45 ca36
00000300: 7023 9f35 ab2f a736 e66f 5ab6 f63f 6336
00000310: 4bb8 7eb6 ad5a e135 ca7d 7db5 8b17 4936
00000320: 8410 5a36 8100 63b7 c87c 0936 bb65 d7b6
00000330: 6ed3 8836 0923 1c35 dcc9 98b7 84e2 5c36
00000340: 7488 3c34 55f6 d2b6 e229 1836 211c 62b6
00000350: 0da0 5836 b739 96b6 6bd3 deb6 9004 8935
00000360: 168b 92b6 f73e b7b6 cba2 b036 c6d1 d4b6
00000370: 7433 9c36 bf16 c1b4 3787 b8b5 703e 16b7
00000380: d8ca 0b36 6b6b 2b37 ded3 bcb6 b229 e436
00000390: ef12 e3b6 fc56 a235 63a1 c235 6f6b 96b5
000003a0: 118b ceb5 33fd 6837 c241 90b6 2790 cf36
000003b0: b9cf e9b6 27fd ba36 ca94 2a37 04d1 29b7
000003c0: 6c75 4e36 98a8 5a36 d1c0 6fb6 769a 7f36
000003d0: 8ea0 5eb6 7935 9e35 bbaf c5b4 1b53 9436
000003e0: b112 2db5 0ee6 b3b6 e78c 5a36 d6ba 09b6
000003f0: 550b a536 b6b9 4eb7 d2e0 50b6 428f a035

exp_avg_sq f4 [64, 8]
0.00010655776 0.00014256731 5.5450264e-06 5.6563103e-06 4.0523933e-06 6.036957e-05 8.531032e-05 5.4900484e-05
1.9429692e-05 2.668773e-05 2.7564545e-06 2.885101e-06 3.6039324e-07 1.7283777e-05 1.824894e-05 1.095445e-05
0.00037050623 0.0008728571 5.2303903e-06 5.459002e-05 8.086726e-05 0.00015710252 0.00032451085 0.00042480067
0.00062801957 0.0011990862 9.896111e-06 4.955615e-05 8.6930915e-05 0.00030554234 0.00055024645 0.0008611536
4.2765376e-05 9.770224e-05 1.0444281e-06 7.5160087e-06 5.5852056e-06 1.023461e-05 5.2518153e-05 8.120487e-05
0.00011619311 0.00023854047 2.1288524e-06 1.3797657e-05 1.9515994e-05 6.6557506e-05 8.0200654e-05 0.000108957596
0.00025249878 0.00051581947 2.445428e-06 2.1054268e-05 4.84544e-05 0.00015411676 0.00018590236 0.00026475167
3.0869346e-06 1.1938697e-05 5.830278e-07 1.0430385e-06 2.4565425e-06 7.1514387e-06 4.6914897e-06 5.4615584e-06
0.00024009135 0.0004323943 1.5640928e-05 3.3477838e-05 1.0354132e-05 8.395071e-05 0.00032878548 0.00039614315
4.6155546e-06 4.8169277e-06 5.072404e-07 2.1181017e-07 5.9191684e-08 3.1146574e-06 3.7523037e-06 2.1354438e-06
4.7709567e-05 7.973363e-05 5.3197067e-07 1.5047063e-06 6.9598796e-06 5.0489696e-05 3.1433785e-05 7.8536366e-05
6.703669e-05 6.976887e-05 2.9545577e-06 9.647108e-07 2.6842217e-06 7.230399e-05 3.199033e-05 2.2714528e-05
8.832533e-06 6.5605736e-06 9.1545326e-07 1.5624235e-07 8.750883e-08 8.419593e-06 2.6041444e-06 8.770626e-06
0.00023742454 0.00031400085 1.4828832e-05 1.3408397e-05 7.2653743e-06 0.00012427816 0.00021956919 0.00015872586
0.00024010023 0.0005055563 7.054127e-06 3.2937125e-05 2.6468448e-05 6.466475e-05 0.00027627198 0.00054983457
0.00028889978 0.0005696816 7.986547e-06 3.401654e-05 2.8832399e-05 9.595936e-05 0.00033404087 0.0004715906
0.00033486332 0.0006180874 9.78755e-06 3.4566245e-05 3.064959e-05 0.00011613624 0.00033905508 0.00038896617
0.00027906237 0.0005459189 3.978228e-06 2.3320747e-05 4.0543935e-05 0.00013253033 0.0002347366 0.00039896686
0.00017804142 0.0003767278 3.1193863e-06 2.2020007e-05 3.1791336e-05 0.00010678859 0.00013126906 0.00018201959
0.00011850279 0.00020150004 1.5815081e-05 2.1393113e-05 2.6747534e-06 9.6644486e-05 0.00018025762 0.00032437482
0.00014823172 0.00013574758 6.2914705e-06 1.3436007e-06 5.1213938e-06 0.0002083348 3.1799234e-05 4.781863e-05
0.00044334904 0.0008707971 1.1800599e-05 5.2661602e-05 4.3870063e-05 0.00013679458 0.0004857482 0.0006908526
0.0001303346 0.00030621357 1.8537706e-06 1.7056389e-05 3.2192725e-05 8.25302e-05 9.4058814e-05 0.000120720506
3.3762848e-05 7.9907695e-05 8.4593825e-07 7.0512383e-06 5.3316694e-06 9.031152e-06 3.5456025e-05 3.6726557e-05
1.2591447e-05 2.2412965e-05 1.6834086e-07 5.012351e-07 3.0802541e-06 2.6766984e-05 3.5169892e-06 3.7473087e-06
5.9177597e-05 7.521183e-05 6.3067787e-06 6.662118e-06 9.230634e-07 2.985537e-05 5.1355815e-05 1.5340685e-05
4.142466e-05 4.545469e-05 3.943647e-06 2.6133703e-06 5.8387417e-07 2.3135442e-05 2.3513207e-05 1.2949008e-05
9.826782e-05 0.00013927957 7.1297845e-06 9.014455e-06 2.628194e-06 4.0425e-05 8.605413e-05 4.7158606e-05
0.00010364905 0.00022526132 1.8065208e-06 1.3995989e-05 1.7679862e-05 3.9864914e-05 8.648992e-05 0.00014532813
0.00018679969 0.00043173437 3.1363672e-06 2.7470453e-05 4.1208223e-05 0.00010235388 0.00012401071 0.00020359099
2.1132235e-05 3.0958614e-05 1.6397719e-06 2.2928884e-06 5.3319616e-07 8.741785e-06 2.2997112e-05 8.5313895e-06
7.485122e-05 7.827871e-05 3.929008e-06 1.748401e-06 2.4424746e-06 6.937083e-05 3.750257e-05 2.0451018e-05
00000000: c377 df38 1f7e 1539 6a0f ba36 56cb bd36
00000010: cbf9 8736 5535 7d38 a1e8 b238 f244 6638
00000020: f2fc a237 77df df37 87fb 3836 a89d 4136
00000030: 127c c134 a1fc 9037 4d15 9937 01c9 3737
00000040: 8140 c239 73d0 643a b680 af36 96f7 6438
00000050: 4897 a938 e3bb 2439 1c23 aa39 c8b7 de39
00000060: aea1 243a a82a 9d3a 7907 2637 83da 4f38
00000070: ae4e b638 3331 a039 6a3e 103a 0abf 613a
00000080: f95e 3338 7ee5 cc38 472e 8c35 0632 fc36
00000090: 8d68 bb36 51b5 2b37 f046 5c38 884c aa38
000000a0: b3ac f338 b820 7a39 68dd 0e36 7c7c 6737
000000b0: 47b6 a337 ca94 8b38 6631 a838 2a80 e438
000000c0: d061 8439 0f38 073a 221c 2436 b29d b037
000000d0: 843b 4b38 679a 2139 c9ee 4239 5ece 8a39
000000e0: 2229 4f36 504c 4837 5e81 1c35 88fe 8b35
000000f0: 14db 2436 64f6 ef36 976b 9d36 6e42 b736
00000100: 08c1 7b39 fbb2 e239 a334 8337 8e6a 0c38
00000110: a9b6 2d37 b20e b038 d760 ac39 6fb1 cf39
00000120: 50df 9a36 18a1 a136 4b29 0835 f06d 6334
00000130: f239 7e33 6805 5136 16d0 7b36 a54e 0f36
00000140: c21b 4838 ab36 a738 bfcc 0e35 51f5 c935
00000150: e988 e936 e6c4 5338 c5d7 0338 e4b3 a438
00000160: 0d96 8c38 e050 9238 ea46 4636 367b 8135
00000170: 9422 3436 e9a1 9738 5b2d 0638 148b be37
00000180: 712f 1437 e622 dc36 78bd 7535 92c3 2734
00000190: 7dec bb33 e041 0d37 dcc2 2e36 8d25 1337
000001a0: 2af5 7839 7ba0 a439 59c9 7837 a0f4 6037
000001b0: 17c9 f336 aa50 0239 283c 6639 a66f 2639
000001c0: 6ac3 7b39 4f87 043a 7db2 ec36 f825 0a38
000001d0: 8f08 de37 a09c 8738 99d8 9039 c622 103a
000001e0: 7977 9739 af56 153a f5fd 0537 fbac 0e38
000001f0: 1bdd f137 ca3d c938 3522 af39 d23f f739
00000200: 9890 af39 2507 223a 3535 2437 39fb 1038
00000210: bf8d 0038 2b8e f338 34c3 b139 28ee cb39
00000220: 1e4f 9239 ff1b 0f3a b87c 8536 eca0 c337
00000230: b80d 2a38 d7f7 0a39 a023 7639 6d2c d139
00000240: a1b0 3a39 8d83 c539 a656 5136 9bb7 b837
00000250: b057 0538 b0f3 df38 45a5 0939 83dc 3e39
00000260: b384 f838 c149 5339 a1aa 8437 5c75 b337
00000270: ea7f 3336 9dad ca38 8903 3d39 da10 aa39
00000280: a66e 1b39 7757 0e39 521b d336 c555 b435
00000290: 70d8 ab36 7274 5a39 2b60 0538 dd90 4838
000002a0: 4d71 e839 3446 643a 30fb 4537 f7e0 5c38
000002b0: 1f01 3838 8470 0f39 05ac fe39 551a 353a
000002c0: 6eaa 0839 4a8b a039 13cf f835 5114 8f37
000002d0: ad06 0738 1014 ad38 7141 c538 542b fd38
000002e0: 959c 0d38 1e94 a738 6f14 6335 ad99 ec36
000002f0: b1e6 b236 8184 1737 9eb6 1438 d70a 1a38
00000300: da3f 5337 7a03 bc37 2fc1 3434 9d8c 0635
00000310: 5db6 4e36 a989 e037 6a05 6c36 467a 7b36
00000320: 7635 7838 0bbb 9d38 d19e d336 288b df36
00000330: 6fc8 7735 eb71 fa37 e366 5738 dfaf 8037
00000340: 64bf 2d38 9aa6 3e38 ab53 8436 5c61 2f36
00000350: 87bb 1c35 fc12 c237 3a3e c537 913f 5937
00000360: 2215 ce38 930b 1239 623c ef36 ca3c 1737
00000370: 0760 3036 038e 2938 f677 b438 2bcc 4538
00000380: 295e d938 2034 6c39 9577 f235 51d0 6a37
00000390: 374f 9437 a034 2738 ec61 b538 3963 1839
000003a0: a9df 4339 685a e239 617a 5236 5970 e637
000003b0: fed6 2c38 d2a6 d638 df08 0239 0a7b 5539
000003c0: 2145 b137 8fd9 0138 2216 dc35 86df 1936
000003d0: f620 0f35 aea9 1237 ece9 c037 0a22 0f37
000003e0: 71f9 9c38 9029 a438 ecd5 8336 9aaa ea35
000003f0: 65e9 2336 2e7b 9138 144c 1d38 3a8e ab37

exp_avg f4 [64]
3.5995897e-06 4.474257e-06 -4.376812e-06 1.7601037e-06 -2.1228102e-07 4.5695697e-06 -4.1418966e-06 7.3063466e-06
6.400368e-06 5.3654304e-07 -7.756946e-07 -1.54098e-05 3.3531317e-06 6.5976255e-06 -2.8783527e-06 1.000407e-05
3.83153e-06 -1.4287e-06 -3.3548788e-06 -1.4261186e-05 -1.7953767e-05 1.2755004e-05 -4.9611776e-06 7.1075647e-06
3.7553386e-06 -2.621741e-05 -9.97635e-06 -6.465654e-06 2.2772028e-06 4.7062e-06 2.5174793e-06 -1.1292856e-05
2.9209823e-06 -9.230798e-07 2.0013707e-05 -9.493623e-06 -1.6468947e-06 3.4484356e-06 1.5858972e-05 -3.3727135e-06
3.5464072e-06 5.4079223e-06 3.694645e-06 -7.3289834e-06 6.6993784e-06 1.882916e-06 5.701379e-07 3.3840322e-05
9.279615e-06 -1.8141485e-06 -6.098238e-07 1.2315015e-06 -5.7891484e-06 1.1568536e-05 5.011394e-06 -2.7692536e-06
-3.1468849e-06 -2.579392e-06 1.9833198e-05 -3.100449e-06 1.2320084e-05 1.0102771e-06 -6.504229e-06 1.8108914e-06
00000000: 7b90 7136 9321 9636 87dc 92b6 b43c ec35
00000010: 5def 63b4 4e54 9936 9ffa 8ab6 0a29 f536
00000020: bec2 d636 f506 1035 5439 50b5 4b44 81b7
00000030: 5d06 6136 2c61 dd36 b929 41b6 27d7 2737
00000040: 9890 8036 c2c1 bfb5 6124 61b6 5443 6fb7
00000050: 6c9b 96b7 53fe 5537 3178 a6b6 847d ee36
00000060: 3a04 7c36 76ed dbb7 1960 27b7 8cf3 d8b6
00000070: 0cd2 1836 f3e9 9d36 f7f1 2836 7276 3db7
00000080: 1806 4436 90c9 77b5 1ce3 a737 cd46 1fb7
00000090: df0a ddb5 ac6b 6736 e208 8537 c756 62b6
000000a0: d0fe 6d36 b375 b536 85f1 7736 7deb f5b6
000000b0: 39cb e036 80b8 fc35 940b 1935 c5ef 0d38
000000c0: a5af 1b37 ab7d f3b5 c6b2 23b5 124a a535
000000d0: 6840 c2b6 7c16 4237 8c27 a836 6ad7 39b6
000000e0: 122f 53b6 9e19 2db6 785f a637 4f11 50b6
000000f0: 5cb2 4e37 db98 8735 e73e dab6 c10d f335

exp_avg_sq f4 [64]
0.0013379157 0.00049876067 0.0017238061 0.0039875773 0.00033270044 0.00082258397 0.0011966714 1.8290799e-05
0.0029587692 0.00012316025 0.00033421436 0.0009792405 0.0002791374 0.0031595 0.0021385339 0.0025016533
0.0027458798 0.0017995894 0.0011946904 0.0026813315 0.0023388576 0.0035766824 0.000572008 0.00025274663
5.913274e-05 0.0013127743 0.00090661884 0.0015488318 0.0006612111 0.0011653492 0.0003399664 0.0011343323
0.0008793541 0.0011890783 0.0031772987 0.005102505 0.0001787765 0.0011982822 0.0010252122 0.00299535
0.00012107086 0.00033659025 0.00013787321 0.0006988768 0.0010263509 1.7737774e-06 3.0382322e-05 0.0016717653
0.00095842057 5.5307455e-06 0.00016992255 0.0004284417 0.00080189545 0.00070690806 0.0020854261 0.0009455221
0.00057150825 9.9391225e-05 0.003161721 0.00029318393 0.0019959994 3.012175e-05 0.0015501864 6.0937e-05
00000000: 005d af3a 43bf 023a 56f1 e13a 39aa 823b
00000010: 4c6e ae39 ada2 573a a1d9 9c3a 316f 9937
00000020: e9e7 413b 9424 0139 7e39 af39 dc59 803a
00000030: 3059 9239 9d0f 4f3b a526 0c3b c7f2 233b
00000040: 38f4 333b 33e0 eb3a 2897 9c3a 47b9 2f3b
00000050: 8547 193b c666 6a3b cff2 153a 1483 8439
00000060: 4c05 7838 6511 ac3a 29aa 6d3a 2c02 cb3a
00000070: 2055 2d3a a1be 983a 853d b239 e0ad 943a
00000080: 7484 663a d9da 9b3a 3a3a 503b ea32 a73b
00000090: f475 3b39 ae0f 9d3a 6a60 863a a24d 443b
000000a0: 6ce7 fd38 6178 b039 0f92 1039 d434 373a
000000b0: 9f86 863a 8712 ee35 8add fe37 231f db3a
000000c0: 843e 7b3a be94 b936 3d2d 3239 79a0 e039
000000d0: 4b36 523a cc4f 393a a5ab 083b eadc 773a
000000e0: 45d1 153a 4270 d038 e034 4f3b 7bb6 9939
000000f0: 50cf 023b f7ad fc37 a02f cb3a 9b96 7f38

exp_avg f4 [8, 64]
5.088052e-06 5.3112635e-06 6.575661e-07 -4.149187e-06 -3.1886407e-06 7.0831953e-07 -4.0317445e-06 -1.8509094e-07
6.5489603e-06 3.7506725e-06 5.9013287e-06 -3.8690464e-06 5.5316004e-06 4.2012443e-06 5.9145405e-06 5.2482333e-06
-4.213756e-06 5.1535862e-06 -2.0662792e-06 5.216896e-06 -5.527434e-06 4.5420156e-06 -2.5403233e-06 7.871541e-07
1.1889645e-06 -4.8616503e-06 -3.6636848e-06 -4.4677886e-06 1.4003733e-06 2.0538182e-06 3.6245642e-06 -4.1331195e-06
4.67068e-06 2.6640357e-06 6.185084e-06 -5.3903173e-06 3.937479e-06 4.764903e-06 2.3202488e-06 -8.162652e-06
-1.1943082e-06 2.5846964e-06 6.229523e-06 -3.2522412e-06 3.8556236e-06 2.9310252e-07 2.374135e-07 4.124498e-06
6.5545582e-06 -3.2556036e-07 3.7179118e-06 3.9228453e-06 -3.2553694e-06 6.557084e-06 3.2326618e-06 -4.5119136e-06
-5.571001e-07 4.9850205e-06 5.9839404e-06 -3.8815415e-06 -5.3501235e-06 1.7872553e-06 -2.9368102e-06 5.1141444e-07
1.3861942e-05 1.2179073e-05 -2.8573668e-06 -4.9521195e-06 -6.5994814e-06 5.7072934e-06 -7.637848e-06 -2.79839e-06
1.5272979e-05 6.4722217e-06 6.7927376e-06 -2.6732935e-06 1.1605752e-05 1.190278e-05 8.408212e-06 1.0093307e-05
-9.080825e-06 7.535883e-06 -6.536121e-06 7.9193086e-07 -1.3512319e-05 9.241688e-06 -8.40977e-06 2.5640286e-06
1.6046279e-06 -1.4198374e-05 -9.725047e-06 -1.1141119e-05 3.7839825e-06 7.795072e-06 7.88459e-06 -7.163272e-06
8.853059e-06 -2.0867174e-06 1.1806217e-05 -1.0353327e-05 -8.3878894e-07 6.838982e-06 4.9049613e-06 -1.6338834e-05
4.890707e-06 8.096217e-06 1.0438486e-05 -4.1546746e-06 6.970782e-06 -1.1107757e-06 -1.6123493e-06 1.1265913e-05
1.9366269e-05 -3.7937418e-06 -2.343784e-06 7.250368e-06 -5.1971965e-06 1.9324058e-05 -3.2603825e-07 -5.8133714e-06
-5.21769e-06 5.47905e-06 7.989514e-06 -6.3866205e-06 -1.832351e-06 -2.1491019e-06 -7.811905e-06 -1.5733002e-06
-1.7554448e-05 -1.6082215e-05 2.3103694e-06 7.1004706e-06 8.76196e-06 -6.0120565e-06 9.827566e-06 1.3600628e-06
-1.8996458e-05 -1.0169591e-05 -8.768008e-06 5.6477606e-06 -1.41143655e-05 -1.5699052e-05 -1.1035616e-05 -1.2964405e-05
1.1756225e-05 -9.768136e-06 7.4664417e-06 -4.105746e-06 1.5723306e-05 -1.2304122e-05 9.74927e-06 -4.5734478e-06
-2.8154163e-06 1.853241e-05 1.32553e-05 1.473753e-05 -4.8498696e-06 -9.009211e-06 -1.0926237e-05 1.0643549e-05
-1.1807409e-05 1.5446616e-08 -1.3580238e-05 1.2788735e-05 -1.8507421e-06 -9.183578e-06 -8.500668e-06 1.7708737e-05
-3.7873174e-06 -1.0604074e-05 -1.2063483e-05 7.5462863e-06 -8.880863e-06 3.4187968e-07 9.2368066e-07 -1.556465e-05
-2.1771808e-05 4.260071e-06 -4.785038e-07 -9.427531e-06 7.846328e-06 -2.1327185e-05 -2.665985e-06 8.170662e-06
5.232544e-06 -6.8927693e-06 -9.75491e-06 8.539331e-06 5.050062e-06 1.1818174e-06 1.0850725e-05 1.1646017e-06
1.6797454e-05 1.5195432e-05 -3.4865195e-06 -5.7742545e-06 -8.72108e-06 7.149085e-06 -9.0482445e-06 -2.3061655e-06
1.823647e-05 8.50377e-06 6.6219386e-06 -2.7521637e-06 1.191097e-05 1.48634435e-05 9.547702e-06 1.2074532e-05
-1.1196855e-05 8.51386e-06 -7.941391e-06 1.4480734e-06 -1.30209855e-05 1.1653025e-05 -1.0079864e-05 4.546915e-06
2.4172457e-06 -1.804201e-05 -1.2499946e-05 -1.4198895e-05 5.0242893e-06 9.737244e-06 1.0368938e-05 -8.46629e-06
1.0826366e-05 -2.1197463e-06 1.1055049e-05 -1.156542e-05 -6.634533e-07 7.781717e-06 7.63986e-06 -1.5626272e-05
5.6571134e-06 1.0639018e-05 9.988564e-06 -5.379365e-06 8.2410015e-06 -9.470265e-07 -1.1325149e-06 1.48825e-05
2.0045209e-05 -5.1706916e-06 -2.341294e-06 8.787271e-06 -7.430846e-06 1.941296e-05 -3.1507048e-07 -6.356525e-06
-6.337417e-06 5.3699832e-06 7.495151e-06 -8.046534e-06 -2.552846e-06 -3.189747e-06 -1.0436306e-05 -1.6515336e-06
00000000: 09ba aa36 6837 b236 9983 3035 3f39 8bb6
00000010: 6efc 55b6 5923 3e35 6c48 87b6 69bd 46b4
00000020: 24bf db36 10b4 7b36 0704 c636 dbd2 81b6
00000030: 169c b936 6af8 8c36 8475 c636 fb19 b036
00000040: e363 8db6 f8ec ac36 68aa 0ab6 cc0c af36
00000050: 4c78 b9b6 9e67 9836 6c7a 2ab6 d14c 5335
00000060: 8294 9f35 4221 a3b6 a0dd 75b6 03ea 95b6
00000070: 76f4 bb35 54d4 0936 8a3d 7336 3aaf 8ab6
00000080: d6b8 9c36 c9c7 3236 7889 cf36 79de b4b6
00000090: b01e 8436 35e2 9f36 92b5 1b36 53f2 08b7
000000a0: 1e4c a0b5 bf74 2d36 3207 d136 1441 5ab6
000000b0: 8e5f 8136 b45b 9d34 baeb 7e34 2b65 8a36
000000c0: 3aef db36 adc8 aeb4 3d81 7936 fca0 8336
000000d0: d276 5ab6 ec04 dc36 b5f0 5836 0b65 97b6
000000e0: a18b 15b5 0045 a736 a8c9 c836 303e 82b6
000000f0: 3685 b3b6 a0e1 ef35 0416 45b6 2248 0935
00000100: 9690 6837 b854 4c37 30c1 3fb6 622a a6b6
00000110: 1d71 ddb6 4781 bf36 4f24 00b7 f9cb 3bb6
00000120: 791e 8037 f62b d936 2ced e336 d566 33b6
00000130: 53b6 4237 0db2 4737 ff10 0d37 6c56 2937
00000140: d959 18b7 bedc fc36 da50 dbb6 1395 5435
00000150: f8b2 62b7 bf0c 1b37 b017 0db7 ad11 2c36
00000160: 985e d735 8d35 6eb7 c228 23b7 beea 3ab7
00000170: 53f0 7d36 94c7 0237 0e48 0437 0a5c f0b6
00000180: 9987 1437 8809 0cb6 5113 4637 33b3 2db7
00000190: 2329 61b5 687a e536 4c95 a436 610f 89b7
000001a0: da1a a436 fdd4 0737 f520 2f37 6268 8bb6
000001b0: 90e6 e936 f615 95b5 e667 d8b5 ba02 3d37
000001c0: bf74 a237 fd97 7eb6 e749 1db6 3048 f336
000001d0: 9463 aeb6 191a a237 5b0a afb4 7b10 c3b6
000001e0: 9e13 afb6 aed8 b736 b40a 0637 a74c d6b6
000001f0: 1aef f5b5 4a39 10b6 e00f 03b7 2f2a d3b5
00000200: e441 93b7 4be8 86b7 d80b 1b36 9440 ee36
00000210: 5500 1337 2cbb c9b6 13e1 2437 678b b635
00000220: 955a 9fb7 109e 2ab7 4f1a 13b7 e581 bd36
00000230: bdcc 6cb7 75b1 83b7 9c25 39b7 b281 59b7
00000240: 9a3c 4537 d3e1 23b7 3f88 fa36 17c4 89b6
00000250: 8be5 8337 cd6d 4eb7 cc90 2337 9e75 99b6
00000260: 7cf0 3cb6 0c76 9b37 1463 5e37 3641 7737
00000270: 10bc a2b6 4426 17b7 d54f 37b7 b291 3237
00000280: 6f18 46b7 78af 8432 aed6 63b7 338f 5637
00000290: 0467 f8b5 2b13 1ab7 179e 0eb7 398d 9437
000002a0: 9e29 7eb6 27e8 31b7 4464 4ab7 1b36 fd36
000002b0: 04ff 14b7 968b b734 daf2 7735 d590 82b7
000002c0: 9aa2 b6b7 bbf1 8e36 8872 00b5 f02a 1eb7
000002d0: b9a3 0337 c8e7 b2b7 46e9 32b6 ba14 0937
000002e0: 3693 af36 7048 e7b6 05a9 23b7 2644 0f37
000002f0: b473 a936 f09e 9e35 820b 3637 694f 9c35
00000300: 42e8 8c37 e2ef 7e37 f3f9 69b6 78c0 c1b6
00000310: c150 12b7 2ce2 ef36 eacd 17b7 9fc3 1ab6
00000320: 85fa 9837 6aab 0e37 0532 de36 d0b1 38b6
00000330: 3ad5 4737 015e 7937 112f 2037 b893 4a37
00000340: 20da 3bb7 c0d6 0e37 043c 05b7 6c5b c235
00000350: b574 5ab7 5c81 4337 b01c 29b7 b491 9836
00000360: f737 2236 ec58 97b7 dcb6 51b7 ca37 6eb7
00000370: 5196 a836 255d 2337 40f6 2d37 700a 0eb7
00000380: e3a2 3537 f740 0eb6 1379 3937 1a09 42b7
00000390: 2a18 32b5 388e 0237 f32c 0037 2a15 83b7
000003a0: 3cd2 bd36 3c7e 3237 8e94 2737 6580 b4b6
000003b0: d542 0a37 2a37 7eb5 ea00 98b5 daaf 7937
000003c0: c226 a837 e77f adb6 201f 1db6 0b6d 1337
000003d0: 7b56 f9b6 04d9 a237 f526 a9b4 224a d5b6
000003e0: ffa5 d4b6 ce2f b436 db7e fb36 9aff 06b7
000003f0: 8f51 2bb6 700f 56b6 9817 2fb7 43aa ddb5

exp_avg_sq f4 [8, 64]
1.5072846e-05 8.250489e-05 3.349645e-05 5.7211523e-06 2.8903712e-06 5.031887e-05 6.6273897e-06 9.335291e-06
4.7489593e-05 3.5204095e-05 1.4743321e-05 1.4615011e-05 5.0963477e-05 1.7991822e-05 3.5908302e-05 2.7670994e-05
7.0555748e-06 4.991045e-06 3.0333675e-05 0.000114294315 3.4628043e-05 9.455163e-06 1.4692093e-05 1.5789328e-06
1.0693262e-05 6.1065344e-05 2.9050689e-05 2.7764328e-05 1.6013493e-05 4.3402986e-05 2.213257e-05 2.1008751e-05
1.3171147e-05 4.426795e-05 7.447955e-06 2.033885e-06 5.373182e-05 1.5073658e-06 4.915344e-05 2.1726428e-05
5.0125374e-05 4.680177e-06 1.1086011e-05 1.662607e-05 1.0367908e-05 1.7569625e-06 5.0477163e-05 7.364373e-05
5.001676e-05 6.429662e-06 7.5179414e-05 9.823532e-07 3.784004e-06 5.5478842e-05 1.3151837e-05 2.5932984e-06
4.3601143e-05 3.1302147e-06 1.5444122e-05 2.6929315e-06 0.000108744964 1.396105e-06 1.0608496e-05 5.165382e-05
3.2350177e-05 0.0010384349 0.0014327593 6.0727732e-05 0.00011312717 0.0017024501 0.00054191356 3.7305483e-05
0.00011481656 0.00059527246 0.00031883238 0.00031139664 0.0012682806 5.785282e-05 0.00037622685 0.00019736077
0.00012418587 1.1168073e-05 0.00078085513 0.0019734895 0.0017709531 1.5517595e-05 0.0006751543 0.000120208504
0.00011206998 0.00086517166 0.00046988192 4.7357153e-05 0.0004117958 0.0017519038 2.1087273e-05 0.00041433887
0.00021556427 0.0014929908 0.000765855 2.6506676e-05 0.0017963917 5.3793654e-05 0.0007328507 0.0013252301
0.0013833651 7.9742575e-05 0.00053811836 0.0008248903 0.00034480996 1.4027493e-05 0.0011237881 0.0012204822
0.0012692648 0.00030823846 0.0022020505 7.4253294e-05 0.00020593776 0.0014622507 0.0012155183 1.5148006e-05
0.000956862 0.00021976 0.00062220637 0.00021697892 0.0017316242 0.00022424012 4.2511892e-05 0.000911205
2.421262e-05 0.00063425343 0.000707331 1.3911785e-05 3.7193236e-05 0.0008771029 0.00024111572 2.666516e-05
0.000108972265 0.00035626825 0.00017141168 0.00018645196 0.00069919747 2.7114786e-05 0.00022584597 0.0001306665
3.1052743e-05 7.313891e-06 0.00042319237 0.0011130455 0.00088593626 9.65995e-06 0.0003280417 4.8002978e-05
6.715429e-05 0.00052509725 0.00028308132 4.7481655e-05 0.00022238202 0.0008780409 1.8286006e-05 0.0002477979
0.00011914867 0.00076774496 0.00035767845 1.4466054e-05 0.00092393043 2.240066e-05 0.0004371389 0.00061870913
0.00073780346 3.0702846e-05 0.00026927647 0.00042058146 0.00017689838 8.029536e-06 0.00062078924 0.00071002013
0.00070038997 0.00015950848 0.0011573172 2.9116689e-05 6.623366e-05 0.0008001078 0.00057327765 8.4128005e-06
0.0005319671 9.2981645e-05 0.00029855393 0.00010373953 0.0009969342 0.000103392806 3.13966e-05 0.00052108435
2.9548972e-05 0.0010113033 0.0010594312 3.3708744e-05 4.445377e-05 0.0012667817 0.00042326606 5.3263964e-05
0.00016964956 0.00050653477 0.00019513295 0.00020483967 0.0009837904 3.419358e-05 0.00033686106 0.00019637628
5.1418512e-05 7.843814e-06 0.0006149836 0.001687869 0.0011909081 1.1861318e-05 0.0005005824 5.756721e-05
0.00011563488 0.0008497301 0.0004370191 7.3649135e-05 0.0003166153 0.0012910228 2.4772557e-05 0.00031471843
0.00017477342 0.0010977074 0.0004111589 2.7647082e-05 0.0013108995 5.1232055e-05 0.0006830692 0.0007622768
0.0010146752 3.6470337e-05 0.00032106493 0.00055341277 0.000300105 1.17604695e-05 0.000935338 0.0011395451
0.0009987333 0.00018524431 0.0016368937 5.0540722e-05 9.620293e-05 0.0011301829 0.00072503794 1.2271123e-05
0.00074587855 0.00011614093 0.0003452055 0.000151513 0.0015038443 0.00010104301 4.4762688e-05 0.00084816833
00000000: 61e1 7c37 7a06 ad38 8a7e 0c38 53f8 bf36
00000010: 33f8 4136 7a0d 5338 d860 de36 c59e 1c37
00000020: 902f 4738 1ca8 1338 155a 7737 ff32 7537
00000030: 9ec1 5538 25ed 9637 3f9c 1638 021f e837
00000040: edbe ec36 c078 a736 1275 fe37 4bb1 ef38
00000050: 943d 1138 9ea1 1e37 0f7e 7637 b8eb d335
00000060: 3667 3337 3510 8038 e1b1 f337 71e7 e837
00000070: b754 8637 9a0b 3638 55a9 b937 f33b b037
00000080: a5f9 5c37 59ac 3938 72e9 f936 e17d 0836
00000090: 1a5e 6138 b250 ca35 1b2a 4e38 2641 b637
000000a0: b63d 5238 6a0a 9d36 0efe 3937 3778 8b37
000000b0: d3f1 2d37 c6d0 eb35 71b7 5338 2d71 9a38
000000c0: 16c9 5138 60be d736 a4a9 9d38 66d9 8335
000000d0: b2f0 7d36 f4b1 6838 b6a6 5c37 8708 2e36
000000e0: 5fe0 3638 ae10 5236 008e 8137 36b8 3436
000000f0: 020e e438 cd61 bb35 25fb 3137 dea6 5838
00000100: bdaf 0738 181c 883a 6dcb bb3a e8b5 7e38
00000110: b03e ed38 bf24 df3a 340f 0e3a 7578 1c38
00000120: acc9 f038 0f0c 1c3a f528 a739 f342 a339
00000130: 6f3c a63a fea6 7238 5040 c539 a1f2 4e39
00000140: e437 0239 825e 3b37 4db2 4c3a a955 013b
00000150: 531f e83a c82b 8237 d7fc 303a 7318 fc38
00000160: 1d07 eb38 b0cc 623a 7c5a f639 5ba1 4638
00000170: 4ce6 d739 23a0 e53a 93e4 b037 9f3b d939
00000180: 1809 6239 75b0 c33a a9c3 483a a75a de37
00000190: e774 eb3a 7fa0 6138 c71c 403a 58b3 ad3a
000001a0: 0852 b53a 783b a738 8310 0d3a 733d 583a
000001b0: 9cc7 b439 a057 6b37 124c 933a 96f8 9f3a
000001c0: 765d a63a 119b a139 4750 103b 6fb8 9b38
000001d0: fff0 5739 fea8 bf3a 0752 9f3a 3124 7e37
000001e0: ecd5 7a3a 606f 6639 901b 233a d684 6339
000001f0: abf7 e23a 0022 6b39 cc4e 3238 efdd 6e3a
00000200: 351c cb37 0744 263a 2e6c 393a a966 6937
00000210: efff 1b38 61ed 653a 02d4 7c39 ffae df37
00000220: 0a88 e438 84c9 ba39 f9bc 3339 5182 4339
00000230: 594a 373a 8f74 e337 11d1 6c39 8603 0939
00000240: a13e 0238 d869 f536 ebdf dd39 9ce3 913a
00000250: 2d3e 683a 2b11 2237 03fd ab39 ce56 4938
00000260: 2fd5 8c38 aea6 093a 886a 9439 0a27 4738
00000270: 382f 6939 542c 663a e664 9937 dfea 8139
00000280: 75df f938 7e42 493a ca86 bb39 3bb3 7237
00000290: ec33 723a 0de9 bb37 ca2f e539 de30 223a
000002a0: 2769 413a eec6 0038 ad2d 8d39 7d81 dc39
000002b0: cc7d 3939 98b6 0637 76bc 223a a520 3a3a
000002c0: 609a 373a bb41 2739 1fb1 973a 9d3f f437
000002d0: ede6 8a38 53be 513a 0348 163a b424 0d37
000002e0: b573 0b3a 24ff c238 3b87 9c39 bc8e d938
000002f0: 90ab 823a 97d4 d838 d8af 0338 6199 083a
00000300: efdf f737 b58d 843a 9ddc 8a3a 7d62 0d38
00000310: df73 3a38 240a a63a cfe9 dd39 bf67 5f38
00000320: f5e3 3139 f9c8 043a 9a9c 4c39 3bca 5639
00000330: 87f2 803a 146b 0f38 ba9c b039 5bea 4d39
00000340: 35aa 5738 ed98 0337 da36 213a 7c3b dd3a
00000350: 3f18 9c3a f9ff 4637 8439 033a 5274 7138
00000360: 0181 f238 6cc0 5e3a b61f e539 1474 9a38
00000370: 63ff a539 8937 a93a a9ce cf37 cb00 a539
00000380: 6243 3739 f3e0 8f3a d090 d739 a8eb e737
00000390: 7dd2 ab3a 00e2 5638 ff0f 333a 88d3 473a
000003a0: dafe 843a baf7 1838 9b54 a839 e712 113a
000003b0: 6957 9d39 d54e 4537 7831 753a ca5c 953a
000003c0: eee7 823a 243e 4239 0a8d d63a b0fb 5338
000003d0: 8ec0 c938 a522 943a 7910 3e3a 12e0 4d37
000003e0: 1087 433a b090 f338 b3fc b439 76df 1e39
000003f0: a41c c53a 0ee7 d338 92bf 3b38 9d57 5e3a

exp_avg f4 [8]
-4.7329822e-06 5.0880676e-06 -1.6640691e-06 5.471926e-06 -2.9811267e-07 2.613455e-06 1.2419646e-05 1.3149425e-05
00000000: 02d0 9eb6 2bba aa36 fb58 dfb5 7d9b b736
00000010: 4b0c a0b4 d162 2f36 f95d 5037 5a9c 5c37

exp_avg_sq f4 [8]
0.0001422236 0.0066243396 0.0032307357 0.004705261 0.007764041 0.00029867727 0.00038034376 0.0003962205
00000000: db21 1539 fd10 d93b c0ba 533b 972e 9a3b
00000010: 7f69 fe3b c997 9c39 e068 c739 d1bb cf39

exp_avg f4 [2, 8]
3.0442925e-05 4.9265815e-05 -4.271234e-05 4.7316997e-05 -4.3858287e-05 -2.5042127e-05 -4.0437768e-05 2.4064491e-05
-3.0449464e-05 -4.927402e-05 4.2720563e-05 -4.732549e-05 4.3866552e-05 2.5046376e-05 4.044477e-05 -2.4066689e-05
00000000: af5f ff37 c4a2 4e38 0726 33b8 3d76 4638
00000010: 7af4 37b8 8f11 d2b7 b99b 29b8 1ade c937
00000020: ba6d ffb7 93ab 4eb8 db2e 3338 5c7f 46b8
00000030: 5afd 3738 af1a d237 3ea3 2938 d2e2 c9b7

exp_avg_sq f4 [2, 8]
0.0005022081 0.0034595993 0.00018597669 0.00050564087 0.0006834218 9.228546e-05 0.00026950493 0.0010184222
0.0005022081 0.0034595993 0.00018597669 0.0005056408 0.0006834216 9.2285445e-05 0.00026950493 0.0010184221
00000000: 9da6 033a 72ba 623b bd02 4339 fc8c 043a
00000010: a927 333a 6189 c138 574c 8d39 947c 853a
00000020: 9da6 033a 72ba 623b bd02 4339 fb8c 043a
00000030: a627 333a 5f89 c138 574c 8d39 937c 853a

exp_avg f4 [2]
2.8275447e-06 -2.826352e-06
00000000: d9c0 3d36 5cac 3db6

exp_avg_sq f4 [2]
0.00020631998 0.00020632
00000000: 9957 5839 9a57 5839

model.1.defunc.m.0.weight f4 [64, 8]
-0.38188156 -0.4114963 0.50402 -0.15031734 0.6242834 -0.07971474 -0.059943877 0.13915113
0.3309646 -0.40909272 0.29441553 -0.054645486 0.17208236 -0.65327877 -0.06768358 0.10489876
-0.19611831 -0.12916383 -0.0132909315 -0.05191318 -0.45681623 -0.17925261 -0.04177707 0.044842754
-0.29672527 0.18771185 -0.05381297 0.3433448 -0.29800183 -0.11579244 -0.01896113 0.25872612
-0.060320187 0.20835504 -0.20793386 -0.111628875 -0.22720629 0.14136988 -0.15368438 0.16989063
-0.37653998 -0.13771638 -0.07997639 0.1000402 0.32774094 0.05727601 0.16417196 -0.09599165
0.1321006 0.28204212 -0.4376931 0.047742594 -0.34199995 -0.26993188 -0.028440984 0.14822806
0.23616728 0.031629328 -0.031682003 -0.17994905 0.09163752 0.2916459 0.34293562 0.42551503
0.019083217 -0.4586104 0.3293009 -0.3881501 0.36575222 -0.34675786 0.22699946 -0.26264307
0.28693756 -0.066761374 0.2929955 -0.43156666 0.47800264 -0.008000276 0.04526128 0.38806057
0.27620634 -0.10180214 0.22025545 -0.67402244 -0.017038649 0.2075349 -0.1426982 -0.35356596
-0.212737 0.43449184 -0.39625782 0.759091 -0.21643169 -0.427973 0.29379228 -0.36325485
0.09369609 -0.3037999 0.2681448 -0.47017795 0.12756349 -0.042663034 -0.6726333 0.1857447
-0.052066803 -0.417696 0.37970573 -0.43774825 0.6708323 -0.114980005 0.03240964 0.21645929
0.15514718 -0.15641098 -0.087552495 -0.24901374 0.42955035 -0.17668754 0.01225204 -0.45342505
0.1827128 -0.17594215 0.1092546 -0.2898048 0.28537592 -0.15615898 0.37971255 -0.22730392
-0.17256837 0.1515019 -0.23487477 0.27898175 -0.34666008 0.06642956 -0.009849801 0.11801715
0.31662646 0.19108005 0.35151082 -0.5260948 0.48939496 0.09842444 -0.08069021 -0.26806977
0.27751192 0.08573082 -0.39910746 0.065922245 0.018729473 -0.043397628 -0.162173 0.10024789
0.51090145 -0.59089184 0.46566632 0.061603148 0.269663 -0.5680511 -0.51428807 -0.6083828
0.25500107 0.43415576 -0.2103189 0.759413 -0.4199056 -0.4106825 0.46250117 -0.5400402
-0.12483542 -0.4620606 0.3952262 -0.038679115 -0.040076055 -0.09848165 0.39863956 -0.08432984
0.13731134 -0.15283382 -0.01952977 0.4258626 -0.43887424 -0.030164896 0.025539542 -0.0038465469
-0.021495154 -0.16927446 0.14890936 0.23846678 0.27193314 -0.013959403 0.25224528 0.24583252
-0.040803578 0.012404659 0.3525555 0.18233769 0.18778178 0.27957955 0.05794363 0.1950027
-0.20852806 0.2857743 -0.037458513 -0.09172521 -0.7452532 0.55813193 0.09271643 -0.6421661
0.31166986 0.091819465 0.036521956 0.3014359 -0.4642097 0.28556907 0.0674101 -0.4065519
0.31509194 0.5055423 -0.17735526 0.069354184 -0.26268134 0.340415 -0.018014038 -0.009611563
-0.03775351 -0.058661517 -0.020117793 -0.025200624 0.19293132 0.08472658 0.2719638 0.0069999527
-0.2701156 -0.08478361 0.33633554 -0.10741966 0.34240556 0.077021115 0.17208049 -0.10046792
0.27698752 -0.11232952 0.40785316 -0.11613641 0.43924302 -0.15281306 -0.025402842 -0.00061604066
0.012788062 0.40189344 -0.444421 0.4675484 -0.3322995 -0.18808827 0.18164366 -0.4775157
00000000: fb85 c3be a5af d2be 7407 013f caec 19be
00000010: 09d1 1f3f 7b41 a3bd b687 75bd a27d 0e3e
00000020: 3174 a93e 9a74 d1be a2bd 963e f2d3 5fbd
00000030: 5c36 303e 473d 27bf b09d 8abd 29d5 d63d
00000040: 3dd3 48be 8643 04be 35c2 59bc eaa2 54bd
00000050: d1e3 e9be ff8d 37be 6f1e 2bbd 09ad 373d
00000060: 60ec 97be 8937 403e fd6a 5cbd e4ca af3e
00000070: b293 98be 9624 edbd 5f54 9bbc c077 843e
00000080: 4d12 77bd 065b 553e 9dec 54be ae9d e4bd
00000090: c4a8 68be 44c3 103e 705f 1dbe cff7 2d3e
000000a0: d9c9 c0be 8605 0dbe a9ca a3bd e0e1 cc3d
000000b0: a9cd a73e 409a 6a3d b21c 283e 4597 c4bd
000000c0: 6145 073e d367 903e 4f19 e0be bd8d 433d
000000d0: 9e1a afbe 8334 8abe 11fd e8bc 19c9 173e
000000e0: d6d5 713e c18d 013d fdc4 01bd 9044 38be
000000f0: 74ac bb3d 9d52 953e 4295 af3e 1bdd d93e
00000100: 6854 9c3c fbce eabe 219a a83e 9cbb c6be
00000110: e043 bb3e 3f8a b1be 8c72 683e 2779 86be
00000120: 7be9 923e 30ba 88bd 8203 963e 4ef6 dcbe
00000130: c3bc f43e 9713 03bc e463 393d e0af c63e
00000140: eb6a 8d3e a47d d0bd a58a 613e bc8c 2cbf
00000150: a394 8bbc 0784 543e 7a1f 12be 9906 b5be
00000160: bad7 59be b775 de3e 4ee2 cabe ca53 423f
00000170: 45a0 5dbe 471f dbbe f16b 963e 8afc b9be
00000180: bce3 bf3d a98b 9bbe 464a 893e 2abb f0be
00000190: 01a0 023e 6fbf 2ebd b231 2cbf dc33 3e3e
000001a0: 0044 55bd 40dc d5be ca68 c23e 8a20 e0be
000001b0: aabb 2b3f a37a ebbd f8bf 043d 81a7 5d3e
000001c0: e7de 1e3e 332a 20be b94e b3bd 75fd 7ebe
000001d0: 06ee db3e 94ed 34be c8bc 483c 5427 e8be
000001e0: 1019 3b3e 2e2a 34be e0c0 df3d 4b61 94be
000001f0: cb1c 923e 24e8 1fbe af69 c23e 5cc2 68be
00000200: c3b5 30be 5023 1b3e 0383 70be b2d6 8e3e
00000210: 6e7d b1be 390c 883d 0f61 21bc fab2 f13d
00000220: dd1c a23e 7daa 433e 3af9 b33e 26ae 06bf
00000230: fa91 fa3e c192 c93d e940 a5bd 7140 89be
00000240: 0b16 8e3e a493 af3d d057 ccbe 3e02 873d
00000250: 8d6e 993c b6c1 31bd ae10 26be c44e cd3d
00000260: 70ca 023f b044 17bf d16b ee3e 9553 7c3d
00000270: 4511 8a3e cc6b 11bf 62a8 03bf fabe 1bbf
00000280: 808f 823e aa49 de3e d65d 57be e468 423f
00000290: defd d6be fa44 d2be f4cc ec3e 1340 0abf
000002a0: b6a9 ffbd 3593 ecbe 175b ca3e fe6d 1ebd
000002b0: ca26 24bd bfb0 c9bd 7c1a cc3e 20b5 acbd
000002c0: 589b 0c3e 7880 1cbe e5fc 9fbc aa0a da3e
000002d0: 20b4 e0be 5f1c f7bc 4d38 d13c 5916 7cbb
000002e0: 9b16 b0bc 4956 2dbe b27b 183e a330 743e
000002f0: d23a 8b3e fbb5 64bc 4b26 813e 85bb 7b3e
00000300: a721 27bd e93c 4b3c 2882 b43e bbb6 3a3e
00000310: de49 403e 0d25 8f3e 4d56 6d3d caae 473e
00000320: 6188 55be 0251 923e 196e 19bd 6dda bbbd
00000330: eac8 3ebf bce1 0e3f 1de2 bd3d ff64 24bf
00000340: 3193 9f3e d80b bc3d 0c98 153d ce55 9a3e
00000350: e5ac edbe 1c36 923e 4e0e 8a3d 9227 d0be
00000360: bb53 a13e 386b 013f 9e9c 35be 9109 8e3d
00000370: 2b7e 86be e04a ae3e 2d92 93bc d179 1dbc
00000380: 6da3 1abd 0f47 70bd 12ce a4bc 8a71 cebc
00000390: ca8f 453e 2185 ad3d d73e 8b3e dc5f e53b
000003a0: 984c 8abe 08a3 adbd 2c34 ac3e d7fe dbbd
000003b0: c84f af3e 3fbd 9d3d de35 303e 20c2 cdbd
000003c0: 4fd1 8d3e 050d e6bd 21d2 d03e edd8 edbd
000003d0: 76e4 e03e 077b 1cbe 9f19 d0bc ca7d 21ba
000003e0: 0585 513c fac4 cd3e 268b e3be 8162 ef3e
000003f0: 2923 aabe 369a 40be cc00 3a3e f07c f4be

model.1.defunc.m.0.bias f4 [64]
0.13053264 -0.18887445 -0.51283884 -0.22208443 -0.15178232 0.4330781 -0.29354018 -0.00014126801
-0.0020074574 -0.09146813 -0.1372175 -0.06636123 -0.22249392 0.27196792 -0.2038244 -0.14386323
-0.26718956 0.022363657 -0.21305537 -0.45164233 0.43279034 0.020886015 -0.29898274 0.11462777
0.075682744 0.13483672 0.1436646 -0.10783082 0.16946563 0.43592098 0.19110455 0.022577869
-0.23839064 -0.4756048 -0.3561181 0.049693055 -0.5339907 0.081567444 -0.23346223 0.494555
0.30165228 0.10934929 -0.25753587 0.28048018 0.13118681 0.16512543 0.28027633 -0.28632295
-0.25169766 -0.026676558 -0.46288472 -0.20915724 -0.2503653 -0.23750547 -0.4382236 -0.10655066
-0.20444834 -0.25679186 -0.3517688 -0.0981881 0.3733748 -0.062202185 -0.04994268 0.23690338
00000000: 59aa 053e 4e68 41be 6849 03bf 1a6a 63be
00000010: d36c 1bbe 6abc dd3e e64a 96be 5821 14b9
00000020: 8c8f 03bb a553 bbbd bf82 0cbe 66e8 87bd
00000030: 72d5 63be 613f 8b3e 58b7 50be e250 13be
00000040: 12cd 88be fd33 b73c 302b 5abe aa3d e7be
00000050: b296 dd3e 2619 ab3c 4414 99be f7c1 ea3d
00000060: 8eff 9a3d a312 0a3e d01c 133e 68d6 dcbd
00000070: 6688 2d3e 0931 df3e e9b0 433e 39f5 b83c
00000080: ad1c 74be 7982 f3be 1d55 b6be f28a 4b3d
00000090: 9db3 08bf d50c a73d b910 6fbe 5036 fd3e
000000a0: 2b72 9a3e 85f2 df3d bedb 83be 199b 8f3e
000000b0: d655 063e a416 293e 6180 8f3e ec98 92be
000000c0: 84de 80be cc88 dabc 3aff ecbe 512d 56be
000000d0: e12f 80be a234 73be d85e e0be 3c37 dabd
000000e0: e85a 51be 397a 83be 0a1b b4be d816 c9bd
000000f0: fb2a bf3e b8c7 7ebd b290 4cbd cd96 723e

model.1.defunc.m.2.weight f4 [8, 64]
-0.031031061 -0.056895755 0.27459183 0.1832891 0.08481099 -0.22794805 0.2509105 -0.19165438
-0.08407585 0.18503633 -0.038815014 0.042559247 0.1026935 -0.15578479 0.068907194 -0.0143997
0.13004796 -0.10832711 0.32404047 0.018557228 0.23306441 -0.067737214 0.24362475 -0.28451058
-0.097282365 0.061583806 0.007717833 -0.010186645 -0.09428022 -0.18261892 0.07474787 0.23799439
-0.09505492 0.3096135 -0.0809405 0.24085686 0.19850735 -0.04600752 -0.096484266 0.08429292
-0.078015655 -0.16518989 0.04116963 0.1861394 -0.33313453 0.0060682013 -0.10114772 -0.019886896
0.07652159 -0.0474894 0.16746739 -0.20365739 0.18411452 0.076653905 -0.25799158 0.07321895
0.13555539 -0.0016780386 -0.09282207 0.123543836 0.04354847 0.114603244 0.12189993 -0.24709786
-0.16615333 -0.26928467 0.06823855 0.17072068 0.060142733 0.027456967 0.075498834 0.10319335
-0.29194683 -0.062007047 -0.2135695 0.11074576 -0.29071328 -0.25649923 -0.28692746 -0.2147319
0.23491904 -0.27700117 0.06979551 -0.3152549 0.34115747 -0.2703146 0.028800813 -0.006691376
0.07366124 0.21386047 0.15709822 0.23097035 -0.07478227 -0.068727456 -0.1255657 0.235206
-0.00042666311 -0.028079897 -0.3178195 0.4038523 -0.16024938 -0.1048213 -0.20912915 0.29565006
-0.035429 -0.19093575 -0.20779276 0.12614827 -0.07776254 -0.10806056 0.17970693 -0.33908585
-0.32206088 -0.14364316 -0.03429497 -0.041480295 -0.04502022 -0.27535373 -0.25004324 0.20978777
-0.06723055 -0.12514748 -0.20569293 -0.0134242885 0.30606607 0.076088145 0.0848395 0.24973872
0.3150461 0.014494021 -0.17171276 -0.30369958 -0.1092728 0.20890146 -0.15352473 -0.06286594
0.33287817 -0.10459063 -0.00325767 -0.26408812 -0.0736893 0.30231613 0.11993442 0.12509045
-0.26359773 0.29398102 -0.21439481 0.30862606 -0.172141 0.27259287 -0.18138126 0.20160554
0.0018203756 -0.28668314 -0.10720887 -0.18053068 0.12529528 0.2816952 0.007952067 -0.087332435
0.10404312 -0.22594473 0.20055373 -0.21466008 -0.09706268 0.15542619 0.12546827 -0.112819575
0.06571889 0.056547273 0.057120215 -0.023414927 0.049149014 -0.016601235 0.104577996 0.086550996
0.033481654 -0.13848445 -0.1424388 0.05110386 -0.119515456 0.040179774 0.049506262 -0.21680531
-0.08174551 -0.14232269 0.18978745 -0.05942428 -0.27846605 0.0045698583 -0.14260317 -0.053260352
-0.14535777 0.054525092 0.18298209 0.26682433 0.06180331 -0.06260134 0.24083917 0.025186477
-0.03401194 -0.10984143 -0.14896499 0.11259913 -0.14108975 -0.2900462 -0.035923593 -0.057495818
0.07034939 -0.18549214 0.180099 -0.32611507 0.31235203 -0.23138176 0.08353618 0.03679599
-0.13458064 0.103752516 0.1768346 0.08683064 -0.14944182 -0.13047478 -0.12570976 0.023709962
-0.186821 0.11771785 -0.21929722 0.33064684 0.10133948 -0.18484284 -0.11671161 0.42658663
-0.0068799886 -0.0600392 -0.045232985 0.17465597 -0.27358422 -0.045334693 0.01703995 -0.09099027
-0.05126302 0.0105175655 0.1057139 -0.101692945 0.16044883 -0.17960419 -0.23569703 0.29030424
0.24700117 -0.17446572 -0.29312408 -0.012043035 0.2063148 -0.17163673 0.16234618 -0.17205359
00000000: da34 febc 860b 69bd 4d97 8c3e 23b0 3b3e
00000010: 62b1 ad3d 376b 69be 5777 803e 0c41 44be
00000020: f62f acbd 2a7a 3d3e 7efc 1ebd 9b52 2e3d
00000030: f850 d23d 0c86 1fbe 371f 8d3d b8ec 6bbc
00000040: 4b2b 053e 9bda ddbd a2e8 a53e 5405 983c
00000050: 70a8 6e3e cfb9 8abd c478 793e 5fab 91be
00000060: fa3b c7bd 4d3f 7c3d e0e5 fc3b e3e5 26bc
00000070: fd15 c1bd 7400 3bbe 6915 993d cdb4 733e
00000080: 27ac c2bd a985 9e3e 22c4 a5bd 2ea3 763e
00000090: 8345 4b3e 6272 3cbd 8b99 c5bd c4a1 ac3d
000000a0: acc6 9fbd 8a27 29be 7ca1 283d 549b 3e3e
000000b0: 9c90 aabe c3d7 c63b 8926 cfbd d8e9 a2bc
000000c0: 5ab7 9c3d 3f84 42bd 927c 2b3e 908b 50be
000000d0: 8488 3c3e b9fc 9c3d 7917 84be d1f3 953d
000000e0: 08cf 0a3e a2f1 dbba 7f19 bebd 8d04 fd3d
000000f0: e15f 323d 1bb5 ea3d aca6 f93d 3907 7dbe
00000100: 1924 2abe aedf 89be a7c0 8b3d 67d1 2e3e
00000110: 3a58 763d 6fed e03c 229f 9a3d 0957 d33d
00000120: 0e7a 95be 1afb 7dbd f7b1 5abe acce e23d
00000130: 5fd8 94be de53 83be 28e8 92be aee2 5bbe
00000140: 9e8e 703e 19d3 8dbe f3f0 8e3d 1769 a1be
00000150: 31ac ae3e ad66 8abe afef eb3c 5543 dbbb
00000160: b4db 963d 3dfe 5a3e 5bde 203e 7e83 6c3e
00000170: 7227 99bd fbc0 8cbd 4b94 00be d7d9 703e
00000180: c1b1 dfb9 d007 e6bc 3db9 a2be bbc5 ce3e
00000190: 6a18 24be 8dac d6bd f425 56be 725f 973e
000001a0: 001e 11bd a984 43be a0c7 54be 032d 013e
000001b0: f741 9fbd db4e ddbd 1805 383e a99c adbe
000001c0: 2ae5 a4be 3117 13be e278 0cbd 3ee7 29bd
000001d0: 1f67 38bd 2afb 8cbe ab05 80be 9bd2 563e
000001e0: 2cb0 89bd a926 00be 2ba1 52be 8cf1 5bbc
000001f0: b1b4 9c3e 1ad4 9b3d 55c0 ad3d 82bb 7f3e
00000200: b94d a13e 5578 6d3c 78d5 2fbe 837e 9bbe
00000210: 6bca dfbd 44ea 553e 9635 1dbe dcbf 80bd
00000220: 026f aa3e 9d33 d6bd a27e 55bb 8f36 87be
00000230: 6aea 96bd 2ec9 9a3e 2da0 f53d b617 003e
00000240: 48f6 86be ae84 963e 508a 5bbe 3c04 9e3e
00000250: bb45 30be 4b91 8b3e 02bc 39be af71 4e3e
00000260: ab99 ee3a 22c8 92be 5390 dbbd 09dd 38be
00000270: 684d 003e 5a3a 903e 6349 023c 59db b2bd
00000280: 8f14 d53d 0e5e 67be f55d 4d3e dacf 5bbe
00000290: ccc8 c6bd 0b28 1f3e c17a 003e f30d e7bd
000002a0: a097 863d 1d9e 673d e3f6 693d a9d0 bfbc
000002b0: 7a50 493d 50ff 87bc fd2c d63d a641 b13d
000002c0: 0f24 093d dece 0dbe 7adb 11be 4852 513d
000002d0: 85c4 f4bd 8c93 243d 14c7 4a3d 3602 5ebe
000002e0: 316a a7bd 0abd 11be a457 423e e066 73bd
000002f0: 1a93 8ebe c0be 953b 9106 12be 8727 5abd
00000300: abd8 14be b455 5f3d a85f 3b3e 339d 883e
00000310: 7825 7d3d 2235 80bd 8b9e 763e df53 ce3c
00000320: 1b50 0bbd 8bf4 e0bd 478a 18be 5f9a e63d
00000330: d579 10be ef80 94be 9e24 13bd bc80 6bbd
00000340: 5713 903d a7f1 3dbe df6b 383e 8ef8 a6be
00000350: 9bec 9f3e 57ef 6cbe 0415 ab3d 64b7 163d
00000360: 82cf 09be 337c d43d 2114 353e 43d4 b13d
00000370: 4707 19be 2e9b 05be 0fba 00be 653b c23c
00000380: 014e 3fbe 0e16 f13d 738f 60be 8b4a a93e
00000390: 138b cf3d 7147 3dbe 7f06 efbd 9069 da3e
000003a0: 8771 e1bb aaeb 75bd 3946 39bd 04d9 323e
000003b0: 3b13 8cbe dfb0 39bd 5d97 8b3c 1b59 babd
000003c0: 2cf9 51bd de51 2c3c 8780 d83d 6444 d0bd
000003d0: b34c 243e 29ea 37be 905a 71be c2a2 943e
000003e0: e0ed 7c3e 24a7 32be 5c14 96be 2650 45bc
000003f0: 3044 533e 8ac1 2fbe 143e 263e d12e 30be

model.1.defunc.m.2.bias f4 [8]
-0.26263675 -0.07116647 0.076757416 -0.16445692 0.22244424 0.07995586 0.19773354 -0.20158161
00000000: 5378 86be babf 91bd fe32 9d3d 6567 28be
00000010: 6cc8 633e e6bf a33d a97a 4a3e 696b 4ebe

model.2.weight f4 [2, 8]
-0.113039985 -0.31097823 0.40468293 -0.14367941 0.40835264 0.11760253 0.53572685 0.071402736
0.49712878 0.018442804 -0.3028955 0.38913116 -0.30804035 -0.31472117 -0.5460405 0.3555171
00000000: 8281 e7bd 8a38 9fbe 9a32 cf3e b220 13be
00000010: 9913 d13e 98d9 f03d 6525 093f 993b 923d
00000020: aa87 fe3e 5d15 973c 1e15 9bbe 333c c73e
00000030: 77b7 9dbe 2223 a1be 4fc9 0bbf 5606 b63e

model.2.bias f4 [2]
0.074254856 -0.51550967
00000000: ee12 983d 71f8 03bf
