lightning_logs/version_1/checkpoints/epoch=17-step=17.ckpt (torch, 19857 bytes, 18 tensors)

exp_avg f4 [64, 8]
00000000: 2fe3 2938 c02e aeb8 4e47 a238 66fe 8db8
00000010: 88a1 8538 b69f 41b9 c37f 3bba 062f 4eba
00000020: 60a9 53ba e7f2 2d3a e7bd 6aba e55b 1bba
00000030: a683 10ba 560f 133a 495b 84ba 242d 9939
00000040: fc11 48b8 62e7 22b8 780e 9bb7 0aef 09b9
00000050: c27d 7a38 a0c9 71b9 18bb 5839 5d0f 22ba
00000060: 2b6f aa38 8c17 83b8 6a12 ec38 eb44 a538
00000070: 6640 8738 e4fc 8539 fc8e 283a d890 b339
00000080: c00c 2e38 064b ce37 ce3e f9b7 5c13 ad38
00000090: 9311 86b8 b187 05b9 f231 46b9 4a38 c538
000000a0: 97fb 9639 6e11 11b9 cee4 ccb8 06e7 d439
000000b0: 351f 3eb9 150d c2b8 b3d4 423a 1c3c 8f3a
000000c0: 4f7c 9c38 4d7f 71b9 188c 3739 1ec5 afb8
000000d0: 77cf a239 a5c3 92b9 e95e 773a 7407 04ba
000000e0: be3e 54b8 3460 7e39 66c7 5536 1139 1439
000000f0: 5ebf 45b9 a715 b639 06cc 2838 b345 723a
00000100: b121 953a 19ae 93ba a4a9 b53a 8534 443a
00000110: 3c61 8b3a 6363 3aba c2fb 5f3b f809 b638
00000120: 526c c639 fa80 4fb9 5537 7139 b6a2 073a
00000130: c01b 2438 7258 e338 1671 0f3b cba9 d23a
00000140: c0ee 9939 95a8 1c39 eb06 6039 3454 f539
00000150: e199 88b9 d69e b5b9 0ca3 2ebb 78f9 1739
00000160: 364a e239 3a82 36ba 2650 92b9 7274 8b39
00000170: 25a5 5838 735e 94b8 06d9 9f3a 6d27 373a
00000180: 8822 74ba e8bb 8839 bf52 07ba dc60 87ba
00000190: 5022 5c39 8736 b13a c7fc 4f3b c720 0039
000001a0: 044c 2fba 9c95 b639 17a9 2eba 3216 13ba
000001b0: f510 7db9 d393 c53a b299 cc3a 83b1 343a
000001c0: 5c2d 8839 9e80 f4b8 2cf4 ae38 7011 a739
000001d0: 184e 10b6 137f c9b8 0dd2 36ba c82f 3c3a
000001e0: e8f6 08b9 9247 73b8 f6fb 0fb9 79bb 62b9
000001f0: 432e 9838 e84e 1338 6c4e 653a 1cbf e5b9
00000200: a42a a3b8 0408 dc38 0440 fab8 0fdd c2b7
00000210: bc9c ddb8 1417 0d39 6fe0 2cba be5d 9a39
00000220: 13ae 82ba 50c1 9439 d11a 68ba e673 8cba
00000230: 040d 75b8 3f70 af3a 57a1 4c3b 6400 59b9
00000240: 7682 443a 1a58 25ba 85e7 8c3a f1b3 0d3a
00000250: 78a4 3b3a 3223 e5b9 4276 fd3a 9031 9637
00000260: 4ef0 e536 9256 fb38 7c92 a0b8 f9b7 1b39
00000270: 99bb 2bb9 58d7 4e39 2c8f 1eb9 0cb5 443a
00000280: f87e e838 86a7 71b9 ae81 8739 e652 16b8
00000290: a9a6 9c39 f1e4 ebb8 5a4b aa3a de24 00ba
000002a0: 069c 1239 ee34 e6b8 5864 c239 1b03 0238
000002b0: eadf 5339 cd32 9db9 6282 92ba 117d 40ba
000002c0: 5cf6 d337 f9a0 c139 5e42 43ba aa8b 143a
000002d0: 6fd3 52ba 99f5 d138 a075 5939 d214 603b
000002e0: a455 123a 783a 70b9 22d2 d539 ba99 173a
000002f0: 6c66 3038 8a61 efb9 4cef b2ba b238 d939
00000300: 7a44 f138 13e7 dcb9 a189 a639 72b1 91b9
00000310: da1a 023a b8cc 0bba 9799 9839 8254 0dbb
00000320: 0af0 8c3a b3d3 75ba d7c6 ae3a ccbe 443a
00000330: a785 6d3a 7dbe 55ba da58 193b 965d 53b9
00000340: 4045 f6b9 ee55 9939 6a26 c8b9 02d7 ceb9
00000350: ac5e 0eb9 915e 263a 5fea 133a 7b7c e639
00000360: c259 7039 88b7 6ab9 84a6 2eba 4c94 ba39
00000370: 0f04 dfb9 68e6 10ba 8603 f839 9537 c73a
00000380: a996 e5b9 78dc 0539 7c3e 02ba 64ae f2b9
00000390: 9b30 87b8 67bc 033a 48ea aa3a 5087 8cb8
000003a0: 9303 10b9 3191 5239 58f6 45b9 edff 95b7
000003b0: c5fa 4ab9 7d97 9539 f191 90b9 9613 143a
000003c0: 2224 fe39 54d1 093a 4bf8 f739 c54e 883a
000003d0: 9722 48ba 54a3 c239 c006 95bb 233a 9e3a
000003e0: 038c 9f39 c8ea c4b9 dc91 dab9 a911 8839
000003f0: 13a0 73b9 a215 26ba 54c7 df39 0a0e 8e38
4.050432e-05 -8.3056744e-05 7.7380435e-05 -6.770789e-05 6.372022e-05 -0.00018465411 -0.0007152522 -0.00078652834
-0.000807425 0.00066356215 -0.0008954689 -0.0005926474 -0.0005512781 0.000560989 -0.0010098006 0.00029216066
-4.7700465e-05 -3.8839302e-05 -1.8484177e-05 -0.00013154387 5.9721766e-05 -0.00023058662 0.00020669063 -0.0006182099
8.126938e-05 -6.250953e-05 0.00011256787 7.88065e-05 6.449297e-05 0.00025556155 0.0006429998 0.00034249458
4.1496707e-05 2.459205e-05 -2.9712359e-05 8.252889e-05 -6.3928914e-05 -0.00012734417 -0.00018901358 9.404177e-05
0.00028797679 -0.0001383477 -9.770096e-05 0.00040607917 -0.00018131438 -9.2530776e-05 0.00074322073 0.0010927948
7.461814e-05 -0.00023030974 0.00017504429 -8.381366e-05 0.0003105362 -0.00027993057 0.0009436445 -0.0005036511
-5.0603172e-05 0.00024259166 3.1855539e-06 0.00014135639 -0.00018858674 0.00034729877 4.0244333e-05 0.00092419534
0.0011377839 -0.0011267095 0.0013859761 0.00074846327 0.0010633837 -0.00071101467 0.003417716 8.680293e-05
0.00037846208 -0.00019789106 0.00023004164 0.0005174087 3.912649e-05 0.00010840678 0.0021887473 0.0016072331
0.00029360317 0.00014940121 0.00021364882 0.00046792778 -0.0002605459 -0.00034641352 -0.0026647476 0.00014493417
0.0004316137 -0.00069621543 -0.00027907005 0.00026598905 5.1652216e-05 -7.0747825e-05 0.0012195415 0.0006986771
-0.0009313007 0.00026079942 -0.00051621714 -0.0010328549 0.00020993617 0.0013520279 0.003173636 0.00012219242
-0.00066870474 0.00034825213 -0.00066627696 -0.00056109123 -0.00024134277 0.0015073962 0.001560977 0.00068929064
0.00025973737 -0.000116587835 8.342447e-05 0.00031865714 -2.1503129e-06 -9.608096e-05 -0.0006974049 0.0007178751
-0.0001306195 -5.800237e-05 -0.00013731405 -0.00021622879 7.256542e-05 3.512102e-05 0.00087473425 -0.0004382067
-7.780388e-05 0.000104919105 -0.00011932853 -2.322954e-05 -0.00010567295 0.00013455405 -0.00065947225 0.00029443012
-0.0009970091 0.0002837279 -0.00088540936 -0.0010715693 -5.8424674e-05 0.0013384892 0.0031224096 -0.00020694878
0.0007496247 -0.00063073786 0.001075015 0.00054055365 0.00071579916 -0.00043704506 0.0019337612 1.7904473e-05
6.852707e-06 0.00011984738 -7.6566794e-05 0.00014850487 -0.00016377716 0.00019725913 -0.0001512139 0.0007503785
0.00011086272 -0.00023045958 0.00025845825 -3.5839992e-05 0.0002987881 -0.00011248317 0.0012992427 -0.0004888306
0.00013981768 -0.000109771136 0.00037077325 3.0997307e-05 0.00020205943 -0.00029983223 -0.0011177773 -0.0007342855
2.526788e-05 0.00036931763 -0.0007448549 0.00056665635 -0.00080423703 0.00010011643 0.00020738551 0.0034192097
0.00055822195 -0.00022909965 0.00040783087 0.00057831 4.2057058e-05 -0.00045658305 -0.0013651638 0.00041431707
0.0001150453 -0.00042133834 0.0003176453 -0.00027788762 0.00049631076 -0.00053329347 0.00029106133 -0.0021565263
0.001075269 -0.0009377554 0.0013334405 0.00075052376 0.0009060748 -0.000815369 0.0023398907 -0.00020157392
-0.00046972372 0.00029246457 -0.00038175593 -0.00039451575 -0.00013577443 0.0006346489 0.0005642529 0.00043961764
0.00022921621 -0.0002238435 -0.0006662386 0.00035587174 -0.00042536898 -0.0005527497 0.0004730487 0.001519906
-0.00043790534 0.00012766 -0.00049684173 -0.00046287768 -6.446355e-05 0.00050253276 0.0013039792 -6.700924e-05
-0.00013734242 0.00020081249 -0.00018879154 -1.7881359e-05 -0.0001935764 0.00028532362 -0.00027574555 0.00056486705
0.00048473576 0.00052573276 0.00047296504 0.0010399452 -0.0007634549 0.00037124252 -0.004547924 0.001207177
0.0003043116 -0.0003755896 -0.00041688874 0.000259531 -0.00023233918 -0.0006335621 0.00042682386 6.7737026e-05

exp_avg_sq f4 [64, 8]
00000000: 2249 0a30 17d1 0430 0867 4530 0a97 e42f
00000010: 4f23 af2f ae7f 0131 1321 5532 7eed 6b32
00000020: 04d3 7432 0cfa 2b32 8a64 fb32 fc2b 0832
00000030: 0ea9 2232 92bf 3132 a87b ca32 8388 7332
00000040: 34a2 c830 2ff3 ae30 b76e 0331 4135 a230
00000050: c0bb 6a30 3c17 2431 3969 7c31 a248 5332
00000060: f8da 252f b229 ec2e 10b0 b22f 6ef4 292f
00000070: 5668 022f b258 0931 426d 4532 feb9 e931
00000080: d6eb c22e 42ef 752e d9f7 e22e 9e8f 8e2f
00000090: 7cbb 322f a426 9230 a99c 8930 9efa 7031
000000a0: 0d9c 3c31 ccb2 5530 a3c8 9730 64a5 9f31
000000b0: c809 b430 c64d 4430 1125 4632 0359 f132
000000c0: 14be 0530 2831 1931 4b09 b130 48de 5b2f
000000d0: 0ed2 6731 0229 c631 0a6f b032 141d 8b32
000000e0: 2708 cc2f e2d0 0c31 2016 ac2f 4627 1930
000000f0: 3ee6 a530 029f 8431 ef06 ac2f 70af b532
00000100: e300 ec32 5580 fe32 f83e 9233 3f57 5f32
00000110: 8d49 ee32 f463 b232 8230 8834 02a8 f232
00000120: 6d49 b831 c410 4131 7089 c031 36cf f331
00000130: 34c9 da30 d373 2232 3e45 e433 c0a4 9f33
00000140: 80a6 0531 8281 7730 406b 8c31 cbdb a531
00000150: 88df 2531 c9d7 e031 802f 2234 60fc 3c32
00000160: a2c1 1532 c77f a932 f4e0 6c31 b21b 4031
00000170: 2011 2330 704a b631 a9af 7933 6718 b332
00000180: d6c2 a632 d14b ef30 1c28 dc32 8c35 d632
00000190: 9f90 a331 40d1 3333 630d 6234 e8f9 a432
000001a0: 1ed8 2b32 8431 6231 5420 d232 3332 0532
000001b0: 9658 8631 30e5 5f33 47f7 8633 5b3c 2533
000001c0: 0ac4 4231 b242 0731 29f0 8931 5a4a 4831
000001d0: 7202 e330 5d35 1931 6549 a232 f54e ce32
000001e0: b5d9 2230 5396 f72f e0e8 9b30 5fd8 9330
000001f0: 41ac fb2f 9619 1f31 9063 a432 98e1 0132
00000200: d4f6 1230 c7a0 3030 4ec3 3931 a5c7 822f
00000210: a967 8430 d189 1631 9aaf 5032 101c 9e31
00000220: 2e10 c232 8000 1531 9e21 0a33 b49f e832
00000230: 0abf 3f31 bf71 3133 d0e2 6534 fece a932
00000240: 8053 5d32 f608 2732 8e62 1433 2cf0 ea31
00000250: 066a 6332 1e54 2832 b63e aa33 1ad5 9932
00000260: 1dea 2c30 77f4 4c30 e85b 9030 0e56 6d30
00000270: 507f 8c30 4cd4 5431 6fba ea30 fba3 7532
00000280: 2e9d 4830 6a29 d130 9087 4f31 20bb c22f
00000290: f646 3e31 ca83 5e30 c197 2833 b0f4 e631
000002a0: f06a a930 e460 6e30 867d d931 d63c 752f
000002b0: 61a9 2531 7d13 9231 b20c 1033 107b ce32
000002c0: feb6 c731 9690 0832 b1db de32 9759 3732
000002d0: 633c be32 94a9 7932 f503 1933 a462 9d34
000002e0: 6427 fd31 3c61 cf30 8263 f031 7880 0932
000002f0: f659 7230 a495 2732 41d0 3b33 486a 3332
00000300: 1339 2631 c3c6 be31 4037 0132 d69d 5d31
00000310: 2c0e 0d32 9d4b 1732 81ee 2932 0ef1 df33
00000320: c076 dc32 3fc3 b632 79d0 8433 bba5 5d32
00000330: 9e95 c632 3ddc df32 5afc 0034 cd48 3033
00000340: 8d97 af31 eadc 2f31 2837 c631 80b1 6e31
00000350: c615 8730 3cd5 4e32 b287 0832 da43 3f32
00000360: 3418 9831 5a39 6531 5075 4b32 9e79 b331
00000370: 4d95 ae31 3ac3 e331 ff48 1c32 de1d 5433
00000380: 6abc 9a31 75c3 4030 6119 5632 44ce b931
00000390: 0805 9e30 2d8f 1432 359b 2a33 e58f 8c32
000003a0: 6089 4130 9e5a 9e30 0809 0f31 af66 0f2f
000003b0: 52f1 cd30 1a5a 1631 fbf5 4831 b242 0832
000003c0: 0a16 ce31 a3e2 2432 0426 5c32 6a60 d032
000003d0: f368 9432 e037 7c32 0802 f534 8c6f 9633
000003e0: b07f 4831 82f5 8f31 5783 8831 b0dd 0831
000003f0: 4881 a930 abec 1932 55a7 ca31 9869 ae2f
5.0308036e-10 4.8318455e-10 7.18146e-10 4.1580278e-10 3.1857403e-10 1.8844548e-09 1.2405752e-08 1.37328e-08
1.4250649e-08 1.0010364e-08 2.9265966e-08 7.926243e-09 9.46808e-09 1.0346314e-08 2.3572127e-08 1.4175501e-08
1.4598016e-09 1.2729283e-09 1.9125943e-09 1.1802187e-09 8.5395513e-10 2.3878348e-09 3.6730639e-09 1.2298331e-08
1.5084456e-10 1.0739444e-10 3.250311e-10 1.54573e-10 1.1860499e-10 1.9986541e-09 1.14917516e-08 6.8023374e-09
8.8639915e-11 5.5919054e-11 1.0321317e-10 2.5931696e-10 1.6255614e-10 1.063388e-09 1.0012587e-09 3.5067056e-09
2.7446305e-09 7.7743034e-10 1.104372e-09 4.646312e-09 1.3099504e-09 7.141491e-10 1.1533545e-08 2.809657e-08
4.8655235e-10 2.2292372e-09 1.2881086e-09 1.9996904e-10 3.3734326e-09 5.7672205e-09 2.0539591e-08 1.6194953e-08
3.7113176e-10 2.0491417e-09 3.1302338e-10 5.5716887e-10 1.2070769e-09 3.8597827e-09 3.1291544e-10 2.1150953e-08
2.747442e-08 2.962785e-08 6.810109e-08 1.3000146e-08 2.7740294e-08 2.076738e-08 2.5367268e-07 2.8248909e-08
5.3634523e-09 2.8094727e-09 5.6035603e-09 7.095788e-09 1.5918773e-09 9.4559764e-09 1.06296724e-07 7.433982e-08
1.9448692e-09 9.004212e-10 4.086729e-09 4.8271196e-09 2.4137723e-09 6.54379e-09 1.5104706e-07 1.1000424e-08
8.7169685e-09 1.9732296e-08 3.447039e-09 2.795542e-09 5.932339e-10 5.3053597e-09 5.8134592e-08 2.084944e-08
1.9413545e-08 1.7411087e-09 2.562961e-08 2.493723e-08 4.760366e-09 4.1866997e-08 2.105276e-07 1.9205757e-08
1.0002649e-08 3.2915475e-09 2.4461919e-08 7.753033e-09 3.9099843e-09 5.212968e-08 6.284841e-08 3.847195e-08
2.834215e-09 1.9682997e-09 4.014528e-09 2.9146094e-09 1.6517119e-09 2.2294764e-09 1.8892658e-08 2.4017462e-08
5.9244637e-10 4.503585e-10 1.1343921e-09 1.0757154e-09 4.5779028e-10 2.315209e-09 1.9137389e-08 7.560082e-09
5.3465254e-10 6.4256905e-10 2.703206e-09 2.3788718e-10 9.633726e-10 2.1906212e-09 1.2147121e-08 4.6015955e-09
2.259193e-08 2.1682638e-09 3.2161203e-08 2.708098e-08 2.7902751e-09 4.1314475e-08 2.1409801e-07 1.9768319e-08
1.2882879e-08 9.722717e-09 3.454857e-08 6.8376007e-09 1.3237246e-08 9.798013e-09 7.927649e-08 1.7908452e-08
6.290593e-10 7.4562173e-10 1.05035e-09 8.634239e-10 1.0222525e-09 3.0970737e-09 1.7078728e-09 1.4298162e-08
7.298294e-10 1.5218522e-09 3.0199523e-09 3.5421355e-10 2.7688976e-09 8.0950413e-10 3.9253568e-08 6.7216988e-09
1.2326762e-09 8.6721585e-10 6.3298016e-09 2.2304233e-10 2.410694e-09 4.251375e-09 3.353916e-08 2.4037519e-08
5.812466e-09 7.949117e-09 2.5944106e-08 1.0672372e-08 2.2146372e-08 1.4532265e-08 3.5626687e-08 2.93153e-07
7.3677473e-09 1.5088868e-09 6.996232e-09 8.00366e-09 8.816693e-10 9.754704e-09 4.3728736e-08 1.0443337e-08
2.4188622e-09 5.5523244e-09 7.521351e-09 3.2249452e-09 8.2105025e-09 8.806549e-09 9.891324e-09 1.0428094e-07
2.5665372e-08 2.1276376e-08 6.18465e-08 1.2901576e-08 2.3118272e-08 2.606077e-08 1.2012734e-07 4.1044405e-08
5.1103997e-09 2.5591427e-09 5.768829e-09 3.4734455e-09 9.828731e-10 1.2039262e-08 7.947095e-09 1.1133091e-08
4.426534e-09 3.3356486e-09 1.1842829e-08 5.223412e-09 5.08104e-09 6.628764e-09 9.0969925e-09 4.938726e-08
4.50341e-09 7.0126954e-10 1.246221e-08 5.4076583e-09 1.1497443e-09 8.647288e-09 3.972237e-08 1.636358e-08
7.040821e-10 1.1521768e-09 2.0814372e-09 1.3042255e-10 1.49843e-09 2.187909e-09 2.9243654e-09 7.931407e-09
5.9978946e-09 9.597588e-09 1.2814329e-08 2.4258231e-08 1.7277193e-08 1.4681035e-08 4.5636284e-07 7.0052096e-08
2.9176412e-09 4.1897588e-09 3.9730526e-09 1.991662e-09 1.2333112e-09 8.959584e-09 5.897997e-09 3.1725444e-10

exp_avg f4 [64]
00000000: e9eb 0fb9 8897 933a b50b 26ba 7593 00b9
00000010: 4843 93b7 ec41 373a ecfe a7b8 cc14 11b9
00000020: fcf1 f3ba dcf5 8038 33d6 fab9 bc55 c73a
00000030: 0a2e 413a ae11 c13a 668b 883a e47e 5a38
00000040: 8815 0c3a 2e7b b83a 5918 baba fde0 7539
00000050: 9e44 3dba 71a3 fbb9 fc64 ce3a 6501 a2b9
00000060: 4292 6cba 07aa 06bb 4784 243a b46d d43a
00000070: 93a6 5d3a 3671 e139 ad19 84ba 373d 883a
00000080: 6ec0 50ba 4af0 efba 78ed 9d39 0e97 6cba
00000090: 3881 7838 d680 b3ba 50d6 dcb7 f4f7 3f3a
000000a0: 06d4 36ba fd92 5f3a 576a b639 e0db 8cb8
000000b0: d3ee d239 bcbc 98ba fe63 853a ce91 0eb8
000000c0: a770 05ba 96ff 82ba 1405 283a 7e1a 9e39
000000d0: f258 23ba daab 3f3a 2206 23ba 9d71 1d3b
000000e0: 4876 dfb7 84bb b53a adba 3f39 1ec2 b439
000000f0: 948c 7fba 1cfc 833a 422e 59b9 a358 d2ba
-0.00013725426 0.001126037 -0.0006334142 -0.00012261963 -1.7555096e-05 0.0006990719 -8.0106634e-05 -0.00013836025
-0.0018611546 6.1493105e-05 -0.00047843307 0.0015208046 0.0007369226 0.001473 0.001041752 5.2093426e-05
0.00053437846 0.0014074796 -0.001419793 0.00023448835 -0.00072200026 -0.00047996224 0.0015746648 -0.00030900087
-0.00090244797 -0.0020548122 0.00062758144 0.001620701 0.00084553024 0.00042999693 -0.0010078453 0.001039422
-0.00079632446 -0.0018305865 0.00030122302 -0.00090251944 5.9248152e-05 -0.0013695012 -2.632584e-05 0.00073230197
-0.0006974343 0.0008528678 0.00034792974 -6.716675e-05 0.0004023226 -0.0011652927 0.0010176895 -3.399123e-05
-0.0005090334 -0.0009994383 0.0006409448 0.00030155847 -0.00062312104 0.00073116797 -0.00062188704 0.0024024018
-2.663875e-05 0.0013865088 0.00018284722 0.00034476904 -0.0009748426 0.0010069641 -0.00020711965 -0.0016048144

exp_avg_sq f4 [64]
00000000: 5124 fe30 4013 b233 1878 0133 6c09 4130
00000010: 97f3 2c31 9ce0 6232 7074 0631 c41c 2631
00000020: 6538 2734 4a03 0533 bac8 1833 6747 db33
00000030: 5119 aa33 6235 4434 f48f 9f33 120c ae31
00000040: 003e f432 4ecc ea33 e7e1 eb33 3341 b531
00000050: deb8 d232 1ff5 4932 5a85 9133 565d 8f32
00000060: f366 d932 6657 7934 c015 3e33 71ef 8833
00000070: 53f9 9833 b8cb 5832 54f3 9e33 550f d232
00000080: e5c9 e232 ee5b 3b34 76ab 2832 e220 3333
00000090: 9807 0632 620b f533 6de8 a732 ab69 1d33
000000a0: ac56 d632 f810 5733 e00c a932 7d2a 6c32
000000b0: b00a d233 21da 1433 d66f 0e33 f6f6 ad31
000000c0: 1647 bb32 a9d8 b633 dbe7 f632 8645 fb31
000000d0: f040 2933 a4cb 0533 fc1b a632 b2d9 8834
000000e0: 1f96 d131 b0ca a433 f496 2331 aa13 d031
000000f0: 3631 d732 72cb bd33 3a1b 5032 bb02 8233
1.8491254e-09 8.2922725e-08 3.0144378e-08 7.022638e-10 2.516776e-09 1.3206002e-08 1.9565753e-09 2.417253e-09
1.5573603e-07 3.0969467e-08 3.5572818e-08 1.021097e-07 7.920847e-08 1.8273343e-07 7.4301994e-08 5.0654387e-09
2.8433533e-08 1.0933637e-07 1.0984132e-07 5.2752056e-09 2.4531285e-08 1.1755474e-08 6.776345e-08 1.6689835e-08
2.530894e-08 2.3221727e-07 4.4257604e-08 6.376548e-08 7.1234034e-08 1.2619175e-08 7.4017095e-08 2.445419e-08
2.6401674e-08 1.7449176e-07 9.817873e-09 4.1706592e-08 7.801553e-09 1.1410772e-07 1.9547054e-08 3.6650516e-08
2.4952293e-08 5.007402e-08 1.9680044e-08 1.3746669e-08 9.780831e-08 3.4657322e-08 3.3163666e-08 5.063039e-09
2.1801991e-08 8.514446e-08 2.8743605e-08 7.3129653e-09 3.940744e-08 3.1151686e-08 1.933767e-08 2.5490368e-07
6.0997674e-09 7.673714e-08 2.3805429e-09 6.0558323e-09 2.5051673e-08 8.838005e-08 1.2113384e-08 6.0540934e-08

exp_avg f4 [8, 64]
00000000: fa95 be3a e23f 12bb a097 c5ba 6fa3 bd3a
00000010: 71ae 78b9 4db2 11b9 54a7 06bb ae78 81b8
00000020: 711d bb3b f30b b9ba ca2c 53b9 ac4f 80b8
00000030: 0368 7cbb ed4a 45bb 593e 85b9 af1a 2639
00000040: 5630 88b9 a7ca 26bb 1202 f63a 7c1d b0ba
00000050: 4406 5eba ac9a d8ba 8c50 77b9 63fb cd3a
00000060: e45b c638 5229 413b 18a2 8e3a f472 1aba
00000070: 0cf4 92ba efa7 b8b7 3265 a23a 3050 4bba
00000080: 7036 ff39 a28c 7c3b 0005 03b5 f79b af39
00000090: 26d4 303a a6d5 b33a aea4 f93a e892 10b8
000000a0: 0cc0 b03a 8c63 143a 9e3e 7cbb a936 b139
000000b0: 8069 78bb f88c 5539 5f8e 50ba 4051 3d38
000000c0: 00e9 8339 e2bb 543b cc0c fbba 02e9 893a
000000d0: 39d9 aaba aa5c 90bb 36db 063b 8489 99bb
000000e0: a61f 36bb 6ae6 7fbb 348a 233a fec6 20bb
000000f0: d50b cab9 27cb 5eba fa22 553a 9009 ceb7
00000100: ee7b ccb9 6573 a63a 5cac afb9 7b48 0bba
00000110: 8fb2 cc38 0208 7839 6aed 8339 66a5 63b9
00000120: cc3a 12bb 46b5 ecb8 80cf bdb7 624b 053a
00000130: fc01 a73a cd91 a73a e19d 2f3a e205 7db9
00000140: 936b 4c3a a080 7a3a 84b6 9dba 5218 ed39
00000150: cc62 24b8 ddd9 6837 4af5 9d39 0844 3bba
00000160: dc01 45b9 f152 c9ba a73c 4539 cf02 b839
00000170: 4dd3 213a ceaf e839 ddf0 87b9 5ae2 e739
00000180: 3f9b 02ba 00ac c5ba a57d 3239 ed40 a5b9
00000190: 6899 99b9 9a8a 9aba 5caf 94b9 57da ce39
000001a0: 1c49 54ba d285 463a 771c 6d39 c81a ccb7
000001b0: 8887 bc3a 8057 beb9 ad24 163a 2743 b0b9
000001c0: ed02 bbb9 8d49 c8ba 411d 6a3a de2c 9ab7
000001d0: b650 c7b8 457f c33a 7a55 09ba 2460 df3a
000001e0: 82f3 9db8 4d77 e13a 4ab0 6639 9612 743a
000001f0: 74e5 8ab8 0321 553a aaa7 84b9 0b75 8cb9
00000200: d4a4 4738 be89 cfb9 034f ea39 c432 84b9
00000210: fc86 dbb9 c263 41ba 6cb6 37ba 9676 48ba
00000220: 30ce 0938 0e0d a738 326d 973a a656 93ba
00000230: d195 52ba d603 86ba aea5 dbb9 7c1b bcb9
00000240: 05bb b539 51d6 deb9 7014 3739 c43b e438
00000250: 2366 3739 056a 433a 6134 26ba a062 0ab8
00000260: f1bc 8839 2848 2b38 9548 63ba cc31 64ba
00000270: a900 05b9 4e84 88b8 1520 973a c679 99ba
00000280: 61bf a83a 10f2 883a 3424 70ba bb1c 4f3a
00000290: 7aeb 46ba f030 f339 83f2 903a 8bc2 01b9
000002a0: 1623 acb9 b857 c5b7 bf1f 74ba 6a6e 0a3a
000002b0: c972 bfba 8434 4c3a a275 4cba 4cc8 2b38
000002c0: d6e1 7ab9 1b3b 103a e478 cc39 901b 1838
000002d0: 9993 ba3a 8462 5aba b5a6 ac39 8e6e f0b9
000002e0: 1654 85b9 e42a 34ba 63ed 2b3a c4d0 b8b9
000002f0: 3fe9 013a ec4f 21ba c0f2 4b37 5878 9b3a
00000300: 3072 d73a 4924 d9ba eda8 24bb 209a ae3a
00000310: 4090 cfb7 1adf 1438 040b 27bb 38f4 deb9
00000320: e537 a23b 72da 0cbb f446 83b8 b098 1a3a
00000330: 9055 87bb d6e4 3bbb e07d 203a c685 6cb9
00000340: 2f2d 5f3a f24b 35bb 554e 843a 1ca6 bcba
00000350: 0482 adba 5ca4 14bb b0a9 0e39 bfc7 d53a
00000360: c4ee 05b9 c046 103b 78f2 ce3a 433a b5b9
00000370: 7c02 86ba 860c 453a 5a58 df3a 353a 0aba
00000380: 90ab c8b8 d4d6 743b 7dfe 9539 50d1 f537
00000390: 9f4f be39 9c19 0c3a 6885 203b 7a44 4139
000003a0: 8f48 813a a6bd e23a 3264 a3bb 2191 e439
000003b0: 3734 6ebb b3c2 56b9 7c47 dcb9 2030 2db7
000003c0: d86f b0b9 7a32 283b 0c04 d8ba 3b94 d33a
000003d0: 423d f2ba e78d 82bb ebd5 2d3b d76a 89bb
000003e0: e3de 8abb 3152 4bbb 7f53 7d3a 10a1 0abb
000003f0: e4df 3bba eca0 cbb8 5e49 993a e40e f0b9
0.0014540546 -0.002231591 -0.0015075095 0.0014468263 -0.00023716108 -0.000138947 -0.0020546513 -6.173678e-05
0.005710297 -0.0014117941 -0.00020139213 -6.118356e-05 -0.0038514144 -0.0030104474 -0.0002541419 0.00015840934
-0.00025975954 -0.002545038 0.0018768928 -0.0013436521 -0.00084695616 -0.0016525588 -0.00023585762 0.0015715178
9.458492e-05 0.0029474092 0.0010882048 -0.0005891763 -0.0011211648 -2.201271e-05 0.0012389778 -0.00077557843
0.0004867795 0.0038535972 -4.880858e-07 0.00033494804 0.000674548 0.0013720288 0.0019046271 -3.4469092e-05
0.0013484969 0.00056605856 -0.0038489471 0.00033800796 -0.003790468 0.00020365778 -0.0007955785 4.513678e-05
0.00025159866 0.003246062 -0.0019153594 0.0010521712 -0.0013034708 -0.0044055777 0.0020577437 -0.0046855826
-0.002778986 -0.003904725 0.00062385504 -0.002453267 -0.00038537258 -0.00084989 0.0008130517 -2.4561567e-05
-0.00039002247 0.0012699185 -0.0003350702 -0.00053132296 9.760737e-05 0.00023654106 0.00025163154 -0.00021710023
-0.0022312878 -0.00011287122 -2.262718e-05 0.000508478 0.001274168 0.0012784541 0.0006699246 -0.00024130152
0.0007798012 0.000955591 -0.0012032543 0.00045222283 -3.919266e-05 1.3879003e-05 0.00030128128 -0.00071436213
-0.00018788077 -0.0015359801 0.00018809979 0.00035097307 0.0006173149 0.00044381473 -0.00025928664 0.00044228398
-0.000498224 -0.0015081167 0.00017022209 -0.00031519626 -0.0002929673 -0.0011790574 -0.00028359413 0.00039454058
-0.00080980523 0.00075730414 0.00022612685 -2.4331166e-05 0.0014383653 -0.00036304817 0.0005727511 -0.00033619368
-0.000356696 -0.0015280709 0.0008930751 -1.8379124e-05 -9.504093e-05 0.0014915249 -0.0005238872 0.0017042202
-7.5317e-05 0.0017201692 0.00022000182 0.0009310631 -6.623092e-05 0.00081302243 -0.0002530192 -0.00026790085
4.7598805e-05 -0.00039584743 0.00044690826 -0.00025214825 -0.00041871506 -0.0007377231 -0.0007008079 -0.0007647065
3.2855372e-05 7.965612e-05 0.0011552928 -0.0011241033 -0.00080331886 -0.0010224532 -0.00041894376 -0.00035878632
0.0003466235 -0.00042502818 0.00017459854 0.000108830194 0.00017490289 0.0007454458 -0.00063402025 -3.2993616e-05
0.00026080714 4.0836778e-05 -0.00086701784 -0.000870493 -0.00012684114 -6.509629e-05 0.0011529947 -0.0011709265
0.0012874418 0.0010448117 -0.0009160668 0.00079007045 -0.00075881893 0.00046385033 0.0011058602 -0.00012374872
-0.00032832538 -2.3525077e-05 -0.0009312592 0.0005280735 -0.0014606352 0.0007789808 -0.0007799511 4.0956118e-05
-0.00023925988 0.00055019715 0.00038999983 3.6265294e-05 0.0014234661 -0.000833072 0.00032930603 -0.00045858737
-0.00025430386 -0.0006872846 0.00065585057 -0.00035250757 0.0004955716 -0.0006153572 1.21562625e-05 0.0011861427
0.0016437229 -0.00165666 -0.0025125102 0.0013321079 -2.4743495e-05 3.549373e-05 -0.0025488744 -0.00042525097
0.004950511 -0.0021492508 -6.259783e-05 0.0005897386 -0.004130073 -0.0028670332 0.00061222725 -0.00022556548
0.0008513508 -0.0027663675 0.0010094146 -0.0014392766 -0.00132376 -0.0022680974 0.00013605389 0.0016310139
-0.00012772816 0.0022014827 0.0015788814 -0.0003456642 -0.0010224129 0.000751682 0.0017039881 -0.0005272956
-9.568699e-05 0.0037359493 0.00028609103 2.9303745e-05 0.00036298946 0.0005344392 0.0024493579 0.00018431424
0.0009863543 0.0017298951 -0.0049863094 0.00043595678 -0.003634704 -0.00020481161 -0.0004201493 -1.03228085e-05
-0.00033652666 0.0025664852 -0.0016480698 0.0016142199 -0.0018481391 -0.0039842012 0.002652521 -0.0041936445
-0.004237996 -0.0031024332 0.0009663626 -0.002115313 -0.0007166846 -9.709768e-05 0.0011694839 -0.00045787462

exp_avg_sq f4 [8, 64]
00000000: 4f8c 8b33 92a6 0e34 299e cd33 6dfa 8733
00000010: bc81 2033 7335 3732 c4bc 2f34 2df3 1433
00000020: 30bd 3935 6dd4 9f33 1bd9 9232 033b 2533
00000030: 8071 a934 c59d 6834 033d b532 c0cf 6f32
00000040: e401 7233 eecd 1f34 08fc c033 bd84 4333
00000050: da28 f332 2fe4 c633 ddc5 eb32 5657 ad33
00000060: cca9 2432 66db 5f34 56c7 4733 ce3b 2533
00000070: df4f 1b33 d085 1132 faa8 7e33 2efa 9233
00000080: b6bc 9633 aaa5 a834 6f78 d432 4c47 4933
00000090: 1e73 c532 d807 8b33 2e9d 1d34 64d3 0433
000000a0: f617 a733 f854 ac33 2bc7 1a35 62f6 4f32
000000b0: 5484 a734 727f 6732 eaf3 0833 4f92 4433
000000c0: dbad ad31 e4e1 8234 011c d633 b668 4533
000000d0: 6ee6 6633 e427 fc34 ffa3 d033 2830 0035
000000e0: a972 8f34 c0ad b834 6ef7 c033 f106 4734
000000f0: 1340 9032 527b 5533 ffdd d532 2cf0 1d33
00000100: 6e3f e831 4a35 1d33 db60 5c31 a2a0 0932
00000110: 90a4 ac31 5525 7431 bea8 6432 2474 1032
00000120: 1fe9 ec33 7eee 4e31 6285 9d31 1259 6032
00000130: 54cd 2a33 ec75 3b33 8a70 2a32 c1f2 1f31
00000140: 5038 8c32 76ca ba32 8693 0c33 c89e bb31
00000150: 1dd9 c22f 4e0f f82f b875 0732 0df1 5c32
00000160: fe00 6f31 2857 6433 eb83 8930 66b2 2732
00000170: 16f2 1832 43ae 9031 2de4 0832 c186 8c32
00000180: 50ef 9332 d04e 5e33 7e79 a230 06c2 3132
00000190: 5ecc 2431 7493 0533 602d 3632 e280 ba31
000001a0: a938 9832 e98f 9032 8ca8 ff32 a56f 3031
000001b0: fe4c 5933 a7ab bc31 3416 3732 4038 a931
000001c0: 8f6f 4a31 a63a 6c33 8e7f ab32 ee67 3631
000001d0: 7c33 a731 f438 8033 b8a4 0832 5933 9033
000001e0: ec9e 5c32 f7f7 9533 bfb8 1f32 838a 0533
000001f0: 8c58 6131 d185 a632 030e 0331 71c4 2232
00000200: df13 c031 2465 d831 148e cb31 9091 c730
00000210: bcf7 7232 9ec5 ae32 8c16 0733 fc4f 0e33
00000220: fc56 8831 f601 f131 5e46 2d33 5206 2733
00000230: 1939 9132 e883 e432 c852 8531 9ed4 9e31
00000240: dc8a 5732 4027 be31 aaa9 2331 e8b8 fa2f
00000250: 9176 ca30 bcf1 4832 c07d ae32 8eb4 3931
00000260: 3357 a631 cea1 e231 4693 8532 c633 1b33
00000270: 3013 e730 ea32 2331 8ebc 2f33 3798 7633
00000280: 8f19 7433 ce31 d732 4ba4 9932 50d3 da32
00000290: 808d 7a32 10a6 0c32 8e37 2833 f2f9 c931
000002a0: c682 9132 fb7a 6032 34e1 9333 22f2 9032
000002b0: dea1 5433 a46c be32 9b94 ac32 c777 a731
000002c0: b2ad 4631 0d68 eb31 36c8 c231 9432 2832
000002d0: adb6 7b33 8acc c532 d792 b831 f099 b731
000002e0: a074 e232 1589 4a32 bf57 0233 841c 4932
000002f0: 0e9a 7532 e52c 2a32 deac 2c31 66d8 6833
00000300: c6a4 a533 64a5 d633 d2ff 4c34 5e99 8333
00000310: be0c 0933 3f23 5532 c5e8 6034 ee60 c832
00000320: c8e3 1235 72c2 0a34 eec6 5c32 7667 5333
00000330: fa5e c934 4611 6334 46d5 1933 4308 6132
00000340: 727c 9033 6db0 4634 6e9e 6533 4876 6033
00000350: 50e5 6633 3cdd 2034 e24c cc32 8ab5 c333
00000360: 8844 1132 91f3 1534 5477 b133 fae5 0a33
00000370: e611 1833 e48e b932 c347 ad33 e76a 7633
00000380: 4c88 9233 ce1e a834 7059 0a33 8d9b 3d33
00000390: 86c3 8332 c82e 2d33 e49c 5134 649f 1733
000003a0: 0cff 6f33 3a1b 0e34 59fd 5535 846c 5532
000003b0: 63ca a034 c279 8932 ddfc ea32 10e4 6b33
000003c0: 32d3 d831 b22a 4a34 ec16 b333 9849 a533
000003d0: 46f3 c633 8e2b ee34 330d 2f34 5bb0 e534
000003e0: 62a2 fb34 80dc 8d34 b21c d033 bab4 3234
000003f0: f27a ac32 6e5c 4b33 f685 3933 ed4e 2433
6.498214e-08 1.3285378e-07 9.5748256e-08 6.3319796e-08 3.7370896e-08 1.0664155e-08 1.6366818e-07 3.4680102e-08
6.9193175e-07 7.4426545e-08 1.7095365e-08 3.8470727e-08 3.1561285e-07 2.166408e-07 2.1098918e-08 1.3958868e-08
5.6346735e-08 1.4882946e-07 8.986541e-08 4.55227e-08 2.83075e-08 9.2616e-08 2.7447578e-08 8.0718266e-08
9.584664e-09 2.084831e-07 4.6514593e-08 3.847145e-08 3.6161392e-08 8.470536e-09 5.9292667e-08 6.844162e-08
7.0192456e-08 3.1412975e-07 2.4734815e-08 4.6863804e-08 2.2986168e-08 6.474119e-08 1.4678946e-07 3.0925904e-08
7.780902e-08 8.02483e-08 5.76593e-07 1.2105007e-08 3.1202455e-07 1.3474947e-08 3.1886806e-08 4.5767873e-08
5.0547277e-09 2.4378744e-07 9.9702454e-08 4.596287e-08 5.3760623e-08 4.6967682e-07 9.7155855e-08 4.775379e-07
2.6719252e-07 3.439909e-07 8.985704e-08 1.8535845e-07 1.6792944e-08 4.9705086e-08 2.4897416e-08 3.6772846e-08
6.7593e-09 3.6602877e-08 3.206927e-09 8.010973e-09 5.0245674e-09 3.5527894e-09 1.3309714e-08 8.4083105e-09
1.1032011e-07 3.0112512e-09 4.5844653e-09 1.3058768e-08 3.9767954e-08 4.364658e-08 9.920891e-09 2.3275535e-09
1.6323753e-08 2.1745318e-08 3.2730462e-08 5.4604676e-09 3.5442663e-10 4.5121812e-10 7.8848e-09 1.2860494e-08
3.4779641e-09 5.3164655e-08 1.0005555e-09 9.7612425e-09 8.902608e-09 4.210763e-09 7.968123e-09 1.6359424e-08
1.7221879e-08 5.1760082e-08 1.1821581e-09 1.0346872e-08 2.398131e-09 3.1100583e-08 1.0604111e-08 5.4279647e-09
1.7720895e-08 1.6829249e-08 2.9762553e-08 2.5674833e-09 5.0594274e-08 5.4910347e-09 1.065705e-08 4.9249422e-09
2.9458282e-09 5.5001372e-08 1.9965025e-08 2.6543563e-09 4.866193e-09 5.970824e-08 7.953695e-09 6.7148626e-08
1.284182e-08 6.983458e-08 9.2970245e-09 3.109245e-08 3.2792142e-09 1.9385796e-08 1.9070974e-09 9.474307e-09
5.5901945e-09 6.2979257e-09 5.92423e-09 1.4520527e-09 1.4142582e-08 2.0346132e-08 3.1452643e-08 3.3134697e-08
3.96801e-09 7.014246e-09 4.03437e-08 3.8888466e-08 1.6906187e-08 2.6602677e-08 3.8802206e-09 4.622577e-09
1.254622e-08 5.53419e-09 2.3816065e-09 4.560612e-10 1.4731133e-09 1.1696496e-08 2.031345e-08 2.7023677e-09
4.8411493e-09 6.5958607e-09 1.555021e-08 3.6135837e-08 1.6812916e-09 2.3748563e-09 4.0916852e-08 5.7414777e-08
5.6833922e-08 2.5051943e-08 1.7886256e-08 2.5474634e-08 1.4584089e-08 8.186831e-09 3.9166075e-08 5.8782854e-09
1.693969e-08 1.3066479e-08 6.886185e-08 1.6873916e-08 4.9507314e-08 2.2168315e-08 2.0091013e-08 4.873957e-09
2.8911527e-09 6.8512294e-09 5.6689045e-09 9.790387e-09 5.8606634e-08 2.3026832e-08 5.3717986e-09 5.3435016e-09
2.6362898e-08 1.1789116e-08 3.034779e-08 1.17062235e-08 1.4295905e-08 9.90551e-09 2.5127558e-09 5.4213523e-08
7.713383e-08 9.995236e-08 1.9092047e-07 6.12806e-08 3.1909387e-08 1.2406246e-08 2.0946307e-07 2.3327143e-08
5.4720704e-07 1.292299e-07 1.2850917e-08 4.9221363e-08 3.7508272e-07 2.1147306e-07 3.581706e-08 1.3098602e-08
6.728159e-08 1.850437e-07 5.346231e-08 5.226164e-08 5.3759607e-08 1.4981646e-07 2.3783688e-08 9.113417e-08
8.455693e-09 1.3965315e-07 8.2639104e-08 3.233979e-08 3.5406536e-08 2.1601814e-08 8.068994e-08 5.7373565e-08
6.823447e-08 3.1314852e-07 3.221197e-08 4.4146464e-08 1.5339321e-08 4.032225e-08 1.9521718e-07 3.5302392e-08
5.5878488e-08 1.3234686e-07 7.971735e-07 1.2422905e-08 2.9949578e-07 1.6004268e-08 2.7356174e-08 5.4922623e-08
6.3104375e-09 1.8828248e-07 8.3395065e-08 7.696798e-08 9.264345e-08 4.4362645e-07 1.6302947e-07 4.278289e-07
4.6870542e-07 2.6423731e-07 9.6909744e-08 1.664329e-07 2.0079344e-08 4.7348685e-08 4.3195506e-08 3.8256008e-08

exp_avg f4 [8]
00000000: dae7 e4ba c4d2 c5b8 926a 393b bd21 30bb
00000010: 734e 173b 6b69 3c3a 23f5 763a 72eb a7bb
-0.0017464117 -9.43295e-05 0.002829228 -0.0026875578 0.002308753 0.00071873394 0.00094206835 -0.005124503

exp_avg_sq f4 [8]
00000000: a83d bb34 8971 5733 ac7c 9c34 a532 ce34
00000010: 1938 5b34 e832 9433 11e3 5833 105e 7735
3.4876325e-07 5.0161848e-08 2.9147975e-07 3.840734e-07 2.0416373e-07 6.901047e-08 5.0497935e-08 9.215155e-07

exp_avg f4 [2, 8]
00000000: 56ba 0fbc fad9 2b3b b390 863b d087 68bc
00000010: be17 133c a3d8 543b c074 7bbb 60ef 9fbc
00000020: 56ba 0f3c f2d9 2bbb b890 86bb cd87 683c
00000030: be17 13bc a2d8 54bb c674 7b3b 60ef 9f3c
-0.008772453 0.0026222453 0.004106605 -0.0141925365 0.008977829 0.0032477758 -0.003836915 -0.019523323
0.008772453 -0.0026222435 -0.0041066073 0.014192534 -0.008977829 -0.0032477756 0.0038369163 0.019523323

exp_avg_sq f4 [2, 8]
00000000: 666d 2e36 e1bf 2f35 0e98 e235 e49b a836
00000010: 0b14 2436 2445 8035 86b9 5435 d8f5 2537
00000020: 686d 2e36 ddbf 2f35 1298 e235 e09b a836
00000030: 0d14 2436 2745 8035 89b9 5435 dbf5 2537
2.5991699e-06 6.54718e-07 1.6882566e-06 5.024938e-06 2.444957e-06 9.556866e-07 7.9246126e-07 9.892006e-06
2.5991703e-06 6.547178e-07 1.688257e-06 5.0249364e-06 2.4449575e-06 9.556869e-07 7.9246144e-07 9.892009e-06

exp_avg f4 [2]
00000000: cf80 27bc d080 273c
-0.010223581 0.010223582

exp_avg_sq f4 [2]
00000000: 54bc 4936 54bc 4936
3.0060955e-06 3.0060955e-06

model.1.defunc.m.0.weight f4 [64, 8]
00000000: fd07 8ebd 5d6e 8c3e 373f 943e c778 c4bd
00000010: ee26 e8bd 95f1 a43e 8b65 fb3d 1f50 87be
00000020: 7776 e13e f949 eebe 5852 9cbd 70e1 c33d
00000030: 38e9 e93e 9745 a7bd 1c9f 383d 808a d9be
00000040: cf0c 15be 06e4 133e e975 633e 54d3 443e
00000050: 82bb 32be 02fd 303e bf5c a6bd 32ae a03e
00000060: 8943 aebe 5743 d4bd 2d45 913d 5c40 52be
00000070: 05c6 fcbe e394 8a3d 625e 2fbe 4c1f 24be
00000080: fee2 b3be 729d 923e 2bd5 fa3d 3a39 65bd
00000090: 3e08 6d3e e6e7 45be 737d 1c3e 0657 b13d
000000a0: 820f 89bc b827 36bd 81ee ce3d 18a6 f03d
000000b0: 1cd7 403e a149 f6bd d694 25be a46a 5d3b
000000c0: 8ee5 d53e d5ee 9cbd f695 bf3d 1dda 993e
000000d0: 841a bbbe 1e6d 4a3e fe93 b6bd 5a69 763e
000000e0: 9586 a3be f168 13bd dc47 783e 9689 df3c
000000f0: 8b9b 4fbd a1ab 743d d3a0 35be c4c3 423b
00000100: e567 f2be eb0e 833e d041 eabe d9f6 23bc
00000110: 5878 82be 599a 873e f3e0 04bf 70c3 e43e
00000120: 5828 a43e feb9 9a3d 787e 23bc 4f21 75be
00000130: 9cdd 0abe 7982 3e3c b231 0dbe 6ea1 863e
00000140: 0e7f da3d 289a 413d 0547 82be 4e33 4e3d
00000150: 2a00 73be 5d2b b4bd 7793 d63e 234f 463e
00000160: ccbf 743d 39e3 213e 3251 a43e 3b8e 113e
00000170: 5de0 883e 24d0 d7bd fd8b c63d 88b5 16be
00000180: a5c2 f73e ec3b 11be 48e1 413d cfed d93e
00000190: 0304 b9bd 348d 81be fba6 eebe d8b0 8abe
000001a0: f64f 163e a2e9 eabe f3f7 223d b3cb ca3e
000001b0: 29ca 883d a3db cfbe 2541 98be 2715 49be
000001c0: 5142 54be f6a2 1cbe aeea a0bd 943e 0f3e
000001d0: 1cc8 373e 0fe0 72be 8159 383e cd7e 26be
000001e0: 7689 eb3b fe1c 25bd 4093 673c 30b9 c63d
000001f0: 10e2 a6be 1e1b d23d 43be 40be 5b1e 3ebc
00000200: 3730 1d3e 1ed1 b23d 77e8 3c3e ddd4 d1be
00000210: dd3b 9e3e c89f a0be 1f7c c93e cebd 89be
00000220: 96e1 a43e 63f6 f9bd 7f23 583e af95 0f3e
00000230: 8989 9f3d 5716 bcbe d22b e2be 338a 4ebe
00000240: da4a c83d 067e 203e 99e8 d5bd 0f1e 97be
00000250: dfda bdbe b0b1 f03d d0ee bcbe f9e9 9e3e
00000260: c784 863e 1b21 86bb e1e1 f4bd 1178 873e
00000270: 92ef 3ebd 38ab 48be f298 053d 600f db3d
00000280: f82b 62be ba5d 153e 2c90 89bd 27e2 883e
00000290: f33c 543e a62e 45be bcf4 37be 3363 603e
000002a0: af79 50bc 9d1a dc3d 0c62 d13e 54f0 503e
000002b0: ec9c b4bd f4f3 283e d84e 2b3e 2651 653e
000002c0: 4867 9f3d bf47 a1be 5799 a6bd 8bb8 60be
000002d0: 60c9 fdbd c95c cebd 40d9 8c3d 22a3 b13d
000002e0: c78a 83be e1fc b23e 6b63 2dbe dd57 29be
000002f0: f227 aabe c406 9d3e 3252 943e 5364 903c
00000300: f8e4 67be 248f bf3e b1c8 8e3e 7a84 3b3e
00000310: b0e9 d8bd 1506 33bd b72e a7bd fce1 62bd
00000320: 9a6d a0be 697a 753e 6d53 54be 1bb7 43be
00000330: 7ed7 6cbe c4fb 803e c706 8bbe 30a0 c73e
00000340: 8574 6f3d 1c0e acbe 86f0 873e b266 55be
00000350: a008 893e ba00 9a3d 7d99 6cbe da2d cbbe
00000360: 118d 9e3d 6076 10b9 9c58 be3e 40af c0bc
00000370: 5d8d 6abd 9f95 6cbe 949a b6bc 4e8f 113e
00000380: 2ea0 cd3e b132 f5bd d456 f33c 8ff5 c83e
00000390: 6d06 8ebe 99c9 1abe 49ac d4bd d5fe b8bd
000003a0: e1c7 0a3e 13f6 923e e21e 19be af95 833e
000003b0: 3380 17bd bce6 8fbd 60b3 a93e 1a01 63be
000003c0: 9d3b 4f3e df06 413e b1af bbbe 67fd 8ebe
000003d0: ba39 ea3d 230d 97be ebe0 df3e e311 4b3e
000003e0: 5eff 2f3d 084d 31be c674 b33e fd4f 463e
000003f0: d854 f4bd ec82 2abe 7efa 86bd f392 1f3e
-0.069351174 0.2742795 0.2895448 -0.09593349 -0.1133555 0.32215562 0.12275227 -0.26428315
0.44035694 -0.46540812 -0.07632893 0.09564483 0.45685744 -0.0816757 0.045073614 -0.4248848
-0.14555667 0.14442453 0.22212948 0.1922124 -0.17454341 0.17284015 -0.08123159 0.313829
-0.340359 -0.103644066 0.07093272 -0.20532364 -0.49369827 0.06766679 -0.17125848 -0.16027564
-0.3513412 0.28635746 0.1224769 -0.05596278 0.23147675 -0.19326743 0.1528223 0.086591765
-0.016731028 -0.044471473 0.10104085 0.1175043 0.18832058 -0.12025762 -0.16170058 0.0033785487
0.417767 -0.07662741 0.09354775 0.3004922 -0.36543667 0.19768187 -0.08914946 0.24063626
-0.31938615 -0.03598875 0.24246162 0.027287286 -0.050685447 0.05973399 -0.17737131 0.0029718736
-0.4734489 0.2559732 -0.45753336 -0.010007584 -0.2548244 0.26484945 -0.51905745 0.44680357
0.3206203 0.075550064 -0.009978883 -0.23938487 -0.135611 0.011627787 -0.13788489 0.26295036
0.10668765 0.047266155 -0.2544481 0.050341897 -0.23730531 -0.087973334 0.41909382 0.19366126
0.059753224 0.15809335 0.32093197 0.14214413 0.26733676 -0.105377465 0.096946694 -0.14717686
0.4839069 -0.14183015 0.047333986 0.42564246 -0.09033968 -0.25303042 -0.4661177 -0.27088046
0.1467894 -0.45881373 0.039787244 0.39608535 0.06679184 -0.40597257 -0.297372 -0.19636975
-0.20728423 -0.1529654 -0.078572616 0.13988715 0.1794743 -0.23718284 0.18002893 -0.16259308
0.0071880175 -0.040310852 0.014134228 0.097032905 -0.32594347 0.102590784 -0.18822579 -0.011603917
0.15350424 0.08731292 0.18448053 -0.40982714 0.30905047 -0.31371903 0.3935251 -0.26902622
0.32203358 -0.12205198 0.2110729 0.14021944 0.077899046 -0.36735794 -0.44174057 -0.20169906
0.09779902 0.15673074 -0.10444755 -0.2951512 -0.37081048 0.11752641 -0.3690095 0.31037882
0.26273176 -0.004093302 -0.119571455 0.2645879 -0.04661519 -0.19596565 0.032616563 0.10696292
-0.22087085 0.14586535 -0.06716952 0.2673504 0.20726375 -0.19256076 -0.17964453 0.21912841
-0.012724324 0.107472636 0.40895116 0.20404178 -0.08818993 0.1649931 0.16729295 0.22394237
0.07783371 -0.3150005 -0.08134716 -0.21945398 -0.12391925 -0.10076291 0.06877375 0.08673693
-0.25691816 0.34958556 -0.16932456 -0.16537423 -0.332336 0.30669224 0.2896896 0.017625963
-0.22645938 0.37413895 0.2788749 0.18312255 -0.10591447 -0.043706972 -0.08163207 -0.055391297
-0.3133362 0.23972477 -0.2073495 -0.19112818 -0.23129079 0.25192082 -0.27153608 0.389894
0.05846073 -0.33604515 0.26550692 -0.20839956 0.26764393 0.0751967 -0.23105426 -0.3968342
0.0774175 -0.00013777008 0.3717698 -0.023521066 -0.05726372 -0.23103951 -0.022290505 0.14214823
0.4016127 -0.11972559 0.029704489 0.39249846 -0.27739277 -0.15115966 -0.10384423 -0.0903298
0.1355281 0.28703365 -0.14953187 0.25700137 -0.036987495 -0.07026431 0.33144665 -0.22168389
0.20237584 0.18850277 -0.3665748 -0.27927706 0.11436792 -0.2950221 0.43726286 0.19831042
0.042968147 -0.17314541 0.3505003 0.1936645 -0.11930245 -0.16651505 -0.06590746 0.155834

model.1.defunc.m.0.bias f4 [64]
00000000: 68cb 603e b60b 36be 30cf 213e a73d d1bc
00000010: 5ca5 60be 294c 50be 7895 85be eeb6 78be
00000020: 5723 cc3d b441 9bbd 7a7d 333e 8dc0 a7be
00000030: 0242 6bbe 7f0d babe fbe1 61be f43b e8bd
00000040: 9030 913d 322f 99bd 42bb 003e e1bf 9fbd
00000050: 0f3c 433d 80a4 a33e a3c4 cfbe 974f c7bd
00000060: 2dad 823e 500c a63d 6b2f 87bd 7cca 8fbe
00000070: d03b 61bd 40fe efbd 0848 393e 9cf0 d0be
00000080: a65c cd3e b342 bb3e 36a6 8cbd 4f3c 333e
00000090: d915 ea3c 1a82 333e 5112 5f3e 04ff 6a3e
000000a0: 582f 3fbe 4ed4 8fbd 3137 b4be 08a5 a43d
000000b0: 6de3 a8be 6b2e 973e f3b8 71be 3305 1cbe
000000c0: 6e15 123d 9a89 833e e0a4 a53d 6304 e43b
000000d0: 758f d33e 13cf 89be 0a81 9e3d cacd c4bd
000000e0: b164 9abd 317d bdbe c7da 1b3e bc65 5fbe
000000f0: 58c0 c53e 2fa3 a4be 9b44 3dbe 3387 c43e
0.21952593 -0.17777905 0.15801692 -0.025542093 -0.2193808 -0.20341553 -0.26090598 -0.24288532
0.09967678 -0.07580891 0.17528334 -0.32764092 -0.22974399 -0.36338422 -0.22058861 -0.1133956
0.07089341 -0.07479705 0.12571433 -0.0780027 0.0476647 0.3196144 -0.4057971 -0.097319774
0.25522748 0.08107817 -0.06600841 -0.2808417 -0.054988682 -0.11718416 0.18093884 -0.4080857
0.40109748 0.36574325 -0.0686764 0.17503475 0.02857487 0.17530099 0.21784331 0.22948843
-0.18670404 -0.07022916 -0.35198358 0.0803929 -0.32986012 0.29527602 -0.23605709 -0.15236358
0.03566497 0.2569092 0.08088088 0.0069585308 0.41320387 -0.26915798 0.07739456 -0.09609564
-0.075387366 -0.37009576 0.15220176 -0.21816152 0.3862331 -0.3215575 -0.18483202 0.383844

model.1.defunc.m.2.weight f4 [8, 64]
00000000: ccb5 673b 8310 323e 2fe3 6e3c f366 d5bd
00000010: 60c3 e0bb 8ca7 acbd 0cea 9cbc c2e9 8fbd
00000020: 6c4e f3bd 44a9 13be 105b 9cbd bb4d 893d
00000030: 84fd 393e 8185 1f3e 5b6e 023e 82eb a53c
00000040: 80ed ec3c 2ffd 2e3e 7774 3bbe bdd4 3abd
00000050: 9c79 df3c 326f 9c3d 4681 11be 363b 0abe
00000060: 6413 023e 3bc1 30be 0d8f f13d b49b 86bc
00000070: 0c8e b73d b5ab 7e3d 1aae d7bd 0f26 b0bd
00000080: e702 293d 3b46 4bbe c7ec 123d af5e 1fbd
00000090: 07df 44bd ddd9 81be fad1 3dbe 2e9a 243e
000000a0: f5b4 2cbd b0a1 623d eb44 393d 5aff 243e
000000b0: 7ed1 5a3e 326b fc3c 6846 d03d 733f b9bd
000000c0: 9dc7 853d 62df 5cbe 1f31 d23d 30ae 913c
000000d0: 623d ed3c 3c40 503e 446a 17bc 6160 8d3e
000000e0: 76d1 9f3d ba50 eb3d 3ef0 253d da85 3a3d
000000f0: 6dd9 343d dfa2 c63d 8fb4 3dbd 1395 113e
00000100: 6fbe bebc 3c26 5cbc 90f1 f03d 1a68 8b3d
00000110: 76a7 123d 6ba1 80bd 0a30 e7bc 5d5e cf3d
00000120: 3fd8 463e 8b5d 813e a247 b43d d8fc 853b
00000130: ad2f 55be 7728 25be 0c05 0bbe 20f5 073e
00000140: 7ba4 00be fe8d 26bd d6f0 5b3e d5ab 443c
00000150: 966e 2c3e d86b 733d ffd3 413d 0e5f 29bc
00000160: 9043 e0bc 8b19 6e3e 7629 eebd 5121 e93c
00000170: a200 12be 1bd4 6abe 3e51 1bbc 8117 0a3e
00000180: 4697 003d 1f04 f93c fc6b 553c 3f1b 22bd
00000190: 3dcc 473d 5bae 0d3c 22c7 bbbc 06d9 35bd
000001a0: db5e 183e 4ef9 1ebe fd24 4b3d 0566 3cbe
000001b0: 0391 67be b889 3b3c 3859 fdbd 0ad7 d33d
000001c0: 3fe2 093e 0333 5e3e 10af d9bd 7c4d 63be
000001d0: 621a c73d 7210 88bc 2aea c03d ea71 39be
000001e0: 18a3 583e f4a5 a3bd 656f 8bbd 957b d2bd
000001f0: 8737 29be 3450 27be 62e5 d13d a278 43bd
00000200: c0bf 023e 946a 203e 82e8 39be 1bf2 893d
00000210: c80a ac3c ffdd d53d f73c 493e 8cc9 6e3d
00000220: 9026 1b3c 91a9 5a3c 561e 73be 7aba 863e
00000230: df12 053d 73be 433e 1686 6d3e f793 453d
00000240: 7083 dbbd 3671 b73b bdf8 85bd ff7f 4cbe
00000250: 49f4 8bbe fb6a 29be ffc6 6b3e 93dc fa3c
00000260: 5972 07be 8cf0 96bd 2b8c 0b3e 53c9 383e
00000270: a793 0f3e a447 003e 7a7b 89be b9ee 6e3e
00000280: a291 87be 9206 5abe 6e45 573d 6260 67be
00000290: 6c5e 0b3e 0e12 a5bc b035 b2bd 2b90 953d
000002a0: 5a4f c03c de6a a53d 36d5 3b3e 3663 c03d
000002b0: 6a55 3d3e 0ed7 6cbe 6e16 f43d 5a6e b33c
000002c0: 6be6 92bd 42af 8abe a22e b7bd 9a7d 423e
000002d0: ef65 74be aed1 173d 3f1e e73b 50f7 5e3e
000002e0: 3c07 27be 29de a73d 9086 d4bd 9c4e 2e3c
000002f0: 473b c7bd 7255 723e 99be 45bd ef36 28be
00000300: 343f 48bd 1c1d aa3d d728 123d 0139 45bd
00000310: f863 8a3c f37e 86bd 0416 903d 5af4 5abd
00000320: a1df 8bbe b03a 03bd 900b 16bc bde8 01be
00000330: 4953 ee3d b4c7 393e d48d b9bd d765 b73d
00000340: 206f 483d 4e10 543e 76dd 94bd 32cf b33d
00000350: 1ad4 9e3d c8ac 053d 99bd 47be 4b2b f2bd
00000360: a9f2 063b 59c3 61be c7b5 84bd 94b3 1ebe
00000370: e08d f33d 5ae9 0bbe 304e 54be c8a8 523d
00000380: f1c9 b53b c48e 7bbe 79d1 633d a31a c5bc
00000390: ec14 e13d a127 1dbd eda7 93bd 7c18 b33d
000003a0: 7eda 38be 006a 113a 76f7 3b3e 1cbd 49bd
000003b0: ba2e 093e 1274 023e 1627 c9bd 5758 853d
000003c0: bcc6 173e ba2a c1bc 286b 453d 3c56 f8bd
000003d0: a06f 483d 3470 e63d 83aa 33be 5fa7 883e
000003e0: 53fe df3d ef6e 563e 94d1 89bd 1e61 ac3d
000003f0: 2e2a 3d3e b286 063d c46e 02be c243 1f3e
0.0035356162 0.17389111 0.014580532 -0.10420027 -0.006859228 -0.084303945 -0.019154571 -0.07027008
-0.11880192 -0.14420038 -0.07634556 0.06704279 0.18163115 0.15578271 0.1273741 0.0202539
0.028921843 0.1708877 -0.18306147 -0.04561304 0.027279668 0.07638396 -0.1420947 -0.1349915
0.1270271 -0.17261212 0.11794863 -0.016431667 0.0896264 0.06217547 -0.10531254 -0.08601009
0.041262534 -0.1985101 0.03587034 -0.038908657 -0.048064258 -0.2536153 -0.18537131 0.1607444
-0.04216476 0.05532998 0.04523174 0.16113034 0.21368977 0.030812833 0.10169679 -0.09045305
0.06532214 -0.21569589 0.10263275 0.017783254 0.028959934 0.20337003 -0.009241644 0.27612594
0.078036234 0.11490007 0.040512316 0.045537807 0.044152666 0.09699034 -0.046314772 0.14217024
-0.023284165 -0.01343685 0.117648244 0.06806965 0.035804234 -0.06280788 -0.028221149 0.1012542
0.19418429 0.2526668 0.088027254 0.004088979 -0.20818968 -0.16128717 -0.13576144 0.13277102
-0.12562744 -0.040662758 0.2147859 0.012003859 0.1683906 0.05942902 0.047321316 -0.010337604
-0.027375966 0.23251931 -0.11629002 0.02845827 -0.14258054 -0.22932474 -0.009479819 0.13485529
0.031394266 0.030397473 0.013026234 -0.039576765 0.04877876 0.008647527 -0.022922102 -0.044396423
0.14879934 -0.1552479 0.04959582 -0.18398292 -0.22613911 0.011446409 -0.12370533 0.1034375
0.13465212 0.21699147 -0.10629094 -0.22197527 0.09721829 -0.016609404 0.09419663 -0.18109861
0.21155965 -0.079906374 -0.06808356 -0.10277478 -0.16525088 -0.16339189 0.102488294 -0.047722466
0.1276846 0.15665656 -0.18155101 0.06735631 0.021001235 0.10442733 0.19652162 0.05829768
0.009469643 0.013346092 -0.23742041 0.26314145 0.0324887 0.1911562 0.23195681 0.048236813
-0.10718429 0.0055982126 -0.06541584 -0.19970702 -0.27334812 -0.16544716 0.2302513 0.030622756
-0.13227214 -0.073700994 0.13627689 0.18045549 0.14021169 0.12527329 -0.26852018 0.23333253
-0.26478297 -0.21291569 0.052556448 -0.22595361 0.13610238 -0.02015021 -0.08701646 0.073028885
0.023475338 0.08077024 0.18343052 0.09393923 0.18489614 -0.23128912 0.119183406 0.021903206
-0.07172855 -0.27086836 -0.089444414 0.18993226 -0.2386701 0.0370652 0.007053166 0.2177403
-0.16311353 0.081966706 -0.10377228 0.010638859 -0.09728103 0.23665407 -0.04827747 -0.16427206
-0.0488884 0.083063334 0.03568348 -0.048150066 0.016893372 -0.065671824 0.07035449 -0.053455688
-0.27319053 -0.03203839 -0.00915803 -0.12686439 0.11636979 0.18142587 -0.09060255 0.08954971
0.048934102 0.20709345 -0.07268803 0.08779754 0.07755299 0.03263548 -0.1950592 -0.11824664
0.0020591414 -0.22047175 -0.06479984 -0.15498191 0.11892295 -0.13663235 -0.20732951 0.051430494
0.005547755 -0.2456618 0.05561969 -0.024060553 0.10990319 -0.03836787 -0.07209764 0.087449044
-0.18052098 0.0005547106 0.18356118 -0.049252614 0.13396731 0.1273959 -0.09821908 0.0651099
0.14821905 -0.023579944 0.048197895 -0.12125823 0.04893458 0.1125187 -0.17545514 0.26690194
0.1093718 0.20940755 -0.06729427 0.08416961 0.18473122 0.0328433 -0.12737566 0.15553191

model.1.defunc.m.2.bias f4 [8]
00000000: 3b04 a43c 41ba 81bd a4f1 37bd 5957 84bc
00000010: 380b 51be 8838 ccbd 7a5b f7bd 040e a73d
0.020021548 -0.06334353 -0.04490818 -0.016154932 -0.20414436 -0.0997172 -0.12077995 0.0815697

model.2.weight f4 [2, 8]
00000000: 8132 c63d 1a40 acbe cafd cabe 3444 bc3d
00000010: bca8 bcbe b309 a3be 908a 38be 5b2e 953e
00000020: c924 96be 27cd 5ebe 7eac 62be eca0 b8be
00000030: 1f21 0ebe 6598 78bd 6c47 70be 801a 66be
0.096776016 -0.33642656 -0.3964675 0.09192696 -0.36847484 -0.31843337 -0.18021607 0.2913693
-0.2932494 -0.21757947 -0.22136113 -0.36060274 -0.13879822 -0.06069221 -0.23464745 -0.22471046

model.2.bias f4 [2]
00000000: 33df c23e 9b7c 113e
0.38060912 0.1420769
