lightning_logs/version_5/checkpoints/epoch=49-step=49.ckpt (torch, 19857 bytes, 18 tensors)

exp_avg f4 [64, 8]
000000 ae ba 81 b8 0e f4 a5 b9 bf b2 5d b9 d8 4e 31 b8
       -6.185971e-05 -0.00031653087 -0.0002114279 -4.2273517e-05
000010 fc 7d 20 ba 32 52 b0 ba 98 e1 30 bb 2b 7b 87 ba
       -0.0006122289 -0.001345223 -0.0026989933 -0.001033639
000020 62 4b 5e bb 63 38 71 bb 7e fc f7 ba dc 13 76 bb
       -0.0033919443 -0.003680729 -0.0018919853 -0.0037548458
000030 04 4c 86 bb 60 d0 01 39 80 45 87 bb 2c 40 11 3a
       -0.0040984172 0.00012380024 -0.004128158 0.00055408734
000040 82 76 1d 3b 9c 6b 1e 3b fa a8 ec 3a a7 70 36 3b
       0.0024026935 0.0024173027 0.001805573 0.0027838142
000050 1e 59 08 3b 73 56 2d bb 18 06 fd ba 92 7e 41 3a
       0.002080507 -0.0026449233 -0.0019304184 0.0007381226
000060 43 a7 b1 37 ea ff 1d b9 77 4a 50 b9 09 3d a2 b8
       2.1177932e-05 -0.00015068022 -0.00019864166 -7.736131e-05
000070 3a c3 94 b8 78 db e0 ba 72 ee ee b9 06 1c 16 3a
       -7.093554e-05 -0.001715525 -0.00045572553 0.0005726222
000080 6f 9a aa 3a 9f 38 c9 39 ac ae 63 ba d7 70 63 3a
       0.0013015996 0.00038379894 -0.0008685391 0.0008676177
000090 c3 0c 7a 3a d8 05 93 39 ae c9 06 3b d0 82 8c bb
       0.0009538645 0.0002804238 0.0020566988 -0.004288055
0000a0 b8 9e 16 ba f8 a4 96 b9 ee 0c 7a b9 d2 58 2c ba
       -0.0005745697 -0.0002873314 -0.00023846675 -0.00065745146
0000b0 5c 51 5e 38 85 91 90 3b 9a 01 77 3b cb c7 29 ba
       5.3004696e-05 0.0044118785 0.0037690164 -0.000647661
0000c0 4a ae 51 bb a5 36 4f bb 98 da 41 bb 43 f4 7d bb
       -0.0031994754 -0.0031618264 -0.0029579755 -0.0038750328
0000d0 da fc 0f bb 50 e8 27 3c 82 0c f1 3b 16 7a 76 bb
       -0.002197078 0.010248259 0.0073562274 -0.003760939
0000e0 15 9b ed ba 27 73 0b bb 6a 53 0c bb b8 9e 11 bb
       -0.0018127883 -0.0021278353 -0.0021412023 -0.0022219848
0000f0 52 d8 ed ba c1 bd c5 3b fb 03 38 3b 1c 7a ac bb
       -0.0018146134 0.0060345833 0.0028078544 -0.00526358
000100 d7 a5 8c bb de 11 5c bb e7 17 d0 ba ae b2 92 bb
       -0.0042922306 -0.0033579986 -0.0015876264 -0.0044768667
000110 5f af 52 bb 5c 1a 03 3c 44 e8 5b 3b 00 56 61 b7
       -0.0032147986 0.00800189 0.003355519 -1.34310685e-05
000120 5d af dc ba 09 32 8b b8 e9 dc 8a 3a b3 b0 86 ba
       -0.001683693 -6.637356e-05 0.0010594401 -0.0010276049
000130 b1 61 05 ba 68 83 c2 3b de 5a f0 3a cb ac 32 3b
       -0.00050881045 0.005936075 0.0018337627 0.0027263637
000140 04 58 3c 3b ce 36 63 3b 7e 7c 3e 3b b8 8e 73 3b
       0.0028738985 0.0034670117 0.0029065902 0.0037163924
000150 4c 47 31 3b a0 2c c2 bb 5c 3e 7d bb 19 62 3b 3b
       0.0027050553 -0.00592573 -0.0038641905 0.0028592406
000160 28 4a 8b 3b 1c e5 7a 3b 3b 6d dd 3a e3 33 94 3b
       0.0042507835 0.0038283532 0.0016893515 0.004522787
000170 4f 1a 82 3b f6 72 46 bb 60 fb 95 39 fe c5 2f bb
       0.0039704214 -0.0030280924 0.00028606784 -0.0026820893
000180 92 93 49 bb 1f 35 6e bb 83 7e 1a bb 96 67 62 bb
       -0.0030758125 -0.003634758 -0.0023573942 -0.0034546605
000190 59 0a 83 bb 62 f8 c6 3a a4 c0 4b bb dc ac 0e bb
       -0.0039990363 0.0015180225 -0.0031090165 -0.0021770513
0001a0 9c 99 e4 3a 63 04 a0 3a 20 32 85 37 45 50 be 3a
       0.0017440799 0.0012208339 1.5878177e-05 0.0014519772
0001b0 7d 74 f9 3a cc 85 a6 ba d5 5e 26 3b ef ef bd ba
       0.0019031909 -0.001270467 0.0025386114 -0.0014491061
0001c0 0e b0 d3 3a 76 5a 8c 39 38 67 47 ba f6 08 90 3a
       0.0016150491 0.0002677028 -0.00076066284 0.0010988999
0001d0 e0 6f 3e 3a d8 f3 37 bc 0d 23 8e bb 5f d1 3b 3b
       0.00072645955 -0.0112275705 -0.0043376745 0.002865873
0001e0 d6 db 59 3b 69 ba 91 3b 13 5c 6a 3b e2 dc 82 3b
       0.0033242605 0.0044472707 0.0035760447 0.0039936164
0001f0 ec 77 95 3b 98 fb 88 ba 20 ee 4e 3b 75 2f 96 3b
       0.004561415 -0.0010450957 0.003157504 0.004583294
000200 92 e6 b6 3a 64 41 ec b8 b8 8f 22 ba 96 17 67 3a
       0.0013954213 -0.00011265537 -0.00062012253 0.0008815465
000210 94 2c 8a b8 4a c9 87 bc 12 a8 d7 bb 8c 7b 97 3b
       -6.588656e-05 -0.016575474 -0.006581315 0.004622882
000220 cf 8b 3b 3b 78 11 84 3b 30 3b 79 3b 8a 26 77 3b
       0.0028617268 0.0040304027 0.0038029663 0.003771218
000230 cd c7 61 3b 0c 78 3b 3a e4 a2 d1 39 fe 90 3b 3b
       0.0034451366 0.0007151372 0.0003998495 0.0028620358
000240 f2 c6 68 bb ec c2 5a bb b0 82 40 bb 58 54 8f bb
       -0.0035518971 -0.0033380343 -0.002937477 -0.004374068
000250 a2 16 fb ba a9 df aa 3b 38 f5 d5 3b ec fb 2a ba
       -0.0019156525 0.0052146506 0.0065294765 -0.00065225246
000260 a7 48 28 3b 6e d2 70 3b 4a f4 36 3b c4 a6 57 3b
       0.002567807 0.003674652 0.0027916604 0.0032905797
000270 ae fe 79 3b 51 1b 92 ba cb 04 32 3b 42 3d 80 3b
       0.0038146186 -0.0011147057 0.0027163501 0.0039135525
000280 6e 1e 98 3b 20 e5 d1 3b e1 02 8b 3b 2b 3b b1 3b
       0.0046422994 0.0064054877 0.0042422866 0.0054086647
000290 d4 65 f7 3b 80 d2 40 39 00 d4 1b 3c 27 3c c4 3b
       0.0075499807 0.00018388964 0.009510994 0.005988616
0002a0 76 d0 8a ba cc 2a 80 ba e5 4e 91 b9 e8 8b 91 ba
       -0.0010590691 -0.000977838 -0.00027715336 -0.0011104317
0002b0 ab e8 8e ba 5f 9d 8f 3a a5 b1 4b ba 4c 03 1b 3a
       -0.0010903081 0.0010956934 -0.00077703065 0.0005913272
0002c0 7c 3a 62 3a 4c 6f 3f 3a 05 6c 56 ba bd b2 33 3a
       0.00086299307 0.00073026563 -0.00081795483 0.0006854942
0002d0 d5 5b b5 3a ac 42 90 3c bb 46 34 3c 6d a8 72 bc
       0.0013836572 0.017609917 0.011003192 -0.014810664
0002e0 db ea f2 ba 72 3b b1 37 ac 4e c0 3a 9e ca 9c ba
       -0.0018533127 2.1127726e-05 0.0014671884 -0.001196224
0002f0 4d 71 e8 b9 8e 56 87 3c 96 66 e8 3b a9 ac 0a bb
       -0.00044334904 0.016520765 0.0070923073 -0.0021160042
000300 83 c5 46 3b 5a c1 b3 3a b0 cb 3f ba 43 f8 22 3b
       0.0030330129 0.001371424 -0.00073164236 0.0024867214
000310 f3 6d 02 3b 34 9b 26 bc 7e dd f0 ba 11 e7 05 bb
       0.001990196 -0.010168839 -0.0018376557 -0.0020431916
000320 c8 5e 90 3a 98 75 6d b9 89 c6 84 ba db e3 0f 3a
       0.0011014575 -0.00022645888 -0.0010129969 0.000548897
000330 16 e0 a7 38 7b 23 34 bc 7a 9c 56 bb 89 e5 81 3a
       8.00492e-05 -0.010994787 -0.0032747076 0.0009910326
000340 1f 13 a7 bb 29 17 b4 bb ca b5 9b bb 76 ef c6 bb
       -0.005098715 -0.005495925 -0.0047518956 -0.0060710264
000350 60 cb 97 bb 90 e1 61 3c 5c fd f3 3b c7 c7 04 bc
       -0.0046323985 0.013786688 0.0074459743 -0.008104271
000360 25 d1 a0 ba 2c ff 95 ba ba 45 5e ba 1b 5d c5 ba
       -0.0012269361 -0.0011443845 -0.0008479018 -0.0015057655
000370 c5 a3 36 ba fa 9e c0 3a 39 df 29 3b 95 5d 85 3a
       -0.00069671526 0.0014695816 0.0025920405 0.0010174984
000380 ef aa 51 3b f8 c0 93 3b 96 4d fb 3a ad e5 6a 3b
       0.0031992754 0.0045090877 0.0019172903 0.0035842464
000390 ae 55 c6 3b a4 1a b5 3c c8 74 98 3c b8 09 20 bc
       0.0060526943 0.02210743 0.018610373 -0.009767942
0003a0 24 c7 f8 ba a3 26 a6 ba 64 17 36 b8 d6 e2 c9 ba
       -0.0018980247 -0.001267631 -4.3413966e-05 -0.0015402685
0003b0 b2 36 04 bb 6a 60 29 3b fa 2b e5 ba af 5b 23 3a
       -0.0020174203 0.002584482 -0.001748442 0.00062316185
0003c0 2f 48 6a 3b 64 d3 77 3b 1b 38 53 3b d4 99 8f 3b
       0.0035748591 0.0037815208 0.0032229486 0.0043823514
0003d0 04 85 35 3b 1a 88 6e bb 7a 92 83 bb 9c f8 72 3a
       0.0027697692 -0.003639704 -0.004015264 0.0009268613
0003e0 c5 40 59 bb f7 5b 69 bb 8b c5 27 bb a7 5b 80 bb
       -0.0033150178 -0.0035607794 -0.0025599923 -0.003917176
0003f0 24 1a 4d bb 84 cf 5f 3b 6d 2a 07 3b e4 5a be b9
       -0.0031296099 0.0034150789 0.0020624653 -0.00036307343

exp_avg_sq f4 [64, 8]
000000 f0 53 8f 33 7e 95 53 33 dd a4 8c 34 12 0b bb 32
       6.6742246e-08 4.9263228e-08 2.6196986e-07 2.17747e-08
000010 15 82 86 34 b9 17 fa 35 e1 f9 bb 36 fc 3e cd 35
       2.5054092e-07 1.8633356e-06 5.602124e-06 1.5292021e-06
000020 9a 85 3d 36 3a c5 2b 38 3b 83 b4 38 3a 94 5e 37
       2.824096e-06 4.095326e-05 8.6075124e-05 1.3266743e-05
000030 0c 39 e8 37 2d d8 18 39 dd 08 87 38 d3 5c 8b 39
       2.768312e-05 0.00014576381 6.4389526e-05 0.00026581305
000040 7b 31 39 35 c0 b9 58 37 e3 56 f4 37 7d cf 92 36
       6.8989874e-07 1.2917852e-05 2.9127526e-05 4.375294e-06
000050 9e c0 ef 36 56 81 82 38 ca ff 88 37 32 f2 ac 38
       7.1451786e-06 6.222974e-05 1.6331574e-05 8.2467115e-05
000060 4a 5a 09 32 a4 04 89 32 eb c7 45 33 a7 63 4d 32
       7.994979e-09 1.595101e-08 4.604946e-08 1.1955229e-08
000070 ff c8 64 32 6e 0a 43 34 17 ab e7 33 20 7f 02 34
       1.3317048e-08 1.8164585e-07 1.0787897e-07 1.2153441e-07
000080 fc 14 fa 34 a9 fa 4d 36 76 38 cb 36 ce b3 4e 35
       4.6581397e-07 3.0693284e-06 6.0564444e-06 7.700263e-07
000090 a7 7d b0 35 5e 8e 0c 38 fc c3 aa 37 ea eb 87 37
       1.3149591e-06 3.351119e-05 2.0356842e-05 1.620311e-05
0000a0 2c f5 56 33 80 d8 dd 35 36 17 b8 36 a2 4b 2e 35
       5.004874e-08 1.6528793e-06 5.4863294e-06 6.493011e-07
0000b0 b6 3a 95 34 58 b7 85 37 2a 2e 76 36 df ab d7 36
       2.779613e-07 1.5940212e-05 3.6683728e-06 6.4275077e-06
0000c0 a3 80 03 36 26 6c 04 38 b7 05 98 38 2b 88 35 37
       1.9595398e-06 3.1571974e-05 7.248989e-05 1.0820145e-05
0000d0 5d 5b 92 37 6b 56 32 39 3c c0 1b 38 97 9b 4b 39
       1.74471e-05 0.00017007596 3.7133912e-05 0.0001941755
0000e0 d1 db 2d 35 3c e5 2a 37 7f ca bb 37 a0 ca 67 36
       6.4767397e-07 1.0186162e-05 2.2386432e-05 3.4539626e-06
0000f0 4c 32 ca 36 d7 f2 49 38 58 45 76 37 9c b0 96 38
       6.0259244e-06 4.8148297e-05 1.4678888e-05 7.1854534e-05
000100 a2 4f 83 36 af 57 ad 38 50 ca 45 39 f0 5c dd 37
       3.9133747e-06 8.265615e-05 0.00018862751 2.638853e-05
000110 66 a5 41 38 46 d8 cb 39 20 6f f8 38 37 53 fc 39
       4.6168825e-05 0.00038880314 0.0001184626 0.00048127185
000120 e0 3e 1b 35 4a 9e bc 36 cc 29 42 37 ea 7f bd 35
       5.7833495e-07 5.621264e-06 1.1573033e-05 1.4118825e-06
000130 69 40 2a 36 ab 33 7d 38 82 c4 02 38 5c d3 dd 37
       2.5369466e-06 6.036802e-05 3.1177427e-05 2.6443675e-05
000140 50 15 96 35 70 6a dc 37 e1 af 89 38 b1 dd 11 37
       1.1182074e-06 2.6275608e-05 6.565429e-05 8.69429e-06
000150 d2 59 4d 37 dd 0f 20 39 67 a5 fb 37 da 43 2d 39
       1.2239865e-05 0.00015264699 2.9998553e-05 0.00016523842
000160 9b fd 30 36 a1 20 30 38 5b d3 be 38 ca 09 67 37
       2.6373662e-06 4.1992058e-05 9.099274e-05 1.3770952e-05
000170 5c c5 d8 37 b6 99 40 39 05 42 90 38 f9 dc 8e 39
       2.584111e-05 0.00018367809 6.878752e-05 0.00027248988
000180 76 87 c4 35 21 8c a7 37 e8 24 29 38 5a 9f de 36
       1.4642562e-06 1.9973204e-05 4.032711e-05 6.6346665e-06
000190 07 76 6a 37 d8 7a 8f 38 eb cd 12 38 c8 25 0d 39
       1.3974967e-05 6.841653e-05 3.500089e-05 0.00013460882
0001a0 79 e9 3f 35 8f 5a 13 37 61 28 84 37 d5 ca 23 36
       7.149279e-07 8.782968e-06 1.575443e-05 2.4406957e-06
0001b0 8a 77 0b 37 80 42 f1 37 4d be 10 38 ea 64 9c 38
       8.312878e-06 2.8760405e-05 3.4509507e-05 7.4574564e-05
0001c0 b6 1b 94 35 a2 19 ee 36 a8 9e b2 37 30 44 1e 36
       1.1034924e-06 7.095937e-06 2.1293134e-05 2.3583525e-06
0001d0 a1 32 62 35 75 79 e1 38 ec a7 17 38 d6 7b 8d 37
       8.4265236e-07 0.00010751459 3.6157595e-05 1.6866175e-05
0001e0 42 38 d6 35 05 f0 b4 37 4f 60 30 38 9e ef fa 36
       1.5960616e-06 2.156944e-05 4.2051364e-05 7.4784757e-06
0001f0 9b 4a 77 37 c8 82 94 38 f0 78 14 38 93 5b 06 39
       1.4739718e-05 7.08155e-05 3.539858e-05 0.0001281335
000200 9f ab 06 35 c2 0f a0 36 8b c8 c2 36 f7 1d 87 35
       5.016863e-07 4.770206e-06 5.804997e-06 1.0067005e-06
000210 45 86 8a 36 dd a2 77 38 ec cd 6c 38 95 83 c0 37
       4.1283515e-06 5.9041067e-05 5.6458564e-05 2.2949456e-05
000220 67 aa c7 35 6b 68 a2 37 81 d4 21 38 ff 06 dc 36
       1.4876249e-06 1.9360528e-05 3.85833e-05 6.5573254e-06
000230 d2 75 68 37 e5 73 92 38 21 6c 08 38 bc 48 0b 39
       1.385571e-05 6.9834095e-05 3.252563e-05 0.00013283169
000240 56 bd 65 36 c0 a8 94 38 5a ec 33 39 1f e7 be 37
       3.4233867e-06 7.088622e-05 0.00017158818 2.275739e-05
000250 17 34 20 38 8a 97 b5 39 14 32 c2 38 76 94 00 3a
       3.8195485e-05 0.00034635916 9.259969e-05 0.0004904935
000260 16 1b ea 35 5b b7 b9 37 76 c5 41 38 f8 31 ec 36
       1.7442242e-06 2.21391e-05 4.6198686e-05 7.039165e-06
000270 04 3d 8a 37 44 6f a5 38 fe 51 1c 38 a3 30 35 39
       1.6479295e-05 7.888538e-05 3.726966e-05 0.00017279624
000280 68 64 7b 36 ea 30 5f 38 b8 57 df 38 98 8d 8b 37
       3.7460359e-06 5.3212898e-05 0.000106498075 1.6636026e-05
000290 ff 28 25 38 39 e9 48 39 60 70 e9 38 13 6c c4 39
       3.9377246e-05 0.00019160369 0.00011131237 0.00037464555
0002a0 de dd 97 34 cb db a7 36 9b 61 50 37 0c 17 ce 35
       2.828737e-07 5.002575e-06 1.2420492e-05 1.5354904e-06
0002b0 42 b0 3d 36 e5 c7 d3 37 1d 39 f6 36 2a 0b 32 38
       2.826579e-06 2.5246243e-05 7.33802e-06 4.2448904e-05
0002c0 8b 86 44 34 64 1a b4 35 63 d2 a4 35 2d df 97 34
       1.8302869e-07 1.3418726e-06 1.2280183e-06 2.8288324e-07
0002d0 a3 20 c9 35 5e d4 89 37 07 9f c2 37 12 71 96 37
       1.4985166e-06 1.6430564e-05 2.3200655e-05 1.7934046e-05
0002e0 4a 61 9b 35 d9 fb 2a 37 73 21 05 38 9a 29 64 36
       1.1576715e-06 1.01914275e-05 3.1740823e-05 3.3998863e-06
0002f0 03 60 98 35 de 84 1d 39 dd c5 42 38 bc 75 ca 37
       1.1352826e-06 0.00015022184 4.643748e-05 2.41351e-05
000300 18 ac ad 35 c6 ec cb 37 6a 5e 46 38 9a 1a e2 36
       1.293959e-06 2.4309742e-05 4.729481e-05 6.7384217e-06
000310 82 6a a0 37 ad ab 02 39 e8 cf 97 38 4b f2 44 39
       1.9123083e-05 0.0001246172 7.238967e-05 0.00018782278
000320 8e a9 35 34 96 de 2c 36 49 44 4b 36 b7 3a 0a 35
       1.6918622e-07 2.575956e-06 3.0289104e-06 5.149445e-07
000330 1a 46 29 36 0d 68 cf 37 83 60 f8 37 cb 97 4a 37
       2.5223767e-06 2.4724775e-05 2.9608846e-05 1.207548e-05
000340 25 cd db 36 64 bc d7 38 e3 ff 74 39 54 3f 16 38
       6.5505906e-06 0.000102870894 0.00023364979 3.5821766e-05
000350 e6 f3 6e 38 5c 31 ea 39 79 4f dc 38 be 05 17 3a
       5.697077e-05 0.00044668734 0.000105052204 0.00057610485
000360 17 a1 42 34 81 13 a7 36 fb 6d 73 37 37 24 f6 35
       1.8126262e-07 4.9792584e-06 1.45095355e-05 1.8338968e-06
000370 a6 d6 cc 35 f6 83 11 38 ee 72 c1 36 3c e2 e5 37
       1.5261655e-06 3.4693592e-05 5.765228e-06 2.7404276e-05
000380 92 d9 14 36 bd 0a 05 38 9c 28 86 38 47 91 15 37
       2.2180361e-06 3.1719672e-05 6.397182e-05 8.914917e-06
000390 8e 70 e3 37 86 9a 00 39 dc 4f cb 38 9c 24 a4 39
       2.7112921e-05 0.00012264596 9.694669e-05 0.00031307794
0003a0 69 3f 32 35 ef 24 27 37 53 f2 ab 37 3d b7 4e 36
       6.640244e-07 9.962575e-06 2.049763e-05 3.080305e-06
0003b0 1a 3b ec 36 8b 8c 2b 38 5c 7c bc 37 7b ba 97 38
       7.0402284e-06 4.0900468e-05 2.2469256e-05 7.234976e-05
0003c0 26 6e 2a 36 13 c7 50 38 2d a9 f3 38 fe 71 8c 37
       2.5396089e-06 4.9776467e-05 0.000116186544 1.6742382e-05
0003d0 9d 1d e2 37 f6 61 72 39 96 54 75 38 ae fe a1 39
       2.695509e-05 0.00023115412 5.849133e-05 0.00030898064
0003e0 2d 16 b4 35 32 05 c5 37 a0 03 64 38 91 a8 0c 37
       1.3417499e-06 2.348665e-05 5.4362812e-05 8.383898e-06
0003f0 1c 24 46 37 58 b9 ee 38 68 8a c9 37 75 0c 0b 39
       1.1810127e-05 0.00011383247 2.4025518e-05 0.00013260714

exp_avg f4 [64]
000000 18 34 37 3b 10 9a e5 ba fa 46 6d 3b f5 b7 3e 3a
       0.0027954634 -0.0017517228 0.0036205635 0.00072753365
000010 55 37 3a 3c 58 4d 84 bb 78 dd e7 bb 26 4d 85 3a
       0.011365731 -0.0040375404 -0.0070759617 0.0010170087
000020 f4 ed 5f bc b4 1f 73 bc b8 88 92 3b 21 46 29 3c
       -0.013667572 -0.014839102 0.0044718646 0.010331661
000030 e4 b4 92 ba 0a e4 79 3b 16 66 56 3c 1d 7f b3 3a
       -0.0011192826 0.0038130307 0.013085863 0.0013694499
000040 0f ce 12 3c 25 8e e8 3a 08 73 11 bc 2f 2b b9 bb
       0.008960261 0.0017742558 -0.008877523 -0.0056509
000050 f8 dc 6e bb af 64 18 bb 8a 03 34 3b a9 08 72 bc
       -0.0036447626 -0.0023253371 0.002746793 -0.014772573
000060 10 72 26 3c c7 da 05 3c bc 37 20 bc 2f c5 63 bb
       0.010159031 0.008169836 -0.009778913 -0.0034754982
000070 b6 2a 24 bc ed 92 b1 bb 96 df c7 3b 42 2c d4 bb
       -0.010019949 -0.0054191262 0.0060996516 -0.0064750025
000080 5c 91 61 bb 58 ec a3 3b 2a e2 96 ba 26 dd bc ba
       -0.0034418916 0.0050025396 -0.0011511494 -0.0014409169
000090 90 0b 45 3c 67 a4 cd 3b 42 a0 0f 3c 80 83 30 3c
       0.0120266825 0.006275702 0.008766236 0.01077354
0000a0 27 f1 8d 3b f7 7a 2b 3c 99 65 9c bb 9c 0f cf 3a
       0.004331726 0.010466329 -0.0047728536 0.0015797499
0000b0 b0 5a 9b bb b8 11 b6 bc ac 2f 7c bb 2d 9d b9 3b
       -0.0047410354 -0.022225246 -0.0038480563 0.0056644888
0000c0 9e 19 bb 3b 9e ce f7 ba 5c 2f 04 3b 94 92 06 3c
       0.005709841 -0.0018906181 0.002016983 0.008213658
0000d0 d0 19 97 b8 2a e5 8d 3a 75 26 df bb 92 34 43 bc
       -7.205049e-05 0.0010825743 -0.0068100044 -0.011914389
0000e0 33 75 a7 3a 06 a8 29 3c e7 c6 a2 bb ef b8 e3 bc
       0.0012776017 0.010355001 -0.0049675587 -0.027798144
0000f0 16 5c d5 ba b7 f9 14 bd ae b5 b2 3c 2f 5e 21 3c
       -0.0016278054 -0.03637096 0.021815147 0.009849115

exp_avg_sq f4 [64]
000000 95 4d db 36 14 8a 75 3a bd f4 b5 39 a4 cf 55 34
       6.5357403e-06 0.00093665835 0.00034705354 1.991271e-07
000010 b9 a2 64 3a 4b 1b 44 38 c7 f1 6e 3a 6c f4 5c 39
       0.00087217573 4.675546e-05 0.0009115007 0.00021071889
000020 23 42 2e 3b 96 42 97 3a cf 37 63 3a b4 ce bd 3a
       0.0026589714 0.001154023 0.0008667679 0.0014481158
000030 8b 93 e0 39 79 fd c9 39 c4 75 ac 3a 7a 67 f0 39
       0.00042834537 0.0003852656 0.0013157655 0.00045853463
000040 b3 66 a9 3a 23 96 f8 39 1a b9 f0 3a 7e a0 d7 39
       0.0012924284 0.00047414107 0.0018365711 0.00041127572
000050 2e c0 c2 3a 55 a4 26 39 ed d0 0d 3a 89 29 c3 3a
       0.0014858299 0.00015892212 0.00054098555 0.0014889698
000060 ea 65 90 3a 53 b4 10 3a 80 10 17 3b 0f 75 fe 38
       0.0011016701 0.00055200345 0.0023050606 0.00012133468
000070 c5 d0 af 3a 54 83 d4 39 51 3a a0 3a 2f e6 20 3a
       0.0013413659 0.00040533638 0.0012224411 0.00061378157
000080 e9 43 b7 39 9e ce 8c 3a f3 64 13 39 9a 4e b7 39
       0.00034955077 0.0010742729 0.00014056619 0.00034963043
000090 a9 12 b9 3a 19 03 5b 39 a2 05 2a 3a 18 d3 41 3a
       0.0014119941 0.00020886621 0.00064858247 0.0007393821
0000a0 50 73 3a 3a 0b f7 a1 3a 8d 37 c7 3a e2 e3 a5 38
       0.000711252 0.001235695 0.001519905 7.9102596e-05
0000b0 83 83 4d 3a 33 9d 00 3b 70 ac bc 39 0b 90 e0 3a
       0.0007839726 0.0019624948 0.0003598663 0.0017132772
0000c0 94 27 91 39 24 97 32 3b c3 c1 c2 39 b6 03 f6 3a
       0.00027686043 0.0027250731 0.00037146927 0.0018769416
0000d0 ed 6e 4c 39 c5 d1 3b 3a ca b9 b5 38 4b 9a 93 3a
       0.00019496279 0.0007164742 8.6653585e-05 0.0011261193
0000e0 88 13 fb 39 47 3a 33 3a 05 95 a0 3a 9c af a4 3b
       0.00047889003 0.0006836992 0.0012251443 0.005025817
0000f0 4f d1 75 3a bf 53 54 3b cf d7 5e 3b 25 b3 a3 3a
       0.0009377198 0.003239855 0.0034003144 0.0012489302

exp_avg f4 [8, 64]
000000 cc f1 af b9 c3 e1 36 bc 68 2a 25 3c 1c 6c 00 bb
       -0.00033558754 -0.011162224 0.010080911 -0.0019595688
000010 ca 1b 9f ba 4e 81 30 ba bb 4e 27 bc 28 3e ab bb
       -0.0012139019 -0.0006733135 -0.010211642 -0.0052259155
000020 de 63 6d bc 79 c7 42 3a b1 ea 85 3b 83 3c 0c 3c
       -0.014489142 0.00074302364 0.0040868153 0.008559349
000030 4b 4f f2 bb e8 d2 61 3a d6 8e ef bb 63 78 13 3c
       -0.0073947064 0.00086144963 -0.0073107285 0.00900087
000040 f2 d4 67 ba 7c 84 36 3c d9 07 44 bc 93 4a c1 3b
       -0.0008843682 0.011139985 -0.011964762 0.0058987825
000050 ca 02 f9 3b 1e 02 da ba 94 16 16 3a e4 f7 c7 3b
       0.0075992094 -0.0016632711 0.00057254103 0.006102549
000060 da 08 03 3c e8 9f 7a 3a f9 81 85 bc f8 a8 23 bb
       0.007997716 0.0009560571 -0.016297327 -0.002497254
000070 ca 8d c3 3b 82 f4 99 ba 16 91 0b 3c e1 73 0c bc
       0.0059678303 -0.0011745843 0.008518478 -0.00857255
000080 6a 41 5a bb 22 94 3a 3b de a3 93 3b 23 cf 21 bb
       -0.003330315 0.0028469642 0.0045056185 -0.0024690113
000090 41 0b ac bb 2d 05 08 bc 78 9e b4 bb 43 db 5f bb
       -0.005250365 -0.008302015 -0.005512055 -0.003415779
0000a0 dd 46 9c bb 28 7f 88 3a c6 14 ba 3a 61 e7 07 bb
       -0.0047691897 0.0010413872 0.0014196865 -0.0020737278
0000b0 dc ec 4f bc f6 b9 d4 3b 62 a6 e7 3a 98 a8 a8 b9
       -0.012690749 0.006491895 0.0017673487 -0.0003216907
0000c0 e4 a0 e8 3a a6 48 37 bb 80 69 e7 b8 ac e9 30 bb
       0.0017748144 -0.0027966886 -0.00011034589 -0.0026994748
0000d0 1b 03 e3 bb 92 a7 17 bb 6e 0c ed 3a a1 87 4b bb
       -0.0069278604 -0.0023140651 0.0018085369 -0.0031056183
0000e0 f1 b3 1b 3c ea 57 e9 3a 68 48 32 ba 1f 9d ef 3b
       0.009503351 0.001780269 -0.00068009505 0.0073124315
0000f0 08 06 03 bc 94 47 04 3c 5b f5 d1 3b 4c 8c 20 bb
       -0.007997043 0.008073706 0.0064074225 -0.0024497686
000100 50 ce 79 3a de 5f ef bb 13 31 d1 3b 4f 2f 48 3b
       0.0009529339 -0.0073051294 0.006384024 0.0030545776
000110 20 ee 61 3a 6c ef cd ba e4 dc c8 bb c2 a1 b5 ba
       0.0008618552 -0.0015711612 -0.006129848 -0.0013857412
000120 8b 9b 2e bc 59 9e 87 ba b6 ff 51 3b 4e 95 b7 3b
       -0.0106572015 -0.0010346874 0.0032043285 0.0056025153
000130 f0 a8 95 bb f3 b9 1a ba 8f 09 aa ba 4a 2d b8 3b
       -0.004567258 -0.00059023424 -0.0012972819 0.0056206333
000140 7a 07 a0 3a b9 f3 ff 3b 77 93 1f bc 1e a8 55 3b
       0.001220926 0.0078110364 -0.009739748 0.0032601426
000150 74 79 9b 3b 24 fa 36 bb 66 c4 93 3b 54 91 90 39
       0.004744703 -0.0027920092 0.0045094965 0.00027574098
000160 b2 9c ac 3b 8d 57 ea 3a b4 64 34 bc d9 ef 33 bb
       0.005267703 0.0017878875 -0.011010338 -0.0027456193
000170 da 36 b2 3b 03 b8 66 3a 23 af df 3b 42 64 ba bb
       0.0054386677 0.00088012236 0.006826298 -0.005688221
000180 b6 25 a9 ba 4e 49 b0 3a be 9a ed 3b 7f da a5 bb
       -0.0012904915 0.0013449581 0.0072511127 -0.005061447
000190 10 4f 9a bb 5f 7f 52 bb a6 5f c7 3a 9c c1 3b bb
       -0.004709132 -0.0032119376 0.0015211 -0.0028649336
0001a0 ca c0 54 bc 56 79 4e 3b 21 cb 87 ba de 1a 41 bb
       -0.012985418 0.0031505427 -0.001036022 -0.0029465477
0001b0 84 c7 0e bc d2 42 dc 3b 5e 0b 1d 3a a3 08 e3 3b
       -0.00871456 0.006721833 0.00059907685 0.00692852
0001c0 0b 13 1f 3b ce 09 09 bc fc 1d 58 ba 64 7a 8c 3a
       0.0024272825 -0.008364154 -0.0008244214 0.0010717628
0001d0 36 c5 9e bb 72 84 63 bb 58 30 5d ba 1c 52 86 bb
       -0.0048452867 -0.0034716395 -0.0008437685 -0.0040991437
0001e0 b3 12 d7 3b a1 70 9a 3a f9 55 c5 bb a1 b5 ab 3b
       0.0065635084 0.0011782834 -0.0060222116 0.0052401577
0001f0 76 dd c2 bb c0 e2 de 3b 65 84 9a 3b d9 a3 dd ba
       -0.0059468104 0.006801933 0.0047154897 -0.0016909792
000200 4c d7 cb 3a 3d 27 dd bb c0 44 f6 3b 0c ed f6 3a
       0.0015551834 -0.0067490623 0.00751552 0.0018838956
000210 20 b5 d9 ba 68 0b 54 ba be 1e e0 bb c4 aa e6 ba
       -0.0016609766 -0.0008088858 -0.0068396023 -0.00175985
000220 f6 1f 10 bc 46 16 0f 3a 5f f6 ec 3a c0 77 de 3b
       -0.008796683 0.0005458336 0.0018078795 0.0067891777
000230 85 1f 86 bb 5b cf 1e bb bc 23 51 bb 6e 45 b0 3b
       -0.004093113 -0.002423248 -0.0031912168 0.0053793704
000240 ac ee 97 ba 8d 37 01 3c aa bd fa bb 84 c6 5f 3b
       -0.0011591516 0.0078867795 -0.0076520042 0.0034145424
000250 ba 16 6f 3b c4 34 df b9 cd f2 f3 ba e0 42 14 3b
       0.0036482052 -0.00042573188 -0.0018611789 0.0022622868
000260 cf 23 98 3b 20 c5 ea 39 27 70 22 bc 1d d3 1b bb
       0.0046429406 0.00044778828 -0.0099144345 -0.0023776956
000270 0c 63 82 39 9d 5d 1c 3b 88 fa ba 3b 13 35 cc bb
       0.00024869328 0.0023859509 0.005706135 -0.006231913
000280 c6 14 7c 39 96 91 25 ba 59 89 d5 3a 95 fb 11 bb
       0.00024040331 -0.00063159445 0.0016291543 -0.0022275199
000290 69 17 e9 bb fa 8d af bb be d8 5c ba 3a 25 a9 bb
       -0.0071133864 -0.005357501 -0.0008424631 -0.0051619085
0002a0 1a f5 09 bc de b1 af 3a 35 6f 94 3a 36 f4 74 bb
       -0.008420253 0.0013404449 0.0011324646 -0.0037377006
0002b0 ca fd 0a bc 66 e5 26 3b f2 8a 14 bb 27 7d 6c 3b
       -0.00848336 0.0025466322 -0.0022665826 0.0036085339
0002c0 86 d2 b5 3a 0f 2f 07 bb e0 fd e5 ba d6 b1 40 bb
       0.0013871945 -0.0020627414 -0.0017546974 -0.0029402873
0002d0 6c 88 aa bb 80 8e 39 38 09 dd 1a 3a f7 fe 09 bb
       -0.005204251 4.424015e-05 0.00059075706 -0.0021056512
0002e0 f1 15 c8 3b d0 b1 b5 b9 d0 08 a1 b9 3a 3d 83 3b
       0.0061061312 -0.0003465549 -0.0003071488 0.0040051015
0002f0 8e ef 8f bb fd c6 1d 3b a1 24 6c 3b b0 be 73 bb
       -0.004392571 0.0024074905 0.0036032575 -0.0037192516
000300 7a 2a 47 3a 75 b6 76 bc 03 f3 31 3c 1e f1 cf 3b
       0.0007597577 -0.01505815 0.010861161 0.006345882
000310 6b 78 b6 3a 07 a6 f0 ba 2f 7d 28 bc 35 54 df ba
       0.0013921385 -0.0018360027 -0.010283752 -0.0017038645
000320 a9 86 9e bc f8 e2 2d bb 1a 0a 8f 3b 33 b3 21 3c
       -0.01935132 -0.002653299 0.004365218 0.009869385
000330 1b a3 19 bc db ba 72 ba dd 91 0b bb 53 cb 35 3c
       -0.009377266 -0.0009259411 -0.0021296658 0.01109584
000340 43 96 94 3b a2 55 60 3c 7f b6 8c bc 66 d5 11 3c
       0.004534514 0.013692291 -0.017176865 0.008900976
000350 ca a0 31 3c da 65 80 bb 4a 75 b8 3b d8 fb 03 3a
       0.010841558 -0.0039183917 0.0056292163 0.0005034781
000360 50 2f 2b 3c 5b 15 b5 3b 1c fc 9e bc 46 fc 9e bb
       0.010448292 0.0055262274 -0.019407324 -0.0048518507
000370 a2 d7 d0 3b 89 4b d3 3a cf cf 4d 3c 80 d2 23 bc
       0.0063733617 0.0016120534 0.012561752 -0.009998918
000380 56 9e c8 ba d2 6e 93 3b 18 89 21 3c 6c 41 39 bc
       -0.0015305977 0.004499295 0.009859346 -0.011307102
000390 e2 1e ea bb 8b f2 af bb 26 ac 00 3b 13 b2 83 bb
       -0.007144795 -0.0053694895 0.0019633858 -0.004019031
0003a0 64 9a b2 bc 43 59 a4 3b 04 37 80 3a 1a 29 ad bb
       -0.021802135 0.0050155236 0.0009782021 -0.0052844407
0003b0 5d 65 82 bc cf cc 0e 3c ac 6d 91 ba 79 5b 3d 3c
       -0.015917474 0.008715822 -0.0011095307 0.011557453
0003c0 90 f6 5f 3b 43 50 42 bc d8 a9 5f ba 5c b5 6e 3b
       0.0034174062 -0.011859956 -0.00085320836 0.0036424017
0003d0 0c 15 06 bc fb 8d 9a bb 88 b2 49 ba 27 85 cc bb
       -0.008183729 -0.0047166324 -0.0007694145 -0.006241459
0003e0 39 3d 39 3c a2 11 3b 3b 8e f1 04 bc e0 53 55 3c
       0.0113061005 0.0028544446 -0.008114232 0.013020486
0003f0 50 5f 16 bc 68 8f 0f 3c 20 60 1a 3c 90 14 1a ba
       -0.009177998 0.008762218 0.009422332 -0.0005877698

exp_avg_sq f4 [8, 64]
000000 35 da fe 37 65 b8 1e 39 c4 cd ea 39 17 66 1c 39
       3.038077e-05 0.00015136747 0.00044785265 0.00014915351
000010 52 90 07 39 09 08 c8 36 6f 3d cd 39 4a 84 f0 38
       0.00012928367 5.9614e-06 0.0003914642 0.000114687326
000020 c9 1d 1a 39 f1 dd c5 38 d0 b5 2f 37 58 c8 b8 39
       0.0001469768 9.435032e-05 1.0473144e-05 0.00035244483
000030 e8 81 6b 38 1e da c8 38 ec 16 ab 39 0a f6 ed 38
       5.614935e-05 9.577371e-05 0.0003263274 0.00011346869
000040 4f dc 56 39 52 3d a4 39 87 6b 98 38 5b f2 4a 38
       0.00020490702 0.00031326205 7.267953e-05 4.8386264e-05
000050 f4 22 af 37 50 3f 3c 38 52 09 36 3a 56 a6 a2 39
       2.0877902e-05 4.4881657e-05 0.0006944138 0.00031022978
000060 c9 60 3f 38 f2 fe 90 38 74 c8 c9 39 ba be 01 37
       4.5628087e-05 6.913942e-05 0.00038487057 7.733406e-06
000070 95 40 91 39 60 12 b4 38 19 6c 65 38 d6 5f 85 39
       0.00027704673 8.5864915e-05 5.469853e-05 0.0002543914
000080 d8 78 cf 37 a9 02 f8 38 ba e7 5b 39 fc 85 4b 39
       2.4732595e-05 0.00011826057 0.00020971792 0.00019409502
000090 a1 a4 dc 39 11 8a c5 39 28 df b5 39 e4 79 87 39
       0.00042084328 0.00037677636 0.00034689275 0.00025840022
0000a0 0b 39 a2 39 88 b9 15 38 dc bc e6 38 eb 0e e0 38
       0.00030941548 3.5697158e-05 0.000110024324 0.00010683931
0000b0 96 9d a3 39 5f 21 34 38 a9 c5 0e 39 e5 0f a2 39
       0.00031207193 4.2946423e-05 0.0001361581 0.0003091089
0000c0 82 c6 c6 36 48 dd b0 39 a6 98 ab 38 49 eb 2e 3a
       5.923969e-06 0.00033734203 8.1823484e-05 0.00066726335
0000d0 cd 70 2e 39 c1 65 a4 38 ba 6a 94 38 90 c2 9c 37
       0.00016635955 7.8390825e-05 7.077069e-05 1.868725e-05
0000e0 e0 ef 1f 39 dd 7c 4b 38 f5 19 d1 39 86 b3 9c 37
       0.00015252782 4.851526e-05 0.00039882926 1.8680246e-05
0000f0 8a 99 26 38 30 7f 15 38 0e 85 1b 37 c6 5a 98 39
       3.972048e-05 3.564282e-05 9.269699e-06 0.0002905933
000100 a0 cb c7 37 ef 1f 8a 39 8e f9 25 3a 04 2a 8e 39
       2.3817469e-05 0.00026345204 0.0006331437 0.00027115655
000110 10 b6 4e 39 15 90 84 37 1e ed 12 3a ab e2 48 39
       0.00019713514 1.580272e-05 0.0005604791 0.00019157927
000120 0f 90 80 39 5c 57 11 39 7f 40 11 37 aa 54 00 3a
       0.00024521395 0.00013860821 8.65769e-06 0.00048954284
000130 28 fa e3 38 72 f5 a6 38 48 3c 1c 3a 12 bb 4f 39
       0.00010870799 7.9612146e-05 0.00059599103 0.00019810747
000140 d6 f7 84 39 fb fc e5 39 6e 73 d9 38 c8 98 cd 38
       0.00025361654 0.0004386677 0.00010368867 9.8036195e-05
000150 47 b8 44 38 37 95 a8 38 b7 79 77 3a b8 54 16 3a
       4.6901663e-05 8.038658e-05 0.0009440439 0.000573467
000160 1d be c3 38 ca d5 a1 38 78 50 1b 3a 77 05 c9 36
       9.333736e-05 7.7168996e-05 0.00059247715 5.990903e-06
000170 09 40 94 39 94 55 88 38 38 cf 9d 38 73 90 bb 39
       0.0002827647 6.5009255e-05 7.524941e-05 0.00035775042
000180 0c 5e ab 37 cd de bd 38 76 e9 a1 39 60 38 79 39
       2.0428583e-05 9.053722e-05 0.00030882255 0.00023767492
000190 5b ed f3 39 56 42 23 3a 69 79 31 3a 6e e3 9a 39
       0.00046525415 0.00062278414 0.00067701057 0.00029542617
0001a0 e8 b2 15 3a 93 36 a6 38 bc db 51 39 65 a3 cc 38
       0.0005710558 7.925662e-05 0.0002001365 9.7579126e-05
0001b0 e8 61 f5 39 a4 54 75 38 60 1a 09 39 3b 2a 1a 3a
       0.00046802987 5.849138e-05 0.00013075164 0.00058809266
0001c0 d1 22 36 37 fc d6 14 3a ce f4 9b 38 05 dc 5c 3a
       1.0856152e-05 0.0005677787 7.4365744e-05 0.00084251194
0001d0 66 88 65 39 62 fd ec 38 b4 38 17 39 90 07 0c 38
       0.00021889954 0.00011300553 0.00014421606 3.3385644e-05
0001e0 c3 e9 66 39 cd 87 36 38 ae e1 28 3a a9 49 0a 38
       0.00022021592 4.3518656e-05 0.00064423203 3.2970365e-05
0001f0 98 4b 49 38 3d 8e 27 38 97 28 9e 37 9a 1a a1 39
       4.7992537e-05 3.9948372e-05 1.8853969e-05 0.00030728133
000200 39 95 34 37 b6 bc 11 39 8e b9 99 39 2b 59 f2 38
       1.076358e-05 0.00013898578 0.00029320683 0.00011556068
000210 1e 67 7d 38 ff 7d 43 37 63 87 8e 39 ca 5f b4 38
       6.0415936e-05 1.16522415e-05 0.00027185222 8.600911e-05
000220 0b 0a 02 39 1b be 2b 38 04 bb 60 36 45 c7 6d 39
       0.00012401507 4.0946627e-05 3.3487458e-06 0.00022676315
000230 5b 9f 64 38 8a 6f 0e 38 61 21 8d 39 2a 95 bb 38
       5.4507847e-05 3.3959317e-05 0.00026918485 8.944639e-05
000240 4c 0d 90 38 41 fc 4e 39 d2 41 42 38 01 1e 77 38
       6.868932e-05 0.00019739663 4.6314504e-05 5.8917332e-05
000250 84 bf d0 37 f2 10 46 38 07 95 cb 39 37 6d 91 39
       2.4884714e-05 4.722266e-05 0.0003883021 0.00027737927
000260 9c 45 9b 38 6c 6d 80 37 a4 f1 9d 39 b0 64 05 36
       7.403942e-05 1.5309743e-05 0.0003012541 1.9877152e-06
000270 f0 b9 0d 39 aa 09 07 38 a2 69 fd 37 5a 03 2d 39
       0.00013516075 3.219551e-05 3.020914e-05 0.00016499814
000280 a6 10 63 37 82 08 21 38 4c fd 02 39 b9 f3 9a 38
       1.3534131e-05 3.8393315e-05 0.00012492127 7.388689e-05
000290 76 5b 32 39 96 b7 85 39 68 13 bf 39 44 40 bc 38
       0.00017009475 0.0002550452 0.00036444818 8.976509e-05
0002a0 36 c5 93 39 ff 7e 70 38 73 70 28 39 21 6d 7a 38
       0.00028184959 5.7338733e-05 0.00016063619 5.970628e-05
0002b0 eb ce 6e 39 50 80 f8 37 a5 ba 7a 38 ff 91 9d 39
       0.00022774532 2.9623654e-05 5.977847e-05 0.0003005415
0002c0 dc 01 e3 36 dd 08 74 39 24 81 54 38 6e 74 a6 39
       6.7653436e-06 0.00023272955 5.066501e-05 0.00031748734
0002d0 87 bb b0 38 37 16 1d 38 36 ba 8b 38 83 5c 57 37
       8.427264e-05 3.7452406e-05 6.662721e-05 1.2836538e-05
0002e0 25 3e b5 38 63 46 e5 36 52 b4 8a 39 60 dc b4 37
       8.642328e-05 6.832926e-06 0.0002645576 2.1560292e-05
0002f0 88 a6 35 37 e8 6f b5 37 1d 4d 89 37 60 06 e6 38
       1.0827214e-05 2.1628992e-05 1.6367581e-05 0.00010968442
000300 8c 9c 75 38 a6 fd 29 3a 88 d7 d4 3a 4f a5 3f 3a
       5.8558348e-05 0.0006484635 0.001623855 0.00073107047
000310 5b bc 22 3a ff 1a 0f 38 66 83 b7 3a d6 aa 02 3a
       0.0006207877 3.4119e-05 0.0014000952 0.0004984563
000320 89 e4 1f 3a d4 e4 e3 39 c3 f5 bd 37 d8 f6 a4 3a
       0.0006099423 0.00043467304 2.2644997e-05 0.0012585772
000330 3e 7e 91 39 04 55 57 39 f8 eb ce 3a 09 37 0a 3a
       0.00027750613 0.00020535669 0.0015786877 0.0005272483
000340 b2 09 53 3a 58 b5 95 3a 01 dd 8c 39 08 02 74 39
       0.0008050456 0.0011421843 0.00026867542 0.0002327041
000350 ce 73 01 39 d2 3d 48 39 80 b7 28 3b ca 30 c0 3a
       0.0001234554 0.00019096516 0.002574414 0.0014662978
000360 08 d7 3b 39 5d 75 8d 39 03 7d be 3a a1 db 99 37
       0.00017913815 0.00026981058 0.0014533106 1.8341294e-05
000370 1f 17 39 3a 33 97 21 39 62 91 59 39 83 87 71 3a
       0.0007060635 0.00015410483 0.00020748892 0.0009213613
000380 80 d8 40 38 a8 e4 6e 39 fa e3 62 3a 56 02 3b 3a
       4.5978e-05 0.0002278263 0.0008655187 0.0007133832
000390 bf 66 ab 3a c2 29 e2 3a 9f 6d d6 3a 9c 6e 6c 3a
       0.0013076885 0.0017254876 0.0016359574 0.00090191676
0003a0 d8 14 bb 3a f5 02 2e 39 15 69 ca 39 2b 0a 59 39
       0.001427318 0.00016595035 0.00038606735 0.0002069852
0003b0 15 8c 9a 3a ab a1 21 39 0f 1f b0 39 bf 65 be 3a
       0.0011791015 0.00015414383 0.00033592476 0.0014526172
0003c0 63 14 db 37 02 d8 cf 3a 42 67 1a 39 10 c1 19 3b
       2.6116328e-05 0.0015857222 0.00014725051 0.0023461021
0003d0 6d d9 1f 3a 82 bb b8 39 06 64 c9 39 3f 3c d0 38
       0.00060977676 0.0003523492 0.0003841223 9.9294346e-05
0003e0 ab bd 1f 3a a6 eb 29 39 55 b7 ea 3a e9 8a aa 38
       0.00060936314 0.00016204882 0.001790742 8.132106e-05
0003f0 0d 44 25 39 5f ba d8 38 aa 5d 19 38 11 ec 60 3a
       0.00015760977 0.00010334397 3.6565274e-05 0.00085800985

exp_avg f4 [8]
000000 e8 50 d6 bc be 7c 8e bc ae ec 9d bc ca 2e f7 bc
       -0.026161626 -0.017393466 -0.019277897 -0.030173678
000010 1d 61 9b bc 28 36 b9 3a b0 a6 ad ba 1e d1 28 bc
       -0.018967206 0.001413052 -0.0013248529 -0.010303764

exp_avg_sq f4 [8]
000000 44 85 23 3b cf 8e 69 3b 28 a8 ea 3a e9 e7 0f 3c
       0.0024951259 0.00356381 0.0017902898 0.008783319
000010 18 f7 65 3b 7c d4 2f 39 fc 2b 65 38 71 c5 b0 39
       0.0035089906 0.00016768457 5.463882e-05 0.0003371644

exp_avg f4 [2, 8]
000000 df a6 9b bc 33 4c 90 bc a0 51 01 bc 7f c9 b5 bc
       -0.019000469 -0.01761446 -0.007892996 -0.022190807
000010 23 09 6d bc bd 10 c0 3c c8 8f 85 3c 69 e6 a4 3c
       -0.01446751 0.023445481 0.016303912 0.0201294
000020 df a6 9b 3c 31 4c 90 3c a0 51 01 3c 81 c9 b5 3c
       0.019000469 0.017614456 0.007892996 0.022190811
000030 20 09 6d 3c be 10 c0 bc c7 8f 85 bc 6c e6 a4 bc
       0.014467508 -0.023445483 -0.01630391 -0.020129405

exp_avg_sq f4 [2, 8]
000000 d6 2f 1f 39 84 56 ff 39 21 b4 55 3a f5 60 97 39
       0.00015181242 0.0004870185 0.00081521465 0.00028873203
000010 a4 02 a7 39 6d d9 a5 39 0b fd 7f 38 f2 f8 93 3a
       0.0003185469 0.00031633247 6.1032402e-05 0.0011289401
000020 d4 2f 1f 39 85 56 ff 39 22 b4 55 3a f4 60 97 39
       0.00015181239 0.00048701852 0.0008152147 0.000288732
000030 a2 02 a7 39 6d d9 a5 39 0b fd 7f 38 f2 f8 93 3a
       0.00031854684 0.00031633247 6.1032402e-05 0.0011289401

exp_avg f4 [2]
000000 eb 68 cb bb e8 68 cb 3b
       -0.0062075756 0.006207574

exp_avg_sq f4 [2]
000000 a9 2a 2a 39 aa 2a 2a 39
       0.00016228356 0.00016228357

model.1.defunc.m.0.weight f4 [64, 8]
000000 1d 8e bd bd 0b 98 50 be 5f 87 42 bd f3 c3 9b 3e
       -0.092556216 -0.203705 -0.04749238 0.30422935
000010 25 c2 5e 3e 0a 22 c4 3d 70 7d bb be 1a 05 b2 bd
       0.21753748 0.09576805 -0.3661914 -0.08692379
000020 b0 31 e0 3c 45 a3 dc 3e 22 61 c0 ba 57 36 d3 3e
       0.027367443 0.43093315 -0.0014677385 0.41252396
000030 37 34 61 3e ae 69 64 be fb 6c 57 be 04 5e 69 bd
       0.21992575 -0.22305939 -0.21037666 -0.056974426
000040 82 a0 a3 3e 35 63 50 bc cc 1b 36 be 14 85 c1 3d
       0.31958395 -0.012718965 -0.17784041 0.09449211
000050 92 5f 2d be 4e f5 03 3e ff 00 6f bc dd a3 2f 3e
       -0.16930988 0.12886545 -0.01458764 0.17152353
000060 2b df 4e bd cd 02 8a 3d a6 69 ba be 94 f8 a4 3d
       -0.0505058 0.067388155 -0.36408728 0.08055225
000070 87 27 2e be 18 fd d6 3e 09 4d 6b be b7 4f eb be
       -0.17007266 0.4198997 -0.22978605 -0.45959255
000080 14 dd be be 87 3e d0 be 03 c8 97 be 59 f2 3a be
       -0.37278044 -0.40672705 -0.29644784 -0.18256511
000090 94 c7 a7 be 17 4b a9 be 17 f6 1e be 99 e1 8b be
       -0.32769454 -0.33065102 -0.15523563 -0.27320555
0000a0 ff c7 65 3e e8 68 8f be 03 32 25 3e 51 55 da 3d
       0.22439574 -0.28009725 0.16132359 0.10660804
0000b0 86 40 56 3e a7 65 22 be ea 1b 60 3e de b7 c7 bd
       0.20923051 -0.1585909 0.21885648 -0.09751867
0000c0 67 b0 00 3e f1 64 0d be a8 78 75 be 6c f3 0a 3e
       0.12567292 -0.13808037 -0.23971808 0.1356942
0000d0 df bf 8b 3e e4 86 b5 3d c9 e4 0d be da db 65 bd
       0.27294824 0.08863619 -0.13856806 -0.05611787
0000e0 a5 0e 30 be cf 58 6f be 5c 12 b2 bc 8a 24 85 3e
       -0.17193086 -0.23373722 -0.02173727 0.2600444
0000f0 d3 72 a8 3e 3e b6 fe 3d 36 cf 0e be 76 f4 7e be
       0.32900104 0.12437104 -0.13946232 -0.24897942
000100 5f cd b1 3e 37 53 4c 3e 1d 8f 6d 3e 59 9b af 3e
       0.34726998 0.19953619 0.23199125 0.34298208
000110 6b a5 9b 3e 63 0a 41 be d9 d6 b7 bd 6c a2 66 be
       0.3039964 -0.18851618 -0.08976526 -0.22522897
000120 75 da 15 3f 0c 1f f4 3c 96 ec 90 3e 47 f1 f5 3e
       0.58536464 0.02979996 0.283055 0.48035643
000130 22 f5 43 3e 2f 54 ac 3d c7 22 c8 3c 84 b3 8e 3e
       0.1913648 0.08414494 0.024430646 0.27871335
000140 8b c8 ac be 96 e7 1c 3e 76 2b bf 3d 35 d5 9e be
       -0.33746752 0.15322718 0.093344614 -0.3102204
000150 bb 39 ca be 20 c1 6d bd 40 9f 28 be bc f8 ce 3d
       -0.3949717 -0.058045506 -0.16466999 0.10106036
000160 7b 99 34 be d3 11 87 3c 20 1b 1e be c1 bb 2d 3e
       -0.17636673 0.016487991 -0.15440035 0.16966154
000170 e2 17 ff 3d 18 83 1c 3e 38 65 34 bd 4f 57 a8 3d
       0.12455727 0.15284383 -0.044041842 0.08219778
000180 5c 80 49 be e5 4d 5b 3e 1f d2 0b be 84 8f aa 3e
       -0.19677871 0.21416433 -0.13654374 0.3331262
000190 00 18 a2 3e 94 45 b9 bd e5 51 8b be c0 e1 82 bd
       0.31658936 -0.09046474 -0.27210918 -0.06390715
0001a0 7c 10 ca bd a2 cc d9 be f2 13 11 be 74 fd 53 be
       -0.098664254 -0.42538935 -0.14167765 -0.20702153
0001b0 74 33 32 3e 0f c0 18 be ec a4 73 3e fe 74 7e 3e
       0.1740244 -0.14917015 0.23793381 0.24849316
0001c0 39 a0 0c be 5e 7d d8 be 32 51 a4 bc b0 7d ac be
       -0.13732995 -0.42283148 -0.020058248 -0.33689642
0001d0 89 e6 0a bf af 5a 17 3e d1 a3 dd be 0c ca 0d bf
       -0.5425802 0.14780687 -0.43289044 -0.55386424
0001e0 3c a6 aa 3d 4a f3 9f be 14 a8 50 3c 7e 11 61 bd
       0.08332488 -0.31240302 0.012735385 -0.054948322
0001f0 3c e3 da be c6 1a 51 3e ae 3e 82 3e 4b d5 36 3e
       -0.4275149 0.2042037 0.25438446 0.17854802
000200 d2 e4 cb be d2 b3 db be ba d8 10 bf 1b 62 a6 bd
       -0.39823014 -0.4291063 -0.565807 -0.08124181
000210 2b a0 37 be e7 40 15 be 4c 0b d4 3e bd 8f 11 bf
       -0.17932193 -0.1457554 0.4141487 -0.5685995
000220 95 e1 b4 be a6 9e 48 3e 4f 89 00 be 5c 9d 6b be
       -0.35328355 0.1959177 -0.12552379 -0.23009247
000230 f7 fb 8a bd 53 ac 32 3e e8 47 2d bd 40 8e 0e 3e
       -0.0678634 0.17448549 -0.042304903 0.13921452
000240 97 7b b6 3e cb d9 b4 3e 84 f9 85 3d b9 8c d4 3e
       0.35641167 0.35322413 0.06541732 0.41513613
000250 5f 5d a3 3e f5 fe 6f be 08 ed 61 3d 86 c7 56 be
       0.31907174 -0.23437102 0.05515769 -0.2097455
000260 c7 fb 26 3d 82 31 b3 be d7 56 c5 be 79 cd f4 bd
       0.040767457 -0.3499871 -0.38542816 -0.11953253
000270 bc 3a f2 ba 49 91 8f 3e 2d 34 57 3e 0a 03 41 bc
       -0.0018480639 0.2804053 0.21015997 -0.01178051
000280 2c 43 6d be 4f 69 68 3d a8 22 1d be ac 15 fc be
       -0.23170155 0.056741055 -0.15345252 -0.49235284
000290 5c 4a 9c be 4c db 51 3e 74 c4 c0 3e 2a b8 b1 3d
       -0.30525482 0.20493811 0.37649882 0.08677705
0002a0 ce 8f 8e bc 9b 2c 9c 3e 52 b7 99 be 94 b4 d2 3e
       -0.017402556 0.3050278 -0.30022675 0.41153395
0002b0 0c 3b f7 3e 06 c8 8f bd 14 1a 49 3e ba 05 d4 bd
       0.48287237 -0.07020573 0.19638854 -0.10352655
0002c0 53 f4 be be 08 33 ef be 0f f3 03 bf 0c 74 73 bd
       -0.3729578 -0.4671862 -0.51542753 -0.059436843
0002d0 ad 6f 96 3d 16 22 53 bf a9 1f a7 bc f8 df 72 bd
       0.07345519 -0.82473886 -0.020400839 -0.059295624
0002e0 b5 4a 0e 3f 33 e5 dd 3d 51 4a 70 3d 89 40 ab 3e
       0.55582744 0.10834732 0.058664624 0.33447674
0002f0 79 ff de 3e 7d 51 90 be df 9d d4 3e 46 af c0 3e
       0.43554285 -0.2818717 0.41526696 0.37633723
000300 0e cd 0e 3e bb f4 0f be 8d 37 ff bd 15 eb 0a bf
       0.1394541 -0.14058201 -0.12461767 -0.54264957
000310 ea 4c 36 be 61 e0 c1 bd 77 a4 48 3e ad d3 c0 bd
       -0.17802778 -0.09466625 0.19593988 -0.09415374
000320 db 43 0a bf 67 89 7d be 8c ba 9f be fb f6 56 be
       -0.5400979 -0.24759446 -0.3119701 -0.20992653
000330 f7 c3 82 3e a0 e4 30 bc c5 4e 65 3e 10 53 c5 be
       0.25540134 -0.010796696 0.2239333 -0.38539934
000340 75 98 8f 3e 86 b4 83 3d 5f 46 a6 bb 04 ee 02 3f
       0.28046003 0.064309165 -0.005074307 0.51144433
000350 11 af 37 3e bb 6b c0 bc e7 cc aa bd 95 de 10 be
       0.17937876 -0.02348887 -0.08339863 -0.14147408
000360 8a 4f 8b 3d f4 d1 58 be 6e f9 dd 3e 2f aa b9 3d
       0.0680228 -0.21173841 0.43354362 0.09065663
000370 62 6a 03 3e f6 14 88 be b6 ad 4d 3e 87 cf ef bd
       0.1283355 -0.26578492 0.20085797 -0.117095046
000380 1a d2 83 3e 0c 38 99 be 4c de 8e be 5c f9 85 be
       0.25746232 -0.29925573 -0.27903974 -0.2616681
000390 a1 db 84 be ad 73 de be b1 a2 02 3e 9c 05 04 3f
       -0.25948814 -0.4344763 0.12757374 0.5157106
0003a0 4d 58 8d bd ee 0c c8 3d 5b 13 b9 3e 95 fb a4 3e
       -0.06901608 0.09768091 0.3614758 0.32223192
0003b0 2d c4 bc bd 88 cb 95 3d 54 34 8e be 3c c2 d6 be
       -0.09217105 0.07314211 -0.27774298 -0.41945064
0003c0 3a 5a 0a be 20 28 e0 be c1 af ea bd 4d de 8b be
       -0.13510981 -0.43780613 -0.11459304 -0.2731804
0003d0 64 cf 95 3d 68 d0 9a 3e 86 a3 a2 bd 74 3c 1e 3e
       0.07314947 0.30237126 -0.07941346 0.15452749
0003e0 19 7a 9c bd 6c d0 c3 bd 65 b9 44 bd 85 cf dc 3e
       -0.07640476 -0.09561238 -0.04802837 0.43127075
0003f0 c0 3d c6 bd 72 0b cc bd 3a aa 9e bb 08 00 74 bd
       -0.09679747 -0.099631205 -0.00484207 -0.059570342

model.1.defunc.m.0.bias f4 [64]
000000 98 5d 0b be cb fe 88 3e 6f ba d0 be e7 cd 88 3d
       -0.13609922 0.26756892 -0.40767238 0.06679898
000010 ef 62 1f bd 9a 7b 3d bd 5f d4 ca 3e 16 49 3c 3e
       -0.03891271 -0.046260454 0.3961515 0.18387255
000020 4d 02 8b 3e db 6b 86 3b d2 5f 55 bd 6e 24 ab be
       0.27150193 0.004102213 -0.052093334 -0.3342623
000030 99 58 05 3e 10 3f 09 3e 3e 54 82 3e ec b6 22 be
       0.13022079 0.13402963 0.25454897 -0.15890092
000040 83 24 13 3d 96 45 96 be 11 a2 30 3e 38 b1 23 be
       0.035923492 -0.29349965 0.17249323 -0.15985572
000050 b3 2d 92 bc fc 06 02 be a8 ad b2 3e 24 3f a5 be
       -0.017844057 -0.12697977 0.34898114 -0.32274735
000060 af 7a 9e be bd c2 21 bd 23 3b e4 3e d5 76 97 3c
       -0.30952975 -0.039492358 0.44576368 0.01848928
000070 2c 4f 93 3e b5 9b 26 be 15 44 e5 bd e0 b9 90 3e
       0.2877134 -0.16270335 -0.11194626 0.2826681
000080 a7 cf 23 be 7a dc 41 3e 64 3c e0 3d d4 3f af bd
       -0.15997182 0.18931761 0.109490186 -0.08557096
000090 b6 d9 7e 3e 02 83 51 3e c5 c9 f8 3e 21 18 af 3d
       0.24887738 0.20460132 0.48591438 0.08549524
0000a0 87 f6 cf be 89 01 41 3e 11 f4 e0 be f1 b8 95 3e
       -0.40617773 0.18848242 -0.43936208 0.29242662
0000b0 98 1b b8 3e 8b 62 04 3d 1b 92 21 3e cc d0 d3 3e
       0.35958552 0.03232054 0.15778391 0.41370237
0000c0 08 e2 9b 3c f9 80 20 be c5 51 97 3e 79 85 be 3e
       0.019028679 -0.15674199 0.29554573 0.37211207
0000d0 29 3d 21 3e ff 76 36 3d 06 cb a9 bd b8 ff 89 3d
       0.15745987 0.044547077 -0.08290677 0.067382276
0000e0 9c 80 31 be d6 1a a5 bd 6a 5b 34 be 27 45 06 bd
       -0.17334217 -0.08061759 -0.17612997 -0.032780793
0000f0 88 f4 b9 3c dd 9f 2e 3d 87 18 17 be 44 37 5a 3e
       0.02269961 0.042632926 -0.1475545 0.21310145
